…
I1128 21:15:25.499655  2637 net.cpp:322] The NetState phase (0) differed from the phase (1) specified by a rule in layer loss3/top-5
I1128 21:15:25.500566  2637 net.cpp:58] Initializing net from parameters: 
name: "GoogleNet"
state {
  phase: TRAIN
  level: 0
  stage: ""
}
layer {
  name: "data"
  type: "Data"
  top: "data"
  top: "label"
  include {
    phase: TRAIN
  }
  transform_param {
    mirror: true
    crop_size: 224
    mean_file: "/home/juran/distracteddriver/input/mean.binaryproto"
  }
  data_param {
    source: "/home/juran/distracteddriver/input/train_lmdb"
    batch_size: 16
    backend: LMDB
  }
}
layer {
  name: "conv1/7x7_s2"
  type: "Convolution"
  bottom: "data"
  top: "conv1/7x7_s2"
  param {
    lr_mult: 1
    decay_mult: 1
  }
  param {
    lr_mult: 2
    decay_mult: 0
  }
  convolution_param {
    num_output: 64
    pad: 3
    kernel_size: 7
    stride: 2
    weight_filler {
      type: "xavier"
    }
    bias_filler {
      type: "constant"
      value: 0.2
    }
  }
}
layer {
  name: "conv1/relu_7x7"
  type: "ReLU"
  bottom: "conv1/7x7_s2"
  top: "conv1/7x7_s2"
}
layer {
  name: "pool1/3x3_s2"
  type: "Pooling"
  bottom: "conv1/7x7_s2"
  top: "pool1/3x3_s2"
  pooling_param {
    pool: MAX
    kernel_size: 3
    stride: 2
  }
}
layer {
  name: "pool1/norm1"
  type: "LRN"
  bottom: "pool1/3x3_s2"
  top: "pool1/norm1"
  lrn_param {
    local_size: 5
    alpha: 0.0001
    beta: 0.75
  }
}
layer {
  name: "conv2/3x3_reduce"
  type: "Convolution"
  bottom: "pool1/norm1"
  top: "conv2/3x3_reduce"
  param {
    lr_mult: 1
    decay_mult: 1
  }
  param {
    lr_mult: 2
    decay_mult: 0
  }
  convolution_param {
    num_output: 64
    kernel_size: 1
    weight_filler {
      type: "xavier"
    }
    bias_filler {
      type: "constant"
      value: 0.2
    }
  }
}
layer {
  name: "conv2/relu_3x3_reduce"
  type: "ReLU"
  bottom: "conv2/3x3_reduce"
  top: "conv2/3x3_reduce"
}
layer {
  name: "conv2/3x3"
  type: "Convolution"
  bottom: "conv2/3x3_reduce"
  top: "conv2/3x3"
  param {
    lr_mult: 1
    decay_mult: 1
  }
  param {
    lr_mult: 2
    decay_mult: 0
  }
  convolution_param {
    num_output: 192
    pad: 1
    kernel_size: 3
    weight_filler {
      type: "xavier"
    }
    bias_filler {
      type: "constant"
      value: 0.2
    }
  }
}
layer {
  name: "conv2/relu_3x3"
  type: "ReLU"
  bottom: "conv2/3x3"
  top: "conv2/3x3"
}
layer {
  name: "conv2/norm2"
  type: "LRN"
  bottom: "conv2/3x3"
  top: "conv2/norm2"
  lrn_param {
    local_size: 5
    alpha: 0.0001
    beta: 0.75
  }
}
layer {
  name: "pool2/3x3_s2"
  type: "Pooling"
  bottom: "conv2/norm2"
  top: "pool2/3x3_s2"
  pooling_param {
    pool: MAX
    kernel_size: 3
    stride: 2
  }
}
layer {
  name: "inception_3a/1x1"
  type: "Convolution"
  bottom: "pool2/3x3_s2"
  top: "inception_3a/1x1"
  param {
    lr_mult: 1
    decay_mult: 1
  }
  param {
    lr_mult: 2
    decay_mult: 0
  }
  convolution_param {
    num_output: 64
    kernel_size: 1
    weight_filler {
      type: "xavier"
    }
    bias_filler {
      type: "constant"
      value: 0.2
    }
  }
}
layer {
  name: "inception_3a/relu_1x1"
  type: "ReLU"
  bottom: "inception_3a/1x1"
  top: "inception_3a/1x1"
}
layer {
  name: "inception_3a/3x3_reduce"
  type: "Convolution"
  bottom: "pool2/3x3_s2"
  top: "inception_3a/3x3_reduce"
  param {
    lr_mult: 1
    decay_mult: 1
  }
  param {
    lr_mult: 2
    decay_mult: 0
  }
  convolution_param {
    num_output: 96
    kernel_size: 1
    weight_filler {
      type: "xavier"
    }
    bias_filler {
      type: "constant"
      value: 0.2
    }
  }
}
layer {
  name: "inception_3a/relu_3x3_reduce"
  type: "ReLU"
  bottom: "inception_3a/3x3_reduce"
  top: "inception_3a/3x3_reduce"
}
layer {
  name: "inception_3a/3x3"
  type: "Convolution"
  bottom: "inception_3a/3x3_reduce"
  top: "inception_3a/3x3"
  param {
    lr_mult: 1
    decay_mult: 1
  }
  param {
    lr_mult: 2
    decay_mult: 0
  }
  convolution_param {
    num_output: 128
    pad: 1
    kernel_size: 3
    weight_filler {
      type: "xavier"
    }
    bias_filler {
      type: "constant"
      value: 0.2
    }
  }
}
layer {
  name: "inception_3a/relu_3x3"
  type: "ReLU"
  bottom: "inception_3a/3x3"
  top: "inception_3a/3x3"
}
layer {
  name: "inception_3a/5x5_reduce"
  type: "Convolution"
  bottom: "pool2/3x3_s2"
  top: "inception_3a/5x5_reduce"
  param {
    lr_mult: 1
    decay_mult: 1
  }
  param {
    lr_mult: 2
    decay_mult: 0
  }
  convolution_param {
    num_output: 16
    kernel_size: 1
    weight_filler {
      type: "xavier"
    }
    bias_filler {
      type: "constant"
      value: 0.2
    }
  }
}
layer {
  name: "inception_3a/relu_5x5_reduce"
  type: "ReLU"
  bottom: "inception_3a/5x5_reduce"
  top: "inception_3a/5x5_reduce"
}
layer {
  name: "inception_3a/5x5"
  type: "Convolution"
  bottom: "inception_3a/5x5_reduce"
  top: "inception_3a/5x5"
  param {
    lr_mult: 1
    decay_mult: 1
  }
  param {
    lr_mult: 2
    decay_mult: 0
  }
  convolution_param {
    num_output: 32
    pad: 2
    kernel_size: 5
    weight_filler {
      type: "xavier"
    }
    bias_filler {
      type: "constant"
      value: 0.2
    }
  }
}
layer {
  name: "inception_3a/relu_5x5"
  type: "ReLU"
  bottom: "inception_3a/5x5"
  top: "inception_3a/5x5"
}
layer {
  name: "inception_3a/pool"
  type: "Pooling"
  bottom: "pool2/3x3_s2"
  top: "inception_3a/pool"
  pooling_param {
    pool: MAX
    kernel_size: 3
    stride: 1
    pad: 1
  }
}
layer {
  name: "inception_3a/pool_proj"
  type: "Convolution"
  bottom: "inception_3a/pool"
  top: "inception_3a/pool_proj"
  param {
    lr_mult: 1
    decay_mult: 1
  }
  param {
    lr_mult: 2
    decay_mult: 0
  }
  convolution_param {
    num_output: 32
    kernel_size: 1
    weight_filler {
      type: "xavier"
    }
    bias_filler {
      type: "constant"
      value: 0.2
    }
  }
}
layer {
  name: "inception_3a/relu_pool_proj"
  type: "ReLU"
  bottom: "inception_3a/pool_proj"
  top: "inception_3a/pool_proj"
}
layer {
  name: "inception_3a/output"
  type: "Concat"
  bottom: "inception_3a/1x1"
  bottom: "inception_3a/3x3"
  bottom: "inception_3a/5x5"
  bottom: "inception_3a/pool_proj"
  top: "inception_3a/output"
}
layer {
  name: "inception_3b/1x1"
  type: "Convolution"
  bottom: "inception_3a/output"
  top: "inception_3b/1x1"
  param {
    lr_mult: 1
    decay_mult: 1
  }
  param {
    lr_mult: 2
    decay_mult: 0
  }
  convolution_param {
    num_output: 128
    kernel_size: 1
    weight_filler {
      type: "xavier"
    }
    bias_filler {
      type: "constant"
      value: 0.2
    }
  }
}
layer {
  name: "inception_3b/relu_1x1"
  type: "ReLU"
  bottom: "inception_3b/1x1"
  top: "inception_3b/1x1"
}
layer {
  name: "inception_3b/3x3_reduce"
  type: "Convolution"
  bottom: "inception_3a/output"
  top: "inception_3b/3x3_reduce"
  param {
    lr_mult: 1
    decay_mult: 1
  }
  param {
    lr_mult: 2
    decay_mult: 0
  }
  convolution_param {
    num_output: 128
    kernel_size: 1
    weight_filler {
      type: "xavier"
    }
    bias_filler {
      type: "constant"
      value: 0.2
    }
  }
}
layer {
  name: "inception_3b/relu_3x3_reduce"
  type: "ReLU"
  bottom: "inception_3b/3x3_reduce"
  top: "inception_3b/3x3_reduce"
}
layer {
  name: "inception_3b/3x3"
  type: "Convolution"
  bottom: "inception_3b/3x3_reduce"
  top: "inception_3b/3x3"
  param {
    lr_mult: 1
    decay_mult: 1
  }
  param {
    lr_mult: 2
    decay_mult: 0
  }
  convolution_param {
    num_output: 192
    pad: 1
    kernel_size: 3
    weight_filler {
      type: "xavier"
    }
    bias_filler {
      type: "constant"
      value: 0.2
    }
  }
}
layer {
  name: "inception_3b/relu_3x3"
  type: "ReLU"
  bottom: "inception_3b/3x3"
  top: "inception_3b/3x3"
}
layer {
  name: "inception_3b/5x5_reduce"
  type: "Convolution"
  bottom: "inception_3a/output"
  top: "inception_3b/5x5_reduce"
  param {
    lr_mult: 1
    decay_mult: 1
  }
  param {
    lr_mult: 2
    decay_mult: 0
  }
  convolution_param {
    num_output: 32
    kernel_size: 1
    weight_filler {
      type: "xavier"
    }
    bias_filler {
      type: "constant"
      value: 0.2
    }
  }
}
layer {
  name: "inception_3b/relu_5x5_reduce"
  type: "ReLU"
  bottom: "inception_3b/5x5_reduce"
  top: "inception_3b/5x5_reduce"
}
layer {
  name: "inception_3b/5x5"
  type: "Convolution"
  bottom: "inception_3b/5x5_reduce"
  top: "inception_3b/5x5"
  param {
    lr_mult: 1
    decay_mult: 1
  }
  param {
    lr_mult: 2
    decay_mult: 0
  }
  convolution_param {
    num_output: 96
    pad: 2
    kernel_size: 5
    weight_filler {
      type: "xavier"
    }
    bias_filler {
      type: "constant"
      value: 0.2
    }
  }
}
layer {
  name: "inception_3b/relu_5x5"
  type: "ReLU"
  bottom: "inception_3b/5x5"
  top: "inception_3b/5x5"
}
layer {
  name: "inception_3b/pool"
  type: "Pooling"
  bottom: "inception_3a/output"
  top: "inception_3b/pool"
  pooling_param {
    pool: MAX
    kernel_size: 3
    stride: 1
    pad: 1
  }
}
layer {
  name: "inception_3b/pool_proj"
  type: "Convolution"
  bottom: "inception_3b/pool"
  top: "inception_3b/pool_proj"
  param {
    lr_mult: 1
    decay_mult: 1
  }
  param {
    lr_mult: 2
    decay_mult: 0
  }
  convolution_param {
    num_output: 64
    kernel_size: 1
    weight_filler {
      type: "xavier"
    }
    bias_filler {
      type: "constant"
      value: 0.2
    }
  }
}
layer {
  name: "inception_3b/relu_pool_proj"
  type: "ReLU"
  bottom: "inception_3b/pool_proj"
  top: "inception_3b/pool_proj"
}
layer {
  name: "inception_3b/output"
  type: "Concat"
  bottom: "inception_3b/1x1"
  bottom: "inception_3b/3x3"
  bottom: "inception_3b/5x5"
  bottom: "inception_3b/pool_proj"
  top: "inception_3b/output"
}
layer {
  name: "pool3/3x3_s2"
  type: "Pooling"
  bottom: "inception_3b/output"
  top: "pool3/3x3_s2"
  pooling_param {
    pool: MAX
    kernel_size: 3
    stride: 2
  }
}
layer {
  name: "inception_4a/1x1"
  type: "Convolution"
  bottom: "pool3/3x3_s2"
  top: "inception_4a/1x1"
  param {
    lr_mult: 1
    decay_mult: 1
  }
  param {
    lr_mult: 2
    decay_mult: 0
  }
  convolution_param {
    num_output: 192
    kernel_size: 1
    weight_filler {
      type: "xavier"
    }
    bias_filler {
      type: "constant"
      value: 0.2
    }
  }
}
layer {
  name: "inception_4a/relu_1x1"
  type: "ReLU"
  bottom: "inception_4a/1x1"
  top: "inception_4a/1x1"
}
layer {
  name: "inception_4a/3x3_reduce"
  type: "Convolution"
  bottom: "pool3/3x3_s2"
  top: "inception_4a/3x3_reduce"
  param {
    lr_mult: 1
    decay_mult: 1
  }
  param {
    lr_mult: 2
    decay_mult: 0
  }
  convolution_param {
    num_output: 96
    kernel_size: 1
    weight_filler {
      type: "xavier"
    }
    bias_filler {
      type: "constant"
      value: 0.2
    }
  }
}
layer {
  name: "inception_4a/relu_3x3_reduce"
  type: "ReLU"
  bottom: "inception_4a/3x3_reduce"
  top: "inception_4a/3x3_reduce"
}
layer {
  name: "inception_4a/3x3"
  type: "Convolution"
  bottom: "inception_4a/3x3_reduce"
  top: "inception_4a/3x3"
  param {
    lr_mult: 1
    decay_mult: 1
  }
  param {
    lr_mult: 2
    decay_mult: 0
  }
  convolution_param {
    num_output: 208
    pad: 1
    kernel_size: 3
    weight_filler {
      type: "xavier"
    }
    bias_filler {
      type: "constant"
      value: 0.2
    }
  }
}
layer {
  name: "inception_4a/relu_3x3"
  type: "ReLU"
  bottom: "inception_4a/3x3"
  top: "inception_4a/3x3"
}
layer {
  name: "inception_4a/5x5_reduce"
  type: "Convolution"
  bottom: "pool3/3x3_s2"
  top: "inception_4a/5x5_reduce"
  param {
    lr_mult: 1
    decay_mult: 1
  }
  param {
    lr_mult: 2
    decay_mult: 0
  }
  convolution_param {
    num_output: 16
    kernel_size: 1
    weight_filler {
      type: "xavier"
    }
    bias_filler {
      type: "constant"
      value: 0.2
    }
  }
}
layer {
  name: "inception_4a/relu_5x5_reduce"
  type: "ReLU"
  bottom: "inception_4a/5x5_reduce"
  top: "inception_4a/5x5_reduce"
}
layer {
  name: "inception_4a/5x5"
  type: "Convolution"
  bottom: "inception_4a/5x5_reduce"
  top: "inception_4a/5x5"
  param {
    lr_mult: 1
    decay_mult: 1
  }
  param {
    lr_mult: 2
    decay_mult: 0
  }
  convolution_param {
    num_output: 48
    pad: 2
    kernel_size: 5
    weight_filler {
      type: "xavier"
    }
    bias_filler {
      type: "constant"
      value: 0.2
    }
  }
}
layer {
  name: "inception_4a/relu_5x5"
  type: "ReLU"
  bottom: "inception_4a/5x5"
  top: "inception_4a/5x5"
}
layer {
  name: "inception_4a/pool"
  type: "Pooling"
  bottom: "pool3/3x3_s2"
  top: "inception_4a/pool"
  pooling_param {
    pool: MAX
    kernel_size: 3
    stride: 1
    pad: 1
  }
}
layer {
  name: "inception_4a/pool_proj"
  type: "Convolution"
  bottom: "inception_4a/pool"
  top: "inception_4a/pool_proj"
  param {
    lr_mult: 1
    decay_mult: 1
  }
  param {
    lr_mult: 2
    decay_mult: 0
  }
  convolution_param {
    num_output: 64
    kernel_size: 1
    weight_filler {
      type: "xavier"
    }
    bias_filler {
      type: "constant"
      value: 0.2
    }
  }
}
layer {
  name: "inception_4a/relu_pool_proj"
  type: "ReLU"
  bottom: "inception_4a/pool_proj"
  top: "inception_4a/pool_proj"
}
layer {
  name: "inception_4a/output"
  type: "Concat"
  bottom: "inception_4a/1x1"
  bottom: "inception_4a/3x3"
  bottom: "inception_4a/5x5"
  bottom: "inception_4a/pool_proj"
  top: "inception_4a/output"
}
layer {
  name: "loss1/ave_pool"
  type: "Pooling"
  bottom: "inception_4a/output"
  top: "loss1/ave_pool"
  pooling_param {
    pool: AVE
    kernel_size: 5
    stride: 3
  }
}
layer {
  name: "loss1/conv"
  type: "Convolution"
  bottom: "loss1/ave_pool"
  top: "loss1/conv"
  param {
    lr_mult: 1
    decay_mult: 1
  }
  param {
    lr_mult: 2
    decay_mult: 0
  }
  convolution_param {
    num_output: 128
    kernel_size: 1
    weight_filler {
      type: "xavier"
    }
    bias_filler {
      type: "constant"
      value: 0.2
    }
  }
}
layer {
  name: "loss1/relu_conv"
  type: "ReLU"
  bottom: "loss1/conv"
  top: "loss1/conv"
}
layer {
  name: "loss1/fc"
  type: "InnerProduct"
  bottom: "loss1/conv"
  top: "loss1/fc"
  param {
    lr_mult: 1
    decay_mult: 1
  }
  param {
    lr_mult: 2
    decay_mult: 0
  }
  inner_product_param {
    num_output: 1024
    weight_filler {
      type: "xavier"
    }
    bias_filler {
      type: "constant"
      value: 0.2
    }
  }
}
layer {
  name: "loss1/relu_fc"
  type: "ReLU"
  bottom: "loss1/fc"
  top: "loss1/fc"
}
layer {
  name: "loss1/drop_fc"
  type: "Dropout"
  bottom: "loss1/fc"
  top: "loss1/fc"
  dropout_param {
    dropout_ratio: 0.7
  }
}
layer {
  name: "loss1/classifier"
  type: "InnerProduct"
  bottom: "loss1/fc"
  top: "loss1/classifier"
  param {
    lr_mult: 1
    decay_mult: 1
  }
  param {
    lr_mult: 2
    decay_mult: 0
  }
  inner_product_param {
    num_output: 1000
    weight_filler {
      type: "xavier"
    }
    bias_filler {
      type: "constant"
      value: 0
    }
  }
}
layer {
  name: "loss1/loss"
  type: "SoftmaxWithLoss"
  bottom: "loss1/classifier"
  bottom: "label"
  top: "loss1/loss1"
  loss_weight: 0.3
}
layer {
  name: "inception_4b/1x1"
  type: "Convolution"
  bottom: "inception_4a/output"
  top: "inception_4b/1x1"
  param {
    lr_mult: 1
    decay_mult: 1
  }
  param {
    lr_mult: 2
    decay_mult: 0
  }
  convolution_param {
    num_output: 160
    kernel_size: 1
    weight_filler {
      type: "xavier"
    }
    bias_filler {
      type: "constant"
      value: 0.2
    }
  }
}
layer {
  name: "inception_4b/relu_1x1"
  type: "ReLU"
  bottom: "inception_4b/1x1"
  top: "inception_4b/1x1"
}
layer {
  name: "inception_4b/3x3_reduce"
  type: "Convolution"
  bottom: "inception_4a/output"
  top: "inception_4b/3x3_reduce"
  param {
    lr_mult: 1
    decay_mult: 1
  }
  param {
    lr_mult: 2
    decay_mult: 0
  }
  convolution_param {
    num_output: 112
    kernel_size: 1
    weight_filler {
      type: "xavier"
    }
    bias_filler {
      type: "constant"
      value: 0.2
    }
  }
}
layer {
  name: "inception_4b/relu_3x3_reduce"
  type: "ReLU"
  bottom: "inception_4b/3x3_reduce"
  top: "inception_4b/3x3_reduce"
}
layer {
  name: "inception_4b/3x3"
  type: "Convolution"
  bottom: "inception_4b/3x3_reduce"
  top: "inception_4b/3x3"
  param {
    lr_mult: 1
    decay_mult: 1
  }
  param {
    lr_mult: 2
    decay_mult: 0
  }
  convolution_param {
    num_output: 224
    pad: 1
    kernel_size: 3
    weight_filler {
      type: "xavier"
    }
    bias_filler {
      type: "constant"
      value: 0.2
    }
  }
}
layer {
  name: "inception_4b/relu_3x3"
  type: "ReLU"
  bottom: "inception_4b/3x3"
  top: "inception_4b/3x3"
}
layer {
  name: "inception_4b/5x5_reduce"
  type: "Convolution"
  bottom: "inception_4a/output"
  top: "inception_4b/5x5_reduce"
  param {
    lr_mult: 1
    decay_mult: 1
  }
  param {
    lr_mult: 2
    decay_mult: 0
  }
  convolution_param {
    num_output: 24
    kernel_size: 1
    weight_filler {
      type: "xavier"
    }
    bias_filler {
      type: "constant"
      value: 0.2
    }
  }
}
layer {
  name: "inception_4b/relu_5x5_reduce"
  type: "ReLU"
  bottom: "inception_4b/5x5_reduce"
  top: "inception_4b/5x5_reduce"
}
layer {
  name: "inception_4b/5x5"
  type: "Convolution"
  bottom: "inception_4b/5x5_reduce"
  top: "inception_4b/5x5"
  param {
    lr_mult: 1
    decay_mult: 1
  }
  param {
    lr_mult: 2
    decay_mult: 0
  }
  convolution_param {
    num_output: 64
    pad: 2
    kernel_size: 5
    weight_filler {
      type: "xavier"
    }
    bias_filler {
      type: "constant"
      value: 0.2
    }
  }
}
layer {
  name: "inception_4b/relu_5x5"
  type: "ReLU"
  bottom: "inception_4b/5x5"
  top: "inception_4b/5x5"
}
layer {
  name: "inception_4b/pool"
  type: "Pooling"
  bottom: "inception_4a/output"
  top: "inception_4b/pool"
  pooling_param {
    pool: MAX
    kernel_size: 3
    stride: 1
    pad: 1
  }
}
layer {
  name: "inception_4b/pool_proj"
  type: "Convolution"
  bottom: "inception_4b/pool"
  top: "inception_4b/pool_proj"
  param {
    lr_mult: 1
    decay_mult: 1
  }
  param {
    lr_mult: 2
    decay_mult: 0
  }
  convolution_param {
    num_output: 64
    kernel_size: 1
    weight_filler {
      type: "xavier"
    }
    bias_filler {
      type: "constant"
      value: 0.2
    }
  }
}
layer {
  name: "inception_4b/relu_pool_proj"
  type: "ReLU"
  bottom: "inception_4b/pool_proj"
  top: "inception_4b/pool_proj"
}
layer {
  name: "inception_4b/output"
  type: "Concat"
  bottom: "inception_4b/1x1"
  bottom: "inception_4b/3x3"
  bottom: "inception_4b/5x5"
  bottom: "inception_4b/pool_proj"
  top: "inception_4b/output"
}
layer {
  name: "inception_4c/1x1"
  type: "Convolution"
  bottom: "inception_4b/output"
  top: "inception_4c/1x1"
  param {
    lr_mult: 1
    decay_mult: 1
  }
  param {
    lr_mult: 2
    decay_mult: 0
  }
  convolution_param {
    num_output: 128
    kernel_size: 1
    weight_filler {
      type: "xavier"
    }
    bias_filler {
      type: "constant"
      value: 0.2
    }
  }
}
layer {
  name: "inception_4c/relu_1x1"
  type: "ReLU"
  bottom: "inception_4c/1x1"
  top: "inception_4c/1x1"
}
layer {
  name: "inception_4c/3x3_reduce"
  type: "Convolution"
  bottom: "inception_4b/output"
  top: "inception_4c/3x3_reduce"
  param {
    lr_mult: 1
    decay_mult: 1
  }
  param {
    lr_mult: 2
    decay_mult: 0
  }
  convolution_param {
    num_output: 128
    kernel_size: 1
    weight_filler {
      type: "xavier"
    }
    bias_filler {
      type: "constant"
      value: 0.2
    }
  }
}
layer {
  name: "inception_4c/relu_3x3_reduce"
  type: "ReLU"
  bottom: "inception_4c/3x3_reduce"
  top: "inception_4c/3x3_reduce"
}
layer {
  name: "inception_4c/3x3"
  type: "Convolution"
  bottom: "inception_4c/3x3_reduce"
  top: "inception_4c/3x3"
  param {
    lr_mult: 1
    decay_mult: 1
  }
  param {
    lr_mult: 2
    decay_mult: 0
  }
  convolution_param {
    num_output: 256
    pad: 1
    kernel_size: 3
    weight_filler {
      type: "xavier"
    }
    bias_filler {
      type: "constant"
      value: 0.2
    }
  }
}
layer {
  name: "inception_4c/relu_3x3"
  type: "ReLU"
  bottom: "inception_4c/3x3"
  top: "inception_4c/3x3"
}
layer {
  name: "inception_4c/5x5_reduce"
  type: "Convolution"
  bottom: "inception_4b/output"
  top: "inception_4c/5x5_reduce"
  param {
    lr_mult: 1
    decay_mult: 1
  }
  param {
    lr_mult: 2
    decay_mult: 0
  }
  convolution_param {
    num_output: 24
    kernel_size: 1
    weight_filler {
      type: "xavier"
    }
    bias_filler {
      type: "constant"
      value: 0.2
    }
  }
}
layer {
  name: "inception_4c/relu_5x5_reduce"
  type: "ReLU"
  bottom: "inception_4c/5x5_reduce"
  top: "inception_4c/5x5_reduce"
}
layer {
  name: "inception_4c/5x5"
  type: "Convolution"
  bottom: "inception_4c/5x5_reduce"
  top: "inception_4c/5x5"
  param {
    lr_mult: 1
    decay_mult: 1
  }
  param {
    lr_mult: 2
    decay_mult: 0
  }
  convolution_param {
    num_output: 64
    pad: 2
    kernel_size: 5
    weight_filler {
      type: "xavier"
    }
    bias_filler {
      type: "constant"
      value: 0.2
    }
  }
}
layer {
  name: "inception_4c/relu_5x5"
  type: "ReLU"
  bottom: "inception_4c/5x5"
  top: "inception_4c/5x5"
}
layer {
  name: "inception_4c/pool"
  type: "Pooling"
  bottom: "inception_4b/output"
  top: "inception_4c/pool"
  pooling_param {
    pool: MAX
    kernel_size: 3
    stride: 1
    pad: 1
  }
}
layer {
  name: "inception_4c/pool_proj"
  type: "Convolution"
  bottom: "inception_4c/pool"
  top: "inception_4c/pool_proj"
  param {
    lr_mult: 1
    decay_mult: 1
  }
  param {
    lr_mult: 2
    decay_mult: 0
  }
  convolution_param {
    num_output: 64
    kernel_size: 1
    weight_filler {
      type: "xavier"
    }
    bias_filler {
      type: "constant"
      value: 0.2
    }
  }
}
layer {
  name: "inception_4c/relu_pool_proj"
  type: "ReLU"
  bottom: "inception_4c/pool_proj"
  top: "inception_4c/pool_proj"
}
layer {
  name: "inception_4c/output"
  type: "Concat"
  bottom: "inception_4c/1x1"
  bottom: "inception_4c/3x3"
  bottom: "inception_4c/5x5"
  bottom: "inception_4c/pool_proj"
  top: "inception_4c/output"
}
layer {
  name: "inception_4d/1x1"
  type: "Convolution"
  bottom: "inception_4c/output"
  top: "inception_4d/1x1"
  param {
    lr_mult: 1
    decay_mult: 1
  }
  param {
    lr_mult: 2
    decay_mult: 0
  }
  convolution_param {
    num_output: 112
    kernel_size: 1
    weight_filler {
      type: "xavier"
    }
    bias_filler {
      type: "constant"
      value: 0.2
    }
  }
}
layer {
  name: "inception_4d/relu_1x1"
  type: "ReLU"
  bottom: "inception_4d/1x1"
  top: "inception_4d/1x1"
}
layer {
  name: "inception_4d/3x3_reduce"
  type: "Convolution"
  bottom: "inception_4c/output"
  top: "inception_4d/3x3_reduce"
  param {
    lr_mult: 1
    decay_mult: 1
  }
  param {
    lr_mult: 2
    decay_mult: 0
  }
  convolution_param {
    num_output: 144
    kernel_size: 1
    weight_filler {
      type: "xavier"
    }
    bias_filler {
      type: "constant"
      value: 0.2
    }
  }
}
layer {
  name: "inception_4d/relu_3x3_reduce"
  type: "ReLU"
  bottom: "inception_4d/3x3_reduce"
  top: "inception_4d/3x3_reduce"
}
layer {
  name: "inception_4d/3x3"
  type: "Convolution"
  bottom: "inception_4d/3x3_reduce"
  top: "inception_4d/3x3"
  param {
    lr_mult: 1
    decay_mult: 1
  }
  param {
    lr_mult: 2
    decay_mult: 0
  }
  convolution_param {
    num_output: 288
    pad: 1
    kernel_size: 3
    weight_filler {
      type: "xavier"
    }
    bias_filler {
      type: "constant"
      value: 0.2
    }
  }
}
layer {
  name: "inception_4d/relu_3x3"
  type: "ReLU"
  bottom: "inception_4d/3x3"
  top: "inception_4d/3x3"
}
layer {
  name: "inception_4d/5x5_reduce"
  type: "Convolution"
  bottom: "inception_4c/output"
  top: "inception_4d/5x5_reduce"
  param {
    lr_mult: 1
    decay_mult: 1
  }
  param {
    lr_mult: 2
    decay_mult: 0
  }
  convolution_param {
    num_output: 32
    kernel_size: 1
    weight_filler {
      type: "xavier"
    }
    bias_filler {
      type: "constant"
      value: 0.2
    }
  }
}
layer {
  name: "inception_4d/relu_5x5_reduce"
  type: "ReLU"
  bottom: "inception_4d/5x5_reduce"
  top: "inception_4d/5x5_reduce"
}
layer {
  name: "inception_4d/5x5"
  type: "Convolution"
  bottom: "inception_4d/5x5_reduce"
  top: "inception_4d/5x5"
  param {
    lr_mult: 1
    decay_mult: 1
  }
  param {
    lr_mult: 2
    decay_mult: 0
  }
  convolution_param {
    num_output: 64
    pad: 2
    kernel_size: 5
    weight_filler {
      type: "xavier"
    }
    bias_filler {
      type: "constant"
      value: 0.2
    }
  }
}
layer {
  name: "inception_4d/relu_5x5"
  type: "ReLU"
  bottom: "inception_4d/5x5"
  top: "inception_4d/5x5"
}
layer {
  name: "inception_4d/pool"
  type: "Pooling"
  bottom: "inception_4c/output"
  top: "inception_4d/pool"
  pooling_param {
    pool: MAX
    kernel_size: 3
    stride: 1
    pad: 1
  }
}
layer {
  name: "inception_4d/pool_proj"
  type: "Convolution"
  bottom: "inception_4d/pool"
  top: "inception_4d/pool_proj"
  param {
    lr_mult: 1
    decay_mult: 1
  }
  param {
    lr_mult: 2
    decay_mult: 0
  }
  convolution_param {
    num_output: 64
    kernel_size: 1
    weight_filler {
      type: "xavier"
    }
    bias_filler {
      type: "constant"
      value: 0.2
    }
  }
}
layer {
  name: "inception_4d/relu_pool_proj"
  type: "ReLU"
  bottom: "inception_4d/pool_proj"
  top: "inception_4d/pool_proj"
}
layer {
  name: "inception_4d/output"
  type: "Concat"
  bottom: "inception_4d/1x1"
  bottom: "inception_4d/3x3"
  bottom: "inception_4d/5x5"
  bottom: "inception_4d/pool_proj"
  top: "inception_4d/output"
}
layer {
  name: "loss2/ave_pool"
  type: "Pooling"
  bottom: "inception_4d/output"
  top: "loss2/ave_pool"
  pooling_param {
    pool: AVE
    kernel_size: 5
    stride: 3
  }
}
layer {
  name: "loss2/conv"
  type: "Convolution"
  bottom: "loss2/ave_pool"
  top: "loss2/conv"
  param {
    lr_mult: 1
    decay_mult: 1
  }
  param {
    lr_mult: 2
    decay_mult: 0
  }
  convolution_param {
    num_output: 128
    kernel_size: 1
    weight_filler {
      type: "xavier"
    }
    bias_filler {
      type: "constant"
      value: 0.2
    }
  }
}
layer {
  name: "loss2/relu_conv"
  type: "ReLU"
  bottom: "loss2/conv"
  top: "loss2/conv"
}
layer {
  name: "loss2/fc"
  type: "InnerProduct"
  bottom: "loss2/conv"
  top: "loss2/fc"
  param {
    lr_mult: 1
    decay_mult: 1
  }
  param {
    lr_mult: 2
    decay_mult: 0
  }
  inner_product_param {
    num_output: 1024
    weight_filler {
      type: "xavier"
    }
    bias_filler {
      type: "constant"
      value: 0.2
    }
  }
}
layer {
  name: "loss2/relu_fc"
  type: "ReLU"
  bottom: "loss2/fc"
  top: "loss2/fc"
}
layer {
  name: "loss2/drop_fc"
  type: "Dropout"
  bottom: "loss2/fc"
  top: "loss2/fc"
  dropout_param {
    dropout_ratio: 0.7
  }
}
layer {
  name: "loss2/classifier"
  type: "InnerProduct"
  bottom: "loss2/fc"
  top: "loss2/classifier"
  param {
    lr_mult: 1
    decay_mult: 1
  }
  param {
    lr_mult: 2
    decay_mult: 0
  }
  inner_product_param {
    num_output: 1000
    weight_filler {
      type: "xavier"
    }
    bias_filler {
      type: "constant"
      value: 0
    }
  }
}
layer {
  name: "loss2/loss"
  type: "SoftmaxWithLoss"
  bottom: "loss2/classifier"
  bottom: "label"
  top: "loss2/loss1"
  loss_weight: 0.3
}
layer {
  name: "inception_4e/1x1"
  type: "Convolution"
  bottom: "inception_4d/output"
  top: "inception_4e/1x1"
  param {
    lr_mult: 1
    decay_mult: 1
  }
  param {
    lr_mult: 2
    decay_mult: 0
  }
  convolution_param {
    num_output: 256
    kernel_size: 1
    weight_filler {
      type: "xavier"
    }
    bias_filler {
      type: "constant"
      value: 0.2
    }
  }
}
layer {
  name: "inception_4e/relu_1x1"
  type: "ReLU"
  bottom: "inception_4e/1x1"
  top: "inception_4e/1x1"
}
layer {
  name: "inception_4e/3x3_reduce"
  type: "Convolution"
  bottom: "inception_4d/output"
  top: "inception_4e/3x3_reduce"
  param {
    lr_mult: 1
    decay_mult: 1
  }
  param {
    lr_mult: 2
    decay_mult: 0
  }
  convolution_param {
    num_output: 160
    kernel_size: 1
    weight_filler {
      type: "xavier"
    }
    bias_filler {
      type: "constant"
      value: 0.2
    }
  }
}
layer {
  name: "inception_4e/relu_3x3_reduce"
  type: "ReLU"
  bottom: "inception_4e/3x3_reduce"
  top: "inception_4e/3x3_reduce"
}
layer {
  name: "inception_4e/3x3"
  type: "Convolution"
  bottom: "inception_4e/3x3_reduce"
  top: "inception_4e/3x3"
  param {
    lr_mult: 1
    decay_mult: 1
  }
  param {
    lr_mult: 2
    decay_mult: 0
  }
  convolution_param {
    num_output: 320
    pad: 1
    kernel_size: 3
    weight_filler {
      type: "xavier"
    }
    bias_filler {
      type: "constant"
      value: 0.2
    }
  }
}
layer {
  name: "inception_4e/relu_3x3"
  type: "ReLU"
  bottom: "inception_4e/3x3"
  top: "inception_4e/3x3"
}
layer {
  name: "inception_4e/5x5_reduce"
  type: "Convolution"
  bottom: "inception_4d/output"
  top: "inception_4e/5x5_reduce"
  param {
    lr_mult: 1
    decay_mult: 1
  }
  param {
    lr_mult: 2
    decay_mult: 0
  }
  convolution_param {
    num_output: 32
    kernel_size: 1
    weight_filler {
      type: "xavier"
    }
    bias_filler {
      type: "constant"
      value: 0.2
    }
  }
}
layer {
  name: "inception_4e/relu_5x5_reduce"
  type: "ReLU"
  bottom: "inception_4e/5x5_reduce"
  top: "inception_4e/5x5_reduce"
}
layer {
  name: "inception_4e/5x5"
  type: "Convolution"
  bottom: "inception_4e/5x5_reduce"
  top: "inception_4e/5x5"
  param {
    lr_mult: 1
    decay_mult: 1
  }
  param {
    lr_mult: 2
    decay_mult: 0
  }
  convolution_param {
    num_output: 128
    pad: 2
    kernel_size: 5
    weight_filler {
      type: "xavier"
    }
    bias_filler {
      type: "constant"
      value: 0.2
    }
  }
}
layer {
  name: "inception_4e/relu_5x5"
  type: "ReLU"
  bottom: "inception_4e/5x5"
  top: "inception_4e/5x5"
}
layer {
  name: "inception_4e/pool"
  type: "Pooling"
  bottom: "inception_4d/output"
  top: "inception_4e/pool"
  pooling_param {
    poo
I1128 21:15:25.501394  2637 layer_factory.hpp:77] Creating layer data
I1128 21:15:25.501965  2637 net.cpp:100] Creating Layer data
I1128 21:15:25.501979  2637 net.cpp:408] data -> data
I1128 21:15:25.502015  2637 net.cpp:408] data -> label
I1128 21:15:25.502089  2637 data_transformer.cpp:25] Loading mean file from: /home/juran/distracteddriver/input/mean.binaryproto
I1128 21:15:25.507105  2645 db_lmdb.cpp:35] Opened lmdb /home/juran/distracteddriver/input/train_lmdb
I1128 21:15:25.522567  2637 data_layer.cpp:41] output data size: 16,3,224,224
I1128 21:15:25.555359  2637 net.cpp:150] Setting up data
I1128 21:15:25.555389  2637 net.cpp:157] Top shape: 16 3 224 224 (2408448)
I1128 21:15:25.555393  2637 net.cpp:157] Top shape: 16 (16)
I1128 21:15:25.555395  2637 net.cpp:165] Memory required for data: 9633856
I1128 21:15:25.555407  2637 layer_factory.hpp:77] Creating layer label_data_1_split
I1128 21:15:25.555419  2637 net.cpp:100] Creating Layer label_data_1_split
I1128 21:15:25.555424  2637 net.cpp:434] label_data_1_split <- label
I1128 21:15:25.555440  2637 net.cpp:408] label_data_1_split -> label_data_1_split_0
I1128 21:15:25.555466  2637 net.cpp:408] label_data_1_split -> label_data_1_split_1
I1128 21:15:25.555471  2637 net.cpp:408] label_data_1_split -> label_data_1_split_2
I1128 21:15:25.555585  2637 net.cpp:150] Setting up label_data_1_split
I1128 21:15:25.555593  2637 net.cpp:157] Top shape: 16 (16)
I1128 21:15:25.555594  2637 net.cpp:157] Top shape: 16 (16)
I1128 21:15:25.555598  2637 net.cpp:157] Top shape: 16 (16)
I1128 21:15:25.555599  2637 net.cpp:165] Memory required for data: 9634048
I1128 21:15:25.555601  2637 layer_factory.hpp:77] Creating layer conv1/7x7_s2
I1128 21:15:25.555616  2637 net.cpp:100] Creating Layer conv1/7x7_s2
I1128 21:15:25.555620  2637 net.cpp:434] conv1/7x7_s2 <- data
I1128 21:15:25.555625  2637 net.cpp:408] conv1/7x7_s2 -> conv1/7x7_s2
I1128 21:15:25.556442  2637 net.cpp:150] Setting up conv1/7x7_s2
I1128 21:15:25.556453  2637 net.cpp:157] Top shape: 16 64 112 112 (12845056)
I1128 21:15:25.556457  2637 net.cpp:165] Memory required for data: 61014272
I1128 21:15:25.556470  2637 layer_factory.hpp:77] Creating layer conv1/relu_7x7
I1128 21:15:25.556478  2637 net.cpp:100] Creating Layer conv1/relu_7x7
I1128 21:15:25.556480  2637 net.cpp:434] conv1/relu_7x7 <- conv1/7x7_s2
I1128 21:15:25.556484  2637 net.cpp:395] conv1/relu_7x7 -> conv1/7x7_s2 (in-place)
I1128 21:15:25.556489  2637 net.cpp:150] Setting up conv1/relu_7x7
I1128 21:15:25.556491  2637 net.cpp:157] Top shape: 16 64 112 112 (12845056)
I1128 21:15:25.556493  2637 net.cpp:165] Memory required for data: 112394496
I1128 21:15:25.556495  2637 layer_factory.hpp:77] Creating layer pool1/3x3_s2
I1128 21:15:25.556500  2637 net.cpp:100] Creating Layer pool1/3x3_s2
I1128 21:15:25.556504  2637 net.cpp:434] pool1/3x3_s2 <- conv1/7x7_s2
I1128 21:15:25.556506  2637 net.cpp:408] pool1/3x3_s2 -> pool1/3x3_s2
I1128 21:15:25.556541  2637 net.cpp:150] Setting up pool1/3x3_s2
I1128 21:15:25.556546  2637 net.cpp:157] Top shape: 16 64 56 56 (3211264)
I1128 21:15:25.556548  2637 net.cpp:165] Memory required for data: 125239552
I1128 21:15:25.556550  2637 layer_factory.hpp:77] Creating layer pool1/norm1
I1128 21:15:25.556556  2637 net.cpp:100] Creating Layer pool1/norm1
I1128 21:15:25.556558  2637 net.cpp:434] pool1/norm1 <- pool1/3x3_s2
I1128 21:15:25.556561  2637 net.cpp:408] pool1/norm1 -> pool1/norm1
I1128 21:15:25.556584  2637 net.cpp:150] Setting up pool1/norm1
I1128 21:15:25.556588  2637 net.cpp:157] Top shape: 16 64 56 56 (3211264)
I1128 21:15:25.556591  2637 net.cpp:165] Memory required for data: 138084608
I1128 21:15:25.556593  2637 layer_factory.hpp:77] Creating layer conv2/3x3_reduce
I1128 21:15:25.556601  2637 net.cpp:100] Creating Layer conv2/3x3_reduce
I1128 21:15:25.556602  2637 net.cpp:434] conv2/3x3_reduce <- pool1/norm1
I1128 21:15:25.556607  2637 net.cpp:408] conv2/3x3_reduce -> conv2/3x3_reduce
I1128 21:15:25.557276  2637 net.cpp:150] Setting up conv2/3x3_reduce
I1128 21:15:25.557287  2637 net.cpp:157] Top shape: 16 64 56 56 (3211264)
I1128 21:15:25.557289  2637 net.cpp:165] Memory required for data: 150929664
I1128 21:15:25.557296  2637 layer_factory.hpp:77] Creating layer conv2/relu_3x3_reduce
I1128 21:15:25.557301  2637 net.cpp:100] Creating Layer conv2/relu_3x3_reduce
I1128 21:15:25.557302  2637 net.cpp:434] conv2/relu_3x3_reduce <- conv2/3x3_reduce
I1128 21:15:25.557307  2637 net.cpp:395] conv2/relu_3x3_reduce -> conv2/3x3_reduce (in-place)
I1128 21:15:25.557310  2637 net.cpp:150] Setting up conv2/relu_3x3_reduce
I1128 21:15:25.557313  2637 net.cpp:157] Top shape: 16 64 56 56 (3211264)
I1128 21:15:25.557314  2637 net.cpp:165] Memory required for data: 163774720
I1128 21:15:25.557317  2637 layer_factory.hpp:77] Creating layer conv2/3x3
I1128 21:15:25.557323  2637 net.cpp:100] Creating Layer conv2/3x3
I1128 21:15:25.557327  2637 net.cpp:434] conv2/3x3 <- conv2/3x3_reduce
I1128 21:15:25.557330  2637 net.cpp:408] conv2/3x3 -> conv2/3x3
I1128 21:15:25.563750  2637 net.cpp:150] Setting up conv2/3x3
I1128 21:15:25.563765  2637 net.cpp:157] Top shape: 16 192 56 56 (9633792)
I1128 21:15:25.563766  2637 net.cpp:165] Memory required for data: 202309888
I1128 21:15:25.563789  2637 layer_factory.hpp:77] Creating layer conv2/relu_3x3
I1128 21:15:25.563796  2637 net.cpp:100] Creating Layer conv2/relu_3x3
I1128 21:15:25.563799  2637 net.cpp:434] conv2/relu_3x3 <- conv2/3x3
I1128 21:15:25.563802  2637 net.cpp:395] conv2/relu_3x3 -> conv2/3x3 (in-place)
I1128 21:15:25.563807  2637 net.cpp:150] Setting up conv2/relu_3x3
I1128 21:15:25.563810  2637 net.cpp:157] Top shape: 16 192 56 56 (9633792)
I1128 21:15:25.563812  2637 net.cpp:165] Memory required for data: 240845056
I1128 21:15:25.563813  2637 layer_factory.hpp:77] Creating layer conv2/norm2
I1128 21:15:25.563818  2637 net.cpp:100] Creating Layer conv2/norm2
I1128 21:15:25.563820  2637 net.cpp:434] conv2/norm2 <- conv2/3x3
I1128 21:15:25.563824  2637 net.cpp:408] conv2/norm2 -> conv2/norm2
I1128 21:15:25.563851  2637 net.cpp:150] Setting up conv2/norm2
I1128 21:15:25.563856  2637 net.cpp:157] Top shape: 16 192 56 56 (9633792)
I1128 21:15:25.563858  2637 net.cpp:165] Memory required for data: 279380224
I1128 21:15:25.563859  2637 layer_factory.hpp:77] Creating layer pool2/3x3_s2
I1128 21:15:25.563864  2637 net.cpp:100] Creating Layer pool2/3x3_s2
I1128 21:15:25.563866  2637 net.cpp:434] pool2/3x3_s2 <- conv2/norm2
I1128 21:15:25.563869  2637 net.cpp:408] pool2/3x3_s2 -> pool2/3x3_s2
I1128 21:15:25.563894  2637 net.cpp:150] Setting up pool2/3x3_s2
I1128 21:15:25.563896  2637 net.cpp:157] Top shape: 16 192 28 28 (2408448)
I1128 21:15:25.563899  2637 net.cpp:165] Memory required for data: 289014016
I1128 21:15:25.563899  2637 layer_factory.hpp:77] Creating layer pool2/3x3_s2_pool2/3x3_s2_0_split
I1128 21:15:25.563905  2637 net.cpp:100] Creating Layer pool2/3x3_s2_pool2/3x3_s2_0_split
I1128 21:15:25.563906  2637 net.cpp:434] pool2/3x3_s2_pool2/3x3_s2_0_split <- pool2/3x3_s2
I1128 21:15:25.563910  2637 net.cpp:408] pool2/3x3_s2_pool2/3x3_s2_0_split -> pool2/3x3_s2_pool2/3x3_s2_0_split_0
I1128 21:15:25.563913  2637 net.cpp:408] pool2/3x3_s2_pool2/3x3_s2_0_split -> pool2/3x3_s2_pool2/3x3_s2_0_split_1
I1128 21:15:25.563917  2637 net.cpp:408] pool2/3x3_s2_pool2/3x3_s2_0_split -> pool2/3x3_s2_pool2/3x3_s2_0_split_2
I1128 21:15:25.563921  2637 net.cpp:408] pool2/3x3_s2_pool2/3x3_s2_0_split -> pool2/3x3_s2_pool2/3x3_s2_0_split_3
I1128 21:15:25.563953  2637 net.cpp:150] Setting up pool2/3x3_s2_pool2/3x3_s2_0_split
I1128 21:15:25.563957  2637 net.cpp:157] Top shape: 16 192 28 28 (2408448)
I1128 21:15:25.563959  2637 net.cpp:157] Top shape: 16 192 28 28 (2408448)
I1128 21:15:25.563961  2637 net.cpp:157] Top shape: 16 192 28 28 (2408448)
I1128 21:15:25.563963  2637 net.cpp:157] Top shape: 16 192 28 28 (2408448)
I1128 21:15:25.563966  2637 net.cpp:165] Memory required for data: 327549184
I1128 21:15:25.563967  2637 layer_factory.hpp:77] Creating layer inception_3a/1x1
I1128 21:15:25.563973  2637 net.cpp:100] Creating Layer inception_3a/1x1
I1128 21:15:25.563976  2637 net.cpp:434] inception_3a/1x1 <- pool2/3x3_s2_pool2/3x3_s2_0_split_0
I1128 21:15:25.563979  2637 net.cpp:408] inception_3a/1x1 -> inception_3a/1x1
I1128 21:15:25.564671  2637 net.cpp:150] Setting up inception_3a/1x1
I1128 21:15:25.564684  2637 net.cpp:157] Top shape: 16 64 28 28 (802816)
I1128 21:15:25.564687  2637 net.cpp:165] Memory required for data: 330760448
I1128 21:15:25.564692  2637 layer_factory.hpp:77] Creating layer inception_3a/relu_1x1
I1128 21:15:25.564697  2637 net.cpp:100] Creating Layer inception_3a/relu_1x1
I1128 21:15:25.564699  2637 net.cpp:434] inception_3a/relu_1x1 <- inception_3a/1x1
I1128 21:15:25.564703  2637 net.cpp:395] inception_3a/relu_1x1 -> inception_3a/1x1 (in-place)
I1128 21:15:25.564708  2637 net.cpp:150] Setting up inception_3a/relu_1x1
I1128 21:15:25.564712  2637 net.cpp:157] Top shape: 16 64 28 28 (802816)
I1128 21:15:25.564713  2637 net.cpp:165] Memory required for data: 333971712
I1128 21:15:25.564714  2637 layer_factory.hpp:77] Creating layer inception_3a/3x3_reduce
I1128 21:15:25.564721  2637 net.cpp:100] Creating Layer inception_3a/3x3_reduce
I1128 21:15:25.564723  2637 net.cpp:434] inception_3a/3x3_reduce <- pool2/3x3_s2_pool2/3x3_s2_0_split_1
I1128 21:15:25.564738  2637 net.cpp:408] inception_3a/3x3_reduce -> inception_3a/3x3_reduce
I1128 21:15:25.565461  2637 net.cpp:150] Setting up inception_3a/3x3_reduce
I1128 21:15:25.565477  2637 net.cpp:157] Top shape: 16 96 28 28 (1204224)
I1128 21:15:25.565480  2637 net.cpp:165] Memory required for data: 338788608
I1128 21:15:25.565492  2637 layer_factory.hpp:77] Creating layer inception_3a/relu_3x3_reduce
I1128 21:15:25.565505  2637 net.cpp:100] Creating Layer inception_3a/relu_3x3_reduce
I1128 21:15:25.565510  2637 net.cpp:434] inception_3a/relu_3x3_reduce <- inception_3a/3x3_reduce
I1128 21:15:25.565517  2637 net.cpp:395] inception_3a/relu_3x3_reduce -> inception_3a/3x3_reduce (in-place)
I1128 21:15:25.565526  2637 net.cpp:150] Setting up inception_3a/relu_3x3_reduce
I1128 21:15:25.565531  2637 net.cpp:157] Top shape: 16 96 28 28 (1204224)
I1128 21:15:25.565532  2637 net.cpp:165] Memory required for data: 343605504
I1128 21:15:25.565536  2637 layer_factory.hpp:77] Creating layer inception_3a/3x3
I1128 21:15:25.565546  2637 net.cpp:100] Creating Layer inception_3a/3x3
I1128 21:15:25.565549  2637 net.cpp:434] inception_3a/3x3 <- inception_3a/3x3_reduce
I1128 21:15:25.565554  2637 net.cpp:408] inception_3a/3x3 -> inception_3a/3x3
I1128 21:15:25.566679  2637 net.cpp:150] Setting up inception_3a/3x3
I1128 21:15:25.566692  2637 net.cpp:157] Top shape: 16 128 28 28 (1605632)
I1128 21:15:25.566695  2637 net.cpp:165] Memory required for data: 350028032
I1128 21:15:25.566704  2637 layer_factory.hpp:77] Creating layer inception_3a/relu_3x3
I1128 21:15:25.566711  2637 net.cpp:100] Creating Layer inception_3a/relu_3x3
I1128 21:15:25.566716  2637 net.cpp:434] inception_3a/relu_3x3 <- inception_3a/3x3
I1128 21:15:25.566723  2637 net.cpp:395] inception_3a/relu_3x3 -> inception_3a/3x3 (in-place)
I1128 21:15:25.566732  2637 net.cpp:150] Setting up inception_3a/relu_3x3
I1128 21:15:25.566738  2637 net.cpp:157] Top shape: 16 128 28 28 (1605632)
I1128 21:15:25.566741  2637 net.cpp:165] Memory required for data: 356450560
I1128 21:15:25.566745  2637 layer_factory.hpp:77] Creating layer inception_3a/5x5_reduce
I1128 21:15:25.566756  2637 net.cpp:100] Creating Layer inception_3a/5x5_reduce
I1128 21:15:25.566761  2637 net.cpp:434] inception_3a/5x5_reduce <- pool2/3x3_s2_pool2/3x3_s2_0_split_2
I1128 21:15:25.566767  2637 net.cpp:408] inception_3a/5x5_reduce -> inception_3a/5x5_reduce
I1128 21:15:25.566951  2637 net.cpp:150] Setting up inception_3a/5x5_reduce
I1128 21:15:25.566961  2637 net.cpp:157] Top shape: 16 16 28 28 (200704)
I1128 21:15:25.566963  2637 net.cpp:165] Memory required for data: 357253376
I1128 21:15:25.566970  2637 layer_factory.hpp:77] Creating layer inception_3a/relu_5x5_reduce
I1128 21:15:25.566977  2637 net.cpp:100] Creating Layer inception_3a/relu_5x5_reduce
I1128 21:15:25.566982  2637 net.cpp:434] inception_3a/relu_5x5_reduce <- inception_3a/5x5_reduce
I1128 21:15:25.566987  2637 net.cpp:395] inception_3a/relu_5x5_reduce -> inception_3a/5x5_reduce (in-place)
I1128 21:15:25.566995  2637 net.cpp:150] Setting up inception_3a/relu_5x5_reduce
I1128 21:15:25.567001  2637 net.cpp:157] Top shape: 16 16 28 28 (200704)
I1128 21:15:25.567003  2637 net.cpp:165] Memory required for data: 358056192
I1128 21:15:25.567008  2637 layer_factory.hpp:77] Creating layer inception_3a/5x5
I1128 21:15:25.567016  2637 net.cpp:100] Creating Layer inception_3a/5x5
I1128 21:15:25.567020  2637 net.cpp:434] inception_3a/5x5 <- inception_3a/5x5_reduce
I1128 21:15:25.567028  2637 net.cpp:408] inception_3a/5x5 -> inception_3a/5x5
I1128 21:15:25.567245  2637 net.cpp:150] Setting up inception_3a/5x5
I1128 21:15:25.567255  2637 net.cpp:157] Top shape: 16 32 28 28 (401408)
I1128 21:15:25.567258  2637 net.cpp:165] Memory required for data: 359661824
I1128 21:15:25.567265  2637 layer_factory.hpp:77] Creating layer inception_3a/relu_5x5
I1128 21:15:25.567271  2637 net.cpp:100] Creating Layer inception_3a/relu_5x5
I1128 21:15:25.567276  2637 net.cpp:434] inception_3a/relu_5x5 <- inception_3a/5x5
I1128 21:15:25.567281  2637 net.cpp:395] inception_3a/relu_5x5 -> inception_3a/5x5 (in-place)
I1128 21:15:25.567302  2637 net.cpp:150] Setting up inception_3a/relu_5x5
I1128 21:15:25.567309  2637 net.cpp:157] Top shape: 16 32 28 28 (401408)
I1128 21:15:25.567312  2637 net.cpp:165] Memory required for data: 361267456
I1128 21:15:25.567315  2637 layer_factory.hpp:77] Creating layer inception_3a/pool
I1128 21:15:25.567323  2637 net.cpp:100] Creating Layer inception_3a/pool
I1128 21:15:25.567327  2637 net.cpp:434] inception_3a/pool <- pool2/3x3_s2_pool2/3x3_s2_0_split_3
I1128 21:15:25.567333  2637 net.cpp:408] inception_3a/pool -> inception_3a/pool
I1128 21:15:25.567370  2637 net.cpp:150] Setting up inception_3a/pool
I1128 21:15:25.567378  2637 net.cpp:157] Top shape: 16 192 28 28 (2408448)
I1128 21:15:25.567381  2637 net.cpp:165] Memory required for data: 370901248
I1128 21:15:25.567384  2637 layer_factory.hpp:77] Creating layer inception_3a/pool_proj
I1128 21:15:25.567394  2637 net.cpp:100] Creating Layer inception_3a/pool_proj
I1128 21:15:25.567399  2637 net.cpp:434] inception_3a/pool_proj <- inception_3a/pool
I1128 21:15:25.567405  2637 net.cpp:408] inception_3a/pool_proj -> inception_3a/pool_proj
I1128 21:15:25.567589  2637 net.cpp:150] Setting up inception_3a/pool_proj
I1128 21:15:25.567596  2637 net.cpp:157] Top shape: 16 32 28 28 (401408)
I1128 21:15:25.567600  2637 net.cpp:165] Memory required for data: 372506880
I1128 21:15:25.567611  2637 layer_factory.hpp:77] Creating layer inception_3a/relu_pool_proj
I1128 21:15:25.567620  2637 net.cpp:100] Creating Layer inception_3a/relu_pool_proj
I1128 21:15:25.567623  2637 net.cpp:434] inception_3a/relu_pool_proj <- inception_3a/pool_proj
I1128 21:15:25.567628  2637 net.cpp:395] inception_3a/relu_pool_proj -> inception_3a/pool_proj (in-place)
I1128 21:15:25.567636  2637 net.cpp:150] Setting up inception_3a/relu_pool_proj
I1128 21:15:25.567641  2637 net.cpp:157] Top shape: 16 32 28 28 (401408)
I1128 21:15:25.567643  2637 net.cpp:165] Memory required for data: 374112512
I1128 21:15:25.567646  2637 layer_factory.hpp:77] Creating layer inception_3a/output
I1128 21:15:25.567658  2637 net.cpp:100] Creating Layer inception_3a/output
I1128 21:15:25.567662  2637 net.cpp:434] inception_3a/output <- inception_3a/1x1
I1128 21:15:25.567667  2637 net.cpp:434] inception_3a/output <- inception_3a/3x3
I1128 21:15:25.567672  2637 net.cpp:434] inception_3a/output <- inception_3a/5x5
I1128 21:15:25.567675  2637 net.cpp:434] inception_3a/output <- inception_3a/pool_proj
I1128 21:15:25.567682  2637 net.cpp:408] inception_3a/output -> inception_3a/output
I1128 21:15:25.567741  2637 net.cpp:150] Setting up inception_3a/output
I1128 21:15:25.567751  2637 net.cpp:157] Top shape: 16 256 28 28 (3211264)
I1128 21:15:25.567754  2637 net.cpp:165] Memory required for data: 386957568
I1128 21:15:25.567757  2637 layer_factory.hpp:77] Creating layer inception_3a/output_inception_3a/output_0_split
I1128 21:15:25.567765  2637 net.cpp:100] Creating Layer inception_3a/output_inception_3a/output_0_split
I1128 21:15:25.567770  2637 net.cpp:434] inception_3a/output_inception_3a/output_0_split <- inception_3a/output
I1128 21:15:25.567775  2637 net.cpp:408] inception_3a/output_inception_3a/output_0_split -> inception_3a/output_inception_3a/output_0_split_0
I1128 21:15:25.567783  2637 net.cpp:408] inception_3a/output_inception_3a/output_0_split -> inception_3a/output_inception_3a/output_0_split_1
I1128 21:15:25.567790  2637 net.cpp:408] inception_3a/output_inception_3a/output_0_split -> inception_3a/output_inception_3a/output_0_split_2
I1128 21:15:25.567795  2637 net.cpp:408] inception_3a/output_inception_3a/output_0_split -> inception_3a/output_inception_3a/output_0_split_3
I1128 21:15:25.567852  2637 net.cpp:150] Setting up inception_3a/output_inception_3a/output_0_split
I1128 21:15:25.567858  2637 net.cpp:157] Top shape: 16 256 28 28 (3211264)
I1128 21:15:25.567863  2637 net.cpp:157] Top shape: 16 256 28 28 (3211264)
I1128 21:15:25.567867  2637 net.cpp:157] Top shape: 16 256 28 28 (3211264)
I1128 21:15:25.567870  2637 net.cpp:157] Top shape: 16 256 28 28 (3211264)
I1128 21:15:25.567884  2637 net.cpp:165] Memory required for data: 438337792
I1128 21:15:25.567888  2637 layer_factory.hpp:77] Creating layer inception_3b/1x1
I1128 21:15:25.567900  2637 net.cpp:100] Creating Layer inception_3b/1x1
I1128 21:15:25.567905  2637 net.cpp:434] inception_3b/1x1 <- inception_3a/output_inception_3a/output_0_split_0
I1128 21:15:25.567914  2637 net.cpp:408] inception_3b/1x1 -> inception_3b/1x1
I1128 21:15:25.568220  2637 net.cpp:150] Setting up inception_3b/1x1
I1128 21:15:25.568230  2637 net.cpp:157] Top shape: 16 128 28 28 (1605632)
I1128 21:15:25.568233  2637 net.cpp:165] Memory required for data: 444760320
I1128 21:15:25.568239  2637 layer_factory.hpp:77] Creating layer inception_3b/relu_1x1
I1128 21:15:25.568246  2637 net.cpp:100] Creating Layer inception_3b/relu_1x1
I1128 21:15:25.568253  2637 net.cpp:434] inception_3b/relu_1x1 <- inception_3b/1x1
I1128 21:15:25.568258  2637 net.cpp:395] inception_3b/relu_1x1 -> inception_3b/1x1 (in-place)
I1128 21:15:25.568264  2637 net.cpp:150] Setting up inception_3b/relu_1x1
I1128 21:15:25.568269  2637 net.cpp:157] Top shape: 16 128 28 28 (1605632)
I1128 21:15:25.568272  2637 net.cpp:165] Memory required for data: 451182848
I1128 21:15:25.568275  2637 layer_factory.hpp:77] Creating layer inception_3b/3x3_reduce
I1128 21:15:25.568284  2637 net.cpp:100] Creating Layer inception_3b/3x3_reduce
I1128 21:15:25.568289  2637 net.cpp:434] inception_3b/3x3_reduce <- inception_3a/output_inception_3a/output_0_split_1
I1128 21:15:25.568295  2637 net.cpp:408] inception_3b/3x3_reduce -> inception_3b/3x3_reduce
I1128 21:15:25.568598  2637 net.cpp:150] Setting up inception_3b/3x3_reduce
I1128 21:15:25.568608  2637 net.cpp:157] Top shape: 16 128 28 28 (1605632)
I1128 21:15:25.568610  2637 net.cpp:165] Memory required for data: 457605376
I1128 21:15:25.568617  2637 layer_factory.hpp:77] Creating layer inception_3b/relu_3x3_reduce
I1128 21:15:25.568624  2637 net.cpp:100] Creating Layer inception_3b/relu_3x3_reduce
I1128 21:15:25.568629  2637 net.cpp:434] inception_3b/relu_3x3_reduce <- inception_3b/3x3_reduce
I1128 21:15:25.568634  2637 net.cpp:395] inception_3b/relu_3x3_reduce -> inception_3b/3x3_reduce (in-place)
I1128 21:15:25.568640  2637 net.cpp:150] Setting up inception_3b/relu_3x3_reduce
I1128 21:15:25.568645  2637 net.cpp:157] Top shape: 16 128 28 28 (1605632)
I1128 21:15:25.568648  2637 net.cpp:165] Memory required for data: 464027904
I1128 21:15:25.568651  2637 layer_factory.hpp:77] Creating layer inception_3b/3x3
I1128 21:15:25.568668  2637 net.cpp:100] Creating Layer inception_3b/3x3
I1128 21:15:25.568672  2637 net.cpp:434] inception_3b/3x3 <- inception_3b/3x3_reduce
I1128 21:15:25.568680  2637 net.cpp:408] inception_3b/3x3 -> inception_3b/3x3
I1128 21:15:25.570335  2637 net.cpp:150] Setting up inception_3b/3x3
I1128 21:15:25.570350  2637 net.cpp:157] Top shape: 16 192 28 28 (2408448)
I1128 21:15:25.570353  2637 net.cpp:165] Memory required for data: 473661696
I1128 21:15:25.570360  2637 layer_factory.hpp:77] Creating layer inception_3b/relu_3x3
I1128 21:15:25.570369  2637 net.cpp:100] Creating Layer inception_3b/relu_3x3
I1128 21:15:25.570374  2637 net.cpp:434] inception_3b/relu_3x3 <- inception_3b/3x3
I1128 21:15:25.570380  2637 net.cpp:395] inception_3b/relu_3x3 -> inception_3b/3x3 (in-place)
I1128 21:15:25.570389  2637 net.cpp:150] Setting up inception_3b/relu_3x3
I1128 21:15:25.570394  2637 net.cpp:157] Top shape: 16 192 28 28 (2408448)
I1128 21:15:25.570396  2637 net.cpp:165] Memory required for data: 483295488
I1128 21:15:25.570399  2637 layer_factory.hpp:77] Creating layer inception_3b/5x5_reduce
I1128 21:15:25.570408  2637 net.cpp:100] Creating Layer inception_3b/5x5_reduce
I1128 21:15:25.570413  2637 net.cpp:434] inception_3b/5x5_reduce <- inception_3a/output_inception_3a/output_0_split_2
I1128 21:15:25.570421  2637 net.cpp:408] inception_3b/5x5_reduce -> inception_3b/5x5_reduce
I1128 21:15:25.570628  2637 net.cpp:150] Setting up inception_3b/5x5_reduce
I1128 21:15:25.570637  2637 net.cpp:157] Top shape: 16 32 28 28 (401408)
I1128 21:15:25.570653  2637 net.cpp:165] Memory required for data: 484901120
I1128 21:15:25.570662  2637 layer_factory.hpp:77] Creating layer inception_3b/relu_5x5_reduce
I1128 21:15:25.570672  2637 net.cpp:100] Creating Layer inception_3b/relu_5x5_reduce
I1128 21:15:25.570677  2637 net.cpp:434] inception_3b/relu_5x5_reduce <- inception_3b/5x5_reduce
I1128 21:15:25.570683  2637 net.cpp:395] inception_3b/relu_5x5_reduce -> inception_3b/5x5_reduce (in-place)
I1128 21:15:25.570690  2637 net.cpp:150] Setting up inception_3b/relu_5x5_reduce
I1128 21:15:25.570695  2637 net.cpp:157] Top shape: 16 32 28 28 (401408)
I1128 21:15:25.570698  2637 net.cpp:165] Memory required for data: 486506752
I1128 21:15:25.570700  2637 layer_factory.hpp:77] Creating layer inception_3b/5x5
I1128 21:15:25.570710  2637 net.cpp:100] Creating Layer inception_3b/5x5
I1128 21:15:25.570715  2637 net.cpp:434] inception_3b/5x5 <- inception_3b/5x5_reduce
I1128 21:15:25.570724  2637 net.cpp:408] inception_3b/5x5 -> inception_3b/5x5
I1128 21:15:25.571240  2637 net.cpp:150] Setting up inception_3b/5x5
I1128 21:15:25.571251  2637 net.cpp:157] Top shape: 16 96 28 28 (1204224)
I1128 21:15:25.571254  2637 net.cpp:165] Memory required for data: 491323648
I1128 21:15:25.571260  2637 layer_factory.hpp:77] Creating layer inception_3b/relu_5x5
I1128 21:15:25.571269  2637 net.cpp:100] Creating Layer inception_3b/relu_5x5
I1128 21:15:25.571274  2637 net.cpp:434] inception_3b/relu_5x5 <- inception_3b/5x5
I1128 21:15:25.571281  2637 net.cpp:395] inception_3b/relu_5x5 -> inception_3b/5x5 (in-place)
I1128 21:15:25.571288  2637 net.cpp:150] Setting up inception_3b/relu_5x5
I1128 21:15:25.571293  2637 net.cpp:157] Top shape: 16 96 28 28 (1204224)
I1128 21:15:25.571296  2637 net.cpp:165] Memory required for data: 496140544
I1128 21:15:25.571300  2637 layer_factory.hpp:77] Creating layer inception_3b/pool
I1128 21:15:25.571306  2637 net.cpp:100] Creating Layer inception_3b/pool
I1128 21:15:25.571310  2637 net.cpp:434] inception_3b/pool <- inception_3a/output_inception_3a/output_0_split_3
I1128 21:15:25.571317  2637 net.cpp:408] inception_3b/pool -> inception_3b/pool
I1128 21:15:25.571355  2637 net.cpp:150] Setting up inception_3b/pool
I1128 21:15:25.571362  2637 net.cpp:157] Top shape: 16 256 28 28 (3211264)
I1128 21:15:25.571364  2637 net.cpp:165] Memory required for data: 508985600
I1128 21:15:25.571367  2637 layer_factory.hpp:77] Creating layer inception_3b/pool_proj
I1128 21:15:25.571380  2637 net.cpp:100] Creating Layer inception_3b/pool_proj
I1128 21:15:25.571385  2637 net.cpp:434] inception_3b/pool_proj <- inception_3b/pool
I1128 21:15:25.571394  2637 net.cpp:408] inception_3b/pool_proj -> inception_3b/pool_proj
I1128 21:15:25.571631  2637 net.cpp:150] Setting up inception_3b/pool_proj
I1128 21:15:25.571640  2637 net.cpp:157] Top shape: 16 64 28 28 (802816)
I1128 21:15:25.571643  2637 net.cpp:165] Memory required for data: 512196864
I1128 21:15:25.571650  2637 layer_factory.hpp:77] Creating layer inception_3b/relu_pool_proj
I1128 21:15:25.571657  2637 net.cpp:100] Creating Layer inception_3b/relu_pool_proj
I1128 21:15:25.571662  2637 net.cpp:434] inception_3b/relu_pool_proj <- inception_3b/pool_proj
I1128 21:15:25.571671  2637 net.cpp:395] inception_3b/relu_pool_proj -> inception_3b/pool_proj (in-place)
I1128 21:15:25.571678  2637 net.cpp:150] Setting up inception_3b/relu_pool_proj
I1128 21:15:25.571683  2637 net.cpp:157] Top shape: 16 64 28 28 (802816)
I1128 21:15:25.571686  2637 net.cpp:165] Memory required for data: 515408128
I1128 21:15:25.571688  2637 layer_factory.hpp:77] Creating layer inception_3b/output
I1128 21:15:25.571696  2637 net.cpp:100] Creating Layer inception_3b/output
I1128 21:15:25.571701  2637 net.cpp:434] inception_3b/output <- inception_3b/1x1
I1128 21:15:25.571704  2637 net.cpp:434] inception_3b/output <- inception_3b/3x3
I1128 21:15:25.571708  2637 net.cpp:434] inception_3b/output <- inception_3b/5x5
I1128 21:15:25.571712  2637 net.cpp:434] inception_3b/output <- inception_3b/pool_proj
I1128 21:15:25.571717  2637 net.cpp:408] inception_3b/output -> inception_3b/output
I1128 21:15:25.571754  2637 net.cpp:150] Setting up inception_3b/output
I1128 21:15:25.571763  2637 net.cpp:157] Top shape: 16 480 28 28 (6021120)
I1128 21:15:25.571765  2637 net.cpp:165] Memory required for data: 539492608
I1128 21:15:25.571768  2637 layer_factory.hpp:77] Creating layer pool3/3x3_s2
I1128 21:15:25.571775  2637 net.cpp:100] Creating Layer pool3/3x3_s2
I1128 21:15:25.571782  2637 net.cpp:434] pool3/3x3_s2 <- inception_3b/output
I1128 21:15:25.571789  2637 net.cpp:408] pool3/3x3_s2 -> pool3/3x3_s2
I1128 21:15:25.571821  2637 net.cpp:150] Setting up pool3/3x3_s2
I1128 21:15:25.571830  2637 net.cpp:157] Top shape: 16 480 14 14 (1505280)
I1128 21:15:25.571833  2637 net.cpp:165] Memory required for data: 545513728
I1128 21:15:25.571836  2637 layer_factory.hpp:77] Creating layer pool3/3x3_s2_pool3/3x3_s2_0_split
I1128 21:15:25.571843  2637 net.cpp:100] Creating Layer pool3/3x3_s2_pool3/3x3_s2_0_split
I1128 21:15:25.571848  2637 net.cpp:434] pool3/3x3_s2_pool3/3x3_s2_0_split <- pool3/3x3_s2
I1128 21:15:25.571856  2637 net.cpp:408] pool3/3x3_s2_pool3/3x3_s2_0_split -> pool3/3x3_s2_pool3/3x3_s2_0_split_0
I1128 21:15:25.571864  2637 net.cpp:408] pool3/3x3_s2_pool3/3x3_s2_0_split -> pool3/3x3_s2_pool3/3x3_s2_0_split_1
I1128 21:15:25.571871  2637 net.cpp:408] pool3/3x3_s2_pool3/3x3_s2_0_split -> pool3/3x3_s2_pool3/3x3_s2_0_split_2
I1128 21:15:25.571878  2637 net.cpp:408] pool3/3x3_s2_pool3/3x3_s2_0_split -> pool3/3x3_s2_pool3/3x3_s2_0_split_3
I1128 21:15:25.571926  2637 net.cpp:150] Setting up pool3/3x3_s2_pool3/3x3_s2_0_split
I1128 21:15:25.571935  2637 net.cpp:157] Top shape: 16 480 14 14 (1505280)
I1128 21:15:25.571939  2637 net.cpp:157] Top shape: 16 480 14 14 (1505280)
I1128 21:15:25.571943  2637 net.cpp:157] Top shape: 16 480 14 14 (1505280)
I1128 21:15:25.571948  2637 net.cpp:157] Top shape: 16 480 14 14 (1505280)
I1128 21:15:25.571950  2637 net.cpp:165] Memory required for data: 569598208
I1128 21:15:25.571954  2637 layer_factory.hpp:77] Creating layer inception_4a/1x1
I1128 21:15:25.571965  2637 net.cpp:100] Creating Layer inception_4a/1x1
I1128 21:15:25.571970  2637 net.cpp:434] inception_4a/1x1 <- pool3/3x3_s2_pool3/3x3_s2_0_split_0
I1128 21:15:25.571980  2637 net.cpp:408] inception_4a/1x1 -> inception_4a/1x1
I1128 21:15:25.575186  2637 net.cpp:150] Setting up inception_4a/1x1
I1128 21:15:25.575198  2637 net.cpp:157] Top shape: 16 192 14 14 (602112)
I1128 21:15:25.575201  2637 net.cpp:165] Memory required for data: 572006656
I1128 21:15:25.575208  2637 layer_factory.hpp:77] Creating layer inception_4a/relu_1x1
I1128 21:15:25.575217  2637 net.cpp:100] Creating Layer inception_4a/relu_1x1
I1128 21:15:25.575223  2637 net.cpp:434] inception_4a/relu_1x1 <- inception_4a/1x1
I1128 21:15:25.575232  2637 net.cpp:395] inception_4a/relu_1x1 -> inception_4a/1x1 (in-place)
I1128 21:15:25.575239  2637 net.cpp:150] Setting up inception_4a/relu_1x1
I1128 21:15:25.575247  2637 net.cpp:157] Top shape: 16 192 14 14 (602112)
I1128 21:15:25.575249  2637 net.cpp:165] Memory required for data: 574415104
I1128 21:15:25.575253  2637 layer_factory.hpp:77] Creating layer inception_4a/3x3_reduce
I1128 21:15:25.575261  2637 net.cpp:100] Creating Layer inception_4a/3x3_reduce
I1128 21:15:25.575266  2637 net.cpp:434] inception_4a/3x3_reduce <- pool3/3x3_s2_pool3/3x3_s2_0_split_1
I1128 21:15:25.575275  2637 net.cpp:408] inception_4a/3x3_reduce -> inception_4a/3x3_reduce
I1128 21:15:25.575659  2637 net.cpp:150] Setting up inception_4a/3x3_reduce
I1128 21:15:25.575670  2637 net.cpp:157] Top shape: 16 96 14 14 (301056)
I1128 21:15:25.575672  2637 net.cpp:165] Memory required for data: 575619328
I1128 21:15:25.575686  2637 layer_factory.hpp:77] Creating layer inception_4a/relu_3x3_reduce
I1128 21:15:25.575695  2637 net.cpp:100] Creating Layer inception_4a/relu_3x3_reduce
I1128 21:15:25.575700  2637 net.cpp:434] inception_4a/relu_3x3_reduce <- inception_4a/3x3_reduce
I1128 21:15:25.575706  2637 net.cpp:395] inception_4a/relu_3x3_reduce -> inception_4a/3x3_reduce (in-place)
I1128 21:15:25.575713  2637 net.cpp:150] Setting up inception_4a/relu_3x3_reduce
I1128 21:15:25.575731  2637 net.cpp:157] Top shape: 16 96 14 14 (301056)
I1128 21:15:25.575736  2637 net.cpp:165] Memory required for data: 576823552
I1128 21:15:25.575738  2637 layer_factory.hpp:77] Creating layer inception_4a/3x3
I1128 21:15:25.575748  2637 net.cpp:100] Creating Layer inception_4a/3x3
I1128 21:15:25.575752  2637 net.cpp:434] inception_4a/3x3 <- inception_4a/3x3_reduce
I1128 21:15:25.575762  2637 net.cpp:408] inception_4a/3x3 -> inception_4a/3x3
I1128 21:15:25.582221  2637 net.cpp:150] Setting up inception_4a/3x3
I1128 21:15:25.582236  2637 net.cpp:157] Top shape: 16 208 14 14 (652288)
I1128 21:15:25.582238  2637 net.cpp:165] Memory required for data: 579432704
I1128 21:15:25.582245  2637 layer_factory.hpp:77] Creating layer inception_4a/relu_3x3
I1128 21:15:25.582253  2637 net.cpp:100] Creating Layer inception_4a/relu_3x3
I1128 21:15:25.582258  2637 net.cpp:434] inception_4a/relu_3x3 <- inception_4a/3x3
I1128 21:15:25.582264  2637 net.cpp:395] inception_4a/relu_3x3 -> inception_4a/3x3 (in-place)
I1128 21:15:25.582273  2637 net.cpp:150] Setting up inception_4a/relu_3x3
I1128 21:15:25.582280  2637 net.cpp:157] Top shape: 16 208 14 14 (652288)
I1128 21:15:25.582283  2637 net.cpp:165] Memory required for data: 582041856
I1128 21:15:25.582286  2637 layer_factory.hpp:77] Creating layer inception_4a/5x5_reduce
I1128 21:15:25.582296  2637 net.cpp:100] Creating Layer inception_4a/5x5_reduce
I1128 21:15:25.582301  2637 net.cpp:434] inception_4a/5x5_reduce <- pool3/3x3_s2_pool3/3x3_s2_0_split_2
I1128 21:15:25.582310  2637 net.cpp:408] inception_4a/5x5_reduce -> inception_4a/5x5_reduce
I1128 21:15:25.582523  2637 net.cpp:150] Setting up inception_4a/5x5_reduce
I1128 21:15:25.582532  2637 net.cpp:157] Top shape: 16 16 14 14 (50176)
I1128 21:15:25.582535  2637 net.cpp:165] Memory required for data: 582242560
I1128 21:15:25.582542  2637 layer_factory.hpp:77] Creating layer inception_4a/relu_5x5_reduce
I1128 21:15:25.582551  2637 net.cpp:100] Creating Layer inception_4a/relu_5x5_reduce
I1128 21:15:25.582556  2637 net.cpp:434] inception_4a/relu_5x5_reduce <- inception_4a/5x5_reduce
I1128 21:15:25.582562  2637 net.cpp:395] inception_4a/relu_5x5_reduce -> inception_4a/5x5_reduce (in-place)
I1128 21:15:25.582569  2637 net.cpp:150] Setting up inception_4a/relu_5x5_reduce
I1128 21:15:25.582576  2637 net.cpp:157] Top shape: 16 16 14 14 (50176)
I1128 21:15:25.582578  2637 net.cpp:165] Memory required for data: 582443264
I1128 21:15:25.582581  2637 layer_factory.hpp:77] Creating layer inception_4a/5x5
I1128 21:15:25.582590  2637 net.cpp:100] Creating Layer inception_4a/5x5
I1128 21:15:25.582595  2637 net.cpp:434] inception_4a/5x5 <- inception_4a/5x5_reduce
I1128 21:15:25.582603  2637 net.cpp:408] inception_4a/5x5 -> inception_4a/5x5
I1128 21:15:25.582860  2637 net.cpp:150] Setting up inception_4a/5x5
I1128 21:15:25.582870  2637 net.cpp:157] Top shape: 16 48 14 14 (150528)
I1128 21:15:25.582871  2637 net.cpp:165] Memory required for data: 583045376
I1128 21:15:25.582878  2637 layer_factory.hpp:77] Creating layer inception_4a/relu_5x5
I1128 21:15:25.582885  2637 net.cpp:100] Creating Layer inception_4a/relu_5x5
I1128 21:15:25.582890  2637 net.cpp:434] inception_4a/relu_5x5 <- inception_4a/5x5
I1128 21:15:25.582896  2637 net.cpp:395] inception_4a/relu_5x5 -> inception_4a/5x5 (in-place)
I1128 21:15:25.582904  2637 net.cpp:150] Setting up inception_4a/relu_5x5
I1128 21:15:25.582911  2637 net.cpp:157] Top shape: 16 48 14 14 (150528)
I1128 21:15:25.582913  2637 net.cpp:165] Memory required for data: 583647488
I1128 21:15:25.582916  2637 layer_factory.hpp:77] Creating layer inception_4a/pool
I1128 21:15:25.582924  2637 net.cpp:100] Creating Layer inception_4a/pool
I1128 21:15:25.582929  2637 net.cpp:434] inception_4a/pool <- pool3/3x3_s2_pool3/3x3_s2_0_split_3
I1128 21:15:25.582936  2637 net.cpp:408] inception_4a/pool -> inception_4a/pool
I1128 21:15:25.582970  2637 net.cpp:150] Setting up inception_4a/pool
I1128 21:15:25.582978  2637 net.cpp:157] Top shape: 16 480 14 14 (1505280)
I1128 21:15:25.582981  2637 net.cpp:165] Memory required for data: 589668608
I1128 21:15:25.582996  2637 layer_factory.hpp:77] Creating layer inception_4a/pool_proj
I1128 21:15:25.583010  2637 net.cpp:100] Creating Layer inception_4a/pool_proj
I1128 21:15:25.583015  2637 net.cpp:434] inception_4a/pool_proj <- inception_4a/pool
I1128 21:15:25.583024  2637 net.cpp:408] inception_4a/pool_proj -> inception_4a/pool_proj
I1128 21:15:25.583331  2637 net.cpp:150] Setting up inception_4a/pool_proj
I1128 21:15:25.583339  2637 net.cpp:157] Top shape: 16 64 14 14 (200704)
I1128 21:15:25.583343  2637 net.cpp:165] Memory required for data: 590471424
I1128 21:15:25.583349  2637 layer_factory.hpp:77] Creating layer inception_4a/relu_pool_proj
I1128 21:15:25.583355  2637 net.cpp:100] Creating Layer inception_4a/relu_pool_proj
I1128 21:15:25.583359  2637 net.cpp:434] inception_4a/relu_pool_proj <- inception_4a/pool_proj
I1128 21:15:25.583366  2637 net.cpp:395] inception_4a/relu_pool_proj -> inception_4a/pool_proj (in-place)
I1128 21:15:25.583375  2637 net.cpp:150] Setting up inception_4a/relu_pool_proj
I1128 21:15:25.583380  2637 net.cpp:157] Top shape: 16 64 14 14 (200704)
I1128 21:15:25.583382  2637 net.cpp:165] Memory required for data: 591274240
I1128 21:15:25.583386  2637 layer_factory.hpp:77] Creating layer inception_4a/output
I1128 21:15:25.583395  2637 net.cpp:100] Creating Layer inception_4a/output
I1128 21:15:25.583400  2637 net.cpp:434] inception_4a/output <- inception_4a/1x1
I1128 21:15:25.583403  2637 net.cpp:434] inception_4a/output <- inception_4a/3x3
I1128 21:15:25.583407  2637 net.cpp:434] inception_4a/output <- inception_4a/5x5
I1128 21:15:25.583411  2637 net.cpp:434] inception_4a/output <- inception_4a/pool_proj
I1128 21:15:25.583417  2637 net.cpp:408] inception_4a/output -> inception_4a/output
I1128 21:15:25.583442  2637 net.cpp:150] Setting up inception_4a/output
I1128 21:15:25.583449  2637 net.cpp:157] Top shape: 16 512 14 14 (1605632)
I1128 21:15:25.583452  2637 net.cpp:165] Memory required for data: 597696768
I1128 21:15:25.583456  2637 layer_factory.hpp:77] Creating layer inception_4a/output_inception_4a/output_0_split
I1128 21:15:25.583465  2637 net.cpp:100] Creating Layer inception_4a/output_inception_4a/output_0_split
I1128 21:15:25.583470  2637 net.cpp:434] inception_4a/output_inception_4a/output_0_split <- inception_4a/output
I1128 21:15:25.583478  2637 net.cpp:408] inception_4a/output_inception_4a/output_0_split -> inception_4a/output_inception_4a/output_0_split_0
I1128 21:15:25.583487  2637 net.cpp:408] inception_4a/output_inception_4a/output_0_split -> inception_4a/output_inception_4a/output_0_split_1
I1128 21:15:25.583495  2637 net.cpp:408] inception_4a/output_inception_4a/output_0_split -> inception_4a/output_inception_4a/output_0_split_2
I1128 21:15:25.583503  2637 net.cpp:408] inception_4a/output_inception_4a/output_0_split -> inception_4a/output_inception_4a/output_0_split_3
I1128 21:15:25.583513  2637 net.cpp:408] inception_4a/output_inception_4a/output_0_split -> inception_4a/output_inception_4a/output_0_split_4
I1128 21:15:25.583575  2637 net.cpp:150] Setting up inception_4a/output_inception_4a/output_0_split
I1128 21:15:25.583583  2637 net.cpp:157] Top shape: 16 512 14 14 (1605632)
I1128 21:15:25.583588  2637 net.cpp:157] Top shape: 16 512 14 14 (1605632)
I1128 21:15:25.583592  2637 net.cpp:157] Top shape: 16 512 14 14 (1605632)
I1128 21:15:25.583596  2637 net.cpp:157] Top shape: 16 512 14 14 (1605632)
I1128 21:15:25.583600  2637 net.cpp:157] Top shape: 16 512 14 14 (1605632)
I1128 21:15:25.583602  2637 net.cpp:165] Memory required for data: 629809408
I1128 21:15:25.583606  2637 layer_factory.hpp:77] Creating layer loss1/ave_pool
I1128 21:15:25.583612  2637 net.cpp:100] Creating Layer loss1/ave_pool
I1128 21:15:25.583616  2637 net.cpp:434] loss1/ave_pool <- inception_4a/output_inception_4a/output_0_split_0
I1128 21:15:25.583624  2637 net.cpp:408] loss1/ave_pool -> loss1/ave_pool
I1128 21:15:25.583649  2637 net.cpp:150] Setting up loss1/ave_pool
I1128 21:15:25.583657  2637 net.cpp:157] Top shape: 16 512 4 4 (131072)
I1128 21:15:25.583668  2637 net.cpp:165] Memory required for data: 630333696
I1128 21:15:25.583673  2637 layer_factory.hpp:77] Creating layer loss1/conv
I1128 21:15:25.583685  2637 net.cpp:100] Creating Layer loss1/conv
I1128 21:15:25.583689  2637 net.cpp:434] loss1/conv <- loss1/ave_pool
I1128 21:15:25.583696  2637 net.cpp:408] loss1/conv -> loss1/conv
I1128 21:15:25.584154  2637 net.cpp:150] Setting up loss1/conv
I1128 21:15:25.584164  2637 net.cpp:157] Top shape: 16 128 4 4 (32768)
I1128 21:15:25.584167  2637 net.cpp:165] Memory required for data: 630464768
I1128 21:15:25.584173  2637 layer_factory.hpp:77] Creating layer loss1/relu_conv
I1128 21:15:25.584179  2637 net.cpp:100] Creating Layer loss1/relu_conv
I1128 21:15:25.584184  2637 net.cpp:434] loss1/relu_conv <- loss1/conv
I1128 21:15:25.584192  2637 net.cpp:395] loss1/relu_conv -> loss1/conv (in-place)
I1128 21:15:25.584199  2637 net.cpp:150] Setting up loss1/relu_conv
I1128 21:15:25.584205  2637 net.cpp:157] Top shape: 16 128 4 4 (32768)
I1128 21:15:25.584208  2637 net.cpp:165] Memory required for data: 630595840
I1128 21:15:25.584211  2637 layer_factory.hpp:77] Creating layer loss1/fc
I1128 21:15:25.584218  2637 net.cpp:100] Creating Layer loss1/fc
I1128 21:15:25.584223  2637 net.cpp:434] loss1/fc <- loss1/conv
I1128 21:15:25.584230  2637 net.cpp:408] loss1/fc -> loss1/fc
I1128 21:15:25.599048  2637 net.cpp:150] Setting up loss1/fc
I1128 21:15:25.599078  2637 net.cpp:157] Top shape: 16 1024 (16384)
I1128 21:15:25.599081  2637 net.cpp:165] Memory required for data: 630661376
I1128 21:15:25.599093  2637 layer_factory.hpp:77] Creating layer loss1/relu_fc
I1128 21:15:25.599107  2637 net.cpp:100] Creating Layer loss1/relu_fc
I1128 21:15:25.599114  2637 net.cpp:434] loss1/relu_fc <- loss1/fc
I1128 21:15:25.599125  2637 net.cpp:395] loss1/relu_fc -> loss1/fc (in-place)
I1128 21:15:25.599138  2637 net.cpp:150] Setting up loss1/relu_fc
I1128 21:15:25.599143  2637 net.cpp:157] Top shape: 16 1024 (16384)
I1128 21:15:25.599145  2637 net.cpp:165] Memory required for data: 630726912
I1128 21:15:25.599148  2637 layer_factory.hpp:77] Creating layer loss1/drop_fc
I1128 21:15:25.599174  2637 net.cpp:100] Creating Layer loss1/drop_fc
I1128 21:15:25.599177  2637 net.cpp:434] loss1/drop_fc <- loss1/fc
I1128 21:15:25.599182  2637 net.cpp:395] loss1/drop_fc -> loss1/fc (in-place)
I1128 21:15:25.599215  2637 net.cpp:150] Setting up loss1/drop_fc
I1128 21:15:25.599221  2637 net.cpp:157] Top shape: 16 1024 (16384)
I1128 21:15:25.599225  2637 net.cpp:165] Memory required for data: 630792448
I1128 21:15:25.599228  2637 layer_factory.hpp:77] Creating layer loss1/classifier
I1128 21:15:25.599238  2637 net.cpp:100] Creating Layer loss1/classifier
I1128 21:15:25.599247  2637 net.cpp:434] loss1/classifier <- loss1/fc
I1128 21:15:25.599256  2637 net.cpp:408] loss1/classifier -> loss1/classifier
I1128 21:15:25.605269  2637 net.cpp:150] Setting up loss1/classifier
I1128 21:15:25.605295  2637 net.cpp:157] Top shape: 16 1000 (16000)
I1128 21:15:25.605298  2637 net.cpp:165] Memory required for data: 630856448
I1128 21:15:25.605309  2637 layer_factory.hpp:77] Creating layer loss1/loss
I1128 21:15:25.605322  2637 net.cpp:100] Creating Layer loss1/loss
I1128 21:15:25.605329  2637 net.cpp:434] loss1/loss <- loss1/classifier
I1128 21:15:25.605336  2637 net.cpp:434] loss1/loss <- label_data_1_split_0
I1128 21:15:25.605343  2637 net.cpp:408] loss1/loss -> loss1/loss1
I1128 21:15:25.605360  2637 layer_factory.hpp:77] Creating layer loss1/loss
I1128 21:15:25.605464  2637 net.cpp:150] Setting up loss1/loss
I1128 21:15:25.605473  2637 net.cpp:157] Top shape: (1)
I1128 21:15:25.605475  2637 net.cpp:160]     with loss weight 0.3
I1128 21:15:25.605499  2637 net.cpp:165] Memory required for data: 630856452
I1128 21:15:25.605504  2637 layer_factory.hpp:77] Creating layer inception_4b/1x1
I1128 21:15:25.605517  2637 net.cpp:100] Creating Layer inception_4b/1x1
I1128 21:15:25.605523  2637 net.cpp:434] inception_4b/1x1 <- inception_4a/output_inception_4a/output_0_split_1
I1128 21:15:25.605531  2637 net.cpp:408] inception_4b/1x1 -> inception_4b/1x1
I1128 21:15:25.606104  2637 net.cpp:150] Setting up inception_4b/1x1
I1128 21:15:25.606114  2637 net.cpp:157] Top shape: 16 160 14 14 (501760)
I1128 21:15:25.606117  2637 net.cpp:165] Memory required for data: 632863492
I1128 21:15:25.606124  2637 layer_factory.hpp:77] Creating layer inception_4b/relu_1x1
I1128 21:15:25.606132  2637 net.cpp:100] Creating Layer inception_4b/relu_1x1
I1128 21:15:25.606137  2637 net.cpp:434] inception_4b/relu_1x1 <- inception_4b/1x1
I1128 21:15:25.606143  2637 net.cpp:395] inception_4b/relu_1x1 -> inception_4b/1x1 (in-place)
I1128 21:15:25.606150  2637 net.cpp:150] Setting up inception_4b/relu_1x1
I1128 21:15:25.606156  2637 net.cpp:157] Top shape: 16 160 14 14 (501760)
I1128 21:15:25.606159  2637 net.cpp:165] Memory required for data: 634870532
I1128 21:15:25.606163  2637 layer_factory.hpp:77] Creating layer inception_4b/3x3_reduce
I1128 21:15:25.606173  2637 net.cpp:100] Creating Layer inception_4b/3x3_reduce
I1128 21:15:25.606178  2637 net.cpp:434] inception_4b/3x3_reduce <- inception_4a/output_inception_4a/output_0_split_2
I1128 21:15:25.606184  2637 net.cpp:408] inception_4b/3x3_reduce -> inception_4b/3x3_reduce
I1128 21:15:25.608932  2637 net.cpp:150] Setting up inception_4b/3x3_reduce
I1128 21:15:25.608943  2637 net.cpp:157] Top shape: 16 112 14 14 (351232)
I1128 21:15:25.608947  2637 net.cpp:165] Memory required for data: 636275460
I1128 21:15:25.608953  2637 layer_factory.hpp:77] Creating layer inception_4b/relu_3x3_reduce
I1128 21:15:25.608963  2637 net.cpp:100] Creating Layer inception_4b/relu_3x3_reduce
I1128 21:15:25.608968  2637 net.cpp:434] inception_4b/relu_3x3_reduce <- inception_4b/3x3_reduce
I1128 21:15:25.608975  2637 net.cpp:395] inception_4b/relu_3x3_reduce -> inception_4b/3x3_reduce (in-place)
I1128 21:15:25.608988  2637 net.cpp:150] Setting up inception_4b/relu_3x3_reduce
I1128 21:15:25.608992  2637 net.cpp:157] Top shape: 16 112 14 14 (351232)
I1128 21:15:25.608995  2637 net.cpp:165] Memory required for data: 637680388
I1128 21:15:25.608999  2637 layer_factory.hpp:77] Creating layer inception_4b/3x3
I1128 21:15:25.609010  2637 net.cpp:100] Creating Layer inception_4b/3x3
I1128 21:15:25.609014  2637 net.cpp:434] inception_4b/3x3 <- inception_4b/3x3_reduce
I1128 21:15:25.609022  2637 net.cpp:408] inception_4b/3x3 -> inception_4b/3x3
I1128 21:15:25.610939  2637 net.cpp:150] Setting up inception_4b/3x3
I1128 21:15:25.610951  2637 net.cpp:157] Top shape: 16 224 14 14 (702464)
I1128 21:15:25.610954  2637 net.cpp:165] Memory required for data: 640490244
I1128 21:15:25.610961  2637 layer_factory.hpp:77] Creating layer inception_4b/relu_3x3
I1128 21:15:25.610968  2637 net.cpp:100] Creating Layer inception_4b/relu_3x3
I1128 21:15:25.610971  2637 net.cpp:434] inception_4b/relu_3x3 <- inception_4b/3x3
I1128 21:15:25.610980  2637 net.cpp:395] inception_4b/relu_3x3 -> inception_4b/3x3 (in-place)
I1128 21:15:25.610986  2637 net.cpp:150] Setting up inception_4b/relu_3x3
I1128 21:15:25.610992  2637 net.cpp:157] Top shape: 16 224 14 14 (702464)
I1128 21:15:25.610996  2637 net.cpp:165] Memory required for data: 643300100
I1128 21:15:25.610998  2637 layer_factory.hpp:77] Creating layer inception_4b/5x5_reduce
I1128 21:15:25.611009  2637 net.cpp:100] Creating Layer inception_4b/5x5_reduce
I1128 21:15:25.611014  2637 net.cpp:434] inception_4b/5x5_reduce <- inception_4a/output_inception_4a/output_0_split_3
I1128 21:15:25.611021  2637 net.cpp:408] inception_4b/5x5_reduce -> inception_4b/5x5_reduce
I1128 21:15:25.611251  2637 net.cpp:150] Setting up inception_4b/5x5_reduce
I1128 21:15:25.611260  2637 net.cpp:157] Top shape: 16 24 14 14 (75264)
I1128 21:15:25.611263  2637 net.cpp:165] Memory required for data: 643601156
I1128 21:15:25.611270  2637 layer_factory.hpp:77] Creating layer inception_4b/relu_5x5_reduce
I1128 21:15:25.611276  2637 net.cpp:100] Creating Layer inception_4b/relu_5x5_reduce
I1128 21:15:25.611281  2637 net.cpp:434] inception_4b/relu_5x5_reduce <- inception_4b/5x5_reduce
I1128 21:15:25.611289  2637 net.cpp:395] inception_4b/relu_5x5_reduce -> inception_4b/5x5_reduce (in-place)
I1128 21:15:25.611306  2637 net.cpp:150] Setting up inception_4b/relu_5x5_reduce
I1128 21:15:25.611313  2637 net.cpp:157] Top shape: 16 24 14 14 (75264)
I1128 21:15:25.611316  2637 net.cpp:165] Memory required for data: 643902212
I1128 21:15:25.611320  2637 layer_factory.hpp:77] Creating layer inception_4b/5x5
I1128 21:15:25.611331  2637 net.cpp:100] Creating Layer inception_4b/5x5
I1128 21:15:25.611336  2637 net.cpp:434] inception_4b/5x5 <- inception_4b/5x5_reduce
I1128 21:15:25.611344  2637 net.cpp:408] inception_4b/5x5 -> inception_4b/5x5
I1128 21:15:25.611690  2637 net.cpp:150] Setting up inception_4b/5x5
I1128 21:15:25.611699  2637 net.cpp:157] Top shape: 16 64 14 14 (200704)
I1128 21:15:25.611702  2637 net.cpp:165] Memory required for data: 644705028
I1128 21:15:25.611708  2637 layer_factory.hpp:77] Creating layer inception_4b/relu_5x5
I1128 21:15:25.611714  2637 net.cpp:100] Creating Layer inception_4b/relu_5x5
I1128 21:15:25.611719  2637 net.cpp:434] inception_4b/relu_5x5 <- inception_4b/5x5
I1128 21:15:25.611726  2637 net.cpp:395] inception_4b/relu_5x5 -> inception_4b/5x5 (in-place)
I1128 21:15:25.611732  2637 net.cpp:150] Setting up inception_4b/relu_5x5
I1128 21:15:25.611737  2637 net.cpp:157] Top shape: 16 64 14 14 (200704)
I1128 21:15:25.611739  2637 net.cpp:165] Memory required for data: 645507844
I1128 21:15:25.611742  2637 layer_factory.hpp:77] Creating layer inception_4b/pool
I1128 21:15:25.611753  2637 net.cpp:100] Creating Layer inception_4b/pool
I1128 21:15:25.611757  2637 net.cpp:434] inception_4b/pool <- inception_4a/output_inception_4a/output_0_split_4
I1128 21:15:25.611763  2637 net.cpp:408] inception_4b/pool -> inception_4b/pool
I1128 21:15:25.611812  2637 net.cpp:150] Setting up inception_4b/pool
I1128 21:15:25.611822  2637 net.cpp:157] Top shape: 16 512 14 14 (1605632)
I1128 21:15:25.611825  2637 net.cpp:165] Memory required for data: 651930372
I1128 21:15:25.611829  2637 layer_factory.hpp:77] Creating layer inception_4b/pool_proj
I1128 21:15:25.611838  2637 net.cpp:100] Creating Layer inception_4b/pool_proj
I1128 21:15:25.611843  2637 net.cpp:434] inception_4b/pool_proj <- inception_4b/pool
I1128 21:15:25.611850  2637 net.cpp:408] inception_4b/pool_proj -> inception_4b/pool_proj
I1128 21:15:25.612157  2637 net.cpp:150] Setting up inception_4b/pool_proj
I1128 21:15:25.612165  2637 net.cpp:157] Top shape: 16 64 14 14 (200704)
I1128 21:15:25.612169  2637 net.cpp:165] Memory required for data: 652733188
I1128 21:15:25.612174  2637 layer_factory.hpp:77] Creating layer inception_4b/relu_pool_proj
I1128 21:15:25.612180  2637 net.cpp:100] Creating Layer inception_4b/relu_pool_proj
I1128 21:15:25.612185  2637 net.cpp:434] inception_4b/relu_pool_proj <- inception_4b/pool_proj
I1128 21:15:25.612191  2637 net.cpp:395] inception_4b/relu_pool_proj -> inception_4b/pool_proj (in-place)
I1128 21:15:25.612198  2637 net.cpp:150] Setting up inception_4b/relu_pool_proj
I1128 21:15:25.612203  2637 net.cpp:157] Top shape: 16 64 14 14 (200704)
I1128 21:15:25.612206  2637 net.cpp:165] Memory required for data: 653536004
I1128 21:15:25.612210  2637 layer_factory.hpp:77] Creating layer inception_4b/output
I1128 21:15:25.612215  2637 net.cpp:100] Creating Layer inception_4b/output
I1128 21:15:25.612218  2637 net.cpp:434] inception_4b/output <- inception_4b/1x1
I1128 21:15:25.612223  2637 net.cpp:434] inception_4b/output <- inception_4b/3x3
I1128 21:15:25.612226  2637 net.cpp:434] inception_4b/output <- inception_4b/5x5
I1128 21:15:25.612231  2637 net.cpp:434] inception_4b/output <- inception_4b/pool_proj
I1128 21:15:25.612237  2637 net.cpp:408] inception_4b/output -> inception_4b/output
I1128 21:15:25.612262  2637 net.cpp:150] Setting up inception_4b/output
I1128 21:15:25.612270  2637 net.cpp:157] Top shape: 16 512 14 14 (1605632)
I1128 21:15:25.612273  2637 net.cpp:165] Memory required for data: 659958532
I1128 21:15:25.612277  2637 layer_factory.hpp:77] Creating layer inception_4b/output_inception_4b/output_0_split
I1128 21:15:25.612283  2637 net.cpp:100] Creating Layer inception_4b/output_inception_4b/output_0_split
I1128 21:15:25.612296  2637 net.cpp:434] inception_4b/output_inception_4b/output_0_split <- inception_4b/output
I1128 21:15:25.612305  2637 net.cpp:408] inception_4b/output_inception_4b/output_0_split -> inception_4b/output_inception_4b/output_0_split_0
I1128 21:15:25.612315  2637 net.cpp:408] inception_4b/output_inception_4b/output_0_split -> inception_4b/output_inception_4b/output_0_split_1
I1128 21:15:25.612323  2637 net.cpp:408] inception_4b/output_inception_4b/output_0_split -> inception_4b/output_inception_4b/output_0_split_2
I1128 21:15:25.612332  2637 net.cpp:408] inception_4b/output_inception_4b/output_0_split -> inception_4b/output_inception_4b/output_0_split_3
I1128 21:15:25.612385  2637 net.cpp:150] Setting up inception_4b/output_inception_4b/output_0_split
I1128 21:15:25.612391  2637 net.cpp:157] Top shape: 16 512 14 14 (1605632)
I1128 21:15:25.612396  2637 net.cpp:157] Top shape: 16 512 14 14 (1605632)
I1128 21:15:25.612399  2637 net.cpp:157] Top shape: 16 512 14 14 (1605632)
I1128 21:15:25.612403  2637 net.cpp:157] Top shape: 16 512 14 14 (1605632)
I1128 21:15:25.612406  2637 net.cpp:165] Memory required for data: 685648644
I1128 21:15:25.612409  2637 layer_factory.hpp:77] Creating layer inception_4c/1x1
I1128 21:15:25.612421  2637 net.cpp:100] Creating Layer inception_4c/1x1
I1128 21:15:25.612442  2637 net.cpp:434] inception_4c/1x1 <- inception_4b/output_inception_4b/output_0_split_0
I1128 21:15:25.612449  2637 net.cpp:408] inception_4c/1x1 -> inception_4c/1x1
I1128 21:15:25.612891  2637 net.cpp:150] Setting up inception_4c/1x1
I1128 21:15:25.612900  2637 net.cpp:157] Top shape: 16 128 14 14 (401408)
I1128 21:15:25.612903  2637 net.cpp:165] Memory required for data: 687254276
I1128 21:15:25.612910  2637 layer_factory.hpp:77] Creating layer inception_4c/relu_1x1
I1128 21:15:25.612915  2637 net.cpp:100] Creating Layer inception_4c/relu_1x1
I1128 21:15:25.612920  2637 net.cpp:434] inception_4c/relu_1x1 <- inception_4c/1x1
I1128 21:15:25.612924  2637 net.cpp:395] inception_4c/relu_1x1 -> inception_4c/1x1 (in-place)
I1128 21:15:25.612931  2637 net.cpp:150] Setting up inception_4c/relu_1x1
I1128 21:15:25.612936  2637 net.cpp:157] Top shape: 16 128 14 14 (401408)
I1128 21:15:25.612939  2637 net.cpp:165] Memory required for data: 688859908
I1128 21:15:25.612942  2637 layer_factory.hpp:77] Creating layer inception_4c/3x3_reduce
I1128 21:15:25.612952  2637 net.cpp:100] Creating Layer inception_4c/3x3_reduce
I1128 21:15:25.612957  2637 net.cpp:434] inception_4c/3x3_reduce <- inception_4b/output_inception_4b/output_0_split_1
I1128 21:15:25.612964  2637 net.cpp:408] inception_4c/3x3_reduce -> inception_4c/3x3_reduce
I1128 21:15:25.613420  2637 net.cpp:150] Setting up inception_4c/3x3_reduce
I1128 21:15:25.613428  2637 net.cpp:157] Top shape: 16 128 14 14 (401408)
I1128 21:15:25.613431  2637 net.cpp:165] Memory required for data: 690465540
I1128 21:15:25.613438  2637 layer_factory.hpp:77] Creating layer inception_4c/relu_3x3_reduce
I1128 21:15:25.613445  2637 net.cpp:100] Creating Layer inception_4c/relu_3x3_reduce
I1128 21:15:25.613451  2637 net.cpp:434] inception_4c/relu_3x3_reduce <- inception_4c/3x3_reduce
I1128 21:15:25.613457  2637 net.cpp:395] inception_4c/relu_3x3_reduce -> inception_4c/3x3_reduce (in-place)
I1128 21:15:25.613466  2637 net.cpp:150] Setting up inception_4c/relu_3x3_reduce
I1128 21:15:25.613471  2637 net.cpp:157] Top shape: 16 128 14 14 (401408)
I1128 21:15:25.613474  2637 net.cpp:165] Memory required for data: 692071172
I1128 21:15:25.613476  2637 layer_factory.hpp:77] Creating layer inception_4c/3x3
I1128 21:15:25.613487  2637 net.cpp:100] Creating Layer inception_4c/3x3
I1128 21:15:25.613492  2637 net.cpp:434] inception_4c/3x3 <- inception_4c/3x3_reduce
I1128 21:15:25.613500  2637 net.cpp:408] inception_4c/3x3 -> inception_4c/3x3
I1128 21:15:25.615350  2637 net.cpp:150] Setting up inception_4c/3x3
I1128 21:15:25.615360  2637 net.cpp:157] Top shape: 16 256 14 14 (802816)
I1128 21:15:25.615363  2637 net.cpp:165] Memory required for data: 695282436
I1128 21:15:25.615394  2637 layer_factory.hpp:77] Creating layer inception_4c/relu_3x3
I1128 21:15:25.615402  2637 net.cpp:100] Creating Layer inception_4c/relu_3x3
I1128 21:15:25.615406  2637 net.cpp:434] inception_4c/relu_3x3 <- inception_4c/3x3
I1128 21:15:25.615416  2637 net.cpp:395] inception_4c/relu_3x3 -> inception_4c/3x3 (in-place)
I1128 21:15:25.615424  2637 net.cpp:150] Setting up inception_4c/relu_3x3
I1128 21:15:25.615429  2637 net.cpp:157] Top shape: 16 256 14 14 (802816)
I1128 21:15:25.615432  2637 net.cpp:165] Memory required for data: 698493700
I1128 21:15:25.615435  2637 layer_factory.hpp:77] Creating layer inception_4c/5x5_reduce
I1128 21:15:25.615444  2637 net.cpp:100] Creating Layer inception_4c/5x5_reduce
I1128 21:15:25.615449  2637 net.cpp:434] inception_4c/5x5_reduce <- inception_4b/output_inception_4b/output_0_split_2
I1128 21:15:25.615458  2637 net.cpp:408] inception_4c/5x5_reduce -> inception_4c/5x5_reduce
I1128 21:15:25.615687  2637 net.cpp:150] Setting up inception_4c/5x5_reduce
I1128 21:15:25.615696  2637 net.cpp:157] Top shape: 16 24 14 14 (75264)
I1128 21:15:25.615700  2637 net.cpp:165] Memory required for data: 698794756
I1128 21:15:25.615705  2637 layer_factory.hpp:77] Creating layer inception_4c/relu_5x5_reduce
I1128 21:15:25.615712  2637 net.cpp:100] Creating Layer inception_4c/relu_5x5_reduce
I1128 21:15:25.615717  2637 net.cpp:434] inception_4c/relu_5x5_reduce <- inception_4c/5x5_reduce
I1128 21:15:25.615725  2637 net.cpp:395] inception_4c/relu_5x5_reduce -> inception_4c/5x5_reduce (in-place)
I1128 21:15:25.615732  2637 net.cpp:150] Setting up inception_4c/relu_5x5_reduce
I1128 21:15:25.615737  2637 net.cpp:157] Top shape: 16 24 14 14 (75264)
I1128 21:15:25.615741  2637 net.cpp:165] Memory required for data: 699095812
I1128 21:15:25.615743  2637 layer_factory.hpp:77] Creating layer inception_4c/5x5
I1128 21:15:25.615753  2637 net.cpp:100] Creating Layer inception_4c/5x5
I1128 21:15:25.615757  2637 net.cpp:434] inception_4c/5x5 <- inception_4c/5x5_reduce
I1128 21:15:25.615764  2637 net.cpp:408] inception_4c/5x5 -> inception_4c/5x5
I1128 21:15:25.616503  2637 net.cpp:150] Setting up inception_4c/5x5
I1128 21:15:25.616514  2637 net.cpp:157] Top shape: 16 64 14 14 (200704)
I1128 21:15:25.616518  2637 net.cpp:165] Memory required for data: 699898628
I1128 21:15:25.616523  2637 layer_factory.hpp:77] Creating layer inception_4c/relu_5x5
I1128 21:15:25.616530  2637 net.cpp:100] Creating Layer inception_4c/relu_5x5
I1128 21:15:25.616534  2637 net.cpp:434] inception_4c/relu_5x5 <- inception_4c/5x5
I1128 21:15:25.616541  2637 net.cpp:395] inception_4c/relu_5x5 -> inception_4c/5x5 (in-place)
I1128 21:15:25.616551  2637 net.cpp:150] Setting up inception_4c/relu_5x5
I1128 21:15:25.616557  2637 net.cpp:157] Top shape: 16 64 14 14 (200704)
I1128 21:15:25.616559  2637 net.cpp:165] Memory required for data: 700701444
I1128 21:15:25.616562  2637 layer_factory.hpp:77] Creating layer inception_4c/pool
I1128 21:15:25.616569  2637 net.cpp:100] Creating Layer inception_4c/pool
I1128 21:15:25.616574  2637 net.cpp:434] inception_4c/pool <- inception_4b/output_inception_4b/output_0_split_3
I1128 21:15:25.616581  2637 net.cpp:408] inception_4c/pool -> inception_4c/pool
I1128 21:15:25.616621  2637 net.cpp:150] Setting up inception_4c/pool
I1128 21:15:25.616627  2637 net.cpp:157] Top shape: 16 512 14 14 (1605632)
I1128 21:15:25.616631  2637 net.cpp:165] Memory required for data: 707123972
I1128 21:15:25.616633  2637 layer_factory.hpp:77] Creating layer inception_4c/pool_proj
I1128 21:15:25.616643  2637 net.cpp:100] Creating Layer inception_4c/pool_proj
I1128 21:15:25.616648  2637 net.cpp:434] inception_4c/pool_proj <- inception_4c/pool
I1128 21:15:25.616657  2637 net.cpp:408] inception_4c/pool_proj -> inception_4c/pool_proj
I1128 21:15:25.616971  2637 net.cpp:150] Setting up inception_4c/pool_proj
I1128 21:15:25.616981  2637 net.cpp:157] Top shape: 16 64 14 14 (200704)
I1128 21:15:25.616983  2637 net.cpp:165] Memory required for data: 707926788
I1128 21:15:25.616989  2637 layer_factory.hpp:77] Creating layer inception_4c/relu_pool_proj
I1128 21:15:25.617005  2637 net.cpp:100] Creating Layer inception_4c/relu_pool_proj
I1128 21:15:25.617010  2637 net.cpp:434] inception_4c/relu_pool_proj <- inception_4c/pool_proj
I1128 21:15:25.617018  2637 net.cpp:395] inception_4c/relu_pool_proj -> inception_4c/pool_proj (in-place)
I1128 21:15:25.617025  2637 net.cpp:150] Setting up inception_4c/relu_pool_proj
I1128 21:15:25.617032  2637 net.cpp:157] Top shape: 16 64 14 14 (200704)
I1128 21:15:25.617033  2637 net.cpp:165] Memory required for data: 708729604
I1128 21:15:25.617036  2637 layer_factory.hpp:77] Creating layer inception_4c/output
I1128 21:15:25.617043  2637 net.cpp:100] Creating Layer inception_4c/output
I1128 21:15:25.617046  2637 net.cpp:434] inception_4c/output <- inception_4c/1x1
I1128 21:15:25.617050  2637 net.cpp:434] inception_4c/output <- inception_4c/3x3
I1128 21:15:25.617054  2637 net.cpp:434] inception_4c/output <- inception_4c/5x5
I1128 21:15:25.617058  2637 net.cpp:434] inception_4c/output <- inception_4c/pool_proj
I1128 21:15:25.617065  2637 net.cpp:408] inception_4c/output -> inception_4c/output
I1128 21:15:25.617091  2637 net.cpp:150] Setting up inception_4c/output
I1128 21:15:25.617099  2637 net.cpp:157] Top shape: 16 512 14 14 (1605632)
I1128 21:15:25.617100  2637 net.cpp:165] Memory required for data: 715152132
I1128 21:15:25.617103  2637 layer_factory.hpp:77] Creating layer inception_4c/output_inception_4c/output_0_split
I1128 21:15:25.617115  2637 net.cpp:100] Creating Layer inception_4c/output_inception_4c/output_0_split
I1128 21:15:25.617120  2637 net.cpp:434] inception_4c/output_inception_4c/output_0_split <- inception_4c/output
I1128 21:15:25.617126  2637 net.cpp:408] inception_4c/output_inception_4c/output_0_split -> inception_4c/output_inception_4c/output_0_split_0
I1128 21:15:25.617135  2637 net.cpp:408] inception_4c/output_inception_4c/output_0_split -> inception_4c/output_inception_4c/output_0_split_1
I1128 21:15:25.617142  2637 net.cpp:408] inception_4c/output_inception_4c/output_0_split -> inception_4c/output_inception_4c/output_0_split_2
I1128 21:15:25.617151  2637 net.cpp:408] inception_4c/output_inception_4c/output_0_split -> inception_4c/output_inception_4c/output_0_split_3
I1128 21:15:25.617205  2637 net.cpp:150] Setting up inception_4c/output_inception_4c/output_0_split
I1128 21:15:25.617213  2637 net.cpp:157] Top shape: 16 512 14 14 (1605632)
I1128 21:15:25.617218  2637 net.cpp:157] Top shape: 16 512 14 14 (1605632)
I1128 21:15:25.617221  2637 net.cpp:157] Top shape: 16 512 14 14 (1605632)
I1128 21:15:25.617225  2637 net.cpp:157] Top shape: 16 512 14 14 (1605632)
I1128 21:15:25.617228  2637 net.cpp:165] Memory required for data: 740842244
I1128 21:15:25.617231  2637 layer_factory.hpp:77] Creating layer inception_4d/1x1
I1128 21:15:25.617243  2637 net.cpp:100] Creating Layer inception_4d/1x1
I1128 21:15:25.617246  2637 net.cpp:434] inception_4d/1x1 <- inception_4c/output_inception_4c/output_0_split_0
I1128 21:15:25.617255  2637 net.cpp:408] inception_4d/1x1 -> inception_4d/1x1
I1128 21:15:25.617671  2637 net.cpp:150] Setting up inception_4d/1x1
I1128 21:15:25.617681  2637 net.cpp:157] Top shape: 16 112 14 14 (351232)
I1128 21:15:25.617683  2637 net.cpp:165] Memory required for data: 742247172
I1128 21:15:25.617689  2637 layer_factory.hpp:77] Creating layer inception_4d/relu_1x1
I1128 21:15:25.617697  2637 net.cpp:100] Creating Layer inception_4d/relu_1x1
I1128 21:15:25.617702  2637 net.cpp:434] inception_4d/relu_1x1 <- inception_4d/1x1
I1128 21:15:25.617707  2637 net.cpp:395] inception_4d/relu_1x1 -> inception_4d/1x1 (in-place)
I1128 21:15:25.617714  2637 net.cpp:150] Setting up inception_4d/relu_1x1
I1128 21:15:25.617718  2637 net.cpp:157] Top shape: 16 112 14 14 (351232)
I1128 21:15:25.617722  2637 net.cpp:165] Memory required for data: 743652100
I1128 21:15:25.617724  2637 layer_factory.hpp:77] Creating layer inception_4d/3x3_reduce
I1128 21:15:25.617734  2637 net.cpp:100] Creating Layer inception_4d/3x3_reduce
I1128 21:15:25.617739  2637 net.cpp:434] inception_4d/3x3_reduce <- inception_4c/output_inception_4c/output_0_split_1
I1128 21:15:25.617758  2637 net.cpp:408] inception_4d/3x3_reduce -> inception_4d/3x3_reduce
I1128 21:15:25.618258  2637 net.cpp:150] Setting up inception_4d/3x3_reduce
I1128 21:15:25.618268  2637 net.cpp:157] Top shape: 16 144 14 14 (451584)
I1128 21:15:25.618269  2637 net.cpp:165] Memory required for data: 745458436
I1128 21:15:25.618276  2637 layer_factory.hpp:77] Creating layer inception_4d/relu_3x3_reduce
I1128 21:15:25.618283  2637 net.cpp:100] Creating Layer inception_4d/relu_3x3_reduce
I1128 21:15:25.618285  2637 net.cpp:434] inception_4d/relu_3x3_reduce <- inception_4d/3x3_reduce
I1128 21:15:25.618291  2637 net.cpp:395] inception_4d/relu_3x3_reduce -> inception_4d/3x3_reduce (in-place)
I1128 21:15:25.618297  2637 net.cpp:150] Setting up inception_4d/relu_3x3_reduce
I1128 21:15:25.618304  2637 net.cpp:157] Top shape: 16 144 14 14 (451584)
I1128 21:15:25.618305  2637 net.cpp:165] Memory required for data: 747264772
I1128 21:15:25.618309  2637 layer_factory.hpp:77] Creating layer inception_4d/3x3
I1128 21:15:25.618319  2637 net.cpp:100] Creating Layer inception_4d/3x3
I1128 21:15:25.618324  2637 net.cpp:434] inception_4d/3x3 <- inception_4d/3x3_reduce
I1128 21:15:25.618330  2637 net.cpp:408] inception_4d/3x3 -> inception_4d/3x3
I1128 21:15:25.620625  2637 net.cpp:150] Setting up inception_4d/3x3
I1128 21:15:25.620635  2637 net.cpp:157] Top shape: 16 288 14 14 (903168)
I1128 21:15:25.620638  2637 net.cpp:165] Memory required for data: 750877444
I1128 21:15:25.620645  2637 layer_factory.hpp:77] Creating layer inception_4d/relu_3x3
I1128 21:15:25.620652  2637 net.cpp:100] Creating Layer inception_4d/relu_3x3
I1128 21:15:25.620656  2637 net.cpp:434] inception_4d/relu_3x3 <- inception_4d/3x3
I1128 21:15:25.620663  2637 net.cpp:395] inception_4d/relu_3x3 -> inception_4d/3x3 (in-place)
I1128 21:15:25.620672  2637 net.cpp:150] Setting up inception_4d/relu_3x3
I1128 21:15:25.620678  2637 net.cpp:157] Top shape: 16 288 14 14 (903168)
I1128 21:15:25.620682  2637 net.cpp:165] Memory required for data: 754490116
I1128 21:15:25.620684  2637 layer_factory.hpp:77] Creating layer inception_4d/5x5_reduce
I1128 21:15:25.620695  2637 net.cpp:100] Creating Layer inception_4d/5x5_reduce
I1128 21:15:25.620699  2637 net.cpp:434] inception_4d/5x5_reduce <- inception_4c/output_inception_4c/output_0_split_2
I1128 21:15:25.620707  2637 net.cpp:408] inception_4d/5x5_reduce -> inception_4d/5x5_reduce
I1128 21:15:25.620961  2637 net.cpp:150] Setting up inception_4d/5x5_reduce
I1128 21:15:25.620970  2637 net.cpp:157] Top shape: 16 32 14 14 (100352)
I1128 21:15:25.620972  2637 net.cpp:165] Memory required for data: 754891524
I1128 21:15:25.620978  2637 layer_factory.hpp:77] Creating layer inception_4d/relu_5x5_reduce
I1128 21:15:25.620987  2637 net.cpp:100] Creating Layer inception_4d/relu_5x5_reduce
I1128 21:15:25.620992  2637 net.cpp:434] inception_4d/relu_5x5_reduce <- inception_4d/5x5_reduce
I1128 21:15:25.620998  2637 net.cpp:395] inception_4d/relu_5x5_reduce -> inception_4d/5x5_reduce (in-place)
I1128 21:15:25.621004  2637 net.cpp:150] Setting up inception_4d/relu_5x5_reduce
I1128 21:15:25.621011  2637 net.cpp:157] Top shape: 16 32 14 14 (100352)
I1128 21:15:25.621012  2637 net.cpp:165] Memory required for data: 755292932
I1128 21:15:25.621016  2637 layer_factory.hpp:77] Creating layer inception_4d/5x5
I1128 21:15:25.621027  2637 net.cpp:100] Creating Layer inception_4d/5x5
I1128 21:15:25.621032  2637 net.cpp:434] inception_4d/5x5 <- inception_4d/5x5_reduce
I1128 21:15:25.621042  2637 net.cpp:408] inception_4d/5x5 -> inception_4d/5x5
I1128 21:15:25.621438  2637 net.cpp:150] Setting up inception_4d/5x5
I1128 21:15:25.621446  2637 net.cpp:157] Top shape: 16 64 14 14 (200704)
I1128 21:15:25.621449  2637 net.cpp:165] Memory required for data: 756095748
I1128 21:15:25.621456  2637 layer_factory.hpp:77] Creating layer inception_4d/relu_5x5
I1128 21:15:25.621464  2637 net.cpp:100] Creating Layer inception_4d/relu_5x5
I1128 21:15:25.621470  2637 net.cpp:434] inception_4d/relu_5x5 <- inception_4d/5x5
I1128 21:15:25.621476  2637 net.cpp:395] inception_4d/relu_5x5 -> inception_4d/5x5 (in-place)
I1128 21:15:25.621492  2637 net.cpp:150] Setting up inception_4d/relu_5x5
I1128 21:15:25.621500  2637 net.cpp:157] Top shape: 16 64 14 14 (200704)
I1128 21:15:25.621502  2637 net.cpp:165] Memory required for data: 756898564
I1128 21:15:25.621505  2637 layer_factory.hpp:77] Creating layer inception_4d/pool
I1128 21:15:25.621515  2637 net.cpp:100] Creating Layer inception_4d/pool
I1128 21:15:25.621520  2637 net.cpp:434] inception_4d/pool <- inception_4c/output_inception_4c/output_0_split_3
I1128 21:15:25.621526  2637 net.cpp:408] inception_4d/pool -> inception_4d/pool
I1128 21:15:25.621562  2637 net.cpp:150] Setting up inception_4d/pool
I1128 21:15:25.621569  2637 net.cpp:157] Top shape: 16 512 14 14 (1605632)
I1128 21:15:25.621572  2637 net.cpp:165] Memory required for data: 763321092
I1128 21:15:25.621575  2637 layer_factory.hpp:77] Creating layer inception_4d/pool_proj
I1128 21:15:25.621585  2637 net.cpp:100] Creating Layer inception_4d/pool_proj
I1128 21:15:25.621592  2637 net.cpp:434] inception_4d/pool_proj <- inception_4d/pool
I1128 21:15:25.621599  2637 net.cpp:408] inception_4d/pool_proj -> inception_4d/pool_proj
I1128 21:15:25.621907  2637 net.cpp:150] Setting up inception_4d/pool_proj
I1128 21:15:25.621915  2637 net.cpp:157] Top shape: 16 64 14 14 (200704)
I1128 21:15:25.621918  2637 net.cpp:165] Memory required for data: 764123908
I1128 21:15:25.621924  2637 layer_factory.hpp:77] Creating layer inception_4d/relu_pool_proj
I1128 21:15:25.621932  2637 net.cpp:100] Creating Layer inception_4d/relu_pool_proj
I1128 21:15:25.621937  2637 net.cpp:434] inception_4d/relu_pool_proj <- inception_4d/pool_proj
I1128 21:15:25.621943  2637 net.cpp:395] inception_4d/relu_pool_proj -> inception_4d/pool_proj (in-place)
I1128 21:15:25.621949  2637 net.cpp:150] Setting up inception_4d/relu_pool_proj
I1128 21:15:25.621955  2637 net.cpp:157] Top shape: 16 64 14 14 (200704)
I1128 21:15:25.621958  2637 net.cpp:165] Memory required for data: 764926724
I1128 21:15:25.621960  2637 layer_factory.hpp:77] Creating layer inception_4d/output
I1128 21:15:25.621968  2637 net.cpp:100] Creating Layer inception_4d/output
I1128 21:15:25.621973  2637 net.cpp:434] inception_4d/output <- inception_4d/1x1
I1128 21:15:25.621976  2637 net.cpp:434] inception_4d/output <- inception_4d/3x3
I1128 21:15:25.621980  2637 net.cpp:434] inception_4d/output <- inception_4d/5x5
I1128 21:15:25.621984  2637 net.cpp:434] inception_4d/output <- inception_4d/pool_proj
I1128 21:15:25.621989  2637 net.cpp:408] inception_4d/output -> inception_4d/output
I1128 21:15:25.622014  2637 net.cpp:150] Setting up inception_4d/output
I1128 21:15:25.622020  2637 net.cpp:157] Top shape: 16 528 14 14 (1655808)
I1128 21:15:25.622023  2637 net.cpp:165] Memory required for data: 771549956
I1128 21:15:25.622026  2637 layer_factory.hpp:77] Creating layer inception_4d/output_inception_4d/output_0_split
I1128 21:15:25.622033  2637 net.cpp:100] Creating Layer inception_4d/output_inception_4d/output_0_split
I1128 21:15:25.622036  2637 net.cpp:434] inception_4d/output_inception_4d/output_0_split <- inception_4d/output
I1128 21:15:25.622045  2637 net.cpp:408] inception_4d/output_inception_4d/output_0_split -> inception_4d/output_inception_4d/output_0_split_0
I1128 21:15:25.622053  2637 net.cpp:408] inception_4d/output_inception_4d/output_0_split -> inception_4d/output_inception_4d/output_0_split_1
I1128 21:15:25.622063  2637 net.cpp:408] inception_4d/output_inception_4d/output_0_split -> inception_4d/output_inception_4d/output_0_split_2
I1128 21:15:25.622072  2637 net.cpp:408] inception_4d/output_inception_4d/output_0_split -> inception_4d/output_inception_4d/output_0_split_3
I1128 21:15:25.622079  2637 net.cpp:408] inception_4d/output_inception_4d/output_0_split -> inception_4d/output_inception_4d/output_0_split_4
I1128 21:15:25.622136  2637 net.cpp:150] Setting up inception_4d/output_inception_4d/output_0_split
I1128 21:15:25.622145  2637 net.cpp:157] Top shape: 16 528 14 14 (1655808)
I1128 21:15:25.622149  2637 net.cpp:157] Top shape: 16 528 14 14 (1655808)
I1128 21:15:25.622164  2637 net.cpp:157] Top shape: 16 528 14 14 (1655808)
I1128 21:15:25.622169  2637 net.cpp:157] Top shape: 16 528 14 14 (1655808)
I1128 21:15:25.622172  2637 net.cpp:157] Top shape: 16 528 14 14 (1655808)
I1128 21:15:25.622175  2637 net.cpp:165] Memory required for data: 804666116
I1128 21:15:25.622179  2637 layer_factory.hpp:77] Creating layer loss2/ave_pool
I1128 21:15:25.622184  2637 net.cpp:100] Creating Layer loss2/ave_pool
I1128 21:15:25.622189  2637 net.cpp:434] loss2/ave_pool <- inception_4d/output_inception_4d/output_0_split_0
I1128 21:15:25.622195  2637 net.cpp:408] loss2/ave_pool -> loss2/ave_pool
I1128 21:15:25.622220  2637 net.cpp:150] Setting up loss2/ave_pool
I1128 21:15:25.622226  2637 net.cpp:157] Top shape: 16 528 4 4 (135168)
I1128 21:15:25.622229  2637 net.cpp:165] Memory required for data: 805206788
I1128 21:15:25.622232  2637 layer_factory.hpp:77] Creating layer loss2/conv
I1128 21:15:25.622242  2637 net.cpp:100] Creating Layer loss2/conv
I1128 21:15:25.622247  2637 net.cpp:434] loss2/conv <- loss2/ave_pool
I1128 21:15:25.622256  2637 net.cpp:408] loss2/conv -> loss2/conv
I1128 21:15:25.622725  2637 net.cpp:150] Setting up loss2/conv
I1128 21:15:25.622732  2637 net.cpp:157] Top shape: 16 128 4 4 (32768)
I1128 21:15:25.622735  2637 net.cpp:165] Memory required for data: 805337860
I1128 21:15:25.622741  2637 layer_factory.hpp:77] Creating layer loss2/relu_conv
I1128 21:15:25.622747  2637 net.cpp:100] Creating Layer loss2/relu_conv
I1128 21:15:25.622751  2637 net.cpp:434] loss2/relu_conv <- loss2/conv
I1128 21:15:25.622756  2637 net.cpp:395] loss2/relu_conv -> loss2/conv (in-place)
I1128 21:15:25.622762  2637 net.cpp:150] Setting up loss2/relu_conv
I1128 21:15:25.622768  2637 net.cpp:157] Top shape: 16 128 4 4 (32768)
I1128 21:15:25.622771  2637 net.cpp:165] Memory required for data: 805468932
I1128 21:15:25.622774  2637 layer_factory.hpp:77] Creating layer loss2/fc
I1128 21:15:25.622782  2637 net.cpp:100] Creating Layer loss2/fc
I1128 21:15:25.622786  2637 net.cpp:434] loss2/fc <- loss2/conv
I1128 21:15:25.622797  2637 net.cpp:408] loss2/fc -> loss2/fc
I1128 21:15:25.633797  2637 net.cpp:150] Setting up loss2/fc
I1128 21:15:25.633819  2637 net.cpp:157] Top shape: 16 1024 (16384)
I1128 21:15:25.633822  2637 net.cpp:165] Memory required for data: 805534468
I1128 21:15:25.633831  2637 layer_factory.hpp:77] Creating layer loss2/relu_fc
I1128 21:15:25.633839  2637 net.cpp:100] Creating Layer loss2/relu_fc
I1128 21:15:25.633846  2637 net.cpp:434] loss2/relu_fc <- loss2/fc
I1128 21:15:25.633854  2637 net.cpp:395] loss2/relu_fc -> loss2/fc (in-place)
I1128 21:15:25.633865  2637 net.cpp:150] Setting up loss2/relu_fc
I1128 21:15:25.633872  2637 net.cpp:157] Top shape: 16 1024 (16384)
I1128 21:15:25.633874  2637 net.cpp:165] Memory required for data: 805600004
I1128 21:15:25.633877  2637 layer_factory.hpp:77] Creating layer loss2/drop_fc
I1128 21:15:25.633884  2637 net.cpp:100] Creating Layer loss2/drop_fc
I1128 21:15:25.633888  2637 net.cpp:434] loss2/drop_fc <- loss2/fc
I1128 21:15:25.633893  2637 net.cpp:395] loss2/drop_fc -> loss2/fc (in-place)
I1128 21:15:25.633920  2637 net.cpp:150] Setting up loss2/drop_fc
I1128 21:15:25.633927  2637 net.cpp:157] Top shape: 16 1024 (16384)
I1128 21:15:25.633929  2637 net.cpp:165] Memory required for data: 805665540
I1128 21:15:25.633932  2637 layer_factory.hpp:77] Creating layer loss2/classifier
I1128 21:15:25.633942  2637 net.cpp:100] Creating Layer loss2/classifier
I1128 21:15:25.633946  2637 net.cpp:434] loss2/classifier <- loss2/fc
I1128 21:15:25.633955  2637 net.cpp:408] loss2/classifier -> loss2/classifier
I1128 21:15:25.639441  2637 net.cpp:150] Setting up loss2/classifier
I1128 21:15:25.639456  2637 net.cpp:157] Top shape: 16 1000 (16000)
I1128 21:15:25.639459  2637 net.cpp:165] Memory required for data: 805729540
I1128 21:15:25.639467  2637 layer_factory.hpp:77] Creating layer loss2/loss
I1128 21:15:25.639474  2637 net.cpp:100] Creating Layer loss2/loss
I1128 21:15:25.639479  2637 net.cpp:434] loss2/loss <- loss2/classifier
I1128 21:15:25.639497  2637 net.cpp:434] loss2/loss <- label_data_1_split_1
I1128 21:15:25.639506  2637 net.cpp:408] loss2/loss -> loss2/loss1
I1128 21:15:25.639518  2637 layer_factory.hpp:77] Creating layer loss2/loss
I1128 21:15:25.639608  2637 net.cpp:150] Setting up loss2/loss
I1128 21:15:25.639616  2637 net.cpp:157] Top shape: (1)
I1128 21:15:25.639619  2637 net.cpp:160]     with loss weight 0.3
I1128 21:15:25.639632  2637 net.cpp:165] Memory required for data: 805729544
I1128 21:15:25.639636  2637 layer_factory.hpp:77] Creating layer inception_4e/1x1
I1128 21:15:25.639650  2637 net.cpp:100] Creating Layer inception_4e/1x1
I1128 21:15:25.639655  2637 net.cpp:434] inception_4e/1x1 <- inception_4d/output_inception_4d/output_0_split_1
I1128 21:15:25.639662  2637 net.cpp:408] inception_4e/1x1 -> inception_4e/1x1
I1128 21:15:25.640811  2637 net.cpp:150] Setting up inception_4e/1x1
I1128 21:15:25.640823  2637 net.cpp:157] Top shape: 16 256 14 14 (802816)
I1128 21:15:25.640827  2637 net.cpp:165] Memory required for data: 808940808
I1128 21:15:25.640835  2637 layer_factory.hpp:77] Creating layer inception_4e/relu_1x1
I1128 21:15:25.640841  2637 net.cpp:100] Creating Layer inception_4e/relu_1x1
I1128 21:15:25.640846  2637 net.cpp:434] inception_4e/relu_1x1 <- inception_4e/1x1
I1128 21:15:25.640852  2637 net.cpp:395] inception_4e/relu_1x1 -> inception_4e/1x1 (in-place)
I1128 21:15:25.640859  2637 net.cpp:150] Setting up inception_4e/relu_1x1
I1128 21:15:25.640866  2637 net.cpp:157] Top shape: 16 256 14 14 (802816)
I1128 21:15:25.640868  2637 net.cpp:165] Memory required for data: 812152072
I1128 21:15:25.640871  2637 layer_factory.hpp:77] Creating layer inception_4e/3x3_reduce
I1128 21:15:25.640882  2637 net.cpp:100] Creating Layer inception_4e/3x3_reduce
I1128 21:15:25.640885  2637 net.cpp:434] inception_4e/3x3_reduce <- inception_4d/output_inception_4d/output_0_split_2
I1128 21:15:25.640893  2637 net.cpp:408] inception_4e/3x3_reduce -> inception_4e/3x3_reduce
I1128 21:15:25.641441  2637 net.cpp:150] Setting up inception_4e/3x3_reduce
I1128 21:15:25.641450  2637 net.cpp:157] Top shape: 16 160 14 14 (501760)
I1128 21:15:25.641453  2637 net.cpp:165] Memory required for data: 814159112
I1128 21:15:25.641459  2637 layer_factory.hpp:77] Creating layer inception_4e/relu_3x3_reduce
I1128 21:15:25.641466  2637 net.cpp:100] Creating Layer inception_4e/relu_3x3_reduce
I1128 21:15:25.641471  2637 net.cpp:434] inception_4e/relu_3x3_reduce <- inception_4e/3x3_reduce
I1128 21:15:25.641479  2637 net.cpp:395] inception_4e/relu_3x3_reduce -> inception_4e/3x3_reduce (in-place)
I1128 21:15:25.641486  2637 net.cpp:150] Setting up inception_4e/relu_3x3_reduce
I1128 21:15:25.641492  2637 net.cpp:157] Top shape: 16 160 14 14 (501760)
I1128 21:15:25.641495  2637 net.cpp:165] Memory required for data: 816166152
I1128 21:15:25.641499  2637 layer_factory.hpp:77] Creating layer inception_4e/3x3
I1128 21:15:25.641506  2637 net.cpp:100] Creating Layer inception_4e/3x3
I1128 21:15:25.641510  2637 net.cpp:434] inception_4e/3x3 <- inception_4e/3x3_reduce
I1128 21:15:25.641517  2637 net.cpp:408] inception_4e/3x3 -> inception_4e/3x3
I1128 21:15:25.644253  2637 net.cpp:150] Setting up inception_4e/3x3
I1128 21:15:25.644265  2637 net.cpp:157] Top shape: 16 320 14 14 (1003520)
I1128 21:15:25.644268  2637 net.cpp:165] Memory required for data: 820180232
I1128 21:15:25.644274  2637 layer_factory.hpp:77] Creating layer inception_4e/relu_3x3
I1128 21:15:25.644282  2637 net.cpp:100] Creating Layer inception_4e/relu_3x3
I1128 21:15:25.644286  2637 net.cpp:434] inception_4e/relu_3x3 <- inception_4e/3x3
I1128 21:15:25.644294  2637 net.cpp:395] inception_4e/relu_3x3 -> inception_4e/3x3 (in-place)
I1128 21:15:25.644304  2637 net.cpp:150] Setting up inception_4e/relu_3x3
I1128 21:15:25.644309  2637 net.cpp:157] Top shape: 16 320 14 14 (1003520)
I1128 21:15:25.644311  2637 net.cpp:165] Memory required for data: 824194312
I1128 21:15:25.644315  2637 layer_factory.hpp:77] Creating layer inception_4e/5x5_reduce
I1128 21:15:25.644325  2637 net.cpp:100] Creating Layer inception_4e/5x5_reduce
I1128 21:15:25.644340  2637 net.cpp:434] inception_4e/5x5_reduce <- inception_4d/output_inception_4d/output_0_split_3
I1128 21:15:25.644350  2637 net.cpp:408] inception_4e/5x5_reduce -> inception_4e/5x5_reduce
I1128 21:15:25.644683  2637 net.cpp:150] Setting up inception_4e/5x5_reduce
I1128 21:15:25.644695  2637 net.cpp:157] Top shape: 16 32 14 14 (100352)
I1128 21:15:25.644698  2637 net.cpp:165] Memory required for data: 824595720
I1128 21:15:25.644704  2637 layer_factory.hpp:77] Creating layer inception_4e/relu_5x5_reduce
I1128 21:15:25.644714  2637 net.cpp:100] Creating Layer inception_4e/relu_5x5_reduce
I1128 21:15:25.644721  2637 net.cpp:434] inception_4e/relu_5x5_reduce <- inception_4e/5x5_reduce
I1128 21:15:25.644726  2637 net.cpp:395] inception_4e/relu_5x5_reduce -> inception_4e/5x5_reduce (in-place)
I1128 21:15:25.644736  2637 net.cpp:150] Setting up inception_4e/relu_5x5_reduce
I1128 21:15:25.644740  2637 net.cpp:157] Top shape: 16 32 14 14 (100352)
I1128 21:15:25.644744  2637 net.cpp:165] Memory required for data: 824997128
I1128 21:15:25.644747  2637 layer_factory.hpp:77] Creating layer inception_4e/5x5
I1128 21:15:25.644783  2637 net.cpp:100] Creating Layer inception_4e/5x5
I1128 21:15:25.644788  2637 net.cpp:434] inception_4e/5x5 <- inception_4e/5x5_reduce
I1128 21:15:25.644794  2637 net.cpp:408] inception_4e/5x5 -> inception_4e/5x5
I1128 21:15:25.645848  2637 net.cpp:150] Setting up inception_4e/5x5
I1128 21:15:25.645861  2637 net.cpp:157] Top shape: 16 128 14 14 (401408)
I1128 21:15:25.645864  2637 net.cpp:165] Memory required for data: 826602760
I1128 21:15:25.645872  2637 layer_factory.hpp:77] Creating layer inception_4e/relu_5x5
I1128 21:15:25.645879  2637 net.cpp:100] Creating Layer inception_4e/relu_5x5
I1128 21:15:25.645884  2637 net.cpp:434] inception_4e/relu_5x5 <- inception_4e/5x5
I1128 21:15:25.645890  2637 net.cpp:395] inception_4e/relu_5x5 -> inception_4e/5x5 (in-place)
I1128 21:15:25.645897  2637 net.cpp:150] Setting up inception_4e/relu_5x5
I1128 21:15:25.645903  2637 net.cpp:157] Top shape: 16 128 14 14 (401408)
I1128 21:15:25.645905  2637 net.cpp:165] Memory required for data: 828208392
I1128 21:15:25.645908  2637 layer_factory.hpp:77] Creating layer inception_4e/pool
I1128 21:15:25.645917  2637 net.cpp:100] Creating Layer inception_4e/pool
I1128 21:15:25.645922  2637 net.cpp:434] inception_4e/pool <- inception_4d/output_inception_4d/output_0_split_4
I1128 21:15:25.645930  2637 net.cpp:408] inception_4e/pool -> inception_4e/pool
I1128 21:15:25.645967  2637 net.cpp:150] Setting up inception_4e/pool
I1128 21:15:25.645974  2637 net.cpp:157] Top shape: 16 528 14 14 (1655808)
I1128 21:15:25.645977  2637 net.cpp:165] Memory required for data: 834831624
I1128 21:15:25.645980  2637 layer_factory.hpp:77] Creating layer inception_4e/pool_proj
I1128 21:15:25.645990  2637 net.cpp:100] Creating Layer inception_4e/pool_proj
I1128 21:15:25.645994  2637 net.cpp:434] inception_4e/pool_proj <- inception_4e/pool
I1128 21:15:25.646003  2637 net.cpp:408] inception_4e/pool_proj -> inception_4e/pool_proj
I1128 21:15:25.646471  2637 net.cpp:150] Setting up inception_4e/pool_proj
I1128 21:15:25.646481  2637 net.cpp:157] Top shape: 16 128 14 14 (401408)
I1128 21:15:25.646483  2637 net.cpp:165] Memory required for data: 836437256
I1128 21:15:25.646491  2637 layer_factory.hpp:77] Creating layer inception_4e/relu_pool_proj
I1128 21:15:25.646497  2637 net.cpp:100] Creating Layer inception_4e/relu_pool_proj
I1128 21:15:25.646502  2637 net.cpp:434] inception_4e/relu_pool_proj <- inception_4e/pool_proj
I1128 21:15:25.646508  2637 net.cpp:395] inception_4e/relu_pool_proj -> inception_4e/pool_proj (in-place)
I1128 21:15:25.646514  2637 net.cpp:150] Setting up inception_4e/relu_pool_proj
I1128 21:15:25.646520  2637 net.cpp:157] Top shape: 16 128 14 14 (401408)
I1128 21:15:25.646523  2637 net.cpp:165] Memory required for data: 838042888
I1128 21:15:25.646527  2637 layer_factory.hpp:77] Creating layer inception_4e/output
I1128 21:15:25.646533  2637 net.cpp:100] Creating Layer inception_4e/output
I1128 21:15:25.646546  2637 net.cpp:434] inception_4e/output <- inception_4e/1x1
I1128 21:15:25.646551  2637 net.cpp:434] inception_4e/output <- inception_4e/3x3
I1128 21:15:25.646555  2637 net.cpp:434] inception_4e/output <- inception_4e/5x5
I1128 21:15:25.646559  2637 net.cpp:434] inception_4e/output <- inception_4e/pool_proj
I1128 21:15:25.646567  2637 net.cpp:408] inception_4e/output -> inception_4e/output
I1128 21:15:25.646595  2637 net.cpp:150] Setting up inception_4e/output
I1128 21:15:25.646601  2637 net.cpp:157] Top shape: 16 832 14 14 (2609152)
I1128 21:15:25.646605  2637 net.cpp:165] Memory required for data: 848479496
I1128 21:15:25.646607  2637 layer_factory.hpp:77] Creating layer pool4/3x3_s2
I1128 21:15:25.646615  2637 net.cpp:100] Creating Layer pool4/3x3_s2
I1128 21:15:25.646617  2637 net.cpp:434] pool4/3x3_s2 <- inception_4e/output
I1128 21:15:25.646623  2637 net.cpp:408] pool4/3x3_s2 -> pool4/3x3_s2
I1128 21:15:25.646659  2637 net.cpp:150] Setting up pool4/3x3_s2
I1128 21:15:25.646666  2637 net.cpp:157] Top shape: 16 832 7 7 (652288)
I1128 21:15:25.646668  2637 net.cpp:165] Memory required for data: 851088648
I1128 21:15:25.646672  2637 layer_factory.hpp:77] Creating layer pool4/3x3_s2_pool4/3x3_s2_0_split
I1128 21:15:25.646679  2637 net.cpp:100] Creating Layer pool4/3x3_s2_pool4/3x3_s2_0_split
I1128 21:15:25.646684  2637 net.cpp:434] pool4/3x3_s2_pool4/3x3_s2_0_split <- pool4/3x3_s2
I1128 21:15:25.646690  2637 net.cpp:408] pool4/3x3_s2_pool4/3x3_s2_0_split -> pool4/3x3_s2_pool4/3x3_s2_0_split_0
I1128 21:15:25.646703  2637 net.cpp:408] pool4/3x3_s2_pool4/3x3_s2_0_split -> pool4/3x3_s2_pool4/3x3_s2_0_split_1
I1128 21:15:25.646709  2637 net.cpp:408] pool4/3x3_s2_pool4/3x3_s2_0_split -> pool4/3x3_s2_pool4/3x3_s2_0_split_2
I1128 21:15:25.646718  2637 net.cpp:408] pool4/3x3_s2_pool4/3x3_s2_0_split -> pool4/3x3_s2_pool4/3x3_s2_0_split_3
I1128 21:15:25.646767  2637 net.cpp:150] Setting up pool4/3x3_s2_pool4/3x3_s2_0_split
I1128 21:15:25.646775  2637 net.cpp:157] Top shape: 16 832 7 7 (652288)
I1128 21:15:25.646780  2637 net.cpp:157] Top shape: 16 832 7 7 (652288)
I1128 21:15:25.646783  2637 net.cpp:157] Top shape: 16 832 7 7 (652288)
I1128 21:15:25.646787  2637 net.cpp:157] Top shape: 16 832 7 7 (652288)
I1128 21:15:25.646790  2637 net.cpp:165] Memory required for data: 861525256
I1128 21:15:25.646793  2637 layer_factory.hpp:77] Creating layer inception_5a/1x1
I1128 21:15:25.646803  2637 net.cpp:100] Creating Layer inception_5a/1x1
I1128 21:15:25.646808  2637 net.cpp:434] inception_5a/1x1 <- pool4/3x3_s2_pool4/3x3_s2_0_split_0
I1128 21:15:25.646817  2637 net.cpp:408] inception_5a/1x1 -> inception_5a/1x1
I1128 21:15:25.648278  2637 net.cpp:150] Setting up inception_5a/1x1
I1128 21:15:25.648289  2637 net.cpp:157] Top shape: 16 256 7 7 (200704)
I1128 21:15:25.648293  2637 net.cpp:165] Memory required for data: 862328072
I1128 21:15:25.648299  2637 layer_factory.hpp:77] Creating layer inception_5a/relu_1x1
I1128 21:15:25.648306  2637 net.cpp:100] Creating Layer inception_5a/relu_1x1
I1128 21:15:25.648310  2637 net.cpp:434] inception_5a/relu_1x1 <- inception_5a/1x1
I1128 21:15:25.648317  2637 net.cpp:395] inception_5a/relu_1x1 -> inception_5a/1x1 (in-place)
I1128 21:15:25.648325  2637 net.cpp:150] Setting up inception_5a/relu_1x1
I1128 21:15:25.648331  2637 net.cpp:157] Top shape: 16 256 7 7 (200704)
I1128 21:15:25.648334  2637 net.cpp:165] Memory required for data: 863130888
I1128 21:15:25.648337  2637 layer_factory.hpp:77] Creating layer inception_5a/3x3_reduce
I1128 21:15:25.648349  2637 net.cpp:100] Creating Layer inception_5a/3x3_reduce
I1128 21:15:25.648353  2637 net.cpp:434] inception_5a/3x3_reduce <- pool4/3x3_s2_pool4/3x3_s2_0_split_1
I1128 21:15:25.648360  2637 net.cpp:408] inception_5a/3x3_reduce -> inception_5a/3x3_reduce
I1128 21:15:25.649497  2637 net.cpp:150] Setting up inception_5a/3x3_reduce
I1128 21:15:25.649508  2637 net.cpp:157] Top shape: 16 160 7 7 (125440)
I1128 21:15:25.649511  2637 net.cpp:165] Memory required for data: 863632648
I1128 21:15:25.649518  2637 layer_factory.hpp:77] Creating layer inception_5a/relu_3x3_reduce
I1128 21:15:25.649538  2637 net.cpp:100] Creating Layer inception_5a/relu_3x3_reduce
I1128 21:15:25.649544  2637 net.cpp:434] inception_5a/relu_3x3_reduce <- inception_5a/3x3_reduce
I1128 21:15:25.649550  2637 net.cpp:395] inception_5a/relu_3x3_reduce -> inception_5a/3x3_reduce (in-place)
I1128 21:15:25.649559  2637 net.cpp:150] Setting up inception_5a/relu_3x3_reduce
I1128 21:15:25.649564  2637 net.cpp:157] Top shape: 16 160 7 7 (125440)
I1128 21:15:25.649566  2637 net.cpp:165] Memory required for data: 864134408
I1128 21:15:25.649569  2637 layer_factory.hpp:77] Creating layer inception_5a/3x3
I1128 21:15:25.649580  2637 net.cpp:100] Creating Layer inception_5a/3x3
I1128 21:15:25.649585  2637 net.cpp:434] inception_5a/3x3 <- inception_5a/3x3_reduce
I1128 21:15:25.649593  2637 net.cpp:408] inception_5a/3x3 -> inception_5a/3x3
I1128 21:15:25.652290  2637 net.cpp:150] Setting up inception_5a/3x3
I1128 21:15:25.652304  2637 net.cpp:157] Top shape: 16 320 7 7 (250880)
I1128 21:15:25.652307  2637 net.cpp:165] Memory required for data: 865137928
I1128 21:15:25.652314  2637 layer_factory.hpp:77] Creating layer inception_5a/relu_3x3
I1128 21:15:25.652321  2637 net.cpp:100] Creating Layer inception_5a/relu_3x3
I1128 21:15:25.652326  2637 net.cpp:434] inception_5a/relu_3x3 <- inception_5a/3x3
I1128 21:15:25.652331  2637 net.cpp:395] inception_5a/relu_3x3 -> inception_5a/3x3 (in-place)
I1128 21:15:25.652339  2637 net.cpp:150] Setting up inception_5a/relu_3x3
I1128 21:15:25.652344  2637 net.cpp:157] Top shape: 16 320 7 7 (250880)
I1128 21:15:25.652348  2637 net.cpp:165] Memory required for data: 866141448
I1128 21:15:25.652350  2637 layer_factory.hpp:77] Creating layer inception_5a/5x5_reduce
I1128 21:15:25.652360  2637 net.cpp:100] Creating Layer inception_5a/5x5_reduce
I1128 21:15:25.652365  2637 net.cpp:434] inception_5a/5x5_reduce <- pool4/3x3_s2_pool4/3x3_s2_0_split_2
I1128 21:15:25.652374  2637 net.cpp:408] inception_5a/5x5_reduce -> inception_5a/5x5_reduce
I1128 21:15:25.652681  2637 net.cpp:150] Setting up inception_5a/5x5_reduce
I1128 21:15:25.652690  2637 net.cpp:157] Top shape: 16 32 7 7 (25088)
I1128 21:15:25.652693  2637 net.cpp:165] Memory required for data: 866241800
I1128 21:15:25.652699  2637 layer_factory.hpp:77] Creating layer inception_5a/relu_5x5_reduce
I1128 21:15:25.652709  2637 net.cpp:100] Creating Layer inception_5a/relu_5x5_reduce
I1128 21:15:25.652714  2637 net.cpp:434] inception_5a/relu_5x5_reduce <- inception_5a/5x5_reduce
I1128 21:15:25.652720  2637 net.cpp:395] inception_5a/relu_5x5_reduce -> inception_5a/5x5_reduce (in-place)
I1128 21:15:25.652729  2637 net.cpp:150] Setting up inception_5a/relu_5x5_reduce
I1128 21:15:25.652734  2637 net.cpp:157] Top shape: 16 32 7 7 (25088)
I1128 21:15:25.652737  2637 net.cpp:165] Memory required for data: 866342152
I1128 21:15:25.652740  2637 layer_factory.hpp:77] Creating layer inception_5a/5x5
I1128 21:15:25.652748  2637 net.cpp:100] Creating Layer inception_5a/5x5
I1128 21:15:25.652753  2637 net.cpp:434] inception_5a/5x5 <- inception_5a/5x5_reduce
I1128 21:15:25.652761  2637 net.cpp:408] inception_5a/5x5 -> inception_5a/5x5
I1128 21:15:25.653376  2637 net.cpp:150] Setting up inception_5a/5x5
I1128 21:15:25.653386  2637 net.cpp:157] Top shape: 16 128 7 7 (100352)
I1128 21:15:25.653389  2637 net.cpp:165] Memory required for data: 866743560
I1128 21:15:25.653395  2637 layer_factory.hpp:77] Creating layer inception_5a/relu_5x5
I1128 21:15:25.653401  2637 net.cpp:100] Creating Layer inception_5a/relu_5x5
I1128 21:15:25.653406  2637 net.cpp:434] inception_5a/relu_5x5 <- inception_5a/5x5
I1128 21:15:25.653411  2637 net.cpp:395] inception_5a/relu_5x5 -> inception_5a/5x5 (in-place)
I1128 21:15:25.653419  2637 net.cpp:150] Setting up inception_5a/relu_5x5
I1128 21:15:25.653424  2637 net.cpp:157] Top shape: 16 128 7 7 (100352)
I1128 21:15:25.653426  2637 net.cpp:165] Memory required for data: 867144968
I1128 21:15:25.653429  2637 layer_factory.hpp:77] Creating layer inception_5a/pool
I1128 21:15:25.653437  2637 net.cpp:100] Creating Layer inception_5a/pool
I1128 21:15:25.653451  2637 net.cpp:434] inception_5a/pool <- pool4/3x3_s2_pool4/3x3_s2_0_split_3
I1128 21:15:25.653458  2637 net.cpp:408] inception_5a/pool -> inception_5a/pool
I1128 21:15:25.653498  2637 net.cpp:150] Setting up inception_5a/pool
I1128 21:15:25.653506  2637 net.cpp:157] Top shape: 16 832 7 7 (652288)
I1128 21:15:25.653508  2637 net.cpp:165] Memory required for data: 869754120
I1128 21:15:25.653512  2637 layer_factory.hpp:77] Creating layer inception_5a/pool_proj
I1128 21:15:25.653522  2637 net.cpp:100] Creating Layer inception_5a/pool_proj
I1128 21:15:25.653527  2637 net.cpp:434] inception_5a/pool_proj <- inception_5a/pool
I1128 21:15:25.653537  2637 net.cpp:408] inception_5a/pool_proj -> inception_5a/pool_proj
I1128 21:15:25.654563  2637 net.cpp:150] Setting up inception_5a/pool_proj
I1128 21:15:25.654574  2637 net.cpp:157] Top shape: 16 128 7 7 (100352)
I1128 21:15:25.654577  2637 net.cpp:165] Memory required for data: 870155528
I1128 21:15:25.654583  2637 layer_factory.hpp:77] Creating layer inception_5a/relu_pool_proj
I1128 21:15:25.654592  2637 net.cpp:100] Creating Layer inception_5a/relu_pool_proj
I1128 21:15:25.654599  2637 net.cpp:434] inception_5a/relu_pool_proj <- inception_5a/pool_proj
I1128 21:15:25.654605  2637 net.cpp:395] inception_5a/relu_pool_proj -> inception_5a/pool_proj (in-place)
I1128 21:15:25.654615  2637 net.cpp:150] Setting up inception_5a/relu_pool_proj
I1128 21:15:25.654621  2637 net.cpp:157] Top shape: 16 128 7 7 (100352)
I1128 21:15:25.654624  2637 net.cpp:165] Memory required for data: 870556936
I1128 21:15:25.654628  2637 layer_factory.hpp:77] Creating layer inception_5a/output
I1128 21:15:25.654633  2637 net.cpp:100] Creating Layer inception_5a/output
I1128 21:15:25.654639  2637 net.cpp:434] inception_5a/output <- inception_5a/1x1
I1128 21:15:25.654642  2637 net.cpp:434] inception_5a/output <- inception_5a/3x3
I1128 21:15:25.654646  2637 net.cpp:434] inception_5a/output <- inception_5a/5x5
I1128 21:15:25.654650  2637 net.cpp:434] inception_5a/output <- inception_5a/pool_proj
I1128 21:15:25.654655  2637 net.cpp:408] inception_5a/output -> inception_5a/output
I1128 21:15:25.654682  2637 net.cpp:150] Setting up inception_5a/output
I1128 21:15:25.654690  2637 net.cpp:157] Top shape: 16 832 7 7 (652288)
I1128 21:15:25.654691  2637 net.cpp:165] Memory required for data: 873166088
I1128 21:15:25.654695  2637 layer_factory.hpp:77] Creating layer inception_5a/output_inception_5a/output_0_split
I1128 21:15:25.654702  2637 net.cpp:100] Creating Layer inception_5a/output_inception_5a/output_0_split
I1128 21:15:25.654707  2637 net.cpp:434] inception_5a/output_inception_5a/output_0_split <- inception_5a/output
I1128 21:15:25.654714  2637 net.cpp:408] inception_5a/output_inception_5a/output_0_split -> inception_5a/output_inception_5a/output_0_split_0
I1128 21:15:25.654721  2637 net.cpp:408] inception_5a/output_inception_5a/output_0_split -> inception_5a/output_inception_5a/output_0_split_1
I1128 21:15:25.654731  2637 net.cpp:408] inception_5a/output_inception_5a/output_0_split -> inception_5a/output_inception_5a/output_0_split_2
I1128 21:15:25.654739  2637 net.cpp:408] inception_5a/output_inception_5a/output_0_split -> inception_5a/output_inception_5a/output_0_split_3
I1128 21:15:25.654791  2637 net.cpp:150] Setting up inception_5a/output_inception_5a/output_0_split
I1128 21:15:25.654798  2637 net.cpp:157] Top shape: 16 832 7 7 (652288)
I1128 21:15:25.654801  2637 net.cpp:157] Top shape: 16 832 7 7 (652288)
I1128 21:15:25.654805  2637 net.cpp:157] Top shape: 16 832 7 7 (652288)
I1128 21:15:25.654809  2637 net.cpp:157] Top shape: 16 832 7 7 (652288)
I1128 21:15:25.654813  2637 net.cpp:165] Memory required for data: 883602696
I1128 21:15:25.654815  2637 layer_factory.hpp:77] Creating layer inception_5b/1x1
I1128 21:15:25.654829  2637 net.cpp:100] Creating Layer inception_5b/1x1
I1128 21:15:25.654832  2637 net.cpp:434] inception_5b/1x1 <- inception_5a/output_inception_5a/output_0_split_0
I1128 21:15:25.654839  2637 net.cpp:408] inception_5b/1x1 -> inception_5b/1x1
I1128 21:15:25.656811  2637 net.cpp:150] Setting up inception_5b/1x1
I1128 21:15:25.656831  2637 net.cpp:157] Top shape: 16 384 7 7 (301056)
I1128 21:15:25.656834  2637 net.cpp:165] Memory required for data: 884806920
I1128 21:15:25.656841  2637 layer_factory.hpp:77] Creating layer inception_5b/relu_1x1
I1128 21:15:25.656848  2637 net.cpp:100] Creating Layer inception_5b/relu_1x1
I1128 21:15:25.656853  2637 net.cpp:434] inception_5b/relu_1x1 <- inception_5b/1x1
I1128 21:15:25.656862  2637 net.cpp:395] inception_5b/relu_1x1 -> inception_5b/1x1 (in-place)
I1128 21:15:25.656869  2637 net.cpp:150] Setting up inception_5b/relu_1x1
I1128 21:15:25.656875  2637 net.cpp:157] Top shape: 16 384 7 7 (301056)
I1128 21:15:25.656878  2637 net.cpp:165] Memory required for data: 886011144
I1128 21:15:25.656882  2637 layer_factory.hpp:77] Creating layer inception_5b/3x3_reduce
I1128 21:15:25.656891  2637 net.cpp:100] Creating Layer inception_5b/3x3_reduce
I1128 21:15:25.656895  2637 net.cpp:434] inception_5b/3x3_reduce <- inception_5a/output_inception_5a/output_0_split_1
I1128 21:15:25.656903  2637 net.cpp:408] inception_5b/3x3_reduce -> inception_5b/3x3_reduce
I1128 21:15:25.658159  2637 net.cpp:150] Setting up inception_5b/3x3_reduce
I1128 21:15:25.658169  2637 net.cpp:157] Top shape: 16 192 7 7 (150528)
I1128 21:15:25.658172  2637 net.cpp:165] Memory required for data: 886613256
I1128 21:15:25.658179  2637 layer_factory.hpp:77] Creating layer inception_5b/relu_3x3_reduce
I1128 21:15:25.658188  2637 net.cpp:100] Creating Layer inception_5b/relu_3x3_reduce
I1128 21:15:25.658195  2637 net.cpp:434] inception_5b/relu_3x3_reduce <- inception_5b/3x3_reduce
I1128 21:15:25.658201  2637 net.cpp:395] inception_5b/relu_3x3_reduce -> inception_5b/3x3_reduce (in-place)
I1128 21:15:25.658208  2637 net.cpp:150] Setting up inception_5b/relu_3x3_reduce
I1128 21:15:25.658215  2637 net.cpp:157] Top shape: 16 192 7 7 (150528)
I1128 21:15:25.658216  2637 net.cpp:165] Memory required for data: 887215368
I1128 21:15:25.658219  2637 layer_factory.hpp:77] Creating layer inception_5b/3x3
I1128 21:15:25.658231  2637 net.cpp:100] Creating Layer inception_5b/3x3
I1128 21:15:25.658234  2637 net.cpp:434] inception_5b/3x3 <- inception_5b/3x3_reduce
I1128 21:15:25.658242  2637 net.cpp:408] inception_5b/3x3 -> inception_5b/3x3
I1128 21:15:25.661979  2637 net.cpp:150] Setting up inception_5b/3x3
I1128 21:15:25.661994  2637 net.cpp:157] Top shape: 16 384 7 7 (301056)
I1128 21:15:25.661998  2637 net.cpp:165] Memory required for data: 888419592
I1128 21:15:25.662004  2637 layer_factory.hpp:77] Creating layer inception_5b/relu_3x3
I1128 21:15:25.662012  2637 net.cpp:100] Creating Layer inception_5b/relu_3x3
I1128 21:15:25.662017  2637 net.cpp:434] inception_5b/relu_3x3 <- inception_5b/3x3
I1128 21:15:25.662024  2637 net.cpp:395] inception_5b/relu_3x3 -> inception_5b/3x3 (in-place)
I1128 21:15:25.662031  2637 net.cpp:150] Setting up inception_5b/relu_3x3
I1128 21:15:25.662037  2637 net.cpp:157] Top shape: 16 384 7 7 (301056)
I1128 21:15:25.662039  2637 net.cpp:165] Memory required for data: 889623816
I1128 21:15:25.662042  2637 layer_factory.hpp:77] Creating layer inception_5b/5x5_reduce
I1128 21:15:25.662053  2637 net.cpp:100] Creating Layer inception_5b/5x5_reduce
I1128 21:15:25.662058  2637 net.cpp:434] inception_5b/5x5_reduce <- inception_5a/output_inception_5a/output_0_split_2
I1128 21:15:25.662065  2637 net.cpp:408] inception_5b/5x5_reduce -> inception_5b/5x5_reduce
I1128 21:15:25.662809  2637 net.cpp:150] Setting up inception_5b/5x5_reduce
I1128 21:15:25.662820  2637 net.cpp:157] Top shape: 16 48 7 7 (37632)
I1128 21:15:25.662823  2637 net.cpp:165] Memory required for data: 889774344
I1128 21:15:25.662830  2637 layer_factory.hpp:77] Creating layer inception_5b/relu_5x5_reduce
I1128 21:15:25.662837  2637 net.cpp:100] Creating Layer inception_5b/relu_5x5_reduce
I1128 21:15:25.662842  2637 net.cpp:434] inception_5b/relu_5x5_reduce <- inception_5b/5x5_reduce
I1128 21:15:25.662852  2637 net.cpp:395] inception_5b/relu_5x5_reduce -> inception_5b/5x5_reduce (in-place)
I1128 21:15:25.662860  2637 net.cpp:150] Setting up inception_5b/relu_5x5_reduce
I1128 21:15:25.662874  2637 net.cpp:157] Top shape: 16 48 7 7 (37632)
I1128 21:15:25.662878  2637 net.cpp:165] Memory required for data: 889924872
I1128 21:15:25.662881  2637 layer_factory.hpp:77] Creating layer inception_5b/5x5
I1128 21:15:25.662892  2637 net.cpp:100] Creating Layer inception_5b/5x5
I1128 21:15:25.662897  2637 net.cpp:434] inception_5b/5x5 <- inception_5b/5x5_reduce
I1128 21:15:25.662905  2637 net.cpp:408] inception_5b/5x5 -> inception_5b/5x5
I1128 21:15:25.663741  2637 net.cpp:150] Setting up inception_5b/5x5
I1128 21:15:25.663750  2637 net.cpp:157] Top shape: 16 128 7 7 (100352)
I1128 21:15:25.663753  2637 net.cpp:165] Memory required for data: 890326280
I1128 21:15:25.663759  2637 layer_factory.hpp:77] Creating layer inception_5b/relu_5x5
I1128 21:15:25.663766  2637 net.cpp:100] Creating Layer inception_5b/relu_5x5
I1128 21:15:25.663771  2637 net.cpp:434] inception_5b/relu_5x5 <- inception_5b/5x5
I1128 21:15:25.663776  2637 net.cpp:395] inception_5b/relu_5x5 -> inception_5b/5x5 (in-place)
I1128 21:15:25.663784  2637 net.cpp:150] Setting up inception_5b/relu_5x5
I1128 21:15:25.663789  2637 net.cpp:157] Top shape: 16 128 7 7 (100352)
I1128 21:15:25.663791  2637 net.cpp:165] Memory required for data: 890727688
I1128 21:15:25.663794  2637 layer_factory.hpp:77] Creating layer inception_5b/pool
I1128 21:15:25.663800  2637 net.cpp:100] Creating Layer inception_5b/pool
I1128 21:15:25.663803  2637 net.cpp:434] inception_5b/pool <- inception_5a/output_inception_5a/output_0_split_3
I1128 21:15:25.663811  2637 net.cpp:408] inception_5b/pool -> inception_5b/pool
I1128 21:15:25.663849  2637 net.cpp:150] Setting up inception_5b/pool
I1128 21:15:25.663856  2637 net.cpp:157] Top shape: 16 832 7 7 (652288)
I1128 21:15:25.663858  2637 net.cpp:165] Memory required for data: 893336840
I1128 21:15:25.663862  2637 layer_factory.hpp:77] Creating layer inception_5b/pool_proj
I1128 21:15:25.663873  2637 net.cpp:100] Creating Layer inception_5b/pool_proj
I1128 21:15:25.663878  2637 net.cpp:434] inception_5b/pool_proj <- inception_5b/pool
I1128 21:15:25.663884  2637 net.cpp:408] inception_5b/pool_proj -> inception_5b/pool_proj
I1128 21:15:25.664890  2637 net.cpp:150] Setting up inception_5b/pool_proj
I1128 21:15:25.664901  2637 net.cpp:157] Top shape: 16 128 7 7 (100352)
I1128 21:15:25.664903  2637 net.cpp:165] Memory required for data: 893738248
I1128 21:15:25.664911  2637 layer_factory.hpp:77] Creating layer inception_5b/relu_pool_proj
I1128 21:15:25.664917  2637 net.cpp:100] Creating Layer inception_5b/relu_pool_proj
I1128 21:15:25.664921  2637 net.cpp:434] inception_5b/relu_pool_proj <- inception_5b/pool_proj
I1128 21:15:25.664928  2637 net.cpp:395] inception_5b/relu_pool_proj -> inception_5b/pool_proj (in-place)
I1128 21:15:25.664937  2637 net.cpp:150] Setting up inception_5b/relu_pool_proj
I1128 21:15:25.664943  2637 net.cpp:157] Top shape: 16 128 7 7 (100352)
I1128 21:15:25.664945  2637 net.cpp:165] Memory required for data: 894139656
I1128 21:15:25.664948  2637 layer_factory.hpp:77] Creating layer inception_5b/output
I1128 21:15:25.664955  2637 net.cpp:100] Creating Layer inception_5b/output
I1128 21:15:25.664958  2637 net.cpp:434] inception_5b/output <- inception_5b/1x1
I1128 21:15:25.664963  2637 net.cpp:434] inception_5b/output <- inception_5b/3x3
I1128 21:15:25.664966  2637 net.cpp:434] inception_5b/output <- inception_5b/5x5
I1128 21:15:25.664969  2637 net.cpp:434] inception_5b/output <- inception_5b/pool_proj
I1128 21:15:25.664978  2637 net.cpp:408] inception_5b/output -> inception_5b/output
I1128 21:15:25.665006  2637 net.cpp:150] Setting up inception_5b/output
I1128 21:15:25.665012  2637 net.cpp:157] Top shape: 16 1024 7 7 (802816)
I1128 21:15:25.665015  2637 net.cpp:165] Memory required for data: 897350920
I1128 21:15:25.665019  2637 layer_factory.hpp:77] Creating layer pool5/7x7_s1
I1128 21:15:25.665026  2637 net.cpp:100] Creating Layer pool5/7x7_s1
I1128 21:15:25.665031  2637 net.cpp:434] pool5/7x7_s1 <- inception_5b/output
I1128 21:15:25.665037  2637 net.cpp:408] pool5/7x7_s1 -> pool5/7x7_s1
I1128 21:15:25.665073  2637 net.cpp:150] Setting up pool5/7x7_s1
I1128 21:15:25.665081  2637 net.cpp:157] Top shape: 16 1024 1 1 (16384)
I1128 21:15:25.665083  2637 net.cpp:165] Memory required for data: 897416456
I1128 21:15:25.665086  2637 layer_factory.hpp:77] Creating layer pool5/drop_7x7_s1
I1128 21:15:25.665093  2637 net.cpp:100] Creating Layer pool5/drop_7x7_s1
I1128 21:15:25.665098  2637 net.cpp:434] pool5/drop_7x7_s1 <- pool5/7x7_s1
I1128 21:15:25.665105  2637 net.cpp:395] pool5/drop_7x7_s1 -> pool5/7x7_s1 (in-place)
I1128 21:15:25.665130  2637 net.cpp:150] Setting up pool5/drop_7x7_s1
I1128 21:15:25.665138  2637 net.cpp:157] Top shape: 16 1024 1 1 (16384)
I1128 21:15:25.665140  2637 net.cpp:165] Memory required for data: 897481992
I1128 21:15:25.665143  2637 layer_factory.hpp:77] Creating layer loss3/classifier
I1128 21:15:25.665151  2637 net.cpp:100] Creating Layer loss3/classifier
I1128 21:15:25.665155  2637 net.cpp:434] loss3/classifier <- pool5/7x7_s1
I1128 21:15:25.665163  2637 net.cpp:408] loss3/classifier -> loss3/classifier
I1128 21:15:25.665313  2637 net.cpp:150] Setting up loss3/classifier
I1128 21:15:25.665321  2637 net.cpp:157] Top shape: 16 10 (160)
I1128 21:15:25.665324  2637 net.cpp:165] Memory required for data: 897482632
I1128 21:15:25.665330  2637 layer_factory.hpp:77] Creating layer loss3/loss3
I1128 21:15:25.665338  2637 net.cpp:100] Creating Layer loss3/loss3
I1128 21:15:25.665343  2637 net.cpp:434] loss3/loss3 <- loss3/classifier
I1128 21:15:25.665347  2637 net.cpp:434] loss3/loss3 <- label_data_1_split_2
I1128 21:15:25.665352  2637 net.cpp:408] loss3/loss3 -> loss3/loss3
…
I1128 21:15:25.667604  2637 net.cpp:322] The NetState phase (1) differed from the phase (0) specified by a rule in layer data
I1128 21:15:25.668383  2637 net.cpp:58] Initializing net from parameters: 
name: "GoogleNet"
state {
  phase: TEST
}
layer {
  name: "data"
  type: "Data"
  top: "data"
  top: "label"
  include {
    phase: TEST
  }
  transform_param {
    mirror: false
    crop_size: 224
    mean_file: "/home/juran/distracteddriver/input/mean.binaryproto"
  }
  data_param {
    source: "/home/juran/distracteddriver/input/validation_lmdb"
    batch_size: 50
    backend: LMDB
  }
}
layer {
  name: "conv1/7x7_s2"
  type: "Convolution"
  bottom: "data"
  top: "conv1/7x7_s2"
  param {
    lr_mult: 1
    decay_mult: 1
  }
  param {
    lr_mult: 2
    decay_mult: 0
  }
  convolution_param {
    num_output: 64
    pad: 3
    kernel_size: 7
    stride: 2
    weight_filler {
      type: "xavier"
    }
    bias_filler {
      type: "constant"
      value: 0.2
    }
  }
}
layer {
  name: "conv1/relu_7x7"
  type: "ReLU"
  bottom: "conv1/7x7_s2"
  top: "conv1/7x7_s2"
}
layer {
  name: "pool1/3x3_s2"
  type: "Pooling"
  bottom: "conv1/7x7_s2"
  top: "pool1/3x3_s2"
  pooling_param {
    pool: MAX
    kernel_size: 3
    stride: 2
  }
}
layer {
  name: "pool1/norm1"
  type: "LRN"
  bottom: "pool1/3x3_s2"
  top: "pool1/norm1"
  lrn_param {
    local_size: 5
    alpha: 0.0001
    beta: 0.75
  }
}
layer {
  name: "conv2/3x3_reduce"
  type: "Convolution"
  bottom: "pool1/norm1"
  top: "conv2/3x3_reduce"
  param {
    lr_mult: 1
    decay_mult: 1
  }
  param {
    lr_mult: 2
    decay_mult: 0
  }
  convolution_param {
    num_output: 64
    kernel_size: 1
    weight_filler {
      type: "xavier"
    }
    bias_filler {
      type: "constant"
      value: 0.2
    }
  }
}
layer {
  name: "conv2/relu_3x3_reduce"
  type: "ReLU"
  bottom: "conv2/3x3_reduce"
  top: "conv2/3x3_reduce"
}
layer {
  name: "conv2/3x3"
  type: "Convolution"
  bottom: "conv2/3x3_reduce"
  top: "conv2/3x3"
  param {
    lr_mult: 1
    decay_mult: 1
  }
  param {
    lr_mult: 2
    decay_mult: 0
  }
  convolution_param {
    num_output: 192
    pad: 1
    kernel_size: 3
    weight_filler {
      type: "xavier"
    }
    bias_filler {
      type: "constant"
      value: 0.2
    }
  }
}
layer {
  name: "conv2/relu_3x3"
  type: "ReLU"
  bottom: "conv2/3x3"
  top: "conv2/3x3"
}
layer {
  name: "conv2/norm2"
  type: "LRN"
  bottom: "conv2/3x3"
  top: "conv2/norm2"
  lrn_param {
    local_size: 5
    alpha: 0.0001
    beta: 0.75
  }
}
layer {
  name: "pool2/3x3_s2"
  type: "Pooling"
  bottom: "conv2/norm2"
  top: "pool2/3x3_s2"
  pooling_param {
    pool: MAX
    kernel_size: 3
    stride: 2
  }
}
layer {
  name: "inception_3a/1x1"
  type: "Convolution"
  bottom: "pool2/3x3_s2"
  top: "inception_3a/1x1"
  param {
    lr_mult: 1
    decay_mult: 1
  }
  param {
    lr_mult: 2
    decay_mult: 0
  }
  convolution_param {
    num_output: 64
    kernel_size: 1
    weight_filler {
      type: "xavier"
    }
    bias_filler {
      type: "constant"
      value: 0.2
    }
  }
}
layer {
  name: "inception_3a/relu_1x1"
  type: "ReLU"
  bottom: "inception_3a/1x1"
  top: "inception_3a/1x1"
}
layer {
  name: "inception_3a/3x3_reduce"
  type: "Convolution"
  bottom: "pool2/3x3_s2"
  top: "inception_3a/3x3_reduce"
  param {
    lr_mult: 1
    decay_mult: 1
  }
  param {
    lr_mult: 2
    decay_mult: 0
  }
  convolution_param {
    num_output: 96
    kernel_size: 1
    weight_filler {
      type: "xavier"
    }
    bias_filler {
      type: "constant"
      value: 0.2
    }
  }
}
layer {
  name: "inception_3a/relu_3x3_reduce"
  type: "ReLU"
  bottom: "inception_3a/3x3_reduce"
  top: "inception_3a/3x3_reduce"
}
layer {
  name: "inception_3a/3x3"
  type: "Convolution"
  bottom: "inception_3a/3x3_reduce"
  top: "inception_3a/3x3"
  param {
    lr_mult: 1
    decay_mult: 1
  }
  param {
    lr_mult: 2
    decay_mult: 0
  }
  convolution_param {
    num_output: 128
    pad: 1
    kernel_size: 3
    weight_filler {
      type: "xavier"
    }
    bias_filler {
      type: "constant"
      value: 0.2
    }
  }
}
layer {
  name: "inception_3a/relu_3x3"
  type: "ReLU"
  bottom: "inception_3a/3x3"
  top: "inception_3a/3x3"
}
layer {
  name: "inception_3a/5x5_reduce"
  type: "Convolution"
  bottom: "pool2/3x3_s2"
  top: "inception_3a/5x5_reduce"
  param {
    lr_mult: 1
    decay_mult: 1
  }
  param {
    lr_mult: 2
    decay_mult: 0
  }
  convolution_param {
    num_output: 16
    kernel_size: 1
    weight_filler {
      type: "xavier"
    }
    bias_filler {
      type: "constant"
      value: 0.2
    }
  }
}
layer {
  name: "inception_3a/relu_5x5_reduce"
  type: "ReLU"
  bottom: "inception_3a/5x5_reduce"
  top: "inception_3a/5x5_reduce"
}
layer {
  name: "inception_3a/5x5"
  type: "Convolution"
  bottom: "inception_3a/5x5_reduce"
  top: "inception_3a/5x5"
  param {
    lr_mult: 1
    decay_mult: 1
  }
  param {
    lr_mult: 2
    decay_mult: 0
  }
  convolution_param {
    num_output: 32
    pad: 2
    kernel_size: 5
    weight_filler {
      type: "xavier"
    }
    bias_filler {
      type: "constant"
      value: 0.2
    }
  }
}
layer {
  name: "inception_3a/relu_5x5"
  type: "ReLU"
  bottom: "inception_3a/5x5"
  top: "inception_3a/5x5"
}
layer {
  name: "inception_3a/pool"
  type: "Pooling"
  bottom: "pool2/3x3_s2"
  top: "inception_3a/pool"
  pooling_param {
    pool: MAX
    kernel_size: 3
    stride: 1
    pad: 1
  }
}
layer {
  name: "inception_3a/pool_proj"
  type: "Convolution"
  bottom: "inception_3a/pool"
  top: "inception_3a/pool_proj"
  param {
    lr_mult: 1
    decay_mult: 1
  }
  param {
    lr_mult: 2
    decay_mult: 0
  }
  convolution_param {
    num_output: 32
    kernel_size: 1
    weight_filler {
      type: "xavier"
    }
    bias_filler {
      type: "constant"
      value: 0.2
    }
  }
}
layer {
  name: "inception_3a/relu_pool_proj"
  type: "ReLU"
  bottom: "inception_3a/pool_proj"
  top: "inception_3a/pool_proj"
}
layer {
  name: "inception_3a/output"
  type: "Concat"
  bottom: "inception_3a/1x1"
  bottom: "inception_3a/3x3"
  bottom: "inception_3a/5x5"
  bottom: "inception_3a/pool_proj"
  top: "inception_3a/output"
}
layer {
  name: "inception_3b/1x1"
  type: "Convolution"
  bottom: "inception_3a/output"
  top: "inception_3b/1x1"
  param {
    lr_mult: 1
    decay_mult: 1
  }
  param {
    lr_mult: 2
    decay_mult: 0
  }
  convolution_param {
    num_output: 128
    kernel_size: 1
    weight_filler {
      type: "xavier"
    }
    bias_filler {
      type: "constant"
      value: 0.2
    }
  }
}
layer {
  name: "inception_3b/relu_1x1"
  type: "ReLU"
  bottom: "inception_3b/1x1"
  top: "inception_3b/1x1"
}
layer {
  name: "inception_3b/3x3_reduce"
  type: "Convolution"
  bottom: "inception_3a/output"
  top: "inception_3b/3x3_reduce"
  param {
    lr_mult: 1
    decay_mult: 1
  }
  param {
    lr_mult: 2
    decay_mult: 0
  }
  convolution_param {
    num_output: 128
    kernel_size: 1
    weight_filler {
      type: "xavier"
    }
    bias_filler {
      type: "constant"
      value: 0.2
    }
  }
}
layer {
  name: "inception_3b/relu_3x3_reduce"
  type: "ReLU"
  bottom: "inception_3b/3x3_reduce"
  top: "inception_3b/3x3_reduce"
}
layer {
  name: "inception_3b/3x3"
  type: "Convolution"
  bottom: "inception_3b/3x3_reduce"
  top: "inception_3b/3x3"
  param {
    lr_mult: 1
    decay_mult: 1
  }
  param {
    lr_mult: 2
    decay_mult: 0
  }
  convolution_param {
    num_output: 192
    pad: 1
    kernel_size: 3
    weight_filler {
      type: "xavier"
    }
    bias_filler {
      type: "constant"
      value: 0.2
    }
  }
}
layer {
  name: "inception_3b/relu_3x3"
  type: "ReLU"
  bottom: "inception_3b/3x3"
  top: "inception_3b/3x3"
}
layer {
  name: "inception_3b/5x5_reduce"
  type: "Convolution"
  bottom: "inception_3a/output"
  top: "inception_3b/5x5_reduce"
  param {
    lr_mult: 1
    decay_mult: 1
  }
  param {
    lr_mult: 2
    decay_mult: 0
  }
  convolution_param {
    num_output: 32
    kernel_size: 1
    weight_filler {
      type: "xavier"
    }
    bias_filler {
      type: "constant"
      value: 0.2
    }
  }
}
layer {
  name: "inception_3b/relu_5x5_reduce"
  type: "ReLU"
  bottom: "inception_3b/5x5_reduce"
  top: "inception_3b/5x5_reduce"
}
layer {
  name: "inception_3b/5x5"
  type: "Convolution"
  bottom: "inception_3b/5x5_reduce"
  top: "inception_3b/5x5"
  param {
    lr_mult: 1
    decay_mult: 1
  }
  param {
    lr_mult: 2
    decay_mult: 0
  }
  convolution_param {
    num_output: 96
    pad: 2
    kernel_size: 5
    weight_filler {
      type: "xavier"
    }
    bias_filler {
      type: "constant"
      value: 0.2
    }
  }
}
layer {
  name: "inception_3b/relu_5x5"
  type: "ReLU"
  bottom: "inception_3b/5x5"
  top: "inception_3b/5x5"
}
layer {
  name: "inception_3b/pool"
  type: "Pooling"
  bottom: "inception_3a/output"
  top: "inception_3b/pool"
  pooling_param {
    pool: MAX
    kernel_size: 3
    stride: 1
    pad: 1
  }
}
layer {
  name: "inception_3b/pool_proj"
  type: "Convolution"
  bottom: "inception_3b/pool"
  top: "inception_3b/pool_proj"
  param {
    lr_mult: 1
    decay_mult: 1
  }
  param {
    lr_mult: 2
    decay_mult: 0
  }
  convolution_param {
    num_output: 64
    kernel_size: 1
    weight_filler {
      type: "xavier"
    }
    bias_filler {
      type: "constant"
      value: 0.2
    }
  }
}
layer {
  name: "inception_3b/relu_pool_proj"
  type: "ReLU"
  bottom: "inception_3b/pool_proj"
  top: "inception_3b/pool_proj"
}
layer {
  name: "inception_3b/output"
  type: "Concat"
  bottom: "inception_3b/1x1"
  bottom: "inception_3b/3x3"
  bottom: "inception_3b/5x5"
  bottom: "inception_3b/pool_proj"
  top: "inception_3b/output"
}
layer {
  name: "pool3/3x3_s2"
  type: "Pooling"
  bottom: "inception_3b/output"
  top: "pool3/3x3_s2"
  pooling_param {
    pool: MAX
    kernel_size: 3
    stride: 2
  }
}
layer {
  name: "inception_4a/1x1"
  type: "Convolution"
  bottom: "pool3/3x3_s2"
  top: "inception_4a/1x1"
  param {
    lr_mult: 1
    decay_mult: 1
  }
  param {
    lr_mult: 2
    decay_mult: 0
  }
  convolution_param {
    num_output: 192
    kernel_size: 1
    weight_filler {
      type: "xavier"
    }
    bias_filler {
      type: "constant"
      value: 0.2
    }
  }
}
layer {
  name: "inception_4a/relu_1x1"
  type: "ReLU"
  bottom: "inception_4a/1x1"
  top: "inception_4a/1x1"
}
layer {
  name: "inception_4a/3x3_reduce"
  type: "Convolution"
  bottom: "pool3/3x3_s2"
  top: "inception_4a/3x3_reduce"
  param {
    lr_mult: 1
    decay_mult: 1
  }
  param {
    lr_mult: 2
    decay_mult: 0
  }
  convolution_param {
    num_output: 96
    kernel_size: 1
    weight_filler {
      type: "xavier"
    }
    bias_filler {
      type: "constant"
      value: 0.2
    }
  }
}
layer {
  name: "inception_4a/relu_3x3_reduce"
  type: "ReLU"
  bottom: "inception_4a/3x3_reduce"
  top: "inception_4a/3x3_reduce"
}
layer {
  name: "inception_4a/3x3"
  type: "Convolution"
  bottom: "inception_4a/3x3_reduce"
  top: "inception_4a/3x3"
  param {
    lr_mult: 1
    decay_mult: 1
  }
  param {
    lr_mult: 2
    decay_mult: 0
  }
  convolution_param {
    num_output: 208
    pad: 1
    kernel_size: 3
    weight_filler {
      type: "xavier"
    }
    bias_filler {
      type: "constant"
      value: 0.2
    }
  }
}
layer {
  name: "inception_4a/relu_3x3"
  type: "ReLU"
  bottom: "inception_4a/3x3"
  top: "inception_4a/3x3"
}
layer {
  name: "inception_4a/5x5_reduce"
  type: "Convolution"
  bottom: "pool3/3x3_s2"
  top: "inception_4a/5x5_reduce"
  param {
    lr_mult: 1
    decay_mult: 1
  }
  param {
    lr_mult: 2
    decay_mult: 0
  }
  convolution_param {
    num_output: 16
    kernel_size: 1
    weight_filler {
      type: "xavier"
    }
    bias_filler {
      type: "constant"
      value: 0.2
    }
  }
}
layer {
  name: "inception_4a/relu_5x5_reduce"
  type: "ReLU"
  bottom: "inception_4a/5x5_reduce"
  top: "inception_4a/5x5_reduce"
}
layer {
  name: "inception_4a/5x5"
  type: "Convolution"
  bottom: "inception_4a/5x5_reduce"
  top: "inception_4a/5x5"
  param {
    lr_mult: 1
    decay_mult: 1
  }
  param {
    lr_mult: 2
    decay_mult: 0
  }
  convolution_param {
    num_output: 48
    pad: 2
    kernel_size: 5
    weight_filler {
      type: "xavier"
    }
    bias_filler {
      type: "constant"
      value: 0.2
    }
  }
}
layer {
  name: "inception_4a/relu_5x5"
  type: "ReLU"
  bottom: "inception_4a/5x5"
  top: "inception_4a/5x5"
}
layer {
  name: "inception_4a/pool"
  type: "Pooling"
  bottom: "pool3/3x3_s2"
  top: "inception_4a/pool"
  pooling_param {
    pool: MAX
    kernel_size: 3
    stride: 1
    pad: 1
  }
}
layer {
  name: "inception_4a/pool_proj"
  type: "Convolution"
  bottom: "inception_4a/pool"
  top: "inception_4a/pool_proj"
  param {
    lr_mult: 1
    decay_mult: 1
  }
  param {
    lr_mult: 2
    decay_mult: 0
  }
  convolution_param {
    num_output: 64
    kernel_size: 1
    weight_filler {
      type: "xavier"
    }
    bias_filler {
      type: "constant"
      value: 0.2
    }
  }
}
layer {
  name: "inception_4a/relu_pool_proj"
  type: "ReLU"
  bottom: "inception_4a/pool_proj"
  top: "inception_4a/pool_proj"
}
layer {
  name: "inception_4a/output"
  type: "Concat"
  bottom: "inception_4a/1x1"
  bottom: "inception_4a/3x3"
  bottom: "inception_4a/5x5"
  bottom: "inception_4a/pool_proj"
  top: "inception_4a/output"
}
layer {
  name: "loss1/ave_pool"
  type: "Pooling"
  bottom: "inception_4a/output"
  top: "loss1/ave_pool"
  pooling_param {
    pool: AVE
    kernel_size: 5
    stride: 3
  }
}
layer {
  name: "loss1/conv"
  type: "Convolution"
  bottom: "loss1/ave_pool"
  top: "loss1/conv"
  param {
    lr_mult: 1
    decay_mult: 1
  }
  param {
    lr_mult: 2
    decay_mult: 0
  }
  convolution_param {
    num_output: 128
    kernel_size: 1
    weight_filler {
      type: "xavier"
    }
    bias_filler {
      type: "constant"
      value: 0.2
    }
  }
}
layer {
  name: "loss1/relu_conv"
  type: "ReLU"
  bottom: "loss1/conv"
  top: "loss1/conv"
}
layer {
  name: "loss1/fc"
  type: "InnerProduct"
  bottom: "loss1/conv"
  top: "loss1/fc"
  param {
    lr_mult: 1
    decay_mult: 1
  }
  param {
    lr_mult: 2
    decay_mult: 0
  }
  inner_product_param {
    num_output: 1024
    weight_filler {
      type: "xavier"
    }
    bias_filler {
      type: "constant"
      value: 0.2
    }
  }
}
layer {
  name: "loss1/relu_fc"
  type: "ReLU"
  bottom: "loss1/fc"
  top: "loss1/fc"
}
layer {
  name: "loss1/drop_fc"
  type: "Dropout"
  bottom: "loss1/fc"
  top: "loss1/fc"
  dropout_param {
    dropout_ratio: 0.7
  }
}
layer {
  name: "loss1/classifier"
  type: "InnerProduct"
  bottom: "loss1/fc"
  top: "loss1/classifier"
…
I1128 21:15:25.847803  2637 net.cpp:165] Memory required for data: 2190293212
I1128 21:15:25.847805  2637 layer_factory.hpp:77] Creating layer inception_4c/pool
I1128 21:15:25.847810  2637 net.cpp:100] Creating Layer inception_4c/pool
I1128 21:15:25.847812  2637 net.cpp:434] inception_4c/pool <- inception_4b/output_inception_4b/output_0_split_3
I1128 21:15:25.847816  2637 net.cpp:408] inception_4c/pool -> inception_4c/pool
I1128 21:15:25.847848  2637 net.cpp:150] Setting up inception_4c/pool
I1128 21:15:25.847851  2637 net.cpp:157] Top shape: 50 512 14 14 (5017600)
I1128 21:15:25.847853  2637 net.cpp:165] Memory required for data: 2210363612
I1128 21:15:25.847856  2637 layer_factory.hpp:77] Creating layer inception_4c/pool_proj
I1128 21:15:25.847861  2637 net.cpp:100] Creating Layer inception_4c/pool_proj
I1128 21:15:25.847862  2637 net.cpp:434] inception_4c/pool_proj <- inception_4c/pool
I1128 21:15:25.847867  2637 net.cpp:408] inception_4c/pool_proj -> inception_4c/pool_proj
I1128 21:15:25.848191  2637 net.cpp:150] Setting up inception_4c/pool_proj
I1128 21:15:25.848197  2637 net.cpp:157] Top shape: 50 64 14 14 (627200)
I1128 21:15:25.848199  2637 net.cpp:165] Memory required for data: 2212872412
I1128 21:15:25.848203  2637 layer_factory.hpp:77] Creating layer inception_4c/relu_pool_proj
I1128 21:15:25.848207  2637 net.cpp:100] Creating Layer inception_4c/relu_pool_proj
I1128 21:15:25.848209  2637 net.cpp:434] inception_4c/relu_pool_proj <- inception_4c/pool_proj
I1128 21:15:25.848213  2637 net.cpp:395] inception_4c/relu_pool_proj -> inception_4c/pool_proj (in-place)
I1128 21:15:25.848217  2637 net.cpp:150] Setting up inception_4c/relu_pool_proj
I1128 21:15:25.848220  2637 net.cpp:157] Top shape: 50 64 14 14 (627200)
I1128 21:15:25.848222  2637 net.cpp:165] Memory required for data: 2215381212
I1128 21:15:25.848223  2637 layer_factory.hpp:77] Creating layer inception_4c/output
I1128 21:15:25.848227  2637 net.cpp:100] Creating Layer inception_4c/output
I1128 21:15:25.848229  2637 net.cpp:434] inception_4c/output <- inception_4c/1x1
I1128 21:15:25.848232  2637 net.cpp:434] inception_4c/output <- inception_4c/3x3
I1128 21:15:25.848235  2637 net.cpp:434] inception_4c/output <- inception_4c/5x5
I1128 21:15:25.848247  2637 net.cpp:434] inception_4c/output <- inception_4c/pool_proj
I1128 21:15:25.848249  2637 net.cpp:408] inception_4c/output -> inception_4c/output
I1128 21:15:25.848273  2637 net.cpp:150] Setting up inception_4c/output
I1128 21:15:25.848276  2637 net.cpp:157] Top shape: 50 512 14 14 (5017600)
I1128 21:15:25.848278  2637 net.cpp:165] Memory required for data: 2235451612
I1128 21:15:25.848279  2637 layer_factory.hpp:77] Creating layer inception_4c/output_inception_4c/output_0_split
I1128 21:15:25.848284  2637 net.cpp:100] Creating Layer inception_4c/output_inception_4c/output_0_split
I1128 21:15:25.848286  2637 net.cpp:434] inception_4c/output_inception_4c/output_0_split <- inception_4c/output
I1128 21:15:25.848290  2637 net.cpp:408] inception_4c/output_inception_4c/output_0_split -> inception_4c/output_inception_4c/output_0_split_0
I1128 21:15:25.848295  2637 net.cpp:408] inception_4c/output_inception_4c/output_0_split -> inception_4c/output_inception_4c/output_0_split_1
I1128 21:15:25.848299  2637 net.cpp:408] inception_4c/output_inception_4c/output_0_split -> inception_4c/output_inception_4c/output_0_split_2
I1128 21:15:25.848302  2637 net.cpp:408] inception_4c/output_inception_4c/output_0_split -> inception_4c/output_inception_4c/output_0_split_3
I1128 21:15:25.848345  2637 net.cpp:150] Setting up inception_4c/output_inception_4c/output_0_split
I1128 21:15:25.848351  2637 net.cpp:157] Top shape: 50 512 14 14 (5017600)
I1128 21:15:25.848353  2637 net.cpp:157] Top shape: 50 512 14 14 (5017600)
I1128 21:15:25.848356  2637 net.cpp:157] Top shape: 50 512 14 14 (5017600)
I1128 21:15:25.848357  2637 net.cpp:157] Top shape: 50 512 14 14 (5017600)
I1128 21:15:25.848359  2637 net.cpp:165] Memory required for data: 2315733212
I1128 21:15:25.848361  2637 layer_factory.hpp:77] Creating layer inception_4d/1x1
I1128 21:15:25.848366  2637 net.cpp:100] Creating Layer inception_4d/1x1
I1128 21:15:25.848368  2637 net.cpp:434] inception_4d/1x1 <- inception_4c/output_inception_4c/output_0_split_0
I1128 21:15:25.848372  2637 net.cpp:408] inception_4d/1x1 -> inception_4d/1x1
I1128 21:15:25.848825  2637 net.cpp:150] Setting up inception_4d/1x1
I1128 21:15:25.848832  2637 net.cpp:157] Top shape: 50 112 14 14 (1097600)
I1128 21:15:25.848834  2637 net.cpp:165] Memory required for data: 2320123612
I1128 21:15:25.848839  2637 layer_factory.hpp:77] Creating layer inception_4d/relu_1x1
I1128 21:15:25.848844  2637 net.cpp:100] Creating Layer inception_4d/relu_1x1
I1128 21:15:25.848845  2637 net.cpp:434] inception_4d/relu_1x1 <- inception_4d/1x1
I1128 21:15:25.848848  2637 net.cpp:395] inception_4d/relu_1x1 -> inception_4d/1x1 (in-place)
I1128 21:15:25.848852  2637 net.cpp:150] Setting up inception_4d/relu_1x1
I1128 21:15:25.848855  2637 net.cpp:157] Top shape: 50 112 14 14 (1097600)
I1128 21:15:25.848856  2637 net.cpp:165] Memory required for data: 2324514012
I1128 21:15:25.848858  2637 layer_factory.hpp:77] Creating layer inception_4d/3x3_reduce
I1128 21:15:25.848863  2637 net.cpp:100] Creating Layer inception_4d/3x3_reduce
I1128 21:15:25.848866  2637 net.cpp:434] inception_4d/3x3_reduce <- inception_4c/output_inception_4c/output_0_split_1
I1128 21:15:25.848870  2637 net.cpp:408] inception_4d/3x3_reduce -> inception_4d/3x3_reduce
I1128 21:15:25.849396  2637 net.cpp:150] Setting up inception_4d/3x3_reduce
I1128 21:15:25.849405  2637 net.cpp:157] Top shape: 50 144 14 14 (1411200)
I1128 21:15:25.849406  2637 net.cpp:165] Memory required for data: 2330158812
I1128 21:15:25.849411  2637 layer_factory.hpp:77] Creating layer inception_4d/relu_3x3_reduce
I1128 21:15:25.849414  2637 net.cpp:100] Creating Layer inception_4d/relu_3x3_reduce
I1128 21:15:25.849416  2637 net.cpp:434] inception_4d/relu_3x3_reduce <- inception_4d/3x3_reduce
I1128 21:15:25.849421  2637 net.cpp:395] inception_4d/relu_3x3_reduce -> inception_4d/3x3_reduce (in-place)
I1128 21:15:25.849423  2637 net.cpp:150] Setting up inception_4d/relu_3x3_reduce
I1128 21:15:25.849426  2637 net.cpp:157] Top shape: 50 144 14 14 (1411200)
I1128 21:15:25.849437  2637 net.cpp:165] Memory required for data: 2335803612
I1128 21:15:25.849439  2637 layer_factory.hpp:77] Creating layer inception_4d/3x3
I1128 21:15:25.849445  2637 net.cpp:100] Creating Layer inception_4d/3x3
I1128 21:15:25.849447  2637 net.cpp:434] inception_4d/3x3 <- inception_4d/3x3_reduce
I1128 21:15:25.849452  2637 net.cpp:408] inception_4d/3x3 -> inception_4d/3x3
I1128 21:15:25.851960  2637 net.cpp:150] Setting up inception_4d/3x3
I1128 21:15:25.851989  2637 net.cpp:157] Top shape: 50 288 14 14 (2822400)
I1128 21:15:25.851992  2637 net.cpp:165] Memory required for data: 2347093212
I1128 21:15:25.852001  2637 layer_factory.hpp:77] Creating layer inception_4d/relu_3x3
I1128 21:15:25.852013  2637 net.cpp:100] Creating Layer inception_4d/relu_3x3
I1128 21:15:25.852020  2637 net.cpp:434] inception_4d/relu_3x3 <- inception_4d/3x3
I1128 21:15:25.852028  2637 net.cpp:395] inception_4d/relu_3x3 -> inception_4d/3x3 (in-place)
I1128 21:15:25.852059  2637 net.cpp:150] Setting up inception_4d/relu_3x3
I1128 21:15:25.852064  2637 net.cpp:157] Top shape: 50 288 14 14 (2822400)
I1128 21:15:25.852067  2637 net.cpp:165] Memory required for data: 2358382812
I1128 21:15:25.852071  2637 layer_factory.hpp:77] Creating layer inception_4d/5x5_reduce
I1128 21:15:25.852082  2637 net.cpp:100] Creating Layer inception_4d/5x5_reduce
I1128 21:15:25.852087  2637 net.cpp:434] inception_4d/5x5_reduce <- inception_4c/output_inception_4c/output_0_split_2
I1128 21:15:25.852095  2637 net.cpp:408] inception_4d/5x5_reduce -> inception_4d/5x5_reduce
I1128 21:15:25.852411  2637 net.cpp:150] Setting up inception_4d/5x5_reduce
I1128 21:15:25.852421  2637 net.cpp:157] Top shape: 50 32 14 14 (313600)
I1128 21:15:25.852423  2637 net.cpp:165] Memory required for data: 2359637212
I1128 21:15:25.852430  2637 layer_factory.hpp:77] Creating layer inception_4d/relu_5x5_reduce
I1128 21:15:25.852438  2637 net.cpp:100] Creating Layer inception_4d/relu_5x5_reduce
I1128 21:15:25.852444  2637 net.cpp:434] inception_4d/relu_5x5_reduce <- inception_4d/5x5_reduce
I1128 21:15:25.852449  2637 net.cpp:395] inception_4d/relu_5x5_reduce -> inception_4d/5x5_reduce (in-place)
I1128 21:15:25.852457  2637 net.cpp:150] Setting up inception_4d/relu_5x5_reduce
I1128 21:15:25.852461  2637 net.cpp:157] Top shape: 50 32 14 14 (313600)
I1128 21:15:25.852464  2637 net.cpp:165] Memory required for data: 2360891612
I1128 21:15:25.852468  2637 layer_factory.hpp:77] Creating layer inception_4d/5x5
I1128 21:15:25.852478  2637 net.cpp:100] Creating Layer inception_4d/5x5
I1128 21:15:25.852483  2637 net.cpp:434] inception_4d/5x5 <- inception_4d/5x5_reduce
I1128 21:15:25.852488  2637 net.cpp:408] inception_4d/5x5 -> inception_4d/5x5
I1128 21:15:25.853497  2637 net.cpp:150] Setting up inception_4d/5x5
I1128 21:15:25.853515  2637 net.cpp:157] Top shape: 50 64 14 14 (627200)
I1128 21:15:25.853518  2637 net.cpp:165] Memory required for data: 2363400412
I1128 21:15:25.853525  2637 layer_factory.hpp:77] Creating layer inception_4d/relu_5x5
I1128 21:15:25.853534  2637 net.cpp:100] Creating Layer inception_4d/relu_5x5
I1128 21:15:25.853552  2637 net.cpp:434] inception_4d/relu_5x5 <- inception_4d/5x5
I1128 21:15:25.853560  2637 net.cpp:395] inception_4d/relu_5x5 -> inception_4d/5x5 (in-place)
I1128 21:15:25.853569  2637 net.cpp:150] Setting up inception_4d/relu_5x5
I1128 21:15:25.853575  2637 net.cpp:157] Top shape: 50 64 14 14 (627200)
I1128 21:15:25.853577  2637 net.cpp:165] Memory required for data: 2365909212
I1128 21:15:25.853581  2637 layer_factory.hpp:77] Creating layer inception_4d/pool
I1128 21:15:25.853590  2637 net.cpp:100] Creating Layer inception_4d/pool
I1128 21:15:25.853595  2637 net.cpp:434] inception_4d/pool <- inception_4c/output_inception_4c/output_0_split_3
I1128 21:15:25.853601  2637 net.cpp:408] inception_4d/pool -> inception_4d/pool
I1128 21:15:25.853649  2637 net.cpp:150] Setting up inception_4d/pool
I1128 21:15:25.853657  2637 net.cpp:157] Top shape: 50 512 14 14 (5017600)
I1128 21:15:25.853659  2637 net.cpp:165] Memory required for data: 2385979612
I1128 21:15:25.853662  2637 layer_factory.hpp:77] Creating layer inception_4d/pool_proj
I1128 21:15:25.853688  2637 net.cpp:100] Creating Layer inception_4d/pool_proj
I1128 21:15:25.853693  2637 net.cpp:434] inception_4d/pool_proj <- inception_4d/pool
I1128 21:15:25.853703  2637 net.cpp:408] inception_4d/pool_proj -> inception_4d/pool_proj
I1128 21:15:25.854056  2637 net.cpp:150] Setting up inception_4d/pool_proj
I1128 21:15:25.854066  2637 net.cpp:157] Top shape: 50 64 14 14 (627200)
I1128 21:15:25.854069  2637 net.cpp:165] Memory required for data: 2388488412
I1128 21:15:25.854076  2637 layer_factory.hpp:77] Creating layer inception_4d/relu_pool_proj
I1128 21:15:25.854084  2637 net.cpp:100] Creating Layer inception_4d/relu_pool_proj
I1128 21:15:25.854090  2637 net.cpp:434] inception_4d/relu_pool_proj <- inception_4d/pool_proj
I1128 21:15:25.854096  2637 net.cpp:395] inception_4d/relu_pool_proj -> inception_4d/pool_proj (in-place)
I1128 21:15:25.854104  2637 net.cpp:150] Setting up inception_4d/relu_pool_proj
I1128 21:15:25.854107  2637 net.cpp:157] Top shape: 50 64 14 14 (627200)
I1128 21:15:25.854110  2637 net.cpp:165] Memory required for data: 2390997212
I1128 21:15:25.854113  2637 layer_factory.hpp:77] Creating layer inception_4d/output
I1128 21:15:25.854122  2637 net.cpp:100] Creating Layer inception_4d/output
I1128 21:15:25.854127  2637 net.cpp:434] inception_4d/output <- inception_4d/1x1
I1128 21:15:25.854132  2637 net.cpp:434] inception_4d/output <- inception_4d/3x3
I1128 21:15:25.854135  2637 net.cpp:434] inception_4d/output <- inception_4d/5x5
I1128 21:15:25.854140  2637 net.cpp:434] inception_4d/output <- inception_4d/pool_proj
I1128 21:15:25.854145  2637 net.cpp:408] inception_4d/output -> inception_4d/output
I1128 21:15:25.854176  2637 net.cpp:150] Setting up inception_4d/output
I1128 21:15:25.854183  2637 net.cpp:157] Top shape: 50 528 14 14 (5174400)
I1128 21:15:25.854185  2637 net.cpp:165] Memory required for data: 2411694812
I1128 21:15:25.854188  2637 layer_factory.hpp:77] Creating layer inception_4d/output_inception_4d/output_0_split
I1128 21:15:25.854197  2637 net.cpp:100] Creating Layer inception_4d/output_inception_4d/output_0_split
I1128 21:15:25.854199  2637 net.cpp:434] inception_4d/output_inception_4d/output_0_split <- inception_4d/output
I1128 21:15:25.854207  2637 net.cpp:408] inception_4d/output_inception_4d/output_0_split -> inception_4d/output_inception_4d/output_0_split_0
I1128 21:15:25.854218  2637 net.cpp:408] inception_4d/output_inception_4d/output_0_split -> inception_4d/output_inception_4d/output_0_split_1
I1128 21:15:25.854228  2637 net.cpp:408] inception_4d/output_inception_4d/output_0_split -> inception_4d/output_inception_4d/output_0_split_2
I1128 21:15:25.854235  2637 net.cpp:408] inception_4d/output_inception_4d/output_0_split -> inception_4d/output_inception_4d/output_0_split_3
I1128 21:15:25.854243  2637 net.cpp:408] inception_4d/output_inception_4d/output_0_split -> inception_4d/output_inception_4d/output_0_split_4
I1128 21:15:25.854310  2637 net.cpp:150] Setting up inception_4d/output_inception_4d/output_0_split
I1128 21:15:25.854317  2637 net.cpp:157] Top shape: 50 528 14 14 (5174400)
I1128 21:15:25.854322  2637 net.cpp:157] Top shape: 50 528 14 14 (5174400)
I1128 21:15:25.854327  2637 net.cpp:157] Top shape: 50 528 14 14 (5174400)
I1128 21:15:25.854331  2637 net.cpp:157] Top shape: 50 528 14 14 (5174400)
I1128 21:15:25.854334  2637 net.cpp:157] Top shape: 50 528 14 14 (5174400)
I1128 21:15:25.854337  2637 net.cpp:165] Memory required for data: 2515182812
I1128 21:15:25.854341  2637 layer_factory.hpp:77] Creating layer loss2/ave_pool
I1128 21:15:25.854348  2637 net.cpp:100] Creating Layer loss2/ave_pool
I1128 21:15:25.854354  2637 net.cpp:434] loss2/ave_pool <- inception_4d/output_inception_4d/output_0_split_0
I1128 21:15:25.854360  2637 net.cpp:408] loss2/ave_pool -> loss2/ave_pool
I1128 21:15:25.854388  2637 net.cpp:150] Setting up loss2/ave_pool
I1128 21:15:25.854395  2637 net.cpp:157] Top shape: 50 528 4 4 (422400)
I1128 21:15:25.854398  2637 net.cpp:165] Memory required for data: 2516872412
I1128 21:15:25.854413  2637 layer_factory.hpp:77] Creating layer loss2/conv
I1128 21:15:25.854425  2637 net.cpp:100] Creating Layer loss2/conv
I1128 21:15:25.854430  2637 net.cpp:434] loss2/conv <- loss2/ave_pool
I1128 21:15:25.854441  2637 net.cpp:408] loss2/conv -> loss2/conv
I1128 21:15:25.855505  2637 net.cpp:150] Setting up loss2/conv
I1128 21:15:25.855520  2637 net.cpp:157] Top shape: 50 128 4 4 (102400)
I1128 21:15:25.855522  2637 net.cpp:165] Memory required for data: 2517282012
I1128 21:15:25.855530  2637 layer_factory.hpp:77] Creating layer loss2/relu_conv
I1128 21:15:25.855536  2637 net.cpp:100] Creating Layer loss2/relu_conv
I1128 21:15:25.855541  2637 net.cpp:434] loss2/relu_conv <- loss2/conv
I1128 21:15:25.855546  2637 net.cpp:395] loss2/relu_conv -> loss2/conv (in-place)
I1128 21:15:25.855556  2637 net.cpp:150] Setting up loss2/relu_conv
I1128 21:15:25.855561  2637 net.cpp:157] Top shape: 50 128 4 4 (102400)
I1128 21:15:25.855563  2637 net.cpp:165] Memory required for data: 2517691612
I1128 21:15:25.855566  2637 layer_factory.hpp:77] Creating layer loss2/fc
I1128 21:15:25.855577  2637 net.cpp:100] Creating Layer loss2/fc
I1128 21:15:25.855581  2637 net.cpp:434] loss2/fc <- loss2/conv
I1128 21:15:25.855587  2637 net.cpp:408] loss2/fc -> loss2/fc
I1128 21:15:25.870138  2637 net.cpp:150] Setting up loss2/fc
I1128 21:15:25.870172  2637 net.cpp:157] Top shape: 50 1024 (51200)
I1128 21:15:25.870175  2637 net.cpp:165] Memory required for data: 2517896412
I1128 21:15:25.870187  2637 layer_factory.hpp:77] Creating layer loss2/relu_fc
I1128 21:15:25.870200  2637 net.cpp:100] Creating Layer loss2/relu_fc
I1128 21:15:25.870205  2637 net.cpp:434] loss2/relu_fc <- loss2/fc
I1128 21:15:25.870215  2637 net.cpp:395] loss2/relu_fc -> loss2/fc (in-place)
I1128 21:15:25.870226  2637 net.cpp:150] Setting up loss2/relu_fc
I1128 21:15:25.870230  2637 net.cpp:157] Top shape: 50 1024 (51200)
I1128 21:15:25.870234  2637 net.cpp:165] Memory required for data: 2518101212
I1128 21:15:25.870236  2637 layer_factory.hpp:77] Creating layer loss2/drop_fc
I1128 21:15:25.870244  2637 net.cpp:100] Creating Layer loss2/drop_fc
I1128 21:15:25.870246  2637 net.cpp:434] loss2/drop_fc <- loss2/fc
I1128 21:15:25.870251  2637 net.cpp:395] loss2/drop_fc -> loss2/fc (in-place)
I1128 21:15:25.870286  2637 net.cpp:150] Setting up loss2/drop_fc
I1128 21:15:25.870295  2637 net.cpp:157] Top shape: 50 1024 (51200)
I1128 21:15:25.870297  2637 net.cpp:165] Memory required for data: 2518306012
I1128 21:15:25.870301  2637 layer_factory.hpp:77] Creating layer loss2/classifier
I1128 21:15:25.870309  2637 net.cpp:100] Creating Layer loss2/classifier
I1128 21:15:25.870313  2637 net.cpp:434] loss2/classifier <- loss2/fc
I1128 21:15:25.870321  2637 net.cpp:408] loss2/classifier -> loss2/classifier
I1128 21:15:25.893818  2637 net.cpp:150] Setting up loss2/classifier
I1128 21:15:25.893837  2637 net.cpp:157] Top shape: 50 1000 (50000)
I1128 21:15:25.893839  2637 net.cpp:165] Memory required for data: 2518506012
I1128 21:15:25.893846  2637 layer_factory.hpp:77] Creating layer loss2/classifier_loss2/classifier_0_split
I1128 21:15:25.893853  2637 net.cpp:100] Creating Layer loss2/classifier_loss2/classifier_0_split
I1128 21:15:25.893857  2637 net.cpp:434] loss2/classifier_loss2/classifier_0_split <- loss2/classifier
I1128 21:15:25.893865  2637 net.cpp:408] loss2/classifier_loss2/classifier_0_split -> loss2/classifier_loss2/classifier_0_split_0
I1128 21:15:25.893872  2637 net.cpp:408] loss2/classifier_loss2/classifier_0_split -> loss2/classifier_loss2/classifier_0_split_1
I1128 21:15:25.893877  2637 net.cpp:408] loss2/classifier_loss2/classifier_0_split -> loss2/classifier_loss2/classifier_0_split_2
I1128 21:15:25.893924  2637 net.cpp:150] Setting up loss2/classifier_loss2/classifier_0_split
I1128 21:15:25.893930  2637 net.cpp:157] Top shape: 50 1000 (50000)
I1128 21:15:25.893932  2637 net.cpp:157] Top shape: 50 1000 (50000)
I1128 21:15:25.893934  2637 net.cpp:157] Top shape: 50 1000 (50000)
I1128 21:15:25.893936  2637 net.cpp:165] Memory required for data: 2519106012
I1128 21:15:25.893955  2637 layer_factory.hpp:77] Creating layer loss2/loss
I1128 21:15:25.893962  2637 net.cpp:100] Creating Layer loss2/loss
I1128 21:15:25.893965  2637 net.cpp:434] loss2/loss <- loss2/classifier_loss2/classifier_0_split_0
I1128 21:15:25.893968  2637 net.cpp:434] loss2/loss <- label_data_1_split_3
…
I1128 21:15:25.894170  2637 net.cpp:150] Setting up loss2/top-5
I1128 21:15:25.894172  2637 net.cpp:157] Top shape: (1)
I1128 21:15:25.894173  2637 net.cpp:165] Memory required for data: 2519106024
I1128 21:15:25.894176  2637 layer_factory.hpp:77] Creating layer inception_4e/1x1
I1128 21:15:25.894184  2637 net.cpp:100] Creating Layer inception_4e/1x1
I1128 21:15:25.894187  2637 net.cpp:434] inception_4e/1x1 <- inception_4d/output_inception_4d/output_0_split_1
I1128 21:15:25.894192  2637 net.cpp:408] inception_4e/1x1 -> inception_4e/1x1
I1128 21:15:25.895009  2637 net.cpp:150] Setting up inception_4e/1x1
I1128 21:15:25.895018  2637 net.cpp:157] Top shape: 50 256 14 14 (2508800)
I1128 21:15:25.895020  2637 net.cpp:165] Memory required for data: 2529141224
I1128 21:15:25.895025  2637 layer_factory.hpp:77] Creating layer inception_4e/relu_1x1
I1128 21:15:25.895031  2637 net.cpp:100] Creating Layer inception_4e/relu_1x1
I1128 21:15:25.895035  2637 net.cpp:434] inception_4e/relu_1x1 <- inception_4e/1x1
I1128 21:15:25.895038  2637 net.cpp:395] inception_4e/relu_1x1 -> inception_4e/1x1 (in-place)
I1128 21:15:25.895042  2637 net.cpp:150] Setting up inception_4e/relu_1x1
I1128 21:15:25.895045  2637 net.cpp:157] Top shape: 50 256 14 14 (2508800)
I1128 21:15:25.895046  2637 net.cpp:165] Memory required for data: 2539176424
I1128 21:15:25.895047  2637 layer_factory.hpp:77] Creating layer inception_4e/3x3_reduce
I1128 21:15:25.895081  2637 net.cpp:100] Creating Layer inception_4e/3x3_reduce
I1128 21:15:25.895087  2637 net.cpp:434] inception_4e/3x3_reduce <- inception_4d/output_inception_4d/output_0_split_2
I1128 21:15:25.895092  2637 net.cpp:408] inception_4e/3x3_reduce -> inception_4e/3x3_reduce
I1128 21:15:25.896258  2637 net.cpp:150] Setting up inception_4e/3x3_reduce
I1128 21:15:25.896277  2637 net.cpp:157] Top shape: 50 160 14 14 (1568000)
I1128 21:15:25.896280  2637 net.cpp:165] Memory required for data: 2545448424
I1128 21:15:25.896287  2637 layer_factory.hpp:77] Creating layer inception_4e/relu_3x3_reduce
I1128 21:15:25.896294  2637 net.cpp:100] Creating Layer inception_4e/relu_3x3_reduce
I1128 21:15:25.896298  2637 net.cpp:434] inception_4e/relu_3x3_reduce <- inception_4e/3x3_reduce
I1128 21:15:25.896304  2637 net.cpp:395] inception_4e/relu_3x3_reduce -> inception_4e/3x3_reduce (in-place)
I1128 21:15:25.896311  2637 net.cpp:150] Setting up inception_4e/relu_3x3_reduce
I1128 21:15:25.896327  2637 net.cpp:157] Top shape: 50 160 14 14 (1568000)
I1128 21:15:25.896328  2637 net.cpp:165] Memory required for data: 2551720424
I1128 21:15:25.896329  2637 layer_factory.hpp:77] Creating layer inception_4e/3x3
I1128 21:15:25.896337  2637 net.cpp:100] Creating Layer inception_4e/3x3
I1128 21:15:25.896339  2637 net.cpp:434] inception_4e/3x3 <- inception_4e/3x3_reduce
I1128 21:15:25.896343  2637 net.cpp:408] inception_4e/3x3 -> inception_4e/3x3
I1128 21:15:25.899941  2637 net.cpp:150] Setting up inception_4e/3x3
I1128 21:15:25.899974  2637 net.cpp:157] Top shape: 50 320 14 14 (3136000)
I1128 21:15:25.899977  2637 net.cpp:165] Memory required for data: 2564264424
I1128 21:15:25.899988  2637 layer_factory.hpp:77] Creating layer inception_4e/relu_3x3
I1128 21:15:25.900002  2637 net.cpp:100] Creating Layer inception_4e/relu_3x3
I1128 21:15:25.900009  2637 net.cpp:434] inception_4e/relu_3x3 <- inception_4e/3x3
I1128 21:15:25.900020  2637 net.cpp:395] inception_4e/relu_3x3 -> inception_4e/3x3 (in-place)
I1128 21:15:25.900034  2637 net.cpp:150] Setting up inception_4e/relu_3x3
I1128 21:15:25.900039  2637 net.cpp:157] Top shape: 50 320 14 14 (3136000)
I1128 21:15:25.900043  2637 net.cpp:165] Memory required for data: 2576808424
I1128 21:15:25.900045  2637 layer_factory.hpp:77] Creating layer inception_4e/5x5_reduce
I1128 21:15:25.900060  2637 net.cpp:100] Creating Layer inception_4e/5x5_reduce
I1128 21:15:25.900065  2637 net.cpp:434] inception_4e/5x5_reduce <- inception_4d/output_inception_4d/output_0_split_3
I1128 21:15:25.900074  2637 net.cpp:408] inception_4e/5x5_reduce -> inception_4e/5x5_reduce
I1128 21:15:25.900393  2637 net.cpp:150] Setting up inception_4e/5x5_reduce
I1128 21:15:25.900401  2637 net.cpp:157] Top shape: 50 32 14 14 (313600)
I1128 21:15:25.900404  2637 net.cpp:165] Memory required for data: 2578062824
I1128 21:15:25.900411  2637 layer_factory.hpp:77] Creating layer inception_4e/relu_5x5_reduce
I1128 21:15:25.900423  2637 net.cpp:100] Creating Layer inception_4e/relu_5x5_reduce
I1128 21:15:25.900427  2637 net.cpp:434] inception_4e/relu_5x5_reduce <- inception_4e/5x5_reduce
I1128 21:15:25.900432  2637 net.cpp:395] inception_4e/relu_5x5_reduce -> inception_4e/5x5_reduce (in-place)
I1128 21:15:25.900440  2637 net.cpp:150] Setting up inception_4e/relu_5x5_reduce
I1128 21:15:25.900444  2637 net.cpp:157] Top shape: 50 32 14 14 (313600)
I1128 21:15:25.900447  2637 net.cpp:165] Memory required for data: 2579317224
I1128 21:15:25.900450  2637 layer_factory.hpp:77] Creating layer inception_4e/5x5
I1128 21:15:25.900460  2637 net.cpp:100] Creating Layer inception_4e/5x5
I1128 21:15:25.900462  2637 net.cpp:434] inception_4e/5x5 <- inception_4e/5x5_reduce
I1128 21:15:25.900470  2637 net.cpp:408] inception_4e/5x5 -> inception_4e/5x5
I1128 21:15:25.901118  2637 net.cpp:150] Setting up inception_4e/5x5
I1128 21:15:25.901129  2637 net.cpp:157] Top shape: 50 128 14 14 (1254400)
I1128 21:15:25.901132  2637 net.cpp:165] Memory required for data: 2584334824
I1128 21:15:25.901139  2637 layer_factory.hpp:77] Creating layer inception_4e/relu_5x5
I1128 21:15:25.901146  2637 net.cpp:100] Creating Layer inception_4e/relu_5x5
I1128 21:15:25.901157  2637 net.cpp:434] inception_4e/relu_5x5 <- inception_4e/5x5
I1128 21:15:25.901163  2637 net.cpp:395] inception_4e/relu_5x5 -> inception_4e/5x5 (in-place)
I1128 21:15:25.901171  2637 net.cpp:150] Setting up inception_4e/relu_5x5
I1128 21:15:25.901177  2637 net.cpp:157] Top shape: 50 128 14 14 (1254400)
I1128 21:15:25.901180  2637 net.cpp:165] Memory required for data: 2589352424
I1128 21:15:25.901183  2637 layer_factory.hpp:77] Creating layer inception_4e/pool
I1128 21:15:25.901201  2637 net.cpp:100] Creating Layer inception_4e/pool
I1128 21:15:25.901208  2637 net.cpp:434] inception_4e/pool <- inception_4d/output_inception_4d/output_0_split_4
I1128 21:15:25.901216  2637 net.cpp:408] inception_4e/pool -> inception_4e/pool
I1128 21:15:25.901260  2637 net.cpp:150] Setting up inception_4e/pool
I1128 21:15:25.901268  2637 net.cpp:157] Top shape: 50 528 14 14 (5174400)
I1128 21:15:25.901286  2637 net.cpp:165] Memory required for data: 2610050024
I1128 21:15:25.901290  2637 layer_factory.hpp:77] Creating layer inception_4e/pool_proj
I1128 21:15:25.901304  2637 net.cpp:100] Creating Layer inception_4e/pool_proj
I1128 21:15:25.901309  2637 net.cpp:434] inception_4e/pool_proj <- inception_4e/pool
I1128 21:15:25.901319  2637 net.cpp:408] inception_4e/pool_proj -> inception_4e/pool_proj
I1128 21:15:25.901808  2637 net.cpp:150] Setting up inception_4e/pool_proj
I1128 21:15:25.901816  2637 net.cpp:157] Top shape: 50 128 14 14 (1254400)
I1128 21:15:25.901819  2637 net.cpp:165] Memory required for data: 2615067624
I1128 21:15:25.901826  2637 layer_factory.hpp:77] Creating layer inception_4e/relu_pool_proj
I1128 21:15:25.901832  2637 net.cpp:100] Creating Layer inception_4e/relu_pool_proj
I1128 21:15:25.901836  2637 net.cpp:434] inception_4e/relu_pool_proj <- inception_4e/pool_proj
I1128 21:15:25.901844  2637 net.cpp:395] inception_4e/relu_pool_proj -> inception_4e/pool_proj (in-place)
I1128 21:15:25.901850  2637 net.cpp:150] Setting up inception_4e/relu_pool_proj
I1128 21:15:25.901856  2637 net.cpp:157] Top shape: 50 128 14 14 (1254400)
I1128 21:15:25.901859  2637 net.cpp:165] Memory required for data: 2620085224
I1128 21:15:25.901861  2637 layer_factory.hpp:77] Creating layer inception_4e/output
I1128 21:15:25.901868  2637 net.cpp:100] Creating Layer inception_4e/output
I1128 21:15:25.901873  2637 net.cpp:434] inception_4e/output <- inception_4e/1x1
I1128 21:15:25.901877  2637 net.cpp:434] inception_4e/output <- inception_4e/3x3
I1128 21:15:25.901882  2637 net.cpp:434] inception_4e/output <- inception_4e/5x5
I1128 21:15:25.901886  2637 net.cpp:434] inception_4e/output <- inception_4e/pool_proj
I1128 21:15:25.901893  2637 net.cpp:408] inception_4e/output -> inception_4e/output
I1128 21:15:25.901922  2637 net.cpp:150] Setting up inception_4e/output
I1128 21:15:25.901929  2637 net.cpp:157] Top shape: 50 832 14 14 (8153600)
I1128 21:15:25.901932  2637 net.cpp:165] Memory required for data: 2652699624
I1128 21:15:25.901935  2637 layer_factory.hpp:77] Creating layer pool4/3x3_s2
I1128 21:15:25.901942  2637 net.cpp:100] Creating Layer pool4/3x3_s2
I1128 21:15:25.901945  2637 net.cpp:434] pool4/3x3_s2 <- inception_4e/output
I1128 21:15:25.901952  2637 net.cpp:408] pool4/3x3_s2 -> pool4/3x3_s2
I1128 21:15:25.901990  2637 net.cpp:150] Setting up pool4/3x3_s2
I1128 21:15:25.901998  2637 net.cpp:157] Top shape: 50 832 7 7 (2038400)
I1128 21:15:25.902000  2637 net.cpp:165] Memory required for data: 2660853224
I1128 21:15:25.902004  2637 layer_factory.hpp:77] Creating layer pool4/3x3_s2_pool4/3x3_s2_0_split
I1128 21:15:25.902011  2637 net.cpp:100] Creating Layer pool4/3x3_s2_pool4/3x3_s2_0_split
I1128 21:15:25.902016  2637 net.cpp:434] pool4/3x3_s2_pool4/3x3_s2_0_split <- pool4/3x3_s2
I1128 21:15:25.902024  2637 net.cpp:408] pool4/3x3_s2_pool4/3x3_s2_0_split -> pool4/3x3_s2_pool4/3x3_s2_0_split_0
I1128 21:15:25.902032  2637 net.cpp:408] pool4/3x3_s2_pool4/3x3_s2_0_split -> pool4/3x3_s2_pool4/3x3_s2_0_split_1
I1128 21:15:25.902040  2637 net.cpp:408] pool4/3x3_s2_pool4/3x3_s2_0_split -> pool4/3x3_s2_pool4/3x3_s2_0_split_2
I1128 21:15:25.902073  2637 net.cpp:408] pool4/3x3_s2_pool4/3x3_s2_0_split -> pool4/3x3_s2_pool4/3x3_s2_0_split_3
I1128 21:15:25.902122  2637 net.cpp:150] Setting up pool4/3x3_s2_pool4/3x3_s2_0_split
I1128 21:15:25.902128  2637 net.cpp:157] Top shape: 50 832 7 7 (2038400)
I1128 21:15:25.902132  2637 net.cpp:157] Top shape: 50 832 7 7 (2038400)
I1128 21:15:25.902138  2637 net.cpp:157] Top shape: 50 832 7 7 (2038400)
I1128 21:15:25.902143  2637 net.cpp:157] Top shape: 50 832 7 7 (2038400)
I1128 21:15:25.902145  2637 net.cpp:165] Memory required for data: 2693467624
I1128 21:15:25.902148  2637 layer_factory.hpp:77] Creating layer inception_5a/1x1
I1128 21:15:25.902158  2637 net.cpp:100] Creating Layer inception_5a/1x1
I1128 21:15:25.902163  2637 net.cpp:434] inception_5a/1x1 <- pool4/3x3_s2_pool4/3x3_s2_0_split_0
I1128 21:15:25.902171  2637 net.cpp:408] inception_5a/1x1 -> inception_5a/1x1
I1128 21:15:25.903880  2637 net.cpp:150] Setting up inception_5a/1x1
I1128 21:15:25.903904  2637 net.cpp:157] Top shape: 50 256 7 7 (627200)
I1128 21:15:25.903908  2637 net.cpp:165] Memory required for data: 2695976424
I1128 21:15:25.903918  2637 layer_factory.hpp:77] Creating layer inception_5a/relu_1x1
I1128 21:15:25.903930  2637 net.cpp:100] Creating Layer inception_5a/relu_1x1
I1128 21:15:25.903937  2637 net.cpp:434] inception_5a/relu_1x1 <- inception_5a/1x1
I1128 21:15:25.903947  2637 net.cpp:395] inception_5a/relu_1x1 -> inception_5a/1x1 (in-place)
I1128 21:15:25.903960  2637 net.cpp:150] Setting up inception_5a/relu_1x1
I1128 21:15:25.903965  2637 net.cpp:157] Top shape: 50 256 7 7 (627200)
I1128 21:15:25.903967  2637 net.cpp:165] Memory required for data: 2698485224
I1128 21:15:25.903970  2637 layer_factory.hpp:77] Creating layer inception_5a/3x3_reduce
I1128 21:15:25.903983  2637 net.cpp:100] Creating Layer inception_5a/3x3_reduce
I1128 21:15:25.903988  2637 net.cpp:434] inception_5a/3x3_reduce <- pool4/3x3_s2_pool4/3x3_s2_0_split_1
I1128 21:15:25.903997  2637 net.cpp:408] inception_5a/3x3_reduce -> inception_5a/3x3_reduce
I1128 21:15:25.905362  2637 net.cpp:150] Setting up inception_5a/3x3_reduce
I1128 21:15:25.905385  2637 net.cpp:157] Top shape: 50 160 7 7 (392000)
I1128 21:15:25.905387  2637 net.cpp:165] Memory required for data: 2700053224
I1128 21:15:25.905395  2637 layer_factory.hpp:77] Creating layer inception_5a/relu_3x3_reduce
I1128 21:15:25.905405  2637 net.cpp:100] Creating Layer inception_5a/relu_3x3_reduce
I1128 21:15:25.905412  2637 net.cpp:434] inception_5a/relu_3x3_reduce <- inception_5a/3x3_reduce
I1128 21:15:25.905423  2637 net.cpp:395] inception_5a/relu_3x3_reduce -> inception_5a/3x3_reduce (in-place)
I1128 21:15:25.905433  2637 net.cpp:150] Setting up inception_5a/relu_3x3_reduce
I1128 21:15:25.905439  2637 net.cpp:157] Top shape: 50 160 7 7 (392000)
I1128 21:15:25.905442  2637 net.cpp:165] Memory required for data: 2701621224
I1128 21:15:25.905445  2637 layer_factory.hpp:77] Creating layer inception_5a/3x3
I1128 21:15:25.905457  2637 net.cpp:100] Creating Layer inception_5a/3x3
I1128 21:15:25.905459  2637 net.cpp:434] inception_5a/3x3 <- inception_5a/3x3_reduce
I1128 21:15:25.905468  2637 net.cpp:408] inception_5a/3x3 -> inception_5a/3x3
I1128 21:15:25.911578  2637 net.cpp:150] Setting up inception_5a/3x3
I1128 21:15:25.911602  2637 net.cpp:157] Top shape: 50 320 7 7 (784000)
I1128 21:15:25.911605  2637 net.cpp:165] Memory required for data: 2704757224
I1128 21:15:25.911614  2637 layer_factory.hpp:77] Creating layer inception_5a/relu_3x3
I1128 21:15:25.911625  2637 net.cpp:100] Creating Layer inception_5a/relu_3x3
I1128 21:15:25.911631  2637 net.cpp:434] inception_5a/relu_3x3 <- inception_5a/3x3
I1128 21:15:25.911643  2637 net.cpp:395] inception_5a/relu_3x3 -> inception_5a/3x3 (in-place)
I1128 21:15:25.911654  2637 net.cpp:150] Setting up inception_5a/relu_3x3
I1128 21:15:25.911659  2637 net.cpp:157] Top shape: 50 320 7 7 (784000)
I1128 21:15:25.911662  2637 net.cpp:165] Memory required for data: 2707893224
I1128 21:15:25.911664  2637 layer_factory.hpp:77] Creating layer inception_5a/5x5_reduce
I1128 21:15:25.911677  2637 net.cpp:100] Creating Layer inception_5a/5x5_reduce
I1128 21:15:25.911684  2637 net.cpp:434] inception_5a/5x5_reduce <- pool4/3x3_s2_pool4/3x3_s2_0_split_2
I1128 21:15:25.911691  2637 net.cpp:408] inception_5a/5x5_reduce -> inception_5a/5x5_reduce
I1128 21:15:25.912014  2637 net.cpp:150] Setting up inception_5a/5x5_reduce
I1128 21:15:25.912024  2637 net.cpp:157] Top shape: 50 32 7 7 (78400)
I1128 21:15:25.912026  2637 net.cpp:165] Memory required for data: 2708206824
I1128 21:15:25.912032  2637 layer_factory.hpp:77] Creating layer inception_5a/relu_5x5_reduce
I1128 21:15:25.912039  2637 net.cpp:100] Creating Layer inception_5a/relu_5x5_reduce
I1128 21:15:25.912045  2637 net.cpp:434] inception_5a/relu_5x5_reduce <- inception_5a/5x5_reduce
I1128 21:15:25.912053  2637 net.cpp:395] inception_5a/relu_5x5_reduce -> inception_5a/5x5_reduce (in-place)
I1128 21:15:25.912060  2637 net.cpp:150] Setting up inception_5a/relu_5x5_reduce
I1128 21:15:25.912080  2637 net.cpp:157] Top shape: 50 32 7 7 (78400)
I1128 21:15:25.912083  2637 net.cpp:165] Memory required for data: 2708520424
I1128 21:15:25.912086  2637 layer_factory.hpp:77] Creating layer inception_5a/5x5
I1128 21:15:25.912097  2637 net.cpp:100] Creating Layer inception_5a/5x5
I1128 21:15:25.912102  2637 net.cpp:434] inception_5a/5x5 <- inception_5a/5x5_reduce
I1128 21:15:25.912111  2637 net.cpp:408] inception_5a/5x5 -> inception_5a/5x5
I1128 21:15:25.912741  2637 net.cpp:150] Setting up inception_5a/5x5
I1128 21:15:25.912750  2637 net.cpp:157] Top shape: 50 128 7 7 (313600)
I1128 21:15:25.912752  2637 net.cpp:165] Memory required for data: 2709774824
I1128 21:15:25.912760  2637 layer_factory.hpp:77] Creating layer inception_5a/relu_5x5
I1128 21:15:25.912766  2637 net.cpp:100] Creating Layer inception_5a/relu_5x5
I1128 21:15:25.912771  2637 net.cpp:434] inception_5a/relu_5x5 <- inception_5a/5x5
I1128 21:15:25.912777  2637 net.cpp:395] inception_5a/relu_5x5 -> inception_5a/5x5 (in-place)
I1128 21:15:25.912783  2637 net.cpp:150] Setting up inception_5a/relu_5x5
I1128 21:15:25.912789  2637 net.cpp:157] Top shape: 50 128 7 7 (313600)
I1128 21:15:25.912791  2637 net.cpp:165] Memory required for data: 2711029224
I1128 21:15:25.912794  2637 layer_factory.hpp:77] Creating layer inception_5a/pool
I1128 21:15:25.912801  2637 net.cpp:100] Creating Layer inception_5a/pool
I1128 21:15:25.912806  2637 net.cpp:434] inception_5a/pool <- pool4/3x3_s2_pool4/3x3_s2_0_split_3
I1128 21:15:25.912812  2637 net.cpp:408] inception_5a/pool -> inception_5a/pool
I1128 21:15:25.912850  2637 net.cpp:150] Setting up inception_5a/pool
I1128 21:15:25.912858  2637 net.cpp:157] Top shape: 50 832 7 7 (2038400)
I1128 21:15:25.912860  2637 net.cpp:165] Memory required for data: 2719182824
I1128 21:15:25.912863  2637 layer_factory.hpp:77] Creating layer inception_5a/pool_proj
I1128 21:15:25.912875  2637 net.cpp:100] Creating Layer inception_5a/pool_proj
I1128 21:15:25.912880  2637 net.cpp:434] inception_5a/pool_proj <- inception_5a/pool
I1128 21:15:25.912888  2637 net.cpp:408] inception_5a/pool_proj -> inception_5a/pool_proj
I1128 21:15:25.916224  2637 net.cpp:150] Setting up inception_5a/pool_proj
I1128 21:15:25.916236  2637 net.cpp:157] Top shape: 50 128 7 7 (313600)
I1128 21:15:25.916239  2637 net.cpp:165] Memory required for data: 2720437224
I1128 21:15:25.916245  2637 layer_factory.hpp:77] Creating layer inception_5a/relu_pool_proj
I1128 21:15:25.916252  2637 net.cpp:100] Creating Layer inception_5a/relu_pool_proj
I1128 21:15:25.916256  2637 net.cpp:434] inception_5a/relu_pool_proj <- inception_5a/pool_proj
I1128 21:15:25.916265  2637 net.cpp:395] inception_5a/relu_pool_proj -> inception_5a/pool_proj (in-place)
I1128 21:15:25.916275  2637 net.cpp:150] Setting up inception_5a/relu_pool_proj
I1128 21:15:25.916280  2637 net.cpp:157] Top shape: 50 128 7 7 (313600)
I1128 21:15:25.916282  2637 net.cpp:165] Memory required for data: 2721691624
I1128 21:15:25.916285  2637 layer_factory.hpp:77] Creating layer inception_5a/output
I1128 21:15:25.916292  2637 net.cpp:100] Creating Layer inception_5a/output
I1128 21:15:25.916296  2637 net.cpp:434] inception_5a/output <- inception_5a/1x1
I1128 21:15:25.916301  2637 net.cpp:434] inception_5a/output <- inception_5a/3x3
I1128 21:15:25.916304  2637 net.cpp:434] inception_5a/output <- inception_5a/5x5
I1128 21:15:25.916308  2637 net.cpp:434] inception_5a/output <- inception_5a/pool_proj
I1128 21:15:25.916316  2637 net.cpp:408] inception_5a/output -> inception_5a/output
I1128 21:15:25.916343  2637 net.cpp:150] Setting up inception_5a/output
I1128 21:15:25.916349  2637 net.cpp:157] Top shape: 50 832 7 7 (2038400)
I1128 21:15:25.916352  2637 net.cpp:165] Memory required for data: 2729845224
I1128 21:15:25.916355  2637 layer_factory.hpp:77] Creating layer inception_5a/output_inception_5a/output_0_split
I1128 21:15:25.916364  2637 net.cpp:100] Creating Layer inception_5a/output_inception_5a/output_0_split
I1128 21:15:25.916369  2637 net.cpp:434] inception_5a/output_inception_5a/output_0_split <- inception_5a/output
I1128 21:15:25.916388  2637 net.cpp:408] inception_5a/output_inception_5a/output_0_split -> inception_5a/output_inception_5a/output_0_split_0
I1128 21:15:25.916399  2637 net.cpp:408] inception_5a/output_inception_5a/output_0_split -> inception_5a/output_inception_5a/output_0_split_1
I1128 21:15:25.916406  2637 net.cpp:408] inception_5a/output_inception_5a/output_0_split -> inception_5a/output_inception_5a/output_0_split_2
I1128 21:15:25.916414  2637 net.cpp:408] inception_5a/output_inception_5a/output_0_split -> inception_5a/output_inception_5a/output_0_split_3
I1128 21:15:25.916465  2637 net.cpp:150] Setting up inception_5a/output_inception_5a/output_0_split
I1128 21:15:25.916472  2637 net.cpp:157] Top shape: 50 832 7 7 (2038400)
I1128 21:15:25.916476  2637 net.cpp:157] Top shape: 50 832 7 7 (2038400)
I1128 21:15:25.916481  2637 net.cpp:157] Top shape: 50 832 7 7 (2038400)
I1128 21:15:25.916484  2637 net.cpp:157] Top shape: 50 832 7 7 (2038400)
I1128 21:15:25.916487  2637 net.cpp:165] Memory required for data: 2762459624
I1128 21:15:25.916491  2637 layer_factory.hpp:77] Creating layer inception_5b/1x1
I1128 21:15:25.916502  2637 net.cpp:100] Creating Layer inception_5b/1x1
I1128 21:15:25.916507  2637 net.cpp:434] inception_5b/1x1 <- inception_5a/output_inception_5a/output_0_split_0
I1128 21:15:25.916514  2637 net.cpp:408] inception_5b/1x1 -> inception_5b/1x1
I1128 21:15:25.921389  2637 net.cpp:150] Setting up inception_5b/1x1
I1128 21:15:25.921401  2637 net.cpp:157] Top shape: 50 384 7 7 (940800)
I1128 21:15:25.921404  2637 net.cpp:165] Memory required for data: 2766222824
I1128 21:15:25.921411  2637 layer_factory.hpp:77] Creating layer inception_5b/relu_1x1
I1128 21:15:25.921418  2637 net.cpp:100] Creating Layer inception_5b/relu_1x1
I1128 21:15:25.921422  2637 net.cpp:434] inception_5b/relu_1x1 <- inception_5b/1x1
I1128 21:15:25.921428  2637 net.cpp:395] inception_5b/relu_1x1 -> inception_5b/1x1 (in-place)
I1128 21:15:25.921435  2637 net.cpp:150] Setting up inception_5b/relu_1x1
I1128 21:15:25.921442  2637 net.cpp:157] Top shape: 50 384 7 7 (940800)
I1128 21:15:25.921449  2637 net.cpp:165] Memory required for data: 2769986024
I1128 21:15:25.921453  2637 layer_factory.hpp:77] Creating layer inception_5b/3x3_reduce
I1128 21:15:25.921464  2637 net.cpp:100] Creating Layer inception_5b/3x3_reduce
I1128 21:15:25.921468  2637 net.cpp:434] inception_5b/3x3_reduce <- inception_5a/output_inception_5a/output_0_split_1
I1128 21:15:25.921476  2637 net.cpp:408] inception_5b/3x3_reduce -> inception_5b/3x3_reduce
I1128 21:15:25.925961  2637 net.cpp:150] Setting up inception_5b/3x3_reduce
I1128 21:15:25.925973  2637 net.cpp:157] Top shape: 50 192 7 7 (470400)
I1128 21:15:25.925976  2637 net.cpp:165] Memory required for data: 2771867624
I1128 21:15:25.925982  2637 layer_factory.hpp:77] Creating layer inception_5b/relu_3x3_reduce
I1128 21:15:25.925989  2637 net.cpp:100] Creating Layer inception_5b/relu_3x3_reduce
I1128 21:15:25.925994  2637 net.cpp:434] inception_5b/relu_3x3_reduce <- inception_5b/3x3_reduce
I1128 21:15:25.926002  2637 net.cpp:395] inception_5b/relu_3x3_reduce -> inception_5b/3x3_reduce (in-place)
I1128 21:15:25.926009  2637 net.cpp:150] Setting up inception_5b/relu_3x3_reduce
I1128 21:15:25.926014  2637 net.cpp:157] Top shape: 50 192 7 7 (470400)
I1128 21:15:25.926017  2637 net.cpp:165] Memory required for data: 2773749224
I1128 21:15:25.926020  2637 layer_factory.hpp:77] Creating layer inception_5b/3x3
I1128 21:15:25.926030  2637 net.cpp:100] Creating Layer inception_5b/3x3
I1128 21:15:25.926035  2637 net.cpp:434] inception_5b/3x3 <- inception_5b/3x3_reduce
I1128 21:15:25.926043  2637 net.cpp:408] inception_5b/3x3 -> inception_5b/3x3
I1128 21:15:25.929787  2637 net.cpp:150] Setting up inception_5b/3x3
I1128 21:15:25.929800  2637 net.cpp:157] Top shape: 50 384 7 7 (940800)
I1128 21:15:25.929802  2637 net.cpp:165] Memory required for data: 2777512424
I1128 21:15:25.929808  2637 layer_factory.hpp:77] Creating layer inception_5b/relu_3x3
I1128 21:15:25.929816  2637 net.cpp:100] Creating Layer inception_5b/relu_3x3
I1128 21:15:25.929831  2637 net.cpp:434] inception_5b/relu_3x3 <- inception_5b/3x3
I1128 21:15:25.929839  2637 net.cpp:395] inception_5b/relu_3x3 -> inception_5b/3x3 (in-place)
I1128 21:15:25.929847  2637 net.cpp:150] Setting up inception_5b/relu_3x3
I1128 21:15:25.929853  2637 net.cpp:157] Top shape: 50 384 7 7 (940800)
I1128 21:15:25.929857  2637 net.cpp:165] Memory required for data: 2781275624
I1128 21:15:25.929859  2637 layer_factory.hpp:77] Creating layer inception_5b/5x5_reduce
I1128 21:15:25.929872  2637 net.cpp:100] Creating Layer inception_5b/5x5_reduce
I1128 21:15:25.929875  2637 net.cpp:434] inception_5b/5x5_reduce <- inception_5a/output_inception_5a/output_0_split_2
I1128 21:15:25.929883  2637 net.cpp:408] inception_5b/5x5_reduce -> inception_5b/5x5_reduce
I1128 21:15:25.930241  2637 net.cpp:150] Setting up inception_5b/5x5_reduce
I1128 21:15:25.930250  2637 net.cpp:157] Top shape: 50 48 7 7 (117600)
I1128 21:15:25.930253  2637 net.cpp:165] Memory required for data: 2781746024
I1128 21:15:25.930259  2637 layer_factory.hpp:77] Creating layer inception_5b/relu_5x5_reduce
I1128 21:15:25.930268  2637 net.cpp:100] Creating Layer inception_5b/relu_5x5_reduce
I1128 21:15:25.930272  2637 net.cpp:434] inception_5b/relu_5x5_reduce <- inception_5b/5x5_reduce
I1128 21:15:25.930277  2637 net.cpp:395] inception_5b/relu_5x5_reduce -> inception_5b/5x5_reduce (in-place)
I1128 21:15:25.930284  2637 net.cpp:150] Setting up inception_5b/relu_5x5_reduce
I1128 21:15:25.930289  2637 net.cpp:157] Top shape: 50 48 7 7 (117600)
I1128 21:15:25.930290  2637 net.cpp:165] Memory required for data: 2782216424
I1128 21:15:25.930294  2637 layer_factory.hpp:77] Creating layer inception_5b/5x5
I1128 21:15:25.930305  2637 net.cpp:100] Creating Layer inception_5b/5x5
I1128 21:15:25.930308  2637 net.cpp:434] inception_5b/5x5 <- inception_5b/5x5_reduce
I1128 21:15:25.930316  2637 net.cpp:408] inception_5b/5x5 -> inception_5b/5x5
I1128 21:15:25.931145  2637 net.cpp:150] Setting up inception_5b/5x5
I1128 21:15:25.931154  2637 net.cpp:157] Top shape: 50 128 7 7 (313600)
I1128 21:15:25.931156  2637 net.cpp:165] Memory required for data: 2783470824
I1128 21:15:25.931164  2637 layer_factory.hpp:77] Creating layer inception_5b/relu_5x5
I1128 21:15:25.931169  2637 net.cpp:100] Creating Layer inception_5b/relu_5x5
I1128 21:15:25.931174  2637 net.cpp:434] inception_5b/relu_5x5 <- inception_5b/5x5
I1128 21:15:25.931180  2637 net.cpp:395] inception_5b/relu_5x5 -> inception_5b/5x5 (in-place)
I1128 21:15:25.931187  2637 net.cpp:150] Setting up inception_5b/relu_5x5
I1128 21:15:25.931192  2637 net.cpp:157] Top shape: 50 128 7 7 (313600)
I1128 21:15:25.931195  2637 net.cpp:165] Memory required for data: 2784725224
I1128 21:15:25.931197  2637 layer_factory.hpp:77] Creating layer inception_5b/pool
I1128 21:15:25.931205  2637 net.cpp:100] Creating Layer inception_5b/pool
I1128 21:15:25.931210  2637 net.cpp:434] inception_5b/pool <- inception_5a/output_inception_5a/output_0_split_3
I1128 21:15:25.931216  2637 net.cpp:408] inception_5b/pool -> inception_5b/pool
I1128 21:15:25.931252  2637 net.cpp:150] Setting up inception_5b/pool
I1128 21:15:25.931260  2637 net.cpp:157] Top shape: 50 832 7 7 (2038400)
I1128 21:15:25.931263  2637 net.cpp:165] Memory required for data: 2792878824
I1128 21:15:25.931267  2637 layer_factory.hpp:77] Creating layer inception_5b/pool_proj
I1128 21:15:25.931277  2637 net.cpp:100] Creating Layer inception_5b/pool_proj
I1128 21:15:25.931282  2637 net.cpp:434] inception_5b/pool_proj <- inception_5b/pool
I1128 21:15:25.931288  2637 net.cpp:408] inception_5b/pool_proj -> inception_5b/pool_proj
I1128 21:15:25.932328  2637 net.cpp:150] Setting up inception_5b/pool_proj
I1128 21:15:25.932339  2637 net.cpp:157] Top shape: 50 128 7 7 (313600)
I1128 21:15:25.932343  2637 net.cpp:165] Memory required for data: 2794133224
I1128 21:15:25.932348  2637 layer_factory.hpp:77] Creating layer inception_5b/relu_pool_proj
I1128 21:15:25.932355  2637 net.cpp:100] Creating Layer inception_5b/relu_pool_proj
I1128 21:15:25.932369  2637 net.cpp:434] inception_5b/relu_pool_proj <- inception_5b/pool_proj
I1128 21:15:25.932379  2637 net.cpp:395] inception_5b/relu_pool_proj -> inception_5b/pool_proj (in-place)
I1128 21:15:25.932386  2637 net.cpp:150] Setting up inception_5b/relu_pool_proj
I1128 21:15:25.932391  2637 net.cpp:157] Top shape: 50 128 7 7 (313600)
I1128 21:15:25.932394  2637 net.cpp:165] Memory required for data: 2795387624
I1128 21:15:25.932397  2637 layer_factory.hpp:77] Creating layer inception_5b/output
I1128 21:15:25.932404  2637 net.cpp:100] Creating Layer inception_5b/output
I1128 21:15:25.932409  2637 net.cpp:434] inception_5b/output <- inception_5b/1x1
I1128 21:15:25.932413  2637 net.cpp:434] inception_5b/output <- inception_5b/3x3
I1128 21:15:25.932416  2637 net.cpp:434] inception_5b/output <- inception_5b/5x5
I1128 21:15:25.932420  2637 net.cpp:434] inception_5b/output <- inception_5b/pool_proj
I1128 21:15:25.932427  2637 net.cpp:408] inception_5b/output -> inception_5b/output
I1128 21:15:25.932454  2637 net.cpp:150] Setting up inception_5b/output
I1128 21:15:25.932463  2637 net.cpp:157] Top shape: 50 1024 7 7 (2508800)
I1128 21:15:25.932466  2637 net.cpp:165] Memory required for data: 2805422824
I1128 21:15:25.932469  2637 layer_factory.hpp:77] Creating layer pool5/7x7_s1
I1128 21:15:25.932476  2637 net.cpp:100] Creating Layer pool5/7x7_s1
I1128 21:15:25.932481  2637 net.cpp:434] pool5/7x7_s1 <- inception_5b/output
I1128 21:15:25.932487  2637 net.cpp:408] pool5/7x7_s1 -> pool5/7x7_s1
I1128 21:15:25.932512  2637 net.cpp:150] Setting up pool5/7x7_s1
I1128 21:15:25.932518  2637 net.cpp:157] Top shape: 50 1024 1 1 (51200)
I1128 21:15:25.932520  2637 net.cpp:165] Memory required for data: 2805627624
I1128 21:15:25.932523  2637 layer_factory.hpp:77] Creating layer pool5/drop_7x7_s1
I1128 21:15:25.932533  2637 net.cpp:100] Creating Layer pool5/drop_7x7_s1
I1128 21:15:25.932536  2637 net.cpp:434] pool5/drop_7x7_s1 <- pool5/7x7_s1
I1128 21:15:25.932540  2637 net.cpp:395] pool5/drop_7x7_s1 -> pool5/7x7_s1 (in-place)
I1128 21:15:25.932564  2637 net.cpp:150] Setting up pool5/drop_7x7_s1
I1128 21:15:25.932569  2637 net.cpp:157] Top shape: 50 1024 1 1 (51200)
I1128 21:15:25.932572  2637 net.cpp:165] Memory required for data: 2805832424
I1128 21:15:25.932575  2637 layer_factory.hpp:77] Creating layer loss3/classifier
I1128 21:15:25.932584  2637 net.cpp:100] Creating Layer loss3/classifier
I1128 21:15:25.932588  2637 net.cpp:434] loss3/classifier <- pool5/7x7_s1
I1128 21:15:25.932596  2637 net.cpp:408] loss3/classifier -> loss3/classifier
I1128 21:15:25.932741  2637 net.cpp:150] Setting up loss3/classifier
I1128 21:15:25.932749  2637 net.cpp:157] Top shape: 50 10 (500)
I1128 21:15:25.932751  2637 net.cpp:165] Memory required for data: 2805834424
I1128 21:15:25.932759  2637 layer_factory.hpp:77] Creating layer loss3/classifier_loss3/classifier_0_split
I1128 21:15:25.932765  2637 net.cpp:100] Creating Layer loss3/classifier_loss3/classifier_0_split
I1128 21:15:25.932770  2637 net.cpp:434] loss3/classifier_loss3/classifier_0_split <- loss3/classifier
I1128 21:15:25.932777  2637 net.cpp:408] loss3/classifier_loss3/classifier_0_split -> loss3/classifier_loss3/classifier_0_split_0
I1128 21:15:25.932787  2637 net.cpp:408] loss3/classifier_loss3/classifier_0_split -> loss3/classifier_loss3/classifier_0_split_1
I1128 21:15:25.932796  2637 net.cpp:408] loss3/classifier_loss3/classifier_0_split -> loss3/classifier_loss3/classifier_0_split_2
I1128 21:15:25.932839  2637 net.cpp:150] Setting up loss3/classifier_loss3/classifier_0_split
I1128 21:15:25.932845  2637 net.cpp:157] Top shape: 50 10 (500)
I1128 21:15:25.932849  2637 net.cpp:157] Top shape: 50 10 (500)
I1128 21:15:25.932853  2637 net.cpp:157] Top shape: 50 10 (500)
I1128 21:15:25.932855  2637 net.cpp:165] Memory required for data: 2805840424
I1128 21:15:25.932858  2637 layer_factory.hpp:77] Creating layer loss3/loss3
I1128 21:15:25.932865  2637 net.cpp:100] Creating Layer loss3/loss3
I1128 21:15:25.932869  2637 net.cpp:434] loss3/loss3 <- loss3/classifier_loss3/classifier_0_split_0
I1128 21:15:25.932884  2637 net.cpp:434] loss3/loss3 <- label_data_1_split_6
…
