…
I1206 12:00:09.746031 12327 net.cpp:322] The NetState phase (0) differed from the phase (1) specified by a rule in layer loss3/top-5
I1206 12:00:09.746772 12327 net.cpp:58] Initializing net from parameters: 
name: "GoogleNet"
state {
  phase: TRAIN
  level: 0
  stage: ""
}
layer {
  name: "data"
  type: "Data"
  top: "data"
  top: "label"
  include {
    phase: TRAIN
  }
  transform_param {
    mirror: true
    crop_size: 224
    mean_file: "/home/juran/distracteddriver/input/mean.binaryproto"
  }
  data_param {
    source: "/home/juran/distracteddriver/input/train_lmdb"
    batch_size: 16
    backend: LMDB
  }
}
layer {
  name: "conv1/7x7_s2"
  type: "Convolution"
  bottom: "data"
  top: "conv1/7x7_s2"
  param {
    lr_mult: 1
    decay_mult: 1
  }
  param {
    lr_mult: 2
    decay_mult: 0
  }
  convolution_param {
    num_output: 64
    pad: 3
    kernel_size: 7
    stride: 2
    weight_filler {
      type: "xavier"
    }
    bias_filler {
      type: "constant"
      value: 0.2
    }
  }
}
layer {
  name: "conv1/relu_7x7"
  type: "ReLU"
  bottom: "conv1/7x7_s2"
  top: "conv1/7x7_s2"
}
layer {
  name: "pool1/3x3_s2"
  type: "Pooling"
  bottom: "conv1/7x7_s2"
  top: "pool1/3x3_s2"
  pooling_param {
    pool: MAX
    kernel_size: 3
    stride: 2
  }
}
layer {
  name: "pool1/norm1"
  type: "LRN"
  bottom: "pool1/3x3_s2"
  top: "pool1/norm1"
  lrn_param {
    local_size: 5
    alpha: 0.0001
    beta: 0.75
  }
}
layer {
  name: "conv2/3x3_reduce"
  type: "Convolution"
  bottom: "pool1/norm1"
  top: "conv2/3x3_reduce"
  param {
    lr_mult: 1
    decay_mult: 1
  }
  param {
    lr_mult: 2
    decay_mult: 0
  }
  convolution_param {
    num_output: 64
    kernel_size: 1
    weight_filler {
      type: "xavier"
    }
    bias_filler {
      type: "constant"
      value: 0.2
    }
  }
}
layer {
  name: "conv2/relu_3x3_reduce"
  type: "ReLU"
  bottom: "conv2/3x3_reduce"
  top: "conv2/3x3_reduce"
}
layer {
  name: "conv2/3x3"
  type: "Convolution"
  bottom: "conv2/3x3_reduce"
  top: "conv2/3x3"
  param {
    lr_mult: 1
    decay_mult: 1
  }
  param {
    lr_mult: 2
    decay_mult: 0
  }
  convolution_param {
    num_output: 192
    pad: 1
    kernel_size: 3
    weight_filler {
      type: "xavier"
    }
    bias_filler {
      type: "constant"
      value: 0.2
    }
  }
}
layer {
  name: "conv2/relu_3x3"
  type: "ReLU"
  bottom: "conv2/3x3"
  top: "conv2/3x3"
}
layer {
  name: "conv2/norm2"
  type: "LRN"
  bottom: "conv2/3x3"
  top: "conv2/norm2"
  lrn_param {
    local_size: 5
    alpha: 0.0001
    beta: 0.75
  }
}
layer {
  name: "pool2/3x3_s2"
  type: "Pooling"
  bottom: "conv2/norm2"
  top: "pool2/3x3_s2"
  pooling_param {
    pool: MAX
    kernel_size: 3
    stride: 2
  }
}
layer {
  name: "inception_3a/1x1"
  type: "Convolution"
  bottom: "pool2/3x3_s2"
  top: "inception_3a/1x1"
  param {
    lr_mult: 1
    decay_mult: 1
  }
  param {
    lr_mult: 2
    decay_mult: 0
  }
  convolution_param {
    num_output: 64
    kernel_size: 1
    weight_filler {
      type: "xavier"
    }
    bias_filler {
      type: "constant"
      value: 0.2
    }
  }
}
layer {
  name: "inception_3a/relu_1x1"
  type: "ReLU"
  bottom: "inception_3a/1x1"
  top: "inception_3a/1x1"
}
layer {
  name: "inception_3a/3x3_reduce"
  type: "Convolution"
  bottom: "pool2/3x3_s2"
  top: "inception_3a/3x3_reduce"
  param {
    lr_mult: 1
    decay_mult: 1
  }
  param {
    lr_mult: 2
    decay_mult: 0
  }
  convolution_param {
    num_output: 96
    kernel_size: 1
    weight_filler {
      type: "xavier"
    }
    bias_filler {
      type: "constant"
      value: 0.2
    }
  }
}
layer {
  name: "inception_3a/relu_3x3_reduce"
  type: "ReLU"
  bottom: "inception_3a/3x3_reduce"
  top: "inception_3a/3x3_reduce"
}
layer {
  name: "inception_3a/3x3"
  type: "Convolution"
  bottom: "inception_3a/3x3_reduce"
  top: "inception_3a/3x3"
  param {
    lr_mult: 1
    decay_mult: 1
  }
  param {
    lr_mult: 2
    decay_mult: 0
  }
  convolution_param {
    num_output: 128
    pad: 1
    kernel_size: 3
    weight_filler {
      type: "xavier"
    }
    bias_filler {
      type: "constant"
      value: 0.2
    }
  }
}
layer {
  name: "inception_3a/relu_3x3"
  type: "ReLU"
  bottom: "inception_3a/3x3"
  top: "inception_3a/3x3"
}
layer {
  name: "inception_3a/5x5_reduce"
  type: "Convolution"
  bottom: "pool2/3x3_s2"
  top: "inception_3a/5x5_reduce"
  param {
    lr_mult: 1
    decay_mult: 1
  }
  param {
    lr_mult: 2
    decay_mult: 0
  }
  convolution_param {
    num_output: 16
    kernel_size: 1
    weight_filler {
      type: "xavier"
    }
    bias_filler {
      type: "constant"
      value: 0.2
    }
  }
}
layer {
  name: "inception_3a/relu_5x5_reduce"
  type: "ReLU"
  bottom: "inception_3a/5x5_reduce"
  top: "inception_3a/5x5_reduce"
}
layer {
  name: "inception_3a/5x5"
  type: "Convolution"
  bottom: "inception_3a/5x5_reduce"
  top: "inception_3a/5x5"
  param {
    lr_mult: 1
    decay_mult: 1
  }
  param {
    lr_mult: 2
    decay_mult: 0
  }
  convolution_param {
    num_output: 32
    pad: 2
    kernel_size: 5
    weight_filler {
      type: "xavier"
    }
    bias_filler {
      type: "constant"
      value: 0.2
    }
  }
}
layer {
  name: "inception_3a/relu_5x5"
  type: "ReLU"
  bottom: "inception_3a/5x5"
  top: "inception_3a/5x5"
}
layer {
  name: "inception_3a/pool"
  type: "Pooling"
  bottom: "pool2/3x3_s2"
  top: "inception_3a/pool"
  pooling_param {
    pool: MAX
    kernel_size: 3
    stride: 1
    pad: 1
  }
}
layer {
  name: "inception_3a/pool_proj"
  type: "Convolution"
  bottom: "inception_3a/pool"
  top: "inception_3a/pool_proj"
  param {
    lr_mult: 1
    decay_mult: 1
  }
  param {
    lr_mult: 2
    decay_mult: 0
  }
  convolution_param {
    num_output: 32
    kernel_size: 1
    weight_filler {
      type: "xavier"
    }
    bias_filler {
      type: "constant"
      value: 0.2
    }
  }
}
layer {
  name: "inception_3a/relu_pool_proj"
  type: "ReLU"
  bottom: "inception_3a/pool_proj"
  top: "inception_3a/pool_proj"
}
layer {
  name: "inception_3a/output"
  type: "Concat"
  bottom: "inception_3a/1x1"
  bottom: "inception_3a/3x3"
  bottom: "inception_3a/5x5"
  bottom: "inception_3a/pool_proj"
  top: "inception_3a/output"
}
layer {
  name: "inception_3b/1x1"
  type: "Convolution"
  bottom: "inception_3a/output"
  top: "inception_3b/1x1"
  param {
    lr_mult: 1
    decay_mult: 1
  }
  param {
    lr_mult: 2
    decay_mult: 0
  }
  convolution_param {
    num_output: 128
    kernel_size: 1
    weight_filler {
      type: "xavier"
    }
    bias_filler {
      type: "constant"
      value: 0.2
    }
  }
}
layer {
  name: "inception_3b/relu_1x1"
  type: "ReLU"
  bottom: "inception_3b/1x1"
  top: "inception_3b/1x1"
}
layer {
  name: "inception_3b/3x3_reduce"
  type: "Convolution"
  bottom: "inception_3a/output"
  top: "inception_3b/3x3_reduce"
  param {
    lr_mult: 1
    decay_mult: 1
  }
  param {
    lr_mult: 2
    decay_mult: 0
  }
  convolution_param {
    num_output: 128
    kernel_size: 1
    weight_filler {
      type: "xavier"
    }
    bias_filler {
      type: "constant"
      value: 0.2
    }
  }
}
layer {
  name: "inception_3b/relu_3x3_reduce"
  type: "ReLU"
  bottom: "inception_3b/3x3_reduce"
  top: "inception_3b/3x3_reduce"
}
layer {
  name: "inception_3b/3x3"
  type: "Convolution"
  bottom: "inception_3b/3x3_reduce"
  top: "inception_3b/3x3"
  param {
    lr_mult: 1
    decay_mult: 1
  }
  param {
    lr_mult: 2
    decay_mult: 0
  }
  convolution_param {
    num_output: 192
    pad: 1
    kernel_size: 3
    weight_filler {
      type: "xavier"
    }
    bias_filler {
      type: "constant"
      value: 0.2
    }
  }
}
layer {
  name: "inception_3b/relu_3x3"
  type: "ReLU"
  bottom: "inception_3b/3x3"
  top: "inception_3b/3x3"
}
layer {
  name: "inception_3b/5x5_reduce"
  type: "Convolution"
  bottom: "inception_3a/output"
  top: "inception_3b/5x5_reduce"
  param {
    lr_mult: 1
    decay_mult: 1
  }
  param {
    lr_mult: 2
    decay_mult: 0
  }
  convolution_param {
    num_output: 32
    kernel_size: 1
    weight_filler {
      type: "xavier"
    }
    bias_filler {
      type: "constant"
      value: 0.2
    }
  }
}
layer {
  name: "inception_3b/relu_5x5_reduce"
  type: "ReLU"
  bottom: "inception_3b/5x5_reduce"
  top: "inception_3b/5x5_reduce"
}
layer {
  name: "inception_3b/5x5"
  type: "Convolution"
  bottom: "inception_3b/5x5_reduce"
  top: "inception_3b/5x5"
  param {
    lr_mult: 1
    decay_mult: 1
  }
  param {
    lr_mult: 2
    decay_mult: 0
  }
  convolution_param {
    num_output: 96
    pad: 2
    kernel_size: 5
    weight_filler {
      type: "xavier"
    }
    bias_filler {
      type: "constant"
      value: 0.2
    }
  }
}
layer {
  name: "inception_3b/relu_5x5"
  type: "ReLU"
  bottom: "inception_3b/5x5"
  top: "inception_3b/5x5"
}
layer {
  name: "inception_3b/pool"
  type: "Pooling"
  bottom: "inception_3a/output"
  top: "inception_3b/pool"
  pooling_param {
    pool: MAX
    kernel_size: 3
    stride: 1
    pad: 1
  }
}
layer {
  name: "inception_3b/pool_proj"
  type: "Convolution"
  bottom: "inception_3b/pool"
  top: "inception_3b/pool_proj"
  param {
    lr_mult: 1
    decay_mult: 1
  }
  param {
    lr_mult: 2
    decay_mult: 0
  }
  convolution_param {
    num_output: 64
    kernel_size: 1
    weight_filler {
      type: "xavier"
    }
    bias_filler {
      type: "constant"
      value: 0.2
    }
  }
}
layer {
  name: "inception_3b/relu_pool_proj"
  type: "ReLU"
  bottom: "inception_3b/pool_proj"
  top: "inception_3b/pool_proj"
}
layer {
  name: "inception_3b/output"
  type: "Concat"
  bottom: "inception_3b/1x1"
  bottom: "inception_3b/3x3"
  bottom: "inception_3b/5x5"
  bottom: "inception_3b/pool_proj"
  top: "inception_3b/output"
}
layer {
  name: "pool3/3x3_s2"
  type: "Pooling"
  bottom: "inception_3b/output"
  top: "pool3/3x3_s2"
  pooling_param {
    pool: MAX
    kernel_size: 3
    stride: 2
  }
}
layer {
  name: "inception_4a/1x1"
  type: "Convolution"
  bottom: "pool3/3x3_s2"
  top: "inception_4a/1x1"
  param {
    lr_mult: 1
    decay_mult: 1
  }
  param {
    lr_mult: 2
    decay_mult: 0
  }
  convolution_param {
    num_output: 192
    kernel_size: 1
    weight_filler {
      type: "xavier"
    }
    bias_filler {
      type: "constant"
      value: 0.2
    }
  }
}
layer {
  name: "inception_4a/relu_1x1"
  type: "ReLU"
  bottom: "inception_4a/1x1"
  top: "inception_4a/1x1"
}
layer {
  name: "inception_4a/3x3_reduce"
  type: "Convolution"
  bottom: "pool3/3x3_s2"
  top: "inception_4a/3x3_reduce"
  param {
    lr_mult: 1
    decay_mult: 1
  }
  param {
    lr_mult: 2
    decay_mult: 0
  }
  convolution_param {
    num_output: 96
    kernel_size: 1
    weight_filler {
      type: "xavier"
    }
    bias_filler {
      type: "constant"
      value: 0.2
    }
  }
}
layer {
  name: "inception_4a/relu_3x3_reduce"
  type: "ReLU"
  bottom: "inception_4a/3x3_reduce"
  top: "inception_4a/3x3_reduce"
}
layer {
  name: "inception_4a/3x3"
  type: "Convolution"
  bottom: "inception_4a/3x3_reduce"
  top: "inception_4a/3x3"
  param {
    lr_mult: 1
    decay_mult: 1
  }
  param {
    lr_mult: 2
    decay_mult: 0
  }
  convolution_param {
    num_output: 208
    pad: 1
    kernel_size: 3
    weight_filler {
      type: "xavier"
    }
    bias_filler {
      type: "constant"
      value: 0.2
    }
  }
}
layer {
  name: "inception_4a/relu_3x3"
  type: "ReLU"
  bottom: "inception_4a/3x3"
  top: "inception_4a/3x3"
}
layer {
  name: "inception_4a/5x5_reduce"
  type: "Convolution"
  bottom: "pool3/3x3_s2"
  top: "inception_4a/5x5_reduce"
  param {
    lr_mult: 1
    decay_mult: 1
  }
  param {
    lr_mult: 2
    decay_mult: 0
  }
  convolution_param {
    num_output: 16
    kernel_size: 1
    weight_filler {
      type: "xavier"
    }
    bias_filler {
      type: "constant"
      value: 0.2
    }
  }
}
layer {
  name: "inception_4a/relu_5x5_reduce"
  type: "ReLU"
  bottom: "inception_4a/5x5_reduce"
  top: "inception_4a/5x5_reduce"
}
layer {
  name: "inception_4a/5x5"
  type: "Convolution"
  bottom: "inception_4a/5x5_reduce"
  top: "inception_4a/5x5"
  param {
    lr_mult: 1
    decay_mult: 1
  }
  param {
    lr_mult: 2
    decay_mult: 0
  }
  convolution_param {
    num_output: 48
    pad: 2
    kernel_size: 5
    weight_filler {
      type: "xavier"
    }
    bias_filler {
      type: "constant"
      value: 0.2
    }
  }
}
layer {
  name: "inception_4a/relu_5x5"
  type: "ReLU"
  bottom: "inception_4a/5x5"
  top: "inception_4a/5x5"
}
layer {
  name: "inception_4a/pool"
  type: "Pooling"
  bottom: "pool3/3x3_s2"
  top: "inception_4a/pool"
  pooling_param {
    pool: MAX
    kernel_size: 3
    stride: 1
    pad: 1
  }
}
layer {
  name: "inception_4a/pool_proj"
  type: "Convolution"
  bottom: "inception_4a/pool"
  top: "inception_4a/pool_proj"
  param {
    lr_mult: 1
    decay_mult: 1
  }
  param {
    lr_mult: 2
    decay_mult: 0
  }
  convolution_param {
    num_output: 64
    kernel_size: 1
    weight_filler {
      type: "xavier"
    }
    bias_filler {
      type: "constant"
      value: 0.2
    }
  }
}
layer {
  name: "inception_4a/relu_pool_proj"
  type: "ReLU"
  bottom: "inception_4a/pool_proj"
  top: "inception_4a/pool_proj"
}
layer {
  name: "inception_4a/output"
  type: "Concat"
  bottom: "inception_4a/1x1"
  bottom: "inception_4a/3x3"
  bottom: "inception_4a/5x5"
  bottom: "inception_4a/pool_proj"
  top: "inception_4a/output"
}
layer {
  name: "loss1/ave_pool"
  type: "Pooling"
  bottom: "inception_4a/output"
  top: "loss1/ave_pool"
  pooling_param {
    pool: AVE
    kernel_size: 5
    stride: 3
  }
}
layer {
  name: "loss1/conv"
  type: "Convolution"
  bottom: "loss1/ave_pool"
  top: "loss1/conv"
  param {
    lr_mult: 1
    decay_mult: 1
  }
  param {
    lr_mult: 2
    decay_mult: 0
  }
  convolution_param {
    num_output: 128
    kernel_size: 1
    weight_filler {
      type: "xavier"
    }
    bias_filler {
      type: "constant"
      value: 0.2
    }
  }
}
layer {
  name: "loss1/relu_conv"
  type: "ReLU"
  bottom: "loss1/conv"
  top: "loss1/conv"
}
layer {
  name: "loss1/fc"
  type: "InnerProduct"
  bottom: "loss1/conv"
  top: "loss1/fc"
  param {
    lr_mult: 1
    decay_mult: 1
  }
  param {
    lr_mult: 2
    decay_mult: 0
  }
  inner_product_param {
    num_output: 1024
    weight_filler {
      type: "xavier"
    }
    bias_filler {
      type: "constant"
      value: 0.2
    }
  }
}
layer {
  name: "loss1/relu_fc"
  type: "ReLU"
  bottom: "loss1/fc"
  top: "loss1/fc"
}
layer {
  name: "loss1/drop_fc"
  type: "Dropout"
  bottom: "loss1/fc"
  top: "loss1/fc"
  dropout_param {
    dropout_ratio: 0.7
  }
}
layer {
  name: "loss1/classifier_tune"
  type: "InnerProduct"
  bottom: "loss1/fc"
  top: "loss1/classifier"
  param {
    lr_mult: 1
    decay_mult: 1
  }
  param {
    lr_mult: 2
    decay_mult: 0
  }
  inner_product_param {
    num_output: 1000
    weight_filler {
      type: "xavier"
    }
    bias_filler {
      type: "constant"
      value: 0
    }
  }
}
layer {
  name: "loss1/loss"
  type: "SoftmaxWithLoss"
  bottom: "loss1/classifier"
  bottom: "label"
  top: "loss1/loss1"
  loss_weight: 0.3
}
layer {
  name: "inception_4b/1x1"
  type: "Convolution"
  bottom: "inception_4a/output"
  top: "inception_4b/1x1"
  param {
    lr_mult: 1
    decay_mult: 1
  }
  param {
    lr_mult: 2
    decay_mult: 0
  }
  convolution_param {
    num_output: 160
    kernel_size: 1
    weight_filler {
      type: "xavier"
    }
    bias_filler {
      type: "constant"
      value: 0.2
    }
  }
}
layer {
  name: "inception_4b/relu_1x1"
  type: "ReLU"
  bottom: "inception_4b/1x1"
  top: "inception_4b/1x1"
}
layer {
  name: "inception_4b/3x3_reduce"
  type: "Convolution"
  bottom: "inception_4a/output"
  top: "inception_4b/3x3_reduce"
  param {
    lr_mult: 1
    decay_mult: 1
  }
  param {
    lr_mult: 2
    decay_mult: 0
  }
  convolution_param {
    num_output: 112
    kernel_size: 1
    weight_filler {
      type: "xavier"
    }
    bias_filler {
      type: "constant"
      value: 0.2
    }
  }
}
layer {
  name: "inception_4b/relu_3x3_reduce"
  type: "ReLU"
  bottom: "inception_4b/3x3_reduce"
  top: "inception_4b/3x3_reduce"
}
layer {
  name: "inception_4b/3x3"
  type: "Convolution"
  bottom: "inception_4b/3x3_reduce"
  top: "inception_4b/3x3"
  param {
    lr_mult: 1
    decay_mult: 1
  }
  param {
    lr_mult: 2
    decay_mult: 0
  }
  convolution_param {
    num_output: 224
    pad: 1
    kernel_size: 3
    weight_filler {
      type: "xavier"
    }
    bias_filler {
      type: "constant"
      value: 0.2
    }
  }
}
layer {
  name: "inception_4b/relu_3x3"
  type: "ReLU"
  bottom: "inception_4b/3x3"
  top: "inception_4b/3x3"
}
layer {
  name: "inception_4b/5x5_reduce"
  type: "Convolution"
  bottom: "inception_4a/output"
  top: "inception_4b/5x5_reduce"
  param {
    lr_mult: 1
    decay_mult: 1
  }
  param {
    lr_mult: 2
    decay_mult: 0
  }
  convolution_param {
    num_output: 24
    kernel_size: 1
    weight_filler {
      type: "xavier"
    }
    bias_filler {
      type: "constant"
      value: 0.2
    }
  }
}
layer {
  name: "inception_4b/relu_5x5_reduce"
  type: "ReLU"
  bottom: "inception_4b/5x5_reduce"
  top: "inception_4b/5x5_reduce"
}
layer {
  name: "inception_4b/5x5"
  type: "Convolution"
  bottom: "inception_4b/5x5_reduce"
  top: "inception_4b/5x5"
  param {
    lr_mult: 1
    decay_mult: 1
  }
  param {
    lr_mult: 2
    decay_mult: 0
  }
  convolution_param {
    num_output: 64
    pad: 2
    kernel_size: 5
    weight_filler {
      type: "xavier"
    }
    bias_filler {
      type: "constant"
      value: 0.2
    }
  }
}
layer {
  name: "inception_4b/relu_5x5"
  type: "ReLU"
  bottom: "inception_4b/5x5"
  top: "inception_4b/5x5"
}
layer {
  name: "inception_4b/pool"
  type: "Pooling"
  bottom: "inception_4a/output"
  top: "inception_4b/pool"
  pooling_param {
    pool: MAX
    kernel_size: 3
    stride: 1
    pad: 1
  }
}
layer {
  name: "inception_4b/pool_proj"
  type: "Convolution"
  bottom: "inception_4b/pool"
  top: "inception_4b/pool_proj"
  param {
    lr_mult: 1
    decay_mult: 1
  }
  param {
    lr_mult: 2
    decay_mult: 0
  }
  convolution_param {
    num_output: 64
    kernel_size: 1
    weight_filler {
      type: "xavier"
    }
    bias_filler {
      type: "constant"
      value: 0.2
    }
  }
}
layer {
  name: "inception_4b/relu_pool_proj"
  type: "ReLU"
  bottom: "inception_4b/pool_proj"
  top: "inception_4b/pool_proj"
}
layer {
  name: "inception_4b/output"
  type: "Concat"
  bottom: "inception_4b/1x1"
  bottom: "inception_4b/3x3"
  bottom: "inception_4b/5x5"
  bottom: "inception_4b/pool_proj"
  top: "inception_4b/output"
}
layer {
  name: "inception_4c/1x1"
  type: "Convolution"
  bottom: "inception_4b/output"
  top: "inception_4c/1x1"
  param {
    lr_mult: 1
    decay_mult: 1
  }
  param {
    lr_mult: 2
    decay_mult: 0
  }
  convolution_param {
    num_output: 128
    kernel_size: 1
    weight_filler {
      type: "xavier"
    }
    bias_filler {
      type: "constant"
      value: 0.2
    }
  }
}
layer {
  name: "inception_4c/relu_1x1"
  type: "ReLU"
  bottom: "inception_4c/1x1"
  top: "inception_4c/1x1"
}
layer {
  name: "inception_4c/3x3_reduce"
  type: "Convolution"
  bottom: "inception_4b/output"
  top: "inception_4c/3x3_reduce"
  param {
    lr_mult: 1
    decay_mult: 1
  }
  param {
    lr_mult: 2
    decay_mult: 0
  }
  convolution_param {
    num_output: 128
    kernel_size: 1
    weight_filler {
      type: "xavier"
    }
    bias_filler {
      type: "constant"
      value: 0.2
    }
  }
}
layer {
  name: "inception_4c/relu_3x3_reduce"
  type: "ReLU"
  bottom: "inception_4c/3x3_reduce"
  top: "inception_4c/3x3_reduce"
}
layer {
  name: "inception_4c/3x3"
  type: "Convolution"
  bottom: "inception_4c/3x3_reduce"
  top: "inception_4c/3x3"
  param {
    lr_mult: 1
    decay_mult: 1
  }
  param {
    lr_mult: 2
    decay_mult: 0
  }
  convolution_param {
    num_output: 256
    pad: 1
    kernel_size: 3
    weight_filler {
      type: "xavier"
    }
    bias_filler {
      type: "constant"
      value: 0.2
    }
  }
}
layer {
  name: "inception_4c/relu_3x3"
  type: "ReLU"
  bottom: "inception_4c/3x3"
  top: "inception_4c/3x3"
}
layer {
  name: "inception_4c/5x5_reduce"
  type: "Convolution"
  bottom: "inception_4b/output"
  top: "inception_4c/5x5_reduce"
  param {
    lr_mult: 1
    decay_mult: 1
  }
  param {
    lr_mult: 2
    decay_mult: 0
  }
  convolution_param {
    num_output: 24
    kernel_size: 1
    weight_filler {
      type: "xavier"
    }
    bias_filler {
      type: "constant"
      value: 0.2
    }
  }
}
layer {
  name: "inception_4c/relu_5x5_reduce"
  type: "ReLU"
  bottom: "inception_4c/5x5_reduce"
  top: "inception_4c/5x5_reduce"
}
layer {
  name: "inception_4c/5x5"
  type: "Convolution"
  bottom: "inception_4c/5x5_reduce"
  top: "inception_4c/5x5"
  param {
    lr_mult: 1
    decay_mult: 1
  }
  param {
    lr_mult: 2
    decay_mult: 0
  }
  convolution_param {
    num_output: 64
    pad: 2
    kernel_size: 5
    weight_filler {
      type: "xavier"
    }
    bias_filler {
      type: "constant"
      value: 0.2
    }
  }
}
layer {
  name: "inception_4c/relu_5x5"
  type: "ReLU"
  bottom: "inception_4c/5x5"
  top: "inception_4c/5x5"
}
layer {
  name: "inception_4c/pool"
  type: "Pooling"
  bottom: "inception_4b/output"
  top: "inception_4c/pool"
  pooling_param {
    pool: MAX
    kernel_size: 3
    stride: 1
    pad: 1
  }
}
layer {
  name: "inception_4c/pool_proj"
  type: "Convolution"
  bottom: "inception_4c/pool"
  top: "inception_4c/pool_proj"
  param {
    lr_mult: 1
    decay_mult: 1
  }
  param {
    lr_mult: 2
    decay_mult: 0
  }
  convolution_param {
    num_output: 64
    kernel_size: 1
    weight_filler {
      type: "xavier"
    }
    bias_filler {
      type: "constant"
      value: 0.2
    }
  }
}
layer {
  name: "inception_4c/relu_pool_proj"
  type: "ReLU"
  bottom: "inception_4c/pool_proj"
  top: "inception_4c/pool_proj"
}
layer {
  name: "inception_4c/output"
  type: "Concat"
  bottom: "inception_4c/1x1"
  bottom: "inception_4c/3x3"
  bottom: "inception_4c/5x5"
  bottom: "inception_4c/pool_proj"
  top: "inception_4c/output"
}
layer {
  name: "inception_4d/1x1"
  type: "Convolution"
  bottom: "inception_4c/output"
  top: "inception_4d/1x1"
  param {
    lr_mult: 1
    decay_mult: 1
  }
  param {
    lr_mult: 2
    decay_mult: 0
  }
  convolution_param {
    num_output: 112
    kernel_size: 1
    weight_filler {
      type: "xavier"
    }
    bias_filler {
      type: "constant"
      value: 0.2
    }
  }
}
layer {
  name: "inception_4d/relu_1x1"
  type: "ReLU"
  bottom: "inception_4d/1x1"
  top: "inception_4d/1x1"
}
layer {
  name: "inception_4d/3x3_reduce"
  type: "Convolution"
  bottom: "inception_4c/output"
  top: "inception_4d/3x3_reduce"
  param {
    lr_mult: 1
    decay_mult: 1
  }
  param {
    lr_mult: 2
    decay_mult: 0
  }
  convolution_param {
    num_output: 144
    kernel_size: 1
    weight_filler {
      type: "xavier"
    }
    bias_filler {
      type: "constant"
      value: 0.2
    }
  }
}
layer {
  name: "inception_4d/relu_3x3_reduce"
  type: "ReLU"
  bottom: "inception_4d/3x3_reduce"
  top: "inception_4d/3x3_reduce"
}
layer {
  name: "inception_4d/3x3"
  type: "Convolution"
  bottom: "inception_4d/3x3_reduce"
  top: "inception_4d/3x3"
  param {
    lr_mult: 1
    decay_mult: 1
  }
  param {
    lr_mult: 2
    decay_mult: 0
  }
  convolution_param {
    num_output: 288
    pad: 1
    kernel_size: 3
    weight_filler {
      type: "xavier"
    }
    bias_filler {
      type: "constant"
      value: 0.2
    }
  }
}
layer {
  name: "inception_4d/relu_3x3"
  type: "ReLU"
  bottom: "inception_4d/3x3"
  top: "inception_4d/3x3"
}
layer {
  name: "inception_4d/5x5_reduce"
  type: "Convolution"
  bottom: "inception_4c/output"
  top: "inception_4d/5x5_reduce"
  param {
    lr_mult: 1
    decay_mult: 1
  }
  param {
    lr_mult: 2
    decay_mult: 0
  }
  convolution_param {
    num_output: 32
    kernel_size: 1
    weight_filler {
      type: "xavier"
    }
    bias_filler {
      type: "constant"
      value: 0.2
    }
  }
}
layer {
  name: "inception_4d/relu_5x5_reduce"
  type: "ReLU"
  bottom: "inception_4d/5x5_reduce"
  top: "inception_4d/5x5_reduce"
}
layer {
  name: "inception_4d/5x5"
  type: "Convolution"
  bottom: "inception_4d/5x5_reduce"
  top: "inception_4d/5x5"
  param {
    lr_mult: 1
    decay_mult: 1
  }
  param {
    lr_mult: 2
    decay_mult: 0
  }
  convolution_param {
    num_output: 64
    pad: 2
    kernel_size: 5
    weight_filler {
      type: "xavier"
    }
    bias_filler {
      type: "constant"
      value: 0.2
    }
  }
}
layer {
  name: "inception_4d/relu_5x5"
  type: "ReLU"
  bottom: "inception_4d/5x5"
  top: "inception_4d/5x5"
}
layer {
  name: "inception_4d/pool"
  type: "Pooling"
  bottom: "inception_4c/output"
  top: "inception_4d/pool"
  pooling_param {
    pool: MAX
    kernel_size: 3
    stride: 1
    pad: 1
  }
}
layer {
  name: "inception_4d/pool_proj"
  type: "Convolution"
  bottom: "inception_4d/pool"
  top: "inception_4d/pool_proj"
  param {
    lr_mult: 1
    decay_mult: 1
  }
  param {
    lr_mult: 2
    decay_mult: 0
  }
  convolution_param {
    num_output: 64
    kernel_size: 1
    weight_filler {
      type: "xavier"
    }
    bias_filler {
      type: "constant"
      value: 0.2
    }
  }
}
layer {
  name: "inception_4d/relu_pool_proj"
  type: "ReLU"
  bottom: "inception_4d/pool_proj"
  top: "inception_4d/pool_proj"
}
layer {
  name: "inception_4d/output"
  type: "Concat"
  bottom: "inception_4d/1x1"
  bottom: "inception_4d/3x3"
  bottom: "inception_4d/5x5"
  bottom: "inception_4d/pool_proj"
  top: "inception_4d/output"
}
layer {
  name: "loss2/ave_pool"
  type: "Pooling"
  bottom: "inception_4d/output"
  top: "loss2/ave_pool"
  pooling_param {
    pool: AVE
    kernel_size: 5
    stride: 3
  }
}
layer {
  name: "loss2/conv"
  type: "Convolution"
  bottom: "loss2/ave_pool"
  top: "loss2/conv"
  param {
    lr_mult: 1
    decay_mult: 1
  }
  param {
    lr_mult: 2
    decay_mult: 0
  }
  convolution_param {
    num_output: 128
    kernel_size: 1
    weight_filler {
      type: "xavier"
    }
    bias_filler {
      type: "constant"
      value: 0.2
    }
  }
}
layer {
  name: "loss2/relu_conv"
  type: "ReLU"
  bottom: "loss2/conv"
  top: "loss2/conv"
}
layer {
  name: "loss2/fc"
  type: "InnerProduct"
  bottom: "loss2/conv"
  top: "loss2/fc"
  param {
    lr_mult: 1
    decay_mult: 1
  }
  param {
    lr_mult: 2
    decay_mult: 0
  }
  inner_product_param {
    num_output: 1024
    weight_filler {
      type: "xavier"
    }
    bias_filler {
      type: "constant"
      value: 0.2
    }
  }
}
layer {
  name: "loss2/relu_fc"
  type: "ReLU"
  bottom: "loss2/fc"
  top: "loss2/fc"
}
layer {
  name: "loss2/drop_fc"
  type: "Dropout"
  bottom: "loss2/fc"
  top: "loss2/fc"
  dropout_param {
    dropout_ratio: 0.7
  }
}
layer {
  name: "loss2/classifier_tune"
  type: "InnerProduct"
  bottom: "loss2/fc"
  top: "loss2/classifier"
  param {
    lr_mult: 1
    decay_mult: 1
  }
  param {
    lr_mult: 2
    decay_mult: 0
  }
  inner_product_param {
    num_output: 1000
    weight_filler {
      type: "xavier"
    }
    bias_filler {
      type: "constant"
      value: 0
    }
  }
}
layer {
  name: "loss2/loss"
  type: "SoftmaxWithLoss"
  bottom: "loss2/classifier"
  bottom: "label"
  top: "loss2/loss1"
  loss_weight: 0.3
}
layer {
  name: "inception_4e/1x1"
  type: "Convolution"
  bottom: "inception_4d/output"
  top: "inception_4e/1x1"
  param {
    lr_mult: 1
    decay_mult: 1
  }
  param {
    lr_mult: 2
    decay_mult: 0
  }
  convolution_param {
    num_output: 256
    kernel_size: 1
    weight_filler {
      type: "xavier"
    }
    bias_filler {
      type: "constant"
      value: 0.2
    }
  }
}
layer {
  name: "inception_4e/relu_1x1"
  type: "ReLU"
  bottom: "inception_4e/1x1"
  top: "inception_4e/1x1"
}
layer {
  name: "inception_4e/3x3_reduce"
  type: "Convolution"
  bottom: "inception_4d/output"
  top: "inception_4e/3x3_reduce"
  param {
    lr_mult: 1
    decay_mult: 1
  }
  param {
    lr_mult: 2
    decay_mult: 0
  }
  convolution_param {
    num_output: 160
    kernel_size: 1
    weight_filler {
      type: "xavier"
    }
    bias_filler {
      type: "constant"
      value: 0.2
    }
  }
}
layer {
  name: "inception_4e/relu_3x3_reduce"
  type: "ReLU"
  bottom: "inception_4e/3x3_reduce"
  top: "inception_4e/3x3_reduce"
}
layer {
  name: "inception_4e/3x3"
  type: "Convolution"
  bottom: "inception_4e/3x3_reduce"
  top: "inception_4e/3x3"
  param {
    lr_mult: 1
    decay_mult: 1
  }
  param {
    lr_mult: 2
    decay_mult: 0
  }
  convolution_param {
    num_output: 320
    pad: 1
    kernel_size: 3
    weight_filler {
      type: "xavier"
    }
    bias_filler {
      type: "constant"
      value: 0.2
    }
  }
}
layer {
  name: "inception_4e/relu_3x3"
  type: "ReLU"
  bottom: "inception_4e/3x3"
  top: "inception_4e/3x3"
}
layer {
  name: "inception_4e/5x5_reduce"
  type: "Convolution"
  bottom: "inception_4d/output"
  top: "inception_4e/5x5_reduce"
  param {
    lr_mult: 1
    decay_mult: 1
  }
  param {
    lr_mult: 2
    decay_mult: 0
  }
  convolution_param {
    num_output: 32
    kernel_size: 1
    weight_filler {
      type: "xavier"
    }
    bias_filler {
      type: "constant"
      value: 0.2
    }
  }
}
layer {
  name: "inception_4e/relu_5x5_reduce"
  type: "ReLU"
  bottom: "inception_4e/5x5_reduce"
  top: "inception_4e/5x5_reduce"
}
layer {
  name: "inception_4e/5x5"
  type: "Convolution"
  bottom: "inception_4e/5x5_reduce"
  top: "inception_4e/5x5"
  param {
    lr_mult: 1
    decay_mult: 1
  }
  param {
    lr_mult: 2
    decay_mult: 0
  }
  convolution_param {
    num_output: 128
    pad: 2
    kernel_size: 5
    weight_filler {
      type: "xavier"
    }
    bias_filler {
      type: "constant"
      value: 0.2
    }
  }
}
layer {
  name: "inception_4e/relu_5x5"
  type: "ReLU"
  bottom: "inception_4e/5x5"
  top: "inception_4e/5x5"
}
layer {
  name: "inception_4e/pool"
  type: "Pooling"
  bottom: "inception_4d/output"
  top: "inception_4e/pool"
  pooling_param
I1206 12:00:09.747552 12327 layer_factory.hpp:77] Creating layer data
I1206 12:00:09.748010 12327 net.cpp:100] Creating Layer data
I1206 12:00:09.748018 12327 net.cpp:408] data -> data
I1206 12:00:09.748036 12327 net.cpp:408] data -> label
I1206 12:00:09.748062 12327 data_transformer.cpp:25] Loading mean file from: /home/juran/distracteddriver/input/mean.binaryproto
I1206 12:00:09.749544 12334 db_lmdb.cpp:35] Opened lmdb /home/juran/distracteddriver/input/train_lmdb
I1206 12:00:09.757108 12327 data_layer.cpp:41] output data size: 16,3,224,224
I1206 12:00:09.788151 12327 net.cpp:150] Setting up data
I1206 12:00:09.788175 12327 net.cpp:157] Top shape: 16 3 224 224 (2408448)
I1206 12:00:09.788180 12327 net.cpp:157] Top shape: 16 (16)
I1206 12:00:09.788183 12327 net.cpp:165] Memory required for data: 9633856
I1206 12:00:09.788197 12327 layer_factory.hpp:77] Creating layer label_data_1_split
I1206 12:00:09.788211 12327 net.cpp:100] Creating Layer label_data_1_split
I1206 12:00:09.788218 12327 net.cpp:434] label_data_1_split <- label
I1206 12:00:09.788234 12327 net.cpp:408] label_data_1_split -> label_data_1_split_0
I1206 12:00:09.788259 12327 net.cpp:408] label_data_1_split -> label_data_1_split_1
I1206 12:00:09.788266 12327 net.cpp:408] label_data_1_split -> label_data_1_split_2
I1206 12:00:09.788338 12327 net.cpp:150] Setting up label_data_1_split
I1206 12:00:09.788347 12327 net.cpp:157] Top shape: 16 (16)
I1206 12:00:09.788350 12327 net.cpp:157] Top shape: 16 (16)
I1206 12:00:09.788354 12327 net.cpp:157] Top shape: 16 (16)
I1206 12:00:09.788357 12327 net.cpp:165] Memory required for data: 9634048
I1206 12:00:09.788362 12327 layer_factory.hpp:77] Creating layer conv1/7x7_s2
I1206 12:00:09.788380 12327 net.cpp:100] Creating Layer conv1/7x7_s2
I1206 12:00:09.788388 12327 net.cpp:434] conv1/7x7_s2 <- data
I1206 12:00:09.788394 12327 net.cpp:408] conv1/7x7_s2 -> conv1/7x7_s2
I1206 12:00:09.789124 12327 net.cpp:150] Setting up conv1/7x7_s2
I1206 12:00:09.789135 12327 net.cpp:157] Top shape: 16 64 112 112 (12845056)
I1206 12:00:09.789139 12327 net.cpp:165] Memory required for data: 61014272
I1206 12:00:09.789157 12327 layer_factory.hpp:77] Creating layer conv1/relu_7x7
I1206 12:00:09.789165 12327 net.cpp:100] Creating Layer conv1/relu_7x7
I1206 12:00:09.789170 12327 net.cpp:434] conv1/relu_7x7 <- conv1/7x7_s2
I1206 12:00:09.789175 12327 net.cpp:395] conv1/relu_7x7 -> conv1/7x7_s2 (in-place)
I1206 12:00:09.789181 12327 net.cpp:150] Setting up conv1/relu_7x7
I1206 12:00:09.789187 12327 net.cpp:157] Top shape: 16 64 112 112 (12845056)
I1206 12:00:09.789191 12327 net.cpp:165] Memory required for data: 112394496
I1206 12:00:09.789193 12327 layer_factory.hpp:77] Creating layer pool1/3x3_s2
I1206 12:00:09.789202 12327 net.cpp:100] Creating Layer pool1/3x3_s2
I1206 12:00:09.789206 12327 net.cpp:434] pool1/3x3_s2 <- conv1/7x7_s2
I1206 12:00:09.789211 12327 net.cpp:408] pool1/3x3_s2 -> pool1/3x3_s2
I1206 12:00:09.789269 12327 net.cpp:150] Setting up pool1/3x3_s2
I1206 12:00:09.789278 12327 net.cpp:157] Top shape: 16 64 56 56 (3211264)
I1206 12:00:09.789280 12327 net.cpp:165] Memory required for data: 125239552
I1206 12:00:09.789283 12327 layer_factory.hpp:77] Creating layer pool1/norm1
I1206 12:00:09.789291 12327 net.cpp:100] Creating Layer pool1/norm1
I1206 12:00:09.789295 12327 net.cpp:434] pool1/norm1 <- pool1/3x3_s2
I1206 12:00:09.789300 12327 net.cpp:408] pool1/norm1 -> pool1/norm1
I1206 12:00:09.789330 12327 net.cpp:150] Setting up pool1/norm1
I1206 12:00:09.789336 12327 net.cpp:157] Top shape: 16 64 56 56 (3211264)
I1206 12:00:09.789338 12327 net.cpp:165] Memory required for data: 138084608
I1206 12:00:09.789342 12327 layer_factory.hpp:77] Creating layer conv2/3x3_reduce
I1206 12:00:09.789351 12327 net.cpp:100] Creating Layer conv2/3x3_reduce
I1206 12:00:09.789356 12327 net.cpp:434] conv2/3x3_reduce <- pool1/norm1
I1206 12:00:09.789363 12327 net.cpp:408] conv2/3x3_reduce -> conv2/3x3_reduce
I1206 12:00:09.790029 12327 net.cpp:150] Setting up conv2/3x3_reduce
I1206 12:00:09.790040 12327 net.cpp:157] Top shape: 16 64 56 56 (3211264)
I1206 12:00:09.790042 12327 net.cpp:165] Memory required for data: 150929664
I1206 12:00:09.790051 12327 layer_factory.hpp:77] Creating layer conv2/relu_3x3_reduce
I1206 12:00:09.790058 12327 net.cpp:100] Creating Layer conv2/relu_3x3_reduce
I1206 12:00:09.790063 12327 net.cpp:434] conv2/relu_3x3_reduce <- conv2/3x3_reduce
I1206 12:00:09.790068 12327 net.cpp:395] conv2/relu_3x3_reduce -> conv2/3x3_reduce (in-place)
I1206 12:00:09.790076 12327 net.cpp:150] Setting up conv2/relu_3x3_reduce
I1206 12:00:09.790082 12327 net.cpp:157] Top shape: 16 64 56 56 (3211264)
I1206 12:00:09.790086 12327 net.cpp:165] Memory required for data: 163774720
I1206 12:00:09.790087 12327 layer_factory.hpp:77] Creating layer conv2/3x3
I1206 12:00:09.790099 12327 net.cpp:100] Creating Layer conv2/3x3
I1206 12:00:09.790103 12327 net.cpp:434] conv2/3x3 <- conv2/3x3_reduce
I1206 12:00:09.790109 12327 net.cpp:408] conv2/3x3 -> conv2/3x3
I1206 12:00:09.796494 12327 net.cpp:150] Setting up conv2/3x3
I1206 12:00:09.796505 12327 net.cpp:157] Top shape: 16 192 56 56 (9633792)
I1206 12:00:09.796509 12327 net.cpp:165] Memory required for data: 202309888
I1206 12:00:09.796533 12327 layer_factory.hpp:77] Creating layer conv2/relu_3x3
I1206 12:00:09.796541 12327 net.cpp:100] Creating Layer conv2/relu_3x3
I1206 12:00:09.796546 12327 net.cpp:434] conv2/relu_3x3 <- conv2/3x3
I1206 12:00:09.796551 12327 net.cpp:395] conv2/relu_3x3 -> conv2/3x3 (in-place)
I1206 12:00:09.796560 12327 net.cpp:150] Setting up conv2/relu_3x3
I1206 12:00:09.796566 12327 net.cpp:157] Top shape: 16 192 56 56 (9633792)
I1206 12:00:09.796567 12327 net.cpp:165] Memory required for data: 240845056
I1206 12:00:09.796571 12327 layer_factory.hpp:77] Creating layer conv2/norm2
I1206 12:00:09.796577 12327 net.cpp:100] Creating Layer conv2/norm2
I1206 12:00:09.796581 12327 net.cpp:434] conv2/norm2 <- conv2/3x3
I1206 12:00:09.796587 12327 net.cpp:408] conv2/norm2 -> conv2/norm2
I1206 12:00:09.796620 12327 net.cpp:150] Setting up conv2/norm2
I1206 12:00:09.796627 12327 net.cpp:157] Top shape: 16 192 56 56 (9633792)
I1206 12:00:09.796629 12327 net.cpp:165] Memory required for data: 279380224
I1206 12:00:09.796633 12327 layer_factory.hpp:77] Creating layer pool2/3x3_s2
I1206 12:00:09.796638 12327 net.cpp:100] Creating Layer pool2/3x3_s2
I1206 12:00:09.796641 12327 net.cpp:434] pool2/3x3_s2 <- conv2/norm2
I1206 12:00:09.796646 12327 net.cpp:408] pool2/3x3_s2 -> pool2/3x3_s2
I1206 12:00:09.796674 12327 net.cpp:150] Setting up pool2/3x3_s2
I1206 12:00:09.796680 12327 net.cpp:157] Top shape: 16 192 28 28 (2408448)
I1206 12:00:09.796684 12327 net.cpp:165] Memory required for data: 289014016
I1206 12:00:09.796686 12327 layer_factory.hpp:77] Creating layer pool2/3x3_s2_pool2/3x3_s2_0_split
I1206 12:00:09.796694 12327 net.cpp:100] Creating Layer pool2/3x3_s2_pool2/3x3_s2_0_split
I1206 12:00:09.796696 12327 net.cpp:434] pool2/3x3_s2_pool2/3x3_s2_0_split <- pool2/3x3_s2
I1206 12:00:09.796702 12327 net.cpp:408] pool2/3x3_s2_pool2/3x3_s2_0_split -> pool2/3x3_s2_pool2/3x3_s2_0_split_0
I1206 12:00:09.796710 12327 net.cpp:408] pool2/3x3_s2_pool2/3x3_s2_0_split -> pool2/3x3_s2_pool2/3x3_s2_0_split_1
I1206 12:00:09.796716 12327 net.cpp:408] pool2/3x3_s2_pool2/3x3_s2_0_split -> pool2/3x3_s2_pool2/3x3_s2_0_split_2
I1206 12:00:09.796725 12327 net.cpp:408] pool2/3x3_s2_pool2/3x3_s2_0_split -> pool2/3x3_s2_pool2/3x3_s2_0_split_3
I1206 12:00:09.796763 12327 net.cpp:150] Setting up pool2/3x3_s2_pool2/3x3_s2_0_split
I1206 12:00:09.796769 12327 net.cpp:157] Top shape: 16 192 28 28 (2408448)
I1206 12:00:09.796773 12327 net.cpp:157] Top shape: 16 192 28 28 (2408448)
I1206 12:00:09.796777 12327 net.cpp:157] Top shape: 16 192 28 28 (2408448)
I1206 12:00:09.796782 12327 net.cpp:157] Top shape: 16 192 28 28 (2408448)
I1206 12:00:09.796784 12327 net.cpp:165] Memory required for data: 327549184
I1206 12:00:09.796787 12327 layer_factory.hpp:77] Creating layer inception_3a/1x1
I1206 12:00:09.796797 12327 net.cpp:100] Creating Layer inception_3a/1x1
I1206 12:00:09.796800 12327 net.cpp:434] inception_3a/1x1 <- pool2/3x3_s2_pool2/3x3_s2_0_split_0
I1206 12:00:09.796808 12327 net.cpp:408] inception_3a/1x1 -> inception_3a/1x1
I1206 12:00:09.797475 12327 net.cpp:150] Setting up inception_3a/1x1
I1206 12:00:09.797489 12327 net.cpp:157] Top shape: 16 64 28 28 (802816)
I1206 12:00:09.797492 12327 net.cpp:165] Memory required for data: 330760448
I1206 12:00:09.797499 12327 layer_factory.hpp:77] Creating layer inception_3a/relu_1x1
I1206 12:00:09.797507 12327 net.cpp:100] Creating Layer inception_3a/relu_1x1
I1206 12:00:09.797510 12327 net.cpp:434] inception_3a/relu_1x1 <- inception_3a/1x1
I1206 12:00:09.797516 12327 net.cpp:395] inception_3a/relu_1x1 -> inception_3a/1x1 (in-place)
I1206 12:00:09.797523 12327 net.cpp:150] Setting up inception_3a/relu_1x1
I1206 12:00:09.797528 12327 net.cpp:157] Top shape: 16 64 28 28 (802816)
I1206 12:00:09.797531 12327 net.cpp:165] Memory required for data: 333971712
I1206 12:00:09.797534 12327 layer_factory.hpp:77] Creating layer inception_3a/3x3_reduce
I1206 12:00:09.797544 12327 net.cpp:100] Creating Layer inception_3a/3x3_reduce
I1206 12:00:09.797549 12327 net.cpp:434] inception_3a/3x3_reduce <- pool2/3x3_s2_pool2/3x3_s2_0_split_1
I1206 12:00:09.797569 12327 net.cpp:408] inception_3a/3x3_reduce -> inception_3a/3x3_reduce
I1206 12:00:09.798239 12327 net.cpp:150] Setting up inception_3a/3x3_reduce
I1206 12:00:09.798251 12327 net.cpp:157] Top shape: 16 96 28 28 (1204224)
I1206 12:00:09.798254 12327 net.cpp:165] Memory required for data: 338788608
I1206 12:00:09.798266 12327 layer_factory.hpp:77] Creating layer inception_3a/relu_3x3_reduce
I1206 12:00:09.798279 12327 net.cpp:100] Creating Layer inception_3a/relu_3x3_reduce
I1206 12:00:09.798283 12327 net.cpp:434] inception_3a/relu_3x3_reduce <- inception_3a/3x3_reduce
I1206 12:00:09.798290 12327 net.cpp:395] inception_3a/relu_3x3_reduce -> inception_3a/3x3_reduce (in-place)
I1206 12:00:09.798296 12327 net.cpp:150] Setting up inception_3a/relu_3x3_reduce
I1206 12:00:09.798301 12327 net.cpp:157] Top shape: 16 96 28 28 (1204224)
I1206 12:00:09.798305 12327 net.cpp:165] Memory required for data: 343605504
I1206 12:00:09.798308 12327 layer_factory.hpp:77] Creating layer inception_3a/3x3
I1206 12:00:09.798318 12327 net.cpp:100] Creating Layer inception_3a/3x3
I1206 12:00:09.798322 12327 net.cpp:434] inception_3a/3x3 <- inception_3a/3x3_reduce
I1206 12:00:09.798328 12327 net.cpp:408] inception_3a/3x3 -> inception_3a/3x3
I1206 12:00:09.799382 12327 net.cpp:150] Setting up inception_3a/3x3
I1206 12:00:09.799396 12327 net.cpp:157] Top shape: 16 128 28 28 (1605632)
I1206 12:00:09.799398 12327 net.cpp:165] Memory required for data: 350028032
I1206 12:00:09.799407 12327 layer_factory.hpp:77] Creating layer inception_3a/relu_3x3
I1206 12:00:09.799413 12327 net.cpp:100] Creating Layer inception_3a/relu_3x3
I1206 12:00:09.799418 12327 net.cpp:434] inception_3a/relu_3x3 <- inception_3a/3x3
I1206 12:00:09.799424 12327 net.cpp:395] inception_3a/relu_3x3 -> inception_3a/3x3 (in-place)
I1206 12:00:09.799432 12327 net.cpp:150] Setting up inception_3a/relu_3x3
I1206 12:00:09.799439 12327 net.cpp:157] Top shape: 16 128 28 28 (1605632)
I1206 12:00:09.799441 12327 net.cpp:165] Memory required for data: 356450560
I1206 12:00:09.799445 12327 layer_factory.hpp:77] Creating layer inception_3a/5x5_reduce
I1206 12:00:09.799454 12327 net.cpp:100] Creating Layer inception_3a/5x5_reduce
I1206 12:00:09.799458 12327 net.cpp:434] inception_3a/5x5_reduce <- pool2/3x3_s2_pool2/3x3_s2_0_split_2
I1206 12:00:09.799465 12327 net.cpp:408] inception_3a/5x5_reduce -> inception_3a/5x5_reduce
I1206 12:00:09.799644 12327 net.cpp:150] Setting up inception_3a/5x5_reduce
I1206 12:00:09.799654 12327 net.cpp:157] Top shape: 16 16 28 28 (200704)
I1206 12:00:09.799656 12327 net.cpp:165] Memory required for data: 357253376
I1206 12:00:09.799664 12327 layer_factory.hpp:77] Creating layer inception_3a/relu_5x5_reduce
I1206 12:00:09.799671 12327 net.cpp:100] Creating Layer inception_3a/relu_5x5_reduce
I1206 12:00:09.799676 12327 net.cpp:434] inception_3a/relu_5x5_reduce <- inception_3a/5x5_reduce
I1206 12:00:09.799681 12327 net.cpp:395] inception_3a/relu_5x5_reduce -> inception_3a/5x5_reduce (in-place)
I1206 12:00:09.799687 12327 net.cpp:150] Setting up inception_3a/relu_5x5_reduce
I1206 12:00:09.799692 12327 net.cpp:157] Top shape: 16 16 28 28 (200704)
I1206 12:00:09.799695 12327 net.cpp:165] Memory required for data: 358056192
I1206 12:00:09.799697 12327 layer_factory.hpp:77] Creating layer inception_3a/5x5
I1206 12:00:09.799706 12327 net.cpp:100] Creating Layer inception_3a/5x5
I1206 12:00:09.799710 12327 net.cpp:434] inception_3a/5x5 <- inception_3a/5x5_reduce
I1206 12:00:09.799717 12327 net.cpp:408] inception_3a/5x5 -> inception_3a/5x5
I1206 12:00:09.799940 12327 net.cpp:150] Setting up inception_3a/5x5
I1206 12:00:09.799947 12327 net.cpp:157] Top shape: 16 32 28 28 (401408)
I1206 12:00:09.799950 12327 net.cpp:165] Memory required for data: 359661824
I1206 12:00:09.799957 12327 layer_factory.hpp:77] Creating layer inception_3a/relu_5x5
I1206 12:00:09.799963 12327 net.cpp:100] Creating Layer inception_3a/relu_5x5
I1206 12:00:09.799968 12327 net.cpp:434] inception_3a/relu_5x5 <- inception_3a/5x5
I1206 12:00:09.799973 12327 net.cpp:395] inception_3a/relu_5x5 -> inception_3a/5x5 (in-place)
I1206 12:00:09.799993 12327 net.cpp:150] Setting up inception_3a/relu_5x5
I1206 12:00:09.799999 12327 net.cpp:157] Top shape: 16 32 28 28 (401408)
I1206 12:00:09.800003 12327 net.cpp:165] Memory required for data: 361267456
I1206 12:00:09.800005 12327 layer_factory.hpp:77] Creating layer inception_3a/pool
I1206 12:00:09.800012 12327 net.cpp:100] Creating Layer inception_3a/pool
I1206 12:00:09.800015 12327 net.cpp:434] inception_3a/pool <- pool2/3x3_s2_pool2/3x3_s2_0_split_3
I1206 12:00:09.800021 12327 net.cpp:408] inception_3a/pool -> inception_3a/pool
I1206 12:00:09.800055 12327 net.cpp:150] Setting up inception_3a/pool
I1206 12:00:09.800061 12327 net.cpp:157] Top shape: 16 192 28 28 (2408448)
I1206 12:00:09.800065 12327 net.cpp:165] Memory required for data: 370901248
I1206 12:00:09.800067 12327 layer_factory.hpp:77] Creating layer inception_3a/pool_proj
I1206 12:00:09.800077 12327 net.cpp:100] Creating Layer inception_3a/pool_proj
I1206 12:00:09.800082 12327 net.cpp:434] inception_3a/pool_proj <- inception_3a/pool
I1206 12:00:09.800088 12327 net.cpp:408] inception_3a/pool_proj -> inception_3a/pool_proj
I1206 12:00:09.800266 12327 net.cpp:150] Setting up inception_3a/pool_proj
I1206 12:00:09.800273 12327 net.cpp:157] Top shape: 16 32 28 28 (401408)
I1206 12:00:09.800276 12327 net.cpp:165] Memory required for data: 372506880
I1206 12:00:09.800288 12327 layer_factory.hpp:77] Creating layer inception_3a/relu_pool_proj
I1206 12:00:09.800295 12327 net.cpp:100] Creating Layer inception_3a/relu_pool_proj
I1206 12:00:09.800299 12327 net.cpp:434] inception_3a/relu_pool_proj <- inception_3a/pool_proj
I1206 12:00:09.800304 12327 net.cpp:395] inception_3a/relu_pool_proj -> inception_3a/pool_proj (in-place)
I1206 12:00:09.800310 12327 net.cpp:150] Setting up inception_3a/relu_pool_proj
I1206 12:00:09.800315 12327 net.cpp:157] Top shape: 16 32 28 28 (401408)
I1206 12:00:09.800318 12327 net.cpp:165] Memory required for data: 374112512
I1206 12:00:09.800321 12327 layer_factory.hpp:77] Creating layer inception_3a/output
I1206 12:00:09.800328 12327 net.cpp:100] Creating Layer inception_3a/output
I1206 12:00:09.800330 12327 net.cpp:434] inception_3a/output <- inception_3a/1x1
I1206 12:00:09.800334 12327 net.cpp:434] inception_3a/output <- inception_3a/3x3
I1206 12:00:09.800338 12327 net.cpp:434] inception_3a/output <- inception_3a/5x5
I1206 12:00:09.800343 12327 net.cpp:434] inception_3a/output <- inception_3a/pool_proj
I1206 12:00:09.800348 12327 net.cpp:408] inception_3a/output -> inception_3a/output
I1206 12:00:09.800370 12327 net.cpp:150] Setting up inception_3a/output
I1206 12:00:09.800376 12327 net.cpp:157] Top shape: 16 256 28 28 (3211264)
I1206 12:00:09.800379 12327 net.cpp:165] Memory required for data: 386957568
I1206 12:00:09.800382 12327 layer_factory.hpp:77] Creating layer inception_3a/output_inception_3a/output_0_split
I1206 12:00:09.800390 12327 net.cpp:100] Creating Layer inception_3a/output_inception_3a/output_0_split
I1206 12:00:09.800392 12327 net.cpp:434] inception_3a/output_inception_3a/output_0_split <- inception_3a/output
I1206 12:00:09.800398 12327 net.cpp:408] inception_3a/output_inception_3a/output_0_split -> inception_3a/output_inception_3a/output_0_split_0
I1206 12:00:09.800405 12327 net.cpp:408] inception_3a/output_inception_3a/output_0_split -> inception_3a/output_inception_3a/output_0_split_1
I1206 12:00:09.800413 12327 net.cpp:408] inception_3a/output_inception_3a/output_0_split -> inception_3a/output_inception_3a/output_0_split_2
I1206 12:00:09.800421 12327 net.cpp:408] inception_3a/output_inception_3a/output_0_split -> inception_3a/output_inception_3a/output_0_split_3
I1206 12:00:09.800463 12327 net.cpp:150] Setting up inception_3a/output_inception_3a/output_0_split
I1206 12:00:09.800469 12327 net.cpp:157] Top shape: 16 256 28 28 (3211264)
I1206 12:00:09.800473 12327 net.cpp:157] Top shape: 16 256 28 28 (3211264)
I1206 12:00:09.800477 12327 net.cpp:157] Top shape: 16 256 28 28 (3211264)
I1206 12:00:09.800482 12327 net.cpp:157] Top shape: 16 256 28 28 (3211264)
I1206 12:00:09.800493 12327 net.cpp:165] Memory required for data: 438337792
I1206 12:00:09.800496 12327 layer_factory.hpp:77] Creating layer inception_3b/1x1
I1206 12:00:09.800506 12327 net.cpp:100] Creating Layer inception_3b/1x1
I1206 12:00:09.800511 12327 net.cpp:434] inception_3b/1x1 <- inception_3a/output_inception_3a/output_0_split_0
I1206 12:00:09.800518 12327 net.cpp:408] inception_3b/1x1 -> inception_3b/1x1
I1206 12:00:09.800815 12327 net.cpp:150] Setting up inception_3b/1x1
I1206 12:00:09.800824 12327 net.cpp:157] Top shape: 16 128 28 28 (1605632)
I1206 12:00:09.800827 12327 net.cpp:165] Memory required for data: 444760320
I1206 12:00:09.800833 12327 layer_factory.hpp:77] Creating layer inception_3b/relu_1x1
I1206 12:00:09.800839 12327 net.cpp:100] Creating Layer inception_3b/relu_1x1
I1206 12:00:09.800844 12327 net.cpp:434] inception_3b/relu_1x1 <- inception_3b/1x1
I1206 12:00:09.800849 12327 net.cpp:395] inception_3b/relu_1x1 -> inception_3b/1x1 (in-place)
I1206 12:00:09.800856 12327 net.cpp:150] Setting up inception_3b/relu_1x1
I1206 12:00:09.800863 12327 net.cpp:157] Top shape: 16 128 28 28 (1605632)
I1206 12:00:09.800865 12327 net.cpp:165] Memory required for data: 451182848
I1206 12:00:09.800868 12327 layer_factory.hpp:77] Creating layer inception_3b/3x3_reduce
I1206 12:00:09.800878 12327 net.cpp:100] Creating Layer inception_3b/3x3_reduce
I1206 12:00:09.800881 12327 net.cpp:434] inception_3b/3x3_reduce <- inception_3a/output_inception_3a/output_0_split_1
I1206 12:00:09.800887 12327 net.cpp:408] inception_3b/3x3_reduce -> inception_3b/3x3_reduce
I1206 12:00:09.801184 12327 net.cpp:150] Setting up inception_3b/3x3_reduce
I1206 12:00:09.801193 12327 net.cpp:157] Top shape: 16 128 28 28 (1605632)
I1206 12:00:09.801197 12327 net.cpp:165] Memory required for data: 457605376
I1206 12:00:09.801203 12327 layer_factory.hpp:77] Creating layer inception_3b/relu_3x3_reduce
I1206 12:00:09.801209 12327 net.cpp:100] Creating Layer inception_3b/relu_3x3_reduce
I1206 12:00:09.801223 12327 net.cpp:434] inception_3b/relu_3x3_reduce <- inception_3b/3x3_reduce
I1206 12:00:09.801230 12327 net.cpp:395] inception_3b/relu_3x3_reduce -> inception_3b/3x3_reduce (in-place)
I1206 12:00:09.801236 12327 net.cpp:150] Setting up inception_3b/relu_3x3_reduce
I1206 12:00:09.801241 12327 net.cpp:157] Top shape: 16 128 28 28 (1605632)
I1206 12:00:09.801244 12327 net.cpp:165] Memory required for data: 464027904
I1206 12:00:09.801247 12327 layer_factory.hpp:77] Creating layer inception_3b/3x3
I1206 12:00:09.801262 12327 net.cpp:100] Creating Layer inception_3b/3x3
I1206 12:00:09.801266 12327 net.cpp:434] inception_3b/3x3 <- inception_3b/3x3_reduce
I1206 12:00:09.801273 12327 net.cpp:408] inception_3b/3x3 -> inception_3b/3x3
I1206 12:00:09.804204 12327 net.cpp:150] Setting up inception_3b/3x3
I1206 12:00:09.804215 12327 net.cpp:157] Top shape: 16 192 28 28 (2408448)
I1206 12:00:09.804219 12327 net.cpp:165] Memory required for data: 473661696
I1206 12:00:09.804225 12327 layer_factory.hpp:77] Creating layer inception_3b/relu_3x3
I1206 12:00:09.804231 12327 net.cpp:100] Creating Layer inception_3b/relu_3x3
I1206 12:00:09.804235 12327 net.cpp:434] inception_3b/relu_3x3 <- inception_3b/3x3
I1206 12:00:09.804241 12327 net.cpp:395] inception_3b/relu_3x3 -> inception_3b/3x3 (in-place)
I1206 12:00:09.804249 12327 net.cpp:150] Setting up inception_3b/relu_3x3
I1206 12:00:09.804255 12327 net.cpp:157] Top shape: 16 192 28 28 (2408448)
I1206 12:00:09.804257 12327 net.cpp:165] Memory required for data: 483295488
I1206 12:00:09.804260 12327 layer_factory.hpp:77] Creating layer inception_3b/5x5_reduce
I1206 12:00:09.804270 12327 net.cpp:100] Creating Layer inception_3b/5x5_reduce
I1206 12:00:09.804273 12327 net.cpp:434] inception_3b/5x5_reduce <- inception_3a/output_inception_3a/output_0_split_2
I1206 12:00:09.804280 12327 net.cpp:408] inception_3b/5x5_reduce -> inception_3b/5x5_reduce
I1206 12:00:09.804479 12327 net.cpp:150] Setting up inception_3b/5x5_reduce
I1206 12:00:09.804488 12327 net.cpp:157] Top shape: 16 32 28 28 (401408)
I1206 12:00:09.804502 12327 net.cpp:165] Memory required for data: 484901120
I1206 12:00:09.804510 12327 layer_factory.hpp:77] Creating layer inception_3b/relu_5x5_reduce
I1206 12:00:09.804517 12327 net.cpp:100] Creating Layer inception_3b/relu_5x5_reduce
I1206 12:00:09.804520 12327 net.cpp:434] inception_3b/relu_5x5_reduce <- inception_3b/5x5_reduce
I1206 12:00:09.804525 12327 net.cpp:395] inception_3b/relu_5x5_reduce -> inception_3b/5x5_reduce (in-place)
I1206 12:00:09.804534 12327 net.cpp:150] Setting up inception_3b/relu_5x5_reduce
I1206 12:00:09.804540 12327 net.cpp:157] Top shape: 16 32 28 28 (401408)
I1206 12:00:09.804543 12327 net.cpp:165] Memory required for data: 486506752
I1206 12:00:09.804546 12327 layer_factory.hpp:77] Creating layer inception_3b/5x5
I1206 12:00:09.804555 12327 net.cpp:100] Creating Layer inception_3b/5x5
I1206 12:00:09.804560 12327 net.cpp:434] inception_3b/5x5 <- inception_3b/5x5_reduce
I1206 12:00:09.804567 12327 net.cpp:408] inception_3b/5x5 -> inception_3b/5x5
I1206 12:00:09.805073 12327 net.cpp:150] Setting up inception_3b/5x5
I1206 12:00:09.805083 12327 net.cpp:157] Top shape: 16 96 28 28 (1204224)
I1206 12:00:09.805085 12327 net.cpp:165] Memory required for data: 491323648
I1206 12:00:09.805093 12327 layer_factory.hpp:77] Creating layer inception_3b/relu_5x5
I1206 12:00:09.805099 12327 net.cpp:100] Creating Layer inception_3b/relu_5x5
I1206 12:00:09.805104 12327 net.cpp:434] inception_3b/relu_5x5 <- inception_3b/5x5
I1206 12:00:09.805110 12327 net.cpp:395] inception_3b/relu_5x5 -> inception_3b/5x5 (in-place)
I1206 12:00:09.805119 12327 net.cpp:150] Setting up inception_3b/relu_5x5
I1206 12:00:09.805124 12327 net.cpp:157] Top shape: 16 96 28 28 (1204224)
I1206 12:00:09.805126 12327 net.cpp:165] Memory required for data: 496140544
I1206 12:00:09.805130 12327 layer_factory.hpp:77] Creating layer inception_3b/pool
I1206 12:00:09.805138 12327 net.cpp:100] Creating Layer inception_3b/pool
I1206 12:00:09.805142 12327 net.cpp:434] inception_3b/pool <- inception_3a/output_inception_3a/output_0_split_3
I1206 12:00:09.805148 12327 net.cpp:408] inception_3b/pool -> inception_3b/pool
I1206 12:00:09.805181 12327 net.cpp:150] Setting up inception_3b/pool
I1206 12:00:09.805188 12327 net.cpp:157] Top shape: 16 256 28 28 (3211264)
I1206 12:00:09.805191 12327 net.cpp:165] Memory required for data: 508985600
I1206 12:00:09.805194 12327 layer_factory.hpp:77] Creating layer inception_3b/pool_proj
I1206 12:00:09.805205 12327 net.cpp:100] Creating Layer inception_3b/pool_proj
I1206 12:00:09.805210 12327 net.cpp:434] inception_3b/pool_proj <- inception_3b/pool
I1206 12:00:09.805223 12327 net.cpp:408] inception_3b/pool_proj -> inception_3b/pool_proj
I1206 12:00:09.805460 12327 net.cpp:150] Setting up inception_3b/pool_proj
I1206 12:00:09.805469 12327 net.cpp:157] Top shape: 16 64 28 28 (802816)
I1206 12:00:09.805471 12327 net.cpp:165] Memory required for data: 512196864
I1206 12:00:09.805479 12327 layer_factory.hpp:77] Creating layer inception_3b/relu_pool_proj
I1206 12:00:09.805483 12327 net.cpp:100] Creating Layer inception_3b/relu_pool_proj
I1206 12:00:09.805488 12327 net.cpp:434] inception_3b/relu_pool_proj <- inception_3b/pool_proj
I1206 12:00:09.805495 12327 net.cpp:395] inception_3b/relu_pool_proj -> inception_3b/pool_proj (in-place)
I1206 12:00:09.805502 12327 net.cpp:150] Setting up inception_3b/relu_pool_proj
I1206 12:00:09.805508 12327 net.cpp:157] Top shape: 16 64 28 28 (802816)
I1206 12:00:09.805511 12327 net.cpp:165] Memory required for data: 515408128
I1206 12:00:09.805515 12327 layer_factory.hpp:77] Creating layer inception_3b/output
I1206 12:00:09.805521 12327 net.cpp:100] Creating Layer inception_3b/output
I1206 12:00:09.805524 12327 net.cpp:434] inception_3b/output <- inception_3b/1x1
I1206 12:00:09.805531 12327 net.cpp:434] inception_3b/output <- inception_3b/3x3
I1206 12:00:09.805534 12327 net.cpp:434] inception_3b/output <- inception_3b/5x5
I1206 12:00:09.805538 12327 net.cpp:434] inception_3b/output <- inception_3b/pool_proj
I1206 12:00:09.805543 12327 net.cpp:408] inception_3b/output -> inception_3b/output
I1206 12:00:09.805578 12327 net.cpp:150] Setting up inception_3b/output
I1206 12:00:09.805586 12327 net.cpp:157] Top shape: 16 480 28 28 (6021120)
I1206 12:00:09.805589 12327 net.cpp:165] Memory required for data: 539492608
I1206 12:00:09.805593 12327 layer_factory.hpp:77] Creating layer pool3/3x3_s2
I1206 12:00:09.805598 12327 net.cpp:100] Creating Layer pool3/3x3_s2
I1206 12:00:09.805603 12327 net.cpp:434] pool3/3x3_s2 <- inception_3b/output
I1206 12:00:09.805611 12327 net.cpp:408] pool3/3x3_s2 -> pool3/3x3_s2
I1206 12:00:09.805644 12327 net.cpp:150] Setting up pool3/3x3_s2
I1206 12:00:09.805651 12327 net.cpp:157] Top shape: 16 480 14 14 (1505280)
I1206 12:00:09.805655 12327 net.cpp:165] Memory required for data: 545513728
I1206 12:00:09.805657 12327 layer_factory.hpp:77] Creating layer pool3/3x3_s2_pool3/3x3_s2_0_split
I1206 12:00:09.805665 12327 net.cpp:100] Creating Layer pool3/3x3_s2_pool3/3x3_s2_0_split
I1206 12:00:09.805670 12327 net.cpp:434] pool3/3x3_s2_pool3/3x3_s2_0_split <- pool3/3x3_s2
I1206 12:00:09.805676 12327 net.cpp:408] pool3/3x3_s2_pool3/3x3_s2_0_split -> pool3/3x3_s2_pool3/3x3_s2_0_split_0
I1206 12:00:09.805685 12327 net.cpp:408] pool3/3x3_s2_pool3/3x3_s2_0_split -> pool3/3x3_s2_pool3/3x3_s2_0_split_1
I1206 12:00:09.805691 12327 net.cpp:408] pool3/3x3_s2_pool3/3x3_s2_0_split -> pool3/3x3_s2_pool3/3x3_s2_0_split_2
I1206 12:00:09.805699 12327 net.cpp:408] pool3/3x3_s2_pool3/3x3_s2_0_split -> pool3/3x3_s2_pool3/3x3_s2_0_split_3
I1206 12:00:09.805747 12327 net.cpp:150] Setting up pool3/3x3_s2_pool3/3x3_s2_0_split
I1206 12:00:09.805753 12327 net.cpp:157] Top shape: 16 480 14 14 (1505280)
I1206 12:00:09.805757 12327 net.cpp:157] Top shape: 16 480 14 14 (1505280)
I1206 12:00:09.805761 12327 net.cpp:157] Top shape: 16 480 14 14 (1505280)
I1206 12:00:09.805765 12327 net.cpp:157] Top shape: 16 480 14 14 (1505280)
I1206 12:00:09.805768 12327 net.cpp:165] Memory required for data: 569598208
I1206 12:00:09.805771 12327 layer_factory.hpp:77] Creating layer inception_4a/1x1
I1206 12:00:09.805783 12327 net.cpp:100] Creating Layer inception_4a/1x1
I1206 12:00:09.805788 12327 net.cpp:434] inception_4a/1x1 <- pool3/3x3_s2_pool3/3x3_s2_0_split_0
I1206 12:00:09.805794 12327 net.cpp:408] inception_4a/1x1 -> inception_4a/1x1
I1206 12:00:09.812387 12327 net.cpp:150] Setting up inception_4a/1x1
I1206 12:00:09.812399 12327 net.cpp:157] Top shape: 16 192 14 14 (602112)
I1206 12:00:09.812402 12327 net.cpp:165] Memory required for data: 572006656
I1206 12:00:09.812408 12327 layer_factory.hpp:77] Creating layer inception_4a/relu_1x1
I1206 12:00:09.812417 12327 net.cpp:100] Creating Layer inception_4a/relu_1x1
I1206 12:00:09.812420 12327 net.cpp:434] inception_4a/relu_1x1 <- inception_4a/1x1
I1206 12:00:09.812428 12327 net.cpp:395] inception_4a/relu_1x1 -> inception_4a/1x1 (in-place)
I1206 12:00:09.812438 12327 net.cpp:150] Setting up inception_4a/relu_1x1
I1206 12:00:09.812444 12327 net.cpp:157] Top shape: 16 192 14 14 (602112)
I1206 12:00:09.812448 12327 net.cpp:165] Memory required for data: 574415104
I1206 12:00:09.812450 12327 layer_factory.hpp:77] Creating layer inception_4a/3x3_reduce
I1206 12:00:09.812460 12327 net.cpp:100] Creating Layer inception_4a/3x3_reduce
I1206 12:00:09.812465 12327 net.cpp:434] inception_4a/3x3_reduce <- pool3/3x3_s2_pool3/3x3_s2_0_split_1
I1206 12:00:09.812474 12327 net.cpp:408] inception_4a/3x3_reduce -> inception_4a/3x3_reduce
I1206 12:00:09.812865 12327 net.cpp:150] Setting up inception_4a/3x3_reduce
I1206 12:00:09.812873 12327 net.cpp:157] Top shape: 16 96 14 14 (301056)
I1206 12:00:09.812876 12327 net.cpp:165] Memory required for data: 575619328
I1206 12:00:09.812891 12327 layer_factory.hpp:77] Creating layer inception_4a/relu_3x3_reduce
I1206 12:00:09.812898 12327 net.cpp:100] Creating Layer inception_4a/relu_3x3_reduce
I1206 12:00:09.812902 12327 net.cpp:434] inception_4a/relu_3x3_reduce <- inception_4a/3x3_reduce
I1206 12:00:09.812908 12327 net.cpp:395] inception_4a/relu_3x3_reduce -> inception_4a/3x3_reduce (in-place)
I1206 12:00:09.812916 12327 net.cpp:150] Setting up inception_4a/relu_3x3_reduce
I1206 12:00:09.812932 12327 net.cpp:157] Top shape: 16 96 14 14 (301056)
I1206 12:00:09.812937 12327 net.cpp:165] Memory required for data: 576823552
I1206 12:00:09.812939 12327 layer_factory.hpp:77] Creating layer inception_4a/3x3
I1206 12:00:09.812950 12327 net.cpp:100] Creating Layer inception_4a/3x3
I1206 12:00:09.812954 12327 net.cpp:434] inception_4a/3x3 <- inception_4a/3x3_reduce
I1206 12:00:09.812963 12327 net.cpp:408] inception_4a/3x3 -> inception_4a/3x3
I1206 12:00:09.814388 12327 net.cpp:150] Setting up inception_4a/3x3
I1206 12:00:09.814404 12327 net.cpp:157] Top shape: 16 208 14 14 (652288)
I1206 12:00:09.814407 12327 net.cpp:165] Memory required for data: 579432704
I1206 12:00:09.814415 12327 layer_factory.hpp:77] Creating layer inception_4a/relu_3x3
I1206 12:00:09.814424 12327 net.cpp:100] Creating Layer inception_4a/relu_3x3
I1206 12:00:09.814429 12327 net.cpp:434] inception_4a/relu_3x3 <- inception_4a/3x3
I1206 12:00:09.814436 12327 net.cpp:395] inception_4a/relu_3x3 -> inception_4a/3x3 (in-place)
I1206 12:00:09.814447 12327 net.cpp:150] Setting up inception_4a/relu_3x3
I1206 12:00:09.814455 12327 net.cpp:157] Top shape: 16 208 14 14 (652288)
I1206 12:00:09.814456 12327 net.cpp:165] Memory required for data: 582041856
I1206 12:00:09.814460 12327 layer_factory.hpp:77] Creating layer inception_4a/5x5_reduce
I1206 12:00:09.814471 12327 net.cpp:100] Creating Layer inception_4a/5x5_reduce
I1206 12:00:09.814474 12327 net.cpp:434] inception_4a/5x5_reduce <- pool3/3x3_s2_pool3/3x3_s2_0_split_2
I1206 12:00:09.814483 12327 net.cpp:408] inception_4a/5x5_reduce -> inception_4a/5x5_reduce
I1206 12:00:09.814707 12327 net.cpp:150] Setting up inception_4a/5x5_reduce
I1206 12:00:09.814714 12327 net.cpp:157] Top shape: 16 16 14 14 (50176)
I1206 12:00:09.814718 12327 net.cpp:165] Memory required for data: 582242560
I1206 12:00:09.814724 12327 layer_factory.hpp:77] Creating layer inception_4a/relu_5x5_reduce
I1206 12:00:09.814733 12327 net.cpp:100] Creating Layer inception_4a/relu_5x5_reduce
I1206 12:00:09.814738 12327 net.cpp:434] inception_4a/relu_5x5_reduce <- inception_4a/5x5_reduce
I1206 12:00:09.814745 12327 net.cpp:395] inception_4a/relu_5x5_reduce -> inception_4a/5x5_reduce (in-place)
I1206 12:00:09.814754 12327 net.cpp:150] Setting up inception_4a/relu_5x5_reduce
I1206 12:00:09.814757 12327 net.cpp:157] Top shape: 16 16 14 14 (50176)
I1206 12:00:09.814760 12327 net.cpp:165] Memory required for data: 582443264
I1206 12:00:09.814764 12327 layer_factory.hpp:77] Creating layer inception_4a/5x5
I1206 12:00:09.814772 12327 net.cpp:100] Creating Layer inception_4a/5x5
I1206 12:00:09.814777 12327 net.cpp:434] inception_4a/5x5 <- inception_4a/5x5_reduce
I1206 12:00:09.814785 12327 net.cpp:408] inception_4a/5x5 -> inception_4a/5x5
I1206 12:00:09.815045 12327 net.cpp:150] Setting up inception_4a/5x5
I1206 12:00:09.815054 12327 net.cpp:157] Top shape: 16 48 14 14 (150528)
I1206 12:00:09.815057 12327 net.cpp:165] Memory required for data: 583045376
I1206 12:00:09.815063 12327 layer_factory.hpp:77] Creating layer inception_4a/relu_5x5
I1206 12:00:09.815070 12327 net.cpp:100] Creating Layer inception_4a/relu_5x5
I1206 12:00:09.815074 12327 net.cpp:434] inception_4a/relu_5x5 <- inception_4a/5x5
I1206 12:00:09.815081 12327 net.cpp:395] inception_4a/relu_5x5 -> inception_4a/5x5 (in-place)
I1206 12:00:09.815089 12327 net.cpp:150] Setting up inception_4a/relu_5x5
I1206 12:00:09.815094 12327 net.cpp:157] Top shape: 16 48 14 14 (150528)
I1206 12:00:09.815098 12327 net.cpp:165] Memory required for data: 583647488
I1206 12:00:09.815100 12327 layer_factory.hpp:77] Creating layer inception_4a/pool
I1206 12:00:09.815109 12327 net.cpp:100] Creating Layer inception_4a/pool
I1206 12:00:09.815114 12327 net.cpp:434] inception_4a/pool <- pool3/3x3_s2_pool3/3x3_s2_0_split_3
I1206 12:00:09.815119 12327 net.cpp:408] inception_4a/pool -> inception_4a/pool
I1206 12:00:09.815155 12327 net.cpp:150] Setting up inception_4a/pool
I1206 12:00:09.815161 12327 net.cpp:157] Top shape: 16 480 14 14 (1505280)
I1206 12:00:09.815163 12327 net.cpp:165] Memory required for data: 589668608
I1206 12:00:09.815183 12327 layer_factory.hpp:77] Creating layer inception_4a/pool_proj
I1206 12:00:09.815196 12327 net.cpp:100] Creating Layer inception_4a/pool_proj
I1206 12:00:09.815201 12327 net.cpp:434] inception_4a/pool_proj <- inception_4a/pool
I1206 12:00:09.815209 12327 net.cpp:408] inception_4a/pool_proj -> inception_4a/pool_proj
I1206 12:00:09.815515 12327 net.cpp:150] Setting up inception_4a/pool_proj
I1206 12:00:09.815523 12327 net.cpp:157] Top shape: 16 64 14 14 (200704)
I1206 12:00:09.815526 12327 net.cpp:165] Memory required for data: 590471424
I1206 12:00:09.815532 12327 layer_factory.hpp:77] Creating layer inception_4a/relu_pool_proj
I1206 12:00:09.815539 12327 net.cpp:100] Creating Layer inception_4a/relu_pool_proj
I1206 12:00:09.815543 12327 net.cpp:434] inception_4a/relu_pool_proj <- inception_4a/pool_proj
I1206 12:00:09.815551 12327 net.cpp:395] inception_4a/relu_pool_proj -> inception_4a/pool_proj (in-place)
I1206 12:00:09.815558 12327 net.cpp:150] Setting up inception_4a/relu_pool_proj
I1206 12:00:09.815563 12327 net.cpp:157] Top shape: 16 64 14 14 (200704)
I1206 12:00:09.815567 12327 net.cpp:165] Memory required for data: 591274240
I1206 12:00:09.815569 12327 layer_factory.hpp:77] Creating layer inception_4a/output
I1206 12:00:09.815577 12327 net.cpp:100] Creating Layer inception_4a/output
I1206 12:00:09.815582 12327 net.cpp:434] inception_4a/output <- inception_4a/1x1
I1206 12:00:09.815587 12327 net.cpp:434] inception_4a/output <- inception_4a/3x3
I1206 12:00:09.815590 12327 net.cpp:434] inception_4a/output <- inception_4a/5x5
I1206 12:00:09.815593 12327 net.cpp:434] inception_4a/output <- inception_4a/pool_proj
I1206 12:00:09.815599 12327 net.cpp:408] inception_4a/output -> inception_4a/output
I1206 12:00:09.815623 12327 net.cpp:150] Setting up inception_4a/output
I1206 12:00:09.815631 12327 net.cpp:157] Top shape: 16 512 14 14 (1605632)
I1206 12:00:09.815635 12327 net.cpp:165] Memory required for data: 597696768
I1206 12:00:09.815639 12327 layer_factory.hpp:77] Creating layer inception_4a/output_inception_4a/output_0_split
I1206 12:00:09.815645 12327 net.cpp:100] Creating Layer inception_4a/output_inception_4a/output_0_split
I1206 12:00:09.815649 12327 net.cpp:434] inception_4a/output_inception_4a/output_0_split <- inception_4a/output
I1206 12:00:09.815656 12327 net.cpp:408] inception_4a/output_inception_4a/output_0_split -> inception_4a/output_inception_4a/output_0_split_0
I1206 12:00:09.815666 12327 net.cpp:408] inception_4a/output_inception_4a/output_0_split -> inception_4a/output_inception_4a/output_0_split_1
I1206 12:00:09.815675 12327 net.cpp:408] inception_4a/output_inception_4a/output_0_split -> inception_4a/output_inception_4a/output_0_split_2
I1206 12:00:09.815685 12327 net.cpp:408] inception_4a/output_inception_4a/output_0_split -> inception_4a/output_inception_4a/output_0_split_3
I1206 12:00:09.815692 12327 net.cpp:408] inception_4a/output_inception_4a/output_0_split -> inception_4a/output_inception_4a/output_0_split_4
I1206 12:00:09.815748 12327 net.cpp:150] Setting up inception_4a/output_inception_4a/output_0_split
I1206 12:00:09.815755 12327 net.cpp:157] Top shape: 16 512 14 14 (1605632)
I1206 12:00:09.815759 12327 net.cpp:157] Top shape: 16 512 14 14 (1605632)
I1206 12:00:09.815763 12327 net.cpp:157] Top shape: 16 512 14 14 (1605632)
I1206 12:00:09.815768 12327 net.cpp:157] Top shape: 16 512 14 14 (1605632)
I1206 12:00:09.815773 12327 net.cpp:157] Top shape: 16 512 14 14 (1605632)
I1206 12:00:09.815775 12327 net.cpp:165] Memory required for data: 629809408
I1206 12:00:09.815778 12327 layer_factory.hpp:77] Creating layer loss1/ave_pool
I1206 12:00:09.815784 12327 net.cpp:100] Creating Layer loss1/ave_pool
I1206 12:00:09.815789 12327 net.cpp:434] loss1/ave_pool <- inception_4a/output_inception_4a/output_0_split_0
I1206 12:00:09.815798 12327 net.cpp:408] loss1/ave_pool -> loss1/ave_pool
I1206 12:00:09.815821 12327 net.cpp:150] Setting up loss1/ave_pool
I1206 12:00:09.815829 12327 net.cpp:157] Top shape: 16 512 4 4 (131072)
I1206 12:00:09.815840 12327 net.cpp:165] Memory required for data: 630333696
I1206 12:00:09.815843 12327 layer_factory.hpp:77] Creating layer loss1/conv
I1206 12:00:09.815855 12327 net.cpp:100] Creating Layer loss1/conv
I1206 12:00:09.815860 12327 net.cpp:434] loss1/conv <- loss1/ave_pool
I1206 12:00:09.815867 12327 net.cpp:408] loss1/conv -> loss1/conv
I1206 12:00:09.816319 12327 net.cpp:150] Setting up loss1/conv
I1206 12:00:09.816329 12327 net.cpp:157] Top shape: 16 128 4 4 (32768)
I1206 12:00:09.816331 12327 net.cpp:165] Memory required for data: 630464768
I1206 12:00:09.816339 12327 layer_factory.hpp:77] Creating layer loss1/relu_conv
I1206 12:00:09.816344 12327 net.cpp:100] Creating Layer loss1/relu_conv
I1206 12:00:09.816349 12327 net.cpp:434] loss1/relu_conv <- loss1/conv
I1206 12:00:09.816355 12327 net.cpp:395] loss1/relu_conv -> loss1/conv (in-place)
I1206 12:00:09.816362 12327 net.cpp:150] Setting up loss1/relu_conv
I1206 12:00:09.816368 12327 net.cpp:157] Top shape: 16 128 4 4 (32768)
I1206 12:00:09.816370 12327 net.cpp:165] Memory required for data: 630595840
I1206 12:00:09.816375 12327 layer_factory.hpp:77] Creating layer loss1/fc
I1206 12:00:09.816381 12327 net.cpp:100] Creating Layer loss1/fc
I1206 12:00:09.816385 12327 net.cpp:434] loss1/fc <- loss1/conv
I1206 12:00:09.816393 12327 net.cpp:408] loss1/fc -> loss1/fc
I1206 12:00:09.829675 12327 net.cpp:150] Setting up loss1/fc
I1206 12:00:09.829702 12327 net.cpp:157] Top shape: 16 1024 (16384)
I1206 12:00:09.829705 12327 net.cpp:165] Memory required for data: 630661376
I1206 12:00:09.829716 12327 layer_factory.hpp:77] Creating layer loss1/relu_fc
I1206 12:00:09.829728 12327 net.cpp:100] Creating Layer loss1/relu_fc
I1206 12:00:09.829733 12327 net.cpp:434] loss1/relu_fc <- loss1/fc
I1206 12:00:09.829741 12327 net.cpp:395] loss1/relu_fc -> loss1/fc (in-place)
I1206 12:00:09.829753 12327 net.cpp:150] Setting up loss1/relu_fc
I1206 12:00:09.829759 12327 net.cpp:157] Top shape: 16 1024 (16384)
I1206 12:00:09.829761 12327 net.cpp:165] Memory required for data: 630726912
I1206 12:00:09.829766 12327 layer_factory.hpp:77] Creating layer loss1/drop_fc
I1206 12:00:09.829794 12327 net.cpp:100] Creating Layer loss1/drop_fc
I1206 12:00:09.829798 12327 net.cpp:434] loss1/drop_fc <- loss1/fc
I1206 12:00:09.829803 12327 net.cpp:395] loss1/drop_fc -> loss1/fc (in-place)
I1206 12:00:09.829834 12327 net.cpp:150] Setting up loss1/drop_fc
I1206 12:00:09.829841 12327 net.cpp:157] Top shape: 16 1024 (16384)
I1206 12:00:09.829844 12327 net.cpp:165] Memory required for data: 630792448
I1206 12:00:09.829849 12327 layer_factory.hpp:77] Creating layer loss1/classifier_tune
I1206 12:00:09.829857 12327 net.cpp:100] Creating Layer loss1/classifier_tune
I1206 12:00:09.829861 12327 net.cpp:434] loss1/classifier_tune <- loss1/fc
I1206 12:00:09.829867 12327 net.cpp:408] loss1/classifier_tune -> loss1/classifier
I1206 12:00:09.835639 12327 net.cpp:150] Setting up loss1/classifier_tune
I1206 12:00:09.835669 12327 net.cpp:157] Top shape: 16 1000 (16000)
I1206 12:00:09.835671 12327 net.cpp:165] Memory required for data: 630856448
I1206 12:00:09.835682 12327 layer_factory.hpp:77] Creating layer loss1/loss
I1206 12:00:09.835692 12327 net.cpp:100] Creating Layer loss1/loss
I1206 12:00:09.835697 12327 net.cpp:434] loss1/loss <- loss1/classifier
I1206 12:00:09.835705 12327 net.cpp:434] loss1/loss <- label_data_1_split_0
I1206 12:00:09.835712 12327 net.cpp:408] loss1/loss -> loss1/loss1
I1206 12:00:09.835727 12327 layer_factory.hpp:77] Creating layer loss1/loss
I1206 12:00:09.835825 12327 net.cpp:150] Setting up loss1/loss
I1206 12:00:09.835834 12327 net.cpp:157] Top shape: (1)
I1206 12:00:09.835835 12327 net.cpp:160]     with loss weight 0.3
I1206 12:00:09.835858 12327 net.cpp:165] Memory required for data: 630856452
I1206 12:00:09.835862 12327 layer_factory.hpp:77] Creating layer inception_4b/1x1
I1206 12:00:09.835875 12327 net.cpp:100] Creating Layer inception_4b/1x1
I1206 12:00:09.835880 12327 net.cpp:434] inception_4b/1x1 <- inception_4a/output_inception_4a/output_0_split_1
I1206 12:00:09.835887 12327 net.cpp:408] inception_4b/1x1 -> inception_4b/1x1
I1206 12:00:09.836458 12327 net.cpp:150] Setting up inception_4b/1x1
I1206 12:00:09.836467 12327 net.cpp:157] Top shape: 16 160 14 14 (501760)
I1206 12:00:09.836470 12327 net.cpp:165] Memory required for data: 632863492
I1206 12:00:09.836477 12327 layer_factory.hpp:77] Creating layer inception_4b/relu_1x1
I1206 12:00:09.836486 12327 net.cpp:100] Creating Layer inception_4b/relu_1x1
I1206 12:00:09.836491 12327 net.cpp:434] inception_4b/relu_1x1 <- inception_4b/1x1
I1206 12:00:09.836498 12327 net.cpp:395] inception_4b/relu_1x1 -> inception_4b/1x1 (in-place)
I1206 12:00:09.836504 12327 net.cpp:150] Setting up inception_4b/relu_1x1
I1206 12:00:09.836510 12327 net.cpp:157] Top shape: 16 160 14 14 (501760)
I1206 12:00:09.836513 12327 net.cpp:165] Memory required for data: 634870532
I1206 12:00:09.836516 12327 layer_factory.hpp:77] Creating layer inception_4b/3x3_reduce
I1206 12:00:09.836527 12327 net.cpp:100] Creating Layer inception_4b/3x3_reduce
I1206 12:00:09.836531 12327 net.cpp:434] inception_4b/3x3_reduce <- inception_4a/output_inception_4a/output_0_split_2
I1206 12:00:09.836539 12327 net.cpp:408] inception_4b/3x3_reduce -> inception_4b/3x3_reduce
I1206 12:00:09.838673 12327 net.cpp:150] Setting up inception_4b/3x3_reduce
I1206 12:00:09.838686 12327 net.cpp:157] Top shape: 16 112 14 14 (351232)
I1206 12:00:09.838690 12327 net.cpp:165] Memory required for data: 636275460
I1206 12:00:09.838696 12327 layer_factory.hpp:77] Creating layer inception_4b/relu_3x3_reduce
I1206 12:00:09.838703 12327 net.cpp:100] Creating Layer inception_4b/relu_3x3_reduce
I1206 12:00:09.838707 12327 net.cpp:434] inception_4b/relu_3x3_reduce <- inception_4b/3x3_reduce
I1206 12:00:09.838713 12327 net.cpp:395] inception_4b/relu_3x3_reduce -> inception_4b/3x3_reduce (in-place)
I1206 12:00:09.838723 12327 net.cpp:150] Setting up inception_4b/relu_3x3_reduce
I1206 12:00:09.838729 12327 net.cpp:157] Top shape: 16 112 14 14 (351232)
I1206 12:00:09.838732 12327 net.cpp:165] Memory required for data: 637680388
I1206 12:00:09.838735 12327 layer_factory.hpp:77] Creating layer inception_4b/3x3
I1206 12:00:09.838747 12327 net.cpp:100] Creating Layer inception_4b/3x3
I1206 12:00:09.838750 12327 net.cpp:434] inception_4b/3x3 <- inception_4b/3x3_reduce
I1206 12:00:09.838758 12327 net.cpp:408] inception_4b/3x3 -> inception_4b/3x3
I1206 12:00:09.840304 12327 net.cpp:150] Setting up inception_4b/3x3
I1206 12:00:09.840314 12327 net.cpp:157] Top shape: 16 224 14 14 (702464)
I1206 12:00:09.840317 12327 net.cpp:165] Memory required for data: 640490244
I1206 12:00:09.840324 12327 layer_factory.hpp:77] Creating layer inception_4b/relu_3x3
I1206 12:00:09.840332 12327 net.cpp:100] Creating Layer inception_4b/relu_3x3
I1206 12:00:09.840335 12327 net.cpp:434] inception_4b/relu_3x3 <- inception_4b/3x3
I1206 12:00:09.840343 12327 net.cpp:395] inception_4b/relu_3x3 -> inception_4b/3x3 (in-place)
I1206 12:00:09.840351 12327 net.cpp:150] Setting up inception_4b/relu_3x3
I1206 12:00:09.840358 12327 net.cpp:157] Top shape: 16 224 14 14 (702464)
I1206 12:00:09.840360 12327 net.cpp:165] Memory required for data: 643300100
I1206 12:00:09.840363 12327 layer_factory.hpp:77] Creating layer inception_4b/5x5_reduce
I1206 12:00:09.840374 12327 net.cpp:100] Creating Layer inception_4b/5x5_reduce
I1206 12:00:09.840379 12327 net.cpp:434] inception_4b/5x5_reduce <- inception_4a/output_inception_4a/output_0_split_3
I1206 12:00:09.840386 12327 net.cpp:408] inception_4b/5x5_reduce -> inception_4b/5x5_reduce
I1206 12:00:09.840613 12327 net.cpp:150] Setting up inception_4b/5x5_reduce
I1206 12:00:09.840622 12327 net.cpp:157] Top shape: 16 24 14 14 (75264)
I1206 12:00:09.840625 12327 net.cpp:165] Memory required for data: 643601156
I1206 12:00:09.840631 12327 layer_factory.hpp:77] Creating layer inception_4b/relu_5x5_reduce
I1206 12:00:09.840638 12327 net.cpp:100] Creating Layer inception_4b/relu_5x5_reduce
I1206 12:00:09.840643 12327 net.cpp:434] inception_4b/relu_5x5_reduce <- inception_4b/5x5_reduce
I1206 12:00:09.840648 12327 net.cpp:395] inception_4b/relu_5x5_reduce -> inception_4b/5x5_reduce (in-place)
I1206 12:00:09.840667 12327 net.cpp:150] Setting up inception_4b/relu_5x5_reduce
I1206 12:00:09.840674 12327 net.cpp:157] Top shape: 16 24 14 14 (75264)
I1206 12:00:09.840677 12327 net.cpp:165] Memory required for data: 643902212
I1206 12:00:09.840680 12327 layer_factory.hpp:77] Creating layer inception_4b/5x5
I1206 12:00:09.840692 12327 net.cpp:100] Creating Layer inception_4b/5x5
I1206 12:00:09.840695 12327 net.cpp:434] inception_4b/5x5 <- inception_4b/5x5_reduce
I1206 12:00:09.840703 12327 net.cpp:408] inception_4b/5x5 -> inception_4b/5x5
I1206 12:00:09.841044 12327 net.cpp:150] Setting up inception_4b/5x5
I1206 12:00:09.841053 12327 net.cpp:157] Top shape: 16 64 14 14 (200704)
I1206 12:00:09.841055 12327 net.cpp:165] Memory required for data: 644705028
I1206 12:00:09.841061 12327 layer_factory.hpp:77] Creating layer inception_4b/relu_5x5
I1206 12:00:09.841069 12327 net.cpp:100] Creating Layer inception_4b/relu_5x5
I1206 12:00:09.841074 12327 net.cpp:434] inception_4b/relu_5x5 <- inception_4b/5x5
I1206 12:00:09.841079 12327 net.cpp:395] inception_4b/relu_5x5 -> inception_4b/5x5 (in-place)
I1206 12:00:09.841085 12327 net.cpp:150] Setting up inception_4b/relu_5x5
I1206 12:00:09.841091 12327 net.cpp:157] Top shape: 16 64 14 14 (200704)
I1206 12:00:09.841094 12327 net.cpp:165] Memory required for data: 645507844
I1206 12:00:09.841097 12327 layer_factory.hpp:77] Creating layer inception_4b/pool
I1206 12:00:09.841106 12327 net.cpp:100] Creating Layer inception_4b/pool
I1206 12:00:09.841111 12327 net.cpp:434] inception_4b/pool <- inception_4a/output_inception_4a/output_0_split_4
I1206 12:00:09.841116 12327 net.cpp:408] inception_4b/pool -> inception_4b/pool
I1206 12:00:09.841166 12327 net.cpp:150] Setting up inception_4b/pool
I1206 12:00:09.841174 12327 net.cpp:157] Top shape: 16 512 14 14 (1605632)
I1206 12:00:09.841177 12327 net.cpp:165] Memory required for data: 651930372
I1206 12:00:09.841181 12327 layer_factory.hpp:77] Creating layer inception_4b/pool_proj
I1206 12:00:09.841190 12327 net.cpp:100] Creating Layer inception_4b/pool_proj
I1206 12:00:09.841195 12327 net.cpp:434] inception_4b/pool_proj <- inception_4b/pool
I1206 12:00:09.841202 12327 net.cpp:408] inception_4b/pool_proj -> inception_4b/pool_proj
I1206 12:00:09.841513 12327 net.cpp:150] Setting up inception_4b/pool_proj
I1206 12:00:09.841522 12327 net.cpp:157] Top shape: 16 64 14 14 (200704)
I1206 12:00:09.841526 12327 net.cpp:165] Memory required for data: 652733188
I1206 12:00:09.841531 12327 layer_factory.hpp:77] Creating layer inception_4b/relu_pool_proj
I1206 12:00:09.841537 12327 net.cpp:100] Creating Layer inception_4b/relu_pool_proj
I1206 12:00:09.841543 12327 net.cpp:434] inception_4b/relu_pool_proj <- inception_4b/pool_proj
I1206 12:00:09.841550 12327 net.cpp:395] inception_4b/relu_pool_proj -> inception_4b/pool_proj (in-place)
I1206 12:00:09.841557 12327 net.cpp:150] Setting up inception_4b/relu_pool_proj
I1206 12:00:09.841562 12327 net.cpp:157] Top shape: 16 64 14 14 (200704)
I1206 12:00:09.841564 12327 net.cpp:165] Memory required for data: 653536004
I1206 12:00:09.841568 12327 layer_factory.hpp:77] Creating layer inception_4b/output
I1206 12:00:09.841574 12327 net.cpp:100] Creating Layer inception_4b/output
I1206 12:00:09.841578 12327 net.cpp:434] inception_4b/output <- inception_4b/1x1
I1206 12:00:09.841583 12327 net.cpp:434] inception_4b/output <- inception_4b/3x3
I1206 12:00:09.841586 12327 net.cpp:434] inception_4b/output <- inception_4b/5x5
I1206 12:00:09.841590 12327 net.cpp:434] inception_4b/output <- inception_4b/pool_proj
I1206 12:00:09.841598 12327 net.cpp:408] inception_4b/output -> inception_4b/output
I1206 12:00:09.841621 12327 net.cpp:150] Setting up inception_4b/output
I1206 12:00:09.841627 12327 net.cpp:157] Top shape: 16 512 14 14 (1605632)
I1206 12:00:09.841630 12327 net.cpp:165] Memory required for data: 659958532
I1206 12:00:09.841634 12327 layer_factory.hpp:77] Creating layer inception_4b/output_inception_4b/output_0_split
I1206 12:00:09.841641 12327 net.cpp:100] Creating Layer inception_4b/output_inception_4b/output_0_split
I1206 12:00:09.841655 12327 net.cpp:434] inception_4b/output_inception_4b/output_0_split <- inception_4b/output
I1206 12:00:09.841662 12327 net.cpp:408] inception_4b/output_inception_4b/output_0_split -> inception_4b/output_inception_4b/output_0_split_0
I1206 12:00:09.841672 12327 net.cpp:408] inception_4b/output_inception_4b/output_0_split -> inception_4b/output_inception_4b/output_0_split_1
I1206 12:00:09.841681 12327 net.cpp:408] inception_4b/output_inception_4b/output_0_split -> inception_4b/output_inception_4b/output_0_split_2
I1206 12:00:09.841688 12327 net.cpp:408] inception_4b/output_inception_4b/output_0_split -> inception_4b/output_inception_4b/output_0_split_3
I1206 12:00:09.841739 12327 net.cpp:150] Setting up inception_4b/output_inception_4b/output_0_split
I1206 12:00:09.841747 12327 net.cpp:157] Top shape: 16 512 14 14 (1605632)
I1206 12:00:09.841751 12327 net.cpp:157] Top shape: 16 512 14 14 (1605632)
I1206 12:00:09.841755 12327 net.cpp:157] Top shape: 16 512 14 14 (1605632)
I1206 12:00:09.841759 12327 net.cpp:157] Top shape: 16 512 14 14 (1605632)
I1206 12:00:09.841761 12327 net.cpp:165] Memory required for data: 685648644
I1206 12:00:09.841765 12327 layer_factory.hpp:77] Creating layer inception_4c/1x1
I1206 12:00:09.841778 12327 net.cpp:100] Creating Layer inception_4c/1x1
I1206 12:00:09.841783 12327 net.cpp:434] inception_4c/1x1 <- inception_4b/output_inception_4b/output_0_split_0
I1206 12:00:09.841790 12327 net.cpp:408] inception_4c/1x1 -> inception_4c/1x1
I1206 12:00:09.842234 12327 net.cpp:150] Setting up inception_4c/1x1
I1206 12:00:09.842243 12327 net.cpp:157] Top shape: 16 128 14 14 (401408)
I1206 12:00:09.842247 12327 net.cpp:165] Memory required for data: 687254276
I1206 12:00:09.842252 12327 layer_factory.hpp:77] Creating layer inception_4c/relu_1x1
I1206 12:00:09.842262 12327 net.cpp:100] Creating Layer inception_4c/relu_1x1
I1206 12:00:09.842265 12327 net.cpp:434] inception_4c/relu_1x1 <- inception_4c/1x1
I1206 12:00:09.842272 12327 net.cpp:395] inception_4c/relu_1x1 -> inception_4c/1x1 (in-place)
I1206 12:00:09.842280 12327 net.cpp:150] Setting up inception_4c/relu_1x1
I1206 12:00:09.842286 12327 net.cpp:157] Top shape: 16 128 14 14 (401408)
I1206 12:00:09.842288 12327 net.cpp:165] Memory required for data: 688859908
I1206 12:00:09.842291 12327 layer_factory.hpp:77] Creating layer inception_4c/3x3_reduce
I1206 12:00:09.842301 12327 net.cpp:100] Creating Layer inception_4c/3x3_reduce
I1206 12:00:09.842306 12327 net.cpp:434] inception_4c/3x3_reduce <- inception_4b/output_inception_4b/output_0_split_1
I1206 12:00:09.842314 12327 net.cpp:408] inception_4c/3x3_reduce -> inception_4c/3x3_reduce
I1206 12:00:09.842764 12327 net.cpp:150] Setting up inception_4c/3x3_reduce
I1206 12:00:09.842773 12327 net.cpp:157] Top shape: 16 128 14 14 (401408)
I1206 12:00:09.842777 12327 net.cpp:165] Memory required for data: 690465540
I1206 12:00:09.842782 12327 layer_factory.hpp:77] Creating layer inception_4c/relu_3x3_reduce
I1206 12:00:09.842788 12327 net.cpp:100] Creating Layer inception_4c/relu_3x3_reduce
I1206 12:00:09.842793 12327 net.cpp:434] inception_4c/relu_3x3_reduce <- inception_4c/3x3_reduce
I1206 12:00:09.842798 12327 net.cpp:395] inception_4c/relu_3x3_reduce -> inception_4c/3x3_reduce (in-place)
I1206 12:00:09.842804 12327 net.cpp:150] Setting up inception_4c/relu_3x3_reduce
I1206 12:00:09.842810 12327 net.cpp:157] Top shape: 16 128 14 14 (401408)
I1206 12:00:09.842813 12327 net.cpp:165] Memory required for data: 692071172
I1206 12:00:09.842816 12327 layer_factory.hpp:77] Creating layer inception_4c/3x3
I1206 12:00:09.842829 12327 net.cpp:100] Creating Layer inception_4c/3x3
I1206 12:00:09.842833 12327 net.cpp:434] inception_4c/3x3 <- inception_4c/3x3_reduce
I1206 12:00:09.842841 12327 net.cpp:408] inception_4c/3x3 -> inception_4c/3x3
I1206 12:00:09.844691 12327 net.cpp:150] Setting up inception_4c/3x3
I1206 12:00:09.844702 12327 net.cpp:157] Top shape: 16 256 14 14 (802816)
I1206 12:00:09.844704 12327 net.cpp:165] Memory required for data: 695282436
I1206 12:00:09.844735 12327 layer_factory.hpp:77] Creating layer inception_4c/relu_3x3
I1206 12:00:09.844744 12327 net.cpp:100] Creating Layer inception_4c/relu_3x3
I1206 12:00:09.844748 12327 net.cpp:434] inception_4c/relu_3x3 <- inception_4c/3x3
I1206 12:00:09.844755 12327 net.cpp:395] inception_4c/relu_3x3 -> inception_4c/3x3 (in-place)
I1206 12:00:09.844764 12327 net.cpp:150] Setting up inception_4c/relu_3x3
I1206 12:00:09.844769 12327 net.cpp:157] Top shape: 16 256 14 14 (802816)
I1206 12:00:09.844772 12327 net.cpp:165] Memory required for data: 698493700
I1206 12:00:09.844775 12327 layer_factory.hpp:77] Creating layer inception_4c/5x5_reduce
I1206 12:00:09.844785 12327 net.cpp:100] Creating Layer inception_4c/5x5_reduce
I1206 12:00:09.844791 12327 net.cpp:434] inception_4c/5x5_reduce <- inception_4b/output_inception_4b/output_0_split_2
I1206 12:00:09.844799 12327 net.cpp:408] inception_4c/5x5_reduce -> inception_4c/5x5_reduce
I1206 12:00:09.845024 12327 net.cpp:150] Setting up inception_4c/5x5_reduce
I1206 12:00:09.845033 12327 net.cpp:157] Top shape: 16 24 14 14 (75264)
I1206 12:00:09.845036 12327 net.cpp:165] Memory required for data: 698794756
I1206 12:00:09.845042 12327 layer_factory.hpp:77] Creating layer inception_4c/relu_5x5_reduce
I1206 12:00:09.845048 12327 net.cpp:100] Creating Layer inception_4c/relu_5x5_reduce
I1206 12:00:09.845053 12327 net.cpp:434] inception_4c/relu_5x5_reduce <- inception_4c/5x5_reduce
I1206 12:00:09.845060 12327 net.cpp:395] inception_4c/relu_5x5_reduce -> inception_4c/5x5_reduce (in-place)
I1206 12:00:09.845068 12327 net.cpp:150] Setting up inception_4c/relu_5x5_reduce
I1206 12:00:09.845073 12327 net.cpp:157] Top shape: 16 24 14 14 (75264)
I1206 12:00:09.845077 12327 net.cpp:165] Memory required for data: 699095812
I1206 12:00:09.845079 12327 layer_factory.hpp:77] Creating layer inception_4c/5x5
I1206 12:00:09.845090 12327 net.cpp:100] Creating Layer inception_4c/5x5
I1206 12:00:09.845094 12327 net.cpp:434] inception_4c/5x5 <- inception_4c/5x5_reduce
I1206 12:00:09.845100 12327 net.cpp:408] inception_4c/5x5 -> inception_4c/5x5
I1206 12:00:09.845842 12327 net.cpp:150] Setting up inception_4c/5x5
I1206 12:00:09.845854 12327 net.cpp:157] Top shape: 16 64 14 14 (200704)
I1206 12:00:09.845856 12327 net.cpp:165] Memory required for data: 699898628
I1206 12:00:09.845862 12327 layer_factory.hpp:77] Creating layer inception_4c/relu_5x5
I1206 12:00:09.845870 12327 net.cpp:100] Creating Layer inception_4c/relu_5x5
I1206 12:00:09.845873 12327 net.cpp:434] inception_4c/relu_5x5 <- inception_4c/5x5
I1206 12:00:09.845881 12327 net.cpp:395] inception_4c/relu_5x5 -> inception_4c/5x5 (in-place)
I1206 12:00:09.845890 12327 net.cpp:150] Setting up inception_4c/relu_5x5
I1206 12:00:09.845896 12327 net.cpp:157] Top shape: 16 64 14 14 (200704)
I1206 12:00:09.845898 12327 net.cpp:165] Memory required for data: 700701444
I1206 12:00:09.845902 12327 layer_factory.hpp:77] Creating layer inception_4c/pool
I1206 12:00:09.845908 12327 net.cpp:100] Creating Layer inception_4c/pool
I1206 12:00:09.845912 12327 net.cpp:434] inception_4c/pool <- inception_4b/output_inception_4b/output_0_split_3
I1206 12:00:09.845921 12327 net.cpp:408] inception_4c/pool -> inception_4c/pool
I1206 12:00:09.845957 12327 net.cpp:150] Setting up inception_4c/pool
I1206 12:00:09.845964 12327 net.cpp:157] Top shape: 16 512 14 14 (1605632)
I1206 12:00:09.845968 12327 net.cpp:165] Memory required for data: 707123972
I1206 12:00:09.845970 12327 layer_factory.hpp:77] Creating layer inception_4c/pool_proj
I1206 12:00:09.845984 12327 net.cpp:100] Creating Layer inception_4c/pool_proj
I1206 12:00:09.845988 12327 net.cpp:434] inception_4c/pool_proj <- inception_4c/pool
I1206 12:00:09.845995 12327 net.cpp:408] inception_4c/pool_proj -> inception_4c/pool_proj
I1206 12:00:09.846313 12327 net.cpp:150] Setting up inception_4c/pool_proj
I1206 12:00:09.846323 12327 net.cpp:157] Top shape: 16 64 14 14 (200704)
I1206 12:00:09.846324 12327 net.cpp:165] Memory required for data: 707926788
I1206 12:00:09.846331 12327 layer_factory.hpp:77] Creating layer inception_4c/relu_pool_proj
I1206 12:00:09.846346 12327 net.cpp:100] Creating Layer inception_4c/relu_pool_proj
I1206 12:00:09.846352 12327 net.cpp:434] inception_4c/relu_pool_proj <- inception_4c/pool_proj
I1206 12:00:09.846359 12327 net.cpp:395] inception_4c/relu_pool_proj -> inception_4c/pool_proj (in-place)
I1206 12:00:09.846366 12327 net.cpp:150] Setting up inception_4c/relu_pool_proj
I1206 12:00:09.846371 12327 net.cpp:157] Top shape: 16 64 14 14 (200704)
I1206 12:00:09.846374 12327 net.cpp:165] Memory required for data: 708729604
I1206 12:00:09.846377 12327 layer_factory.hpp:77] Creating layer inception_4c/output
I1206 12:00:09.846385 12327 net.cpp:100] Creating Layer inception_4c/output
I1206 12:00:09.846388 12327 net.cpp:434] inception_4c/output <- inception_4c/1x1
I1206 12:00:09.846392 12327 net.cpp:434] inception_4c/output <- inception_4c/3x3
I1206 12:00:09.846396 12327 net.cpp:434] inception_4c/output <- inception_4c/5x5
I1206 12:00:09.846400 12327 net.cpp:434] inception_4c/output <- inception_4c/pool_proj
I1206 12:00:09.846406 12327 net.cpp:408] inception_4c/output -> inception_4c/output
I1206 12:00:09.846431 12327 net.cpp:150] Setting up inception_4c/output
I1206 12:00:09.846439 12327 net.cpp:157] Top shape: 16 512 14 14 (1605632)
I1206 12:00:09.846442 12327 net.cpp:165] Memory required for data: 715152132
I1206 12:00:09.846446 12327 layer_factory.hpp:77] Creating layer inception_4c/output_inception_4c/output_0_split
I1206 12:00:09.846452 12327 net.cpp:100] Creating Layer inception_4c/output_inception_4c/output_0_split
I1206 12:00:09.846457 12327 net.cpp:434] inception_4c/output_inception_4c/output_0_split <- inception_4c/output
I1206 12:00:09.846463 12327 net.cpp:408] inception_4c/output_inception_4c/output_0_split -> inception_4c/output_inception_4c/output_0_split_0
I1206 12:00:09.846472 12327 net.cpp:408] inception_4c/output_inception_4c/output_0_split -> inception_4c/output_inception_4c/output_0_split_1
I1206 12:00:09.846480 12327 net.cpp:408] inception_4c/output_inception_4c/output_0_split -> inception_4c/output_inception_4c/output_0_split_2
I1206 12:00:09.846488 12327 net.cpp:408] inception_4c/output_inception_4c/output_0_split -> inception_4c/output_inception_4c/output_0_split_3
I1206 12:00:09.846539 12327 net.cpp:150] Setting up inception_4c/output_inception_4c/output_0_split
I1206 12:00:09.846546 12327 net.cpp:157] Top shape: 16 512 14 14 (1605632)
I1206 12:00:09.846550 12327 net.cpp:157] Top shape: 16 512 14 14 (1605632)
I1206 12:00:09.846554 12327 net.cpp:157] Top shape: 16 512 14 14 (1605632)
I1206 12:00:09.846559 12327 net.cpp:157] Top shape: 16 512 14 14 (1605632)
I1206 12:00:09.846561 12327 net.cpp:165] Memory required for data: 740842244
I1206 12:00:09.846565 12327 layer_factory.hpp:77] Creating layer inception_4d/1x1
I1206 12:00:09.846575 12327 net.cpp:100] Creating Layer inception_4d/1x1
I1206 12:00:09.846580 12327 net.cpp:434] inception_4d/1x1 <- inception_4c/output_inception_4c/output_0_split_0
I1206 12:00:09.846587 12327 net.cpp:408] inception_4d/1x1 -> inception_4d/1x1
I1206 12:00:09.847003 12327 net.cpp:150] Setting up inception_4d/1x1
I1206 12:00:09.847012 12327 net.cpp:157] Top shape: 16 112 14 14 (351232)
I1206 12:00:09.847015 12327 net.cpp:165] Memory required for data: 742247172
I1206 12:00:09.847021 12327 layer_factory.hpp:77] Creating layer inception_4d/relu_1x1
I1206 12:00:09.847029 12327 net.cpp:100] Creating Layer inception_4d/relu_1x1
I1206 12:00:09.847033 12327 net.cpp:434] inception_4d/relu_1x1 <- inception_4d/1x1
I1206 12:00:09.847038 12327 net.cpp:395] inception_4d/relu_1x1 -> inception_4d/1x1 (in-place)
I1206 12:00:09.847045 12327 net.cpp:150] Setting up inception_4d/relu_1x1
I1206 12:00:09.847050 12327 net.cpp:157] Top shape: 16 112 14 14 (351232)
I1206 12:00:09.847054 12327 net.cpp:165] Memory required for data: 743652100
I1206 12:00:09.847056 12327 layer_factory.hpp:77] Creating layer inception_4d/3x3_reduce
I1206 12:00:09.847066 12327 net.cpp:100] Creating Layer inception_4d/3x3_reduce
I1206 12:00:09.847071 12327 net.cpp:434] inception_4d/3x3_reduce <- inception_4c/output_inception_4c/output_0_split_1
I1206 12:00:09.847090 12327 net.cpp:408] inception_4d/3x3_reduce -> inception_4d/3x3_reduce
I1206 12:00:09.847584 12327 net.cpp:150] Setting up inception_4d/3x3_reduce
I1206 12:00:09.847592 12327 net.cpp:157] Top shape: 16 144 14 14 (451584)
I1206 12:00:09.847595 12327 net.cpp:165] Memory required for data: 745458436
I1206 12:00:09.847601 12327 layer_factory.hpp:77] Creating layer inception_4d/relu_3x3_reduce
I1206 12:00:09.847607 12327 net.cpp:100] Creating Layer inception_4d/relu_3x3_reduce
I1206 12:00:09.847612 12327 net.cpp:434] inception_4d/relu_3x3_reduce <- inception_4d/3x3_reduce
I1206 12:00:09.847621 12327 net.cpp:395] inception_4d/relu_3x3_reduce -> inception_4d/3x3_reduce (in-place)
I1206 12:00:09.847630 12327 net.cpp:150] Setting up inception_4d/relu_3x3_reduce
I1206 12:00:09.847633 12327 net.cpp:157] Top shape: 16 144 14 14 (451584)
I1206 12:00:09.847638 12327 net.cpp:165] Memory required for data: 747264772
I1206 12:00:09.847641 12327 layer_factory.hpp:77] Creating layer inception_4d/3x3
I1206 12:00:09.847650 12327 net.cpp:100] Creating Layer inception_4d/3x3
I1206 12:00:09.847654 12327 net.cpp:434] inception_4d/3x3 <- inception_4d/3x3_reduce
I1206 12:00:09.847663 12327 net.cpp:408] inception_4d/3x3 -> inception_4d/3x3
I1206 12:00:09.849963 12327 net.cpp:150] Setting up inception_4d/3x3
I1206 12:00:09.849974 12327 net.cpp:157] Top shape: 16 288 14 14 (903168)
I1206 12:00:09.849977 12327 net.cpp:165] Memory required for data: 750877444
I1206 12:00:09.849984 12327 layer_factory.hpp:77] Creating layer inception_4d/relu_3x3
I1206 12:00:09.849992 12327 net.cpp:100] Creating Layer inception_4d/relu_3x3
I1206 12:00:09.849995 12327 net.cpp:434] inception_4d/relu_3x3 <- inception_4d/3x3
I1206 12:00:09.850003 12327 net.cpp:395] inception_4d/relu_3x3 -> inception_4d/3x3 (in-place)
I1206 12:00:09.850013 12327 net.cpp:150] Setting up inception_4d/relu_3x3
I1206 12:00:09.850018 12327 net.cpp:157] Top shape: 16 288 14 14 (903168)
I1206 12:00:09.850020 12327 net.cpp:165] Memory required for data: 754490116
I1206 12:00:09.850023 12327 layer_factory.hpp:77] Creating layer inception_4d/5x5_reduce
I1206 12:00:09.850034 12327 net.cpp:100] Creating Layer inception_4d/5x5_reduce
I1206 12:00:09.850039 12327 net.cpp:434] inception_4d/5x5_reduce <- inception_4c/output_inception_4c/output_0_split_2
I1206 12:00:09.850047 12327 net.cpp:408] inception_4d/5x5_reduce -> inception_4d/5x5_reduce
I1206 12:00:09.850301 12327 net.cpp:150] Setting up inception_4d/5x5_reduce
I1206 12:00:09.850311 12327 net.cpp:157] Top shape: 16 32 14 14 (100352)
I1206 12:00:09.850313 12327 net.cpp:165] Memory required for data: 754891524
I1206 12:00:09.850319 12327 layer_factory.hpp:77] Creating layer inception_4d/relu_5x5_reduce
I1206 12:00:09.850327 12327 net.cpp:100] Creating Layer inception_4d/relu_5x5_reduce
I1206 12:00:09.850332 12327 net.cpp:434] inception_4d/relu_5x5_reduce <- inception_4d/5x5_reduce
I1206 12:00:09.850337 12327 net.cpp:395] inception_4d/relu_5x5_reduce -> inception_4d/5x5_reduce (in-place)
I1206 12:00:09.850343 12327 net.cpp:150] Setting up inception_4d/relu_5x5_reduce
I1206 12:00:09.850349 12327 net.cpp:157] Top shape: 16 32 14 14 (100352)
I1206 12:00:09.850353 12327 net.cpp:165] Memory required for data: 755292932
I1206 12:00:09.850355 12327 layer_factory.hpp:77] Creating layer inception_4d/5x5
I1206 12:00:09.850365 12327 net.cpp:100] Creating Layer inception_4d/5x5
I1206 12:00:09.850370 12327 net.cpp:434] inception_4d/5x5 <- inception_4d/5x5_reduce
I1206 12:00:09.850378 12327 net.cpp:408] inception_4d/5x5 -> inception_4d/5x5
I1206 12:00:09.850771 12327 net.cpp:150] Setting up inception_4d/5x5
I1206 12:00:09.850780 12327 net.cpp:157] Top shape: 16 64 14 14 (200704)
I1206 12:00:09.850782 12327 net.cpp:165] Memory required for data: 756095748
I1206 12:00:09.850788 12327 layer_factory.hpp:77] Creating layer inception_4d/relu_5x5
I1206 12:00:09.850795 12327 net.cpp:100] Creating Layer inception_4d/relu_5x5
I1206 12:00:09.850800 12327 net.cpp:434] inception_4d/relu_5x5 <- inception_4d/5x5
I1206 12:00:09.850805 12327 net.cpp:395] inception_4d/relu_5x5 -> inception_4d/5x5 (in-place)
I1206 12:00:09.850821 12327 net.cpp:150] Setting up inception_4d/relu_5x5
I1206 12:00:09.850827 12327 net.cpp:157] Top shape: 16 64 14 14 (200704)
I1206 12:00:09.850829 12327 net.cpp:165] Memory required for data: 756898564
I1206 12:00:09.850833 12327 layer_factory.hpp:77] Creating layer inception_4d/pool
I1206 12:00:09.850842 12327 net.cpp:100] Creating Layer inception_4d/pool
I1206 12:00:09.850847 12327 net.cpp:434] inception_4d/pool <- inception_4c/output_inception_4c/output_0_split_3
I1206 12:00:09.850852 12327 net.cpp:408] inception_4d/pool -> inception_4d/pool
I1206 12:00:09.850890 12327 net.cpp:150] Setting up inception_4d/pool
I1206 12:00:09.850898 12327 net.cpp:157] Top shape: 16 512 14 14 (1605632)
I1206 12:00:09.850900 12327 net.cpp:165] Memory required for data: 763321092
I1206 12:00:09.850903 12327 layer_factory.hpp:77] Creating layer inception_4d/pool_proj
I1206 12:00:09.850914 12327 net.cpp:100] Creating Layer inception_4d/pool_proj
I1206 12:00:09.850919 12327 net.cpp:434] inception_4d/pool_proj <- inception_4d/pool
I1206 12:00:09.850927 12327 net.cpp:408] inception_4d/pool_proj -> inception_4d/pool_proj
I1206 12:00:09.851238 12327 net.cpp:150] Setting up inception_4d/pool_proj
I1206 12:00:09.851246 12327 net.cpp:157] Top shape: 16 64 14 14 (200704)
I1206 12:00:09.851248 12327 net.cpp:165] Memory required for data: 764123908
I1206 12:00:09.851254 12327 layer_factory.hpp:77] Creating layer inception_4d/relu_pool_proj
I1206 12:00:09.851260 12327 net.cpp:100] Creating Layer inception_4d/relu_pool_proj
I1206 12:00:09.851266 12327 net.cpp:434] inception_4d/relu_pool_proj <- inception_4d/pool_proj
I1206 12:00:09.851271 12327 net.cpp:395] inception_4d/relu_pool_proj -> inception_4d/pool_proj (in-place)
I1206 12:00:09.851277 12327 net.cpp:150] Setting up inception_4d/relu_pool_proj
I1206 12:00:09.851284 12327 net.cpp:157] Top shape: 16 64 14 14 (200704)
I1206 12:00:09.851285 12327 net.cpp:165] Memory required for data: 764926724
I1206 12:00:09.851289 12327 layer_factory.hpp:77] Creating layer inception_4d/output
I1206 12:00:09.851297 12327 net.cpp:100] Creating Layer inception_4d/output
I1206 12:00:09.851301 12327 net.cpp:434] inception_4d/output <- inception_4d/1x1
I1206 12:00:09.851305 12327 net.cpp:434] inception_4d/output <- inception_4d/3x3
I1206 12:00:09.851310 12327 net.cpp:434] inception_4d/output <- inception_4d/5x5
I1206 12:00:09.851313 12327 net.cpp:434] inception_4d/output <- inception_4d/pool_proj
I1206 12:00:09.851318 12327 net.cpp:408] inception_4d/output -> inception_4d/output
I1206 12:00:09.851346 12327 net.cpp:150] Setting up inception_4d/output
I1206 12:00:09.851352 12327 net.cpp:157] Top shape: 16 528 14 14 (1655808)
I1206 12:00:09.851354 12327 net.cpp:165] Memory required for data: 771549956
I1206 12:00:09.851358 12327 layer_factory.hpp:77] Creating layer inception_4d/output_inception_4d/output_0_split
I1206 12:00:09.851366 12327 net.cpp:100] Creating Layer inception_4d/output_inception_4d/output_0_split
I1206 12:00:09.851369 12327 net.cpp:434] inception_4d/output_inception_4d/output_0_split <- inception_4d/output
I1206 12:00:09.851377 12327 net.cpp:408] inception_4d/output_inception_4d/output_0_split -> inception_4d/output_inception_4d/output_0_split_0
I1206 12:00:09.851387 12327 net.cpp:408] inception_4d/output_inception_4d/output_0_split -> inception_4d/output_inception_4d/output_0_split_1
I1206 12:00:09.851395 12327 net.cpp:408] inception_4d/output_inception_4d/output_0_split -> inception_4d/output_inception_4d/output_0_split_2
I1206 12:00:09.851404 12327 net.cpp:408] inception_4d/output_inception_4d/output_0_split -> inception_4d/output_inception_4d/output_0_split_3
I1206 12:00:09.851411 12327 net.cpp:408] inception_4d/output_inception_4d/output_0_split -> inception_4d/output_inception_4d/output_0_split_4
I1206 12:00:09.851467 12327 net.cpp:150] Setting up inception_4d/output_inception_4d/output_0_split
I1206 12:00:09.851475 12327 net.cpp:157] Top shape: 16 528 14 14 (1655808)
I1206 12:00:09.851478 12327 net.cpp:157] Top shape: 16 528 14 14 (1655808)
I1206 12:00:09.851492 12327 net.cpp:157] Top shape: 16 528 14 14 (1655808)
I1206 12:00:09.851497 12327 net.cpp:157] Top shape: 16 528 14 14 (1655808)
I1206 12:00:09.851501 12327 net.cpp:157] Top shape: 16 528 14 14 (1655808)
I1206 12:00:09.851503 12327 net.cpp:165] Memory required for data: 804666116
I1206 12:00:09.851507 12327 layer_factory.hpp:77] Creating layer loss2/ave_pool
I1206 12:00:09.851516 12327 net.cpp:100] Creating Layer loss2/ave_pool
I1206 12:00:09.851519 12327 net.cpp:434] loss2/ave_pool <- inception_4d/output_inception_4d/output_0_split_0
I1206 12:00:09.851526 12327 net.cpp:408] loss2/ave_pool -> loss2/ave_pool
I1206 12:00:09.851552 12327 net.cpp:150] Setting up loss2/ave_pool
I1206 12:00:09.851558 12327 net.cpp:157] Top shape: 16 528 4 4 (135168)
I1206 12:00:09.851560 12327 net.cpp:165] Memory required for data: 805206788
I1206 12:00:09.851564 12327 layer_factory.hpp:77] Creating layer loss2/conv
I1206 12:00:09.851575 12327 net.cpp:100] Creating Layer loss2/conv
I1206 12:00:09.851579 12327 net.cpp:434] loss2/conv <- loss2/ave_pool
I1206 12:00:09.851586 12327 net.cpp:408] loss2/conv -> loss2/conv
I1206 12:00:09.852054 12327 net.cpp:150] Setting up loss2/conv
I1206 12:00:09.852063 12327 net.cpp:157] Top shape: 16 128 4 4 (32768)
I1206 12:00:09.852066 12327 net.cpp:165] Memory required for data: 805337860
I1206 12:00:09.852072 12327 layer_factory.hpp:77] Creating layer loss2/relu_conv
I1206 12:00:09.852082 12327 net.cpp:100] Creating Layer loss2/relu_conv
I1206 12:00:09.852087 12327 net.cpp:434] loss2/relu_conv <- loss2/conv
I1206 12:00:09.852092 12327 net.cpp:395] loss2/relu_conv -> loss2/conv (in-place)
I1206 12:00:09.852097 12327 net.cpp:150] Setting up loss2/relu_conv
I1206 12:00:09.852103 12327 net.cpp:157] Top shape: 16 128 4 4 (32768)
I1206 12:00:09.852107 12327 net.cpp:165] Memory required for data: 805468932
I1206 12:00:09.852109 12327 layer_factory.hpp:77] Creating layer loss2/fc
I1206 12:00:09.852118 12327 net.cpp:100] Creating Layer loss2/fc
I1206 12:00:09.852123 12327 net.cpp:434] loss2/fc <- loss2/conv
I1206 12:00:09.852128 12327 net.cpp:408] loss2/fc -> loss2/fc
I1206 12:00:09.864586 12327 net.cpp:150] Setting up loss2/fc
I1206 12:00:09.864611 12327 net.cpp:157] Top shape: 16 1024 (16384)
I1206 12:00:09.864614 12327 net.cpp:165] Memory required for data: 805534468
I1206 12:00:09.864621 12327 layer_factory.hpp:77] Creating layer loss2/relu_fc
I1206 12:00:09.864629 12327 net.cpp:100] Creating Layer loss2/relu_fc
I1206 12:00:09.864634 12327 net.cpp:434] loss2/relu_fc <- loss2/fc
I1206 12:00:09.864640 12327 net.cpp:395] loss2/relu_fc -> loss2/fc (in-place)
I1206 12:00:09.864647 12327 net.cpp:150] Setting up loss2/relu_fc
I1206 12:00:09.864650 12327 net.cpp:157] Top shape: 16 1024 (16384)
I1206 12:00:09.864651 12327 net.cpp:165] Memory required for data: 805600004
I1206 12:00:09.864653 12327 layer_factory.hpp:77] Creating layer loss2/drop_fc
I1206 12:00:09.864658 12327 net.cpp:100] Creating Layer loss2/drop_fc
I1206 12:00:09.864660 12327 net.cpp:434] loss2/drop_fc <- loss2/fc
I1206 12:00:09.864662 12327 net.cpp:395] loss2/drop_fc -> loss2/fc (in-place)
I1206 12:00:09.864684 12327 net.cpp:150] Setting up loss2/drop_fc
I1206 12:00:09.864689 12327 net.cpp:157] Top shape: 16 1024 (16384)
I1206 12:00:09.864691 12327 net.cpp:165] Memory required for data: 805665540
I1206 12:00:09.864693 12327 layer_factory.hpp:77] Creating layer loss2/classifier_tune
I1206 12:00:09.864701 12327 net.cpp:100] Creating Layer loss2/classifier_tune
I1206 12:00:09.864703 12327 net.cpp:434] loss2/classifier_tune <- loss2/fc
I1206 12:00:09.864707 12327 net.cpp:408] loss2/classifier_tune -> loss2/classifier
I1206 12:00:09.870318 12327 net.cpp:150] Setting up loss2/classifier_tune
I1206 12:00:09.870332 12327 net.cpp:157] Top shape: 16 1000 (16000)
I1206 12:00:09.870333 12327 net.cpp:165] Memory required for data: 805729540
I1206 12:00:09.870338 12327 layer_factory.hpp:77] Creating layer loss2/loss
I1206 12:00:09.870344 12327 net.cpp:100] Creating Layer loss2/loss
I1206 12:00:09.870348 12327 net.cpp:434] loss2/loss <- loss2/classifier
I1206 12:00:09.870368 12327 net.cpp:434] loss2/loss <- label_data_1_split_1
I1206 12:00:09.870373 12327 net.cpp:408] loss2/loss -> loss2/loss1
I1206 12:00:09.870383 12327 layer_factory.hpp:77] Creating layer loss2/loss
I1206 12:00:09.870471 12327 net.cpp:150] Setting up loss2/loss
I1206 12:00:09.870477 12327 net.cpp:157] Top shape: (1)
I1206 12:00:09.870479 12327 net.cpp:160]     with loss weight 0.3
I1206 12:00:09.870493 12327 net.cpp:165] Memory required for data: 805729544
I1206 12:00:09.870496 12327 layer_factory.hpp:77] Creating layer inception_4e/1x1
I1206 12:00:09.870504 12327 net.cpp:100] Creating Layer inception_4e/1x1
I1206 12:00:09.870508 12327 net.cpp:434] inception_4e/1x1 <- inception_4d/output_inception_4d/output_0_split_1
I1206 12:00:09.870513 12327 net.cpp:408] inception_4e/1x1 -> inception_4e/1x1
I1206 12:00:09.871685 12327 net.cpp:150] Setting up inception_4e/1x1
I1206 12:00:09.871695 12327 net.cpp:157] Top shape: 16 256 14 14 (802816)
I1206 12:00:09.871697 12327 net.cpp:165] Memory required for data: 808940808
I1206 12:00:09.871702 12327 layer_factory.hpp:77] Creating layer inception_4e/relu_1x1
I1206 12:00:09.871709 12327 net.cpp:100] Creating Layer inception_4e/relu_1x1
I1206 12:00:09.871713 12327 net.cpp:434] inception_4e/relu_1x1 <- inception_4e/1x1
I1206 12:00:09.871717 12327 net.cpp:395] inception_4e/relu_1x1 -> inception_4e/1x1 (in-place)
I1206 12:00:09.871721 12327 net.cpp:150] Setting up inception_4e/relu_1x1
I1206 12:00:09.871724 12327 net.cpp:157] Top shape: 16 256 14 14 (802816)
I1206 12:00:09.871726 12327 net.cpp:165] Memory required for data: 812152072
I1206 12:00:09.871727 12327 layer_factory.hpp:77] Creating layer inception_4e/3x3_reduce
I1206 12:00:09.871736 12327 net.cpp:100] Creating Layer inception_4e/3x3_reduce
I1206 12:00:09.871737 12327 net.cpp:434] inception_4e/3x3_reduce <- inception_4d/output_inception_4d/output_0_split_2
I1206 12:00:09.871742 12327 net.cpp:408] inception_4e/3x3_reduce -> inception_4e/3x3_reduce
I1206 12:00:09.872277 12327 net.cpp:150] Setting up inception_4e/3x3_reduce
I1206 12:00:09.872284 12327 net.cpp:157] Top shape: 16 160 14 14 (501760)
I1206 12:00:09.872287 12327 net.cpp:165] Memory required for data: 814159112
I1206 12:00:09.872290 12327 layer_factory.hpp:77] Creating layer inception_4e/relu_3x3_reduce
I1206 12:00:09.872295 12327 net.cpp:100] Creating Layer inception_4e/relu_3x3_reduce
I1206 12:00:09.872298 12327 net.cpp:434] inception_4e/relu_3x3_reduce <- inception_4e/3x3_reduce
I1206 12:00:09.872301 12327 net.cpp:395] inception_4e/relu_3x3_reduce -> inception_4e/3x3_reduce (in-place)
I1206 12:00:09.872306 12327 net.cpp:150] Setting up inception_4e/relu_3x3_reduce
I1206 12:00:09.872309 12327 net.cpp:157] Top shape: 16 160 14 14 (501760)
I1206 12:00:09.872310 12327 net.cpp:165] Memory required for data: 816166152
I1206 12:00:09.872313 12327 layer_factory.hpp:77] Creating layer inception_4e/3x3
I1206 12:00:09.872319 12327 net.cpp:100] Creating Layer inception_4e/3x3
I1206 12:00:09.872324 12327 net.cpp:434] inception_4e/3x3 <- inception_4e/3x3_reduce
I1206 12:00:09.872328 12327 net.cpp:408] inception_4e/3x3 -> inception_4e/3x3
I1206 12:00:09.875036 12327 net.cpp:150] Setting up inception_4e/3x3
I1206 12:00:09.875046 12327 net.cpp:157] Top shape: 16 320 14 14 (1003520)
I1206 12:00:09.875047 12327 net.cpp:165] Memory required for data: 820180232
I1206 12:00:09.875052 12327 layer_factory.hpp:77] Creating layer inception_4e/relu_3x3
I1206 12:00:09.875056 12327 net.cpp:100] Creating Layer inception_4e/relu_3x3
I1206 12:00:09.875061 12327 net.cpp:434] inception_4e/relu_3x3 <- inception_4e/3x3
I1206 12:00:09.875066 12327 net.cpp:395] inception_4e/relu_3x3 -> inception_4e/3x3 (in-place)
I1206 12:00:09.875071 12327 net.cpp:150] Setting up inception_4e/relu_3x3
I1206 12:00:09.875074 12327 net.cpp:157] Top shape: 16 320 14 14 (1003520)
I1206 12:00:09.875077 12327 net.cpp:165] Memory required for data: 824194312
I1206 12:00:09.875077 12327 layer_factory.hpp:77] Creating layer inception_4e/5x5_reduce
I1206 12:00:09.875084 12327 net.cpp:100] Creating Layer inception_4e/5x5_reduce
I1206 12:00:09.875097 12327 net.cpp:434] inception_4e/5x5_reduce <- inception_4d/output_inception_4d/output_0_split_3
I1206 12:00:09.875102 12327 net.cpp:408] inception_4e/5x5_reduce -> inception_4e/5x5_reduce
I1206 12:00:09.875355 12327 net.cpp:150] Setting up inception_4e/5x5_reduce
I1206 12:00:09.875363 12327 net.cpp:157] Top shape: 16 32 14 14 (100352)
I1206 12:00:09.875366 12327 net.cpp:165] Memory required for data: 824595720
I1206 12:00:09.875370 12327 layer_factory.hpp:77] Creating layer inception_4e/relu_5x5_reduce
I1206 12:00:09.875375 12327 net.cpp:100] Creating Layer inception_4e/relu_5x5_reduce
I1206 12:00:09.875376 12327 net.cpp:434] inception_4e/relu_5x5_reduce <- inception_4e/5x5_reduce
I1206 12:00:09.875380 12327 net.cpp:395] inception_4e/relu_5x5_reduce -> inception_4e/5x5_reduce (in-place)
I1206 12:00:09.875383 12327 net.cpp:150] Setting up inception_4e/relu_5x5_reduce
I1206 12:00:09.875387 12327 net.cpp:157] Top shape: 16 32 14 14 (100352)
I1206 12:00:09.875388 12327 net.cpp:165] Memory required for data: 824997128
I1206 12:00:09.875391 12327 layer_factory.hpp:77] Creating layer inception_4e/5x5
I1206 12:00:09.875418 12327 net.cpp:100] Creating Layer inception_4e/5x5
I1206 12:00:09.875422 12327 net.cpp:434] inception_4e/5x5 <- inception_4e/5x5_reduce
I1206 12:00:09.875427 12327 net.cpp:408] inception_4e/5x5 -> inception_4e/5x5
I1206 12:00:09.876435 12327 net.cpp:150] Setting up inception_4e/5x5
I1206 12:00:09.876446 12327 net.cpp:157] Top shape: 16 128 14 14 (401408)
I1206 12:00:09.876447 12327 net.cpp:165] Memory required for data: 826602760
I1206 12:00:09.876452 12327 layer_factory.hpp:77] Creating layer inception_4e/relu_5x5
I1206 12:00:09.876461 12327 net.cpp:100] Creating Layer inception_4e/relu_5x5
I1206 12:00:09.876466 12327 net.cpp:434] inception_4e/relu_5x5 <- inception_4e/5x5
I1206 12:00:09.876468 12327 net.cpp:395] inception_4e/relu_5x5 -> inception_4e/5x5 (in-place)
I1206 12:00:09.876473 12327 net.cpp:150] Setting up inception_4e/relu_5x5
I1206 12:00:09.876476 12327 net.cpp:157] Top shape: 16 128 14 14 (401408)
I1206 12:00:09.876477 12327 net.cpp:165] Memory required for data: 828208392
I1206 12:00:09.876478 12327 layer_factory.hpp:77] Creating layer inception_4e/pool
I1206 12:00:09.876483 12327 net.cpp:100] Creating Layer inception_4e/pool
I1206 12:00:09.876485 12327 net.cpp:434] inception_4e/pool <- inception_4d/output_inception_4d/output_0_split_4
I1206 12:00:09.876488 12327 net.cpp:408] inception_4e/pool -> inception_4e/pool
I1206 12:00:09.876521 12327 net.cpp:150] Setting up inception_4e/pool
I1206 12:00:09.876526 12327 net.cpp:157] Top shape: 16 528 14 14 (1655808)
I1206 12:00:09.876528 12327 net.cpp:165] Memory required for data: 834831624
I1206 12:00:09.876529 12327 layer_factory.hpp:77] Creating layer inception_4e/pool_proj
I1206 12:00:09.876536 12327 net.cpp:100] Creating Layer inception_4e/pool_proj
I1206 12:00:09.876539 12327 net.cpp:434] inception_4e/pool_proj <- inception_4e/pool
I1206 12:00:09.876543 12327 net.cpp:408] inception_4e/pool_proj -> inception_4e/pool_proj
I1206 12:00:09.876996 12327 net.cpp:150] Setting up inception_4e/pool_proj
I1206 12:00:09.877002 12327 net.cpp:157] Top shape: 16 128 14 14 (401408)
I1206 12:00:09.877003 12327 net.cpp:165] Memory required for data: 836437256
I1206 12:00:09.877007 12327 layer_factory.hpp:77] Creating layer inception_4e/relu_pool_proj
I1206 12:00:09.877013 12327 net.cpp:100] Creating Layer inception_4e/relu_pool_proj
I1206 12:00:09.877017 12327 net.cpp:434] inception_4e/relu_pool_proj <- inception_4e/pool_proj
I1206 12:00:09.877020 12327 net.cpp:395] inception_4e/relu_pool_proj -> inception_4e/pool_proj (in-place)
I1206 12:00:09.877024 12327 net.cpp:150] Setting up inception_4e/relu_pool_proj
I1206 12:00:09.877027 12327 net.cpp:157] Top shape: 16 128 14 14 (401408)
I1206 12:00:09.877028 12327 net.cpp:165] Memory required for data: 838042888
I1206 12:00:09.877030 12327 layer_factory.hpp:77] Creating layer inception_4e/output
I1206 12:00:09.877033 12327 net.cpp:100] Creating Layer inception_4e/output
I1206 12:00:09.877045 12327 net.cpp:434] inception_4e/output <- inception_4e/1x1
I1206 12:00:09.877048 12327 net.cpp:434] inception_4e/output <- inception_4e/3x3
I1206 12:00:09.877050 12327 net.cpp:434] inception_4e/output <- inception_4e/5x5
I1206 12:00:09.877053 12327 net.cpp:434] inception_4e/output <- inception_4e/pool_proj
I1206 12:00:09.877056 12327 net.cpp:408] inception_4e/output -> inception_4e/output
I1206 12:00:09.877079 12327 net.cpp:150] Setting up inception_4e/output
I1206 12:00:09.877084 12327 net.cpp:157] Top shape: 16 832 14 14 (2609152)
I1206 12:00:09.877084 12327 net.cpp:165] Memory required for data: 848479496
I1206 12:00:09.877086 12327 layer_factory.hpp:77] Creating layer pool4/3x3_s2
I1206 12:00:09.877090 12327 net.cpp:100] Creating Layer pool4/3x3_s2
I1206 12:00:09.877094 12327 net.cpp:434] pool4/3x3_s2 <- inception_4e/output
I1206 12:00:09.877099 12327 net.cpp:408] pool4/3x3_s2 -> pool4/3x3_s2
I1206 12:00:09.877126 12327 net.cpp:150] Setting up pool4/3x3_s2
I1206 12:00:09.877131 12327 net.cpp:157] Top shape: 16 832 7 7 (652288)
I1206 12:00:09.877133 12327 net.cpp:165] Memory required for data: 851088648
I1206 12:00:09.877135 12327 layer_factory.hpp:77] Creating layer pool4/3x3_s2_pool4/3x3_s2_0_split
I1206 12:00:09.877141 12327 net.cpp:100] Creating Layer pool4/3x3_s2_pool4/3x3_s2_0_split
I1206 12:00:09.877143 12327 net.cpp:434] pool4/3x3_s2_pool4/3x3_s2_0_split <- pool4/3x3_s2
I1206 12:00:09.877147 12327 net.cpp:408] pool4/3x3_s2_pool4/3x3_s2_0_split -> pool4/3x3_s2_pool4/3x3_s2_0_split_0
I1206 12:00:09.877154 12327 net.cpp:408] pool4/3x3_s2_pool4/3x3_s2_0_split -> pool4/3x3_s2_pool4/3x3_s2_0_split_1
I1206 12:00:09.877161 12327 net.cpp:408] pool4/3x3_s2_pool4/3x3_s2_0_split -> pool4/3x3_s2_pool4/3x3_s2_0_split_2
I1206 12:00:09.877164 12327 net.cpp:408] pool4/3x3_s2_pool4/3x3_s2_0_split -> pool4/3x3_s2_pool4/3x3_s2_0_split_3
I1206 12:00:09.877207 12327 net.cpp:150] Setting up pool4/3x3_s2_pool4/3x3_s2_0_split
I1206 12:00:09.877218 12327 net.cpp:157] Top shape: 16 832 7 7 (652288)
I1206 12:00:09.877225 12327 net.cpp:157] Top shape: 16 832 7 7 (652288)
I1206 12:00:09.877228 12327 net.cpp:157] Top shape: 16 832 7 7 (652288)
I1206 12:00:09.877230 12327 net.cpp:157] Top shape: 16 832 7 7 (652288)
I1206 12:00:09.877231 12327 net.cpp:165] Memory required for data: 861525256
I1206 12:00:09.877233 12327 layer_factory.hpp:77] Creating layer inception_5a/1x1
I1206 12:00:09.877243 12327 net.cpp:100] Creating Layer inception_5a/1x1
I1206 12:00:09.877246 12327 net.cpp:434] inception_5a/1x1 <- pool4/3x3_s2_pool4/3x3_s2_0_split_0
I1206 12:00:09.877250 12327 net.cpp:408] inception_5a/1x1 -> inception_5a/1x1
I1206 12:00:09.878728 12327 net.cpp:150] Setting up inception_5a/1x1
I1206 12:00:09.878738 12327 net.cpp:157] Top shape: 16 256 7 7 (200704)
I1206 12:00:09.878741 12327 net.cpp:165] Memory required for data: 862328072
I1206 12:00:09.878744 12327 layer_factory.hpp:77] Creating layer inception_5a/relu_1x1
I1206 12:00:09.878751 12327 net.cpp:100] Creating Layer inception_5a/relu_1x1
I1206 12:00:09.878753 12327 net.cpp:434] inception_5a/relu_1x1 <- inception_5a/1x1
I1206 12:00:09.878758 12327 net.cpp:395] inception_5a/relu_1x1 -> inception_5a/1x1 (in-place)
I1206 12:00:09.878762 12327 net.cpp:150] Setting up inception_5a/relu_1x1
I1206 12:00:09.878765 12327 net.cpp:157] Top shape: 16 256 7 7 (200704)
I1206 12:00:09.878767 12327 net.cpp:165] Memory required for data: 863130888
I1206 12:00:09.878769 12327 layer_factory.hpp:77] Creating layer inception_5a/3x3_reduce
I1206 12:00:09.878777 12327 net.cpp:100] Creating Layer inception_5a/3x3_reduce
I1206 12:00:09.878779 12327 net.cpp:434] inception_5a/3x3_reduce <- pool4/3x3_s2_pool4/3x3_s2_0_split_1
I1206 12:00:09.878783 12327 net.cpp:408] inception_5a/3x3_reduce -> inception_5a/3x3_reduce
I1206 12:00:09.879921 12327 net.cpp:150] Setting up inception_5a/3x3_reduce
I1206 12:00:09.879931 12327 net.cpp:157] Top shape: 16 160 7 7 (125440)
I1206 12:00:09.879933 12327 net.cpp:165] Memory required for data: 863632648
I1206 12:00:09.879937 12327 layer_factory.hpp:77] Creating layer inception_5a/relu_3x3_reduce
I1206 12:00:09.879953 12327 net.cpp:100] Creating Layer inception_5a/relu_3x3_reduce
I1206 12:00:09.879956 12327 net.cpp:434] inception_5a/relu_3x3_reduce <- inception_5a/3x3_reduce
I1206 12:00:09.879961 12327 net.cpp:395] inception_5a/relu_3x3_reduce -> inception_5a/3x3_reduce (in-place)
I1206 12:00:09.879966 12327 net.cpp:150] Setting up inception_5a/relu_3x3_reduce
I1206 12:00:09.879968 12327 net.cpp:157] Top shape: 16 160 7 7 (125440)
I1206 12:00:09.879971 12327 net.cpp:165] Memory required for data: 864134408
I1206 12:00:09.879971 12327 layer_factory.hpp:77] Creating layer inception_5a/3x3
I1206 12:00:09.879978 12327 net.cpp:100] Creating Layer inception_5a/3x3
I1206 12:00:09.879981 12327 net.cpp:434] inception_5a/3x3 <- inception_5a/3x3_reduce
I1206 12:00:09.879987 12327 net.cpp:408] inception_5a/3x3 -> inception_5a/3x3
I1206 12:00:09.882679 12327 net.cpp:150] Setting up inception_5a/3x3
I1206 12:00:09.882690 12327 net.cpp:157] Top shape: 16 320 7 7 (250880)
I1206 12:00:09.882692 12327 net.cpp:165] Memory required for data: 865137928
I1206 12:00:09.882697 12327 layer_factory.hpp:77] Creating layer inception_5a/relu_3x3
I1206 12:00:09.882702 12327 net.cpp:100] Creating Layer inception_5a/relu_3x3
I1206 12:00:09.882705 12327 net.cpp:434] inception_5a/relu_3x3 <- inception_5a/3x3
I1206 12:00:09.882709 12327 net.cpp:395] inception_5a/relu_3x3 -> inception_5a/3x3 (in-place)
I1206 12:00:09.882714 12327 net.cpp:150] Setting up inception_5a/relu_3x3
I1206 12:00:09.882716 12327 net.cpp:157] Top shape: 16 320 7 7 (250880)
I1206 12:00:09.882719 12327 net.cpp:165] Memory required for data: 866141448
I1206 12:00:09.882719 12327 layer_factory.hpp:77] Creating layer inception_5a/5x5_reduce
I1206 12:00:09.882726 12327 net.cpp:100] Creating Layer inception_5a/5x5_reduce
I1206 12:00:09.882728 12327 net.cpp:434] inception_5a/5x5_reduce <- pool4/3x3_s2_pool4/3x3_s2_0_split_2
I1206 12:00:09.882733 12327 net.cpp:408] inception_5a/5x5_reduce -> inception_5a/5x5_reduce
I1206 12:00:09.883029 12327 net.cpp:150] Setting up inception_5a/5x5_reduce
I1206 12:00:09.883035 12327 net.cpp:157] Top shape: 16 32 7 7 (25088)
I1206 12:00:09.883038 12327 net.cpp:165] Memory required for data: 866241800
I1206 12:00:09.883041 12327 layer_factory.hpp:77] Creating layer inception_5a/relu_5x5_reduce
I1206 12:00:09.883045 12327 net.cpp:100] Creating Layer inception_5a/relu_5x5_reduce
I1206 12:00:09.883047 12327 net.cpp:434] inception_5a/relu_5x5_reduce <- inception_5a/5x5_reduce
I1206 12:00:09.883052 12327 net.cpp:395] inception_5a/relu_5x5_reduce -> inception_5a/5x5_reduce (in-place)
I1206 12:00:09.883056 12327 net.cpp:150] Setting up inception_5a/relu_5x5_reduce
I1206 12:00:09.883059 12327 net.cpp:157] Top shape: 16 32 7 7 (25088)
I1206 12:00:09.883060 12327 net.cpp:165] Memory required for data: 866342152
I1206 12:00:09.883062 12327 layer_factory.hpp:77] Creating layer inception_5a/5x5
I1206 12:00:09.883069 12327 net.cpp:100] Creating Layer inception_5a/5x5
I1206 12:00:09.883071 12327 net.cpp:434] inception_5a/5x5 <- inception_5a/5x5_reduce
I1206 12:00:09.883074 12327 net.cpp:408] inception_5a/5x5 -> inception_5a/5x5
I1206 12:00:09.883680 12327 net.cpp:150] Setting up inception_5a/5x5
I1206 12:00:09.883687 12327 net.cpp:157] Top shape: 16 128 7 7 (100352)
I1206 12:00:09.883688 12327 net.cpp:165] Memory required for data: 866743560
I1206 12:00:09.883692 12327 layer_factory.hpp:77] Creating layer inception_5a/relu_5x5
I1206 12:00:09.883697 12327 net.cpp:100] Creating Layer inception_5a/relu_5x5
I1206 12:00:09.883698 12327 net.cpp:434] inception_5a/relu_5x5 <- inception_5a/5x5
I1206 12:00:09.883704 12327 net.cpp:395] inception_5a/relu_5x5 -> inception_5a/5x5 (in-place)
I1206 12:00:09.883708 12327 net.cpp:150] Setting up inception_5a/relu_5x5
I1206 12:00:09.883711 12327 net.cpp:157] Top shape: 16 128 7 7 (100352)
I1206 12:00:09.883713 12327 net.cpp:165] Memory required for data: 867144968
I1206 12:00:09.883714 12327 layer_factory.hpp:77] Creating layer inception_5a/pool
I1206 12:00:09.883718 12327 net.cpp:100] Creating Layer inception_5a/pool
I1206 12:00:09.883729 12327 net.cpp:434] inception_5a/pool <- pool4/3x3_s2_pool4/3x3_s2_0_split_3
I1206 12:00:09.883733 12327 net.cpp:408] inception_5a/pool -> inception_5a/pool
I1206 12:00:09.883767 12327 net.cpp:150] Setting up inception_5a/pool
I1206 12:00:09.883772 12327 net.cpp:157] Top shape: 16 832 7 7 (652288)
I1206 12:00:09.883774 12327 net.cpp:165] Memory required for data: 869754120
I1206 12:00:09.883776 12327 layer_factory.hpp:77] Creating layer inception_5a/pool_proj
I1206 12:00:09.883783 12327 net.cpp:100] Creating Layer inception_5a/pool_proj
I1206 12:00:09.883786 12327 net.cpp:434] inception_5a/pool_proj <- inception_5a/pool
I1206 12:00:09.883791 12327 net.cpp:408] inception_5a/pool_proj -> inception_5a/pool_proj
I1206 12:00:09.884807 12327 net.cpp:150] Setting up inception_5a/pool_proj
I1206 12:00:09.884817 12327 net.cpp:157] Top shape: 16 128 7 7 (100352)
I1206 12:00:09.884819 12327 net.cpp:165] Memory required for data: 870155528
I1206 12:00:09.884824 12327 layer_factory.hpp:77] Creating layer inception_5a/relu_pool_proj
I1206 12:00:09.884829 12327 net.cpp:100] Creating Layer inception_5a/relu_pool_proj
I1206 12:00:09.884831 12327 net.cpp:434] inception_5a/relu_pool_proj <- inception_5a/pool_proj
I1206 12:00:09.884835 12327 net.cpp:395] inception_5a/relu_pool_proj -> inception_5a/pool_proj (in-place)
I1206 12:00:09.884840 12327 net.cpp:150] Setting up inception_5a/relu_pool_proj
I1206 12:00:09.884843 12327 net.cpp:157] Top shape: 16 128 7 7 (100352)
I1206 12:00:09.884845 12327 net.cpp:165] Memory required for data: 870556936
I1206 12:00:09.884846 12327 layer_factory.hpp:77] Creating layer inception_5a/output
I1206 12:00:09.884852 12327 net.cpp:100] Creating Layer inception_5a/output
I1206 12:00:09.884855 12327 net.cpp:434] inception_5a/output <- inception_5a/1x1
I1206 12:00:09.884857 12327 net.cpp:434] inception_5a/output <- inception_5a/3x3
I1206 12:00:09.884860 12327 net.cpp:434] inception_5a/output <- inception_5a/5x5
I1206 12:00:09.884862 12327 net.cpp:434] inception_5a/output <- inception_5a/pool_proj
I1206 12:00:09.884865 12327 net.cpp:408] inception_5a/output -> inception_5a/output
I1206 12:00:09.884888 12327 net.cpp:150] Setting up inception_5a/output
I1206 12:00:09.884893 12327 net.cpp:157] Top shape: 16 832 7 7 (652288)
I1206 12:00:09.884896 12327 net.cpp:165] Memory required for data: 873166088
I1206 12:00:09.884897 12327 layer_factory.hpp:77] Creating layer inception_5a/output_inception_5a/output_0_split
I1206 12:00:09.884902 12327 net.cpp:100] Creating Layer inception_5a/output_inception_5a/output_0_split
I1206 12:00:09.884905 12327 net.cpp:434] inception_5a/output_inception_5a/output_0_split <- inception_5a/output
I1206 12:00:09.884910 12327 net.cpp:408] inception_5a/output_inception_5a/output_0_split -> inception_5a/output_inception_5a/output_0_split_0
I1206 12:00:09.884917 12327 net.cpp:408] inception_5a/output_inception_5a/output_0_split -> inception_5a/output_inception_5a/output_0_split_1
I1206 12:00:09.884920 12327 net.cpp:408] inception_5a/output_inception_5a/output_0_split -> inception_5a/output_inception_5a/output_0_split_2
I1206 12:00:09.884924 12327 net.cpp:408] inception_5a/output_inception_5a/output_0_split -> inception_5a/output_inception_5a/output_0_split_3
I1206 12:00:09.884968 12327 net.cpp:150] Setting up inception_5a/output_inception_5a/output_0_split
I1206 12:00:09.884974 12327 net.cpp:157] Top shape: 16 832 7 7 (652288)
I1206 12:00:09.884976 12327 net.cpp:157] Top shape: 16 832 7 7 (652288)
I1206 12:00:09.884979 12327 net.cpp:157] Top shape: 16 832 7 7 (652288)
I1206 12:00:09.884980 12327 net.cpp:157] Top shape: 16 832 7 7 (652288)
I1206 12:00:09.884984 12327 net.cpp:165] Memory required for data: 883602696
I1206 12:00:09.884984 12327 layer_factory.hpp:77] Creating layer inception_5b/1x1
I1206 12:00:09.884992 12327 net.cpp:100] Creating Layer inception_5b/1x1
I1206 12:00:09.884994 12327 net.cpp:434] inception_5b/1x1 <- inception_5a/output_inception_5a/output_0_split_0
I1206 12:00:09.884999 12327 net.cpp:408] inception_5b/1x1 -> inception_5b/1x1
I1206 12:00:09.886992 12327 net.cpp:150] Setting up inception_5b/1x1
I1206 12:00:09.887003 12327 net.cpp:157] Top shape: 16 384 7 7 (301056)
I1206 12:00:09.887006 12327 net.cpp:165] Memory required for data: 884806920
I1206 12:00:09.887011 12327 layer_factory.hpp:77] Creating layer inception_5b/relu_1x1
I1206 12:00:09.887015 12327 net.cpp:100] Creating Layer inception_5b/relu_1x1
I1206 12:00:09.887019 12327 net.cpp:434] inception_5b/relu_1x1 <- inception_5b/1x1
I1206 12:00:09.887023 12327 net.cpp:395] inception_5b/relu_1x1 -> inception_5b/1x1 (in-place)
I1206 12:00:09.887028 12327 net.cpp:150] Setting up inception_5b/relu_1x1
I1206 12:00:09.887032 12327 net.cpp:157] Top shape: 16 384 7 7 (301056)
I1206 12:00:09.887032 12327 net.cpp:165] Memory required for data: 886011144
I1206 12:00:09.887034 12327 layer_factory.hpp:77] Creating layer inception_5b/3x3_reduce
I1206 12:00:09.887043 12327 net.cpp:100] Creating Layer inception_5b/3x3_reduce
I1206 12:00:09.887046 12327 net.cpp:434] inception_5b/3x3_reduce <- inception_5a/output_inception_5a/output_0_split_1
I1206 12:00:09.887051 12327 net.cpp:408] inception_5b/3x3_reduce -> inception_5b/3x3_reduce
I1206 12:00:09.888301 12327 net.cpp:150] Setting up inception_5b/3x3_reduce
I1206 12:00:09.888312 12327 net.cpp:157] Top shape: 16 192 7 7 (150528)
I1206 12:00:09.888314 12327 net.cpp:165] Memory required for data: 886613256
I1206 12:00:09.888319 12327 layer_factory.hpp:77] Creating layer inception_5b/relu_3x3_reduce
I1206 12:00:09.888324 12327 net.cpp:100] Creating Layer inception_5b/relu_3x3_reduce
I1206 12:00:09.888326 12327 net.cpp:434] inception_5b/relu_3x3_reduce <- inception_5b/3x3_reduce
I1206 12:00:09.888330 12327 net.cpp:395] inception_5b/relu_3x3_reduce -> inception_5b/3x3_reduce (in-place)
I1206 12:00:09.888335 12327 net.cpp:150] Setting up inception_5b/relu_3x3_reduce
I1206 12:00:09.888339 12327 net.cpp:157] Top shape: 16 192 7 7 (150528)
I1206 12:00:09.888340 12327 net.cpp:165] Memory required for data: 887215368
I1206 12:00:09.888342 12327 layer_factory.hpp:77] Creating layer inception_5b/3x3
I1206 12:00:09.888350 12327 net.cpp:100] Creating Layer inception_5b/3x3
I1206 12:00:09.888352 12327 net.cpp:434] inception_5b/3x3 <- inception_5b/3x3_reduce
I1206 12:00:09.888357 12327 net.cpp:408] inception_5b/3x3 -> inception_5b/3x3
I1206 12:00:09.892101 12327 net.cpp:150] Setting up inception_5b/3x3
I1206 12:00:09.892112 12327 net.cpp:157] Top shape: 16 384 7 7 (301056)
I1206 12:00:09.892113 12327 net.cpp:165] Memory required for data: 888419592
I1206 12:00:09.892118 12327 layer_factory.hpp:77] Creating layer inception_5b/relu_3x3
I1206 12:00:09.892123 12327 net.cpp:100] Creating Layer inception_5b/relu_3x3
I1206 12:00:09.892125 12327 net.cpp:434] inception_5b/relu_3x3 <- inception_5b/3x3
I1206 12:00:09.892130 12327 net.cpp:395] inception_5b/relu_3x3 -> inception_5b/3x3 (in-place)
I1206 12:00:09.892134 12327 net.cpp:150] Setting up inception_5b/relu_3x3
I1206 12:00:09.892137 12327 net.cpp:157] Top shape: 16 384 7 7 (301056)
I1206 12:00:09.892138 12327 net.cpp:165] Memory required for data: 889623816
I1206 12:00:09.892140 12327 layer_factory.hpp:77] Creating layer inception_5b/5x5_reduce
I1206 12:00:09.892146 12327 net.cpp:100] Creating Layer inception_5b/5x5_reduce
I1206 12:00:09.892148 12327 net.cpp:434] inception_5b/5x5_reduce <- inception_5a/output_inception_5a/output_0_split_2
I1206 12:00:09.892153 12327 net.cpp:408] inception_5b/5x5_reduce -> inception_5b/5x5_reduce
I1206 12:00:09.892909 12327 net.cpp:150] Setting up inception_5b/5x5_reduce
I1206 12:00:09.892920 12327 net.cpp:157] Top shape: 16 48 7 7 (37632)
I1206 12:00:09.892920 12327 net.cpp:165] Memory required for data: 889774344
I1206 12:00:09.892925 12327 layer_factory.hpp:77] Creating layer inception_5b/relu_5x5_reduce
I1206 12:00:09.892930 12327 net.cpp:100] Creating Layer inception_5b/relu_5x5_reduce
I1206 12:00:09.892932 12327 net.cpp:434] inception_5b/relu_5x5_reduce <- inception_5b/5x5_reduce
I1206 12:00:09.892935 12327 net.cpp:395] inception_5b/relu_5x5_reduce -> inception_5b/5x5_reduce (in-place)
I1206 12:00:09.892951 12327 net.cpp:150] Setting up inception_5b/relu_5x5_reduce
I1206 12:00:09.892953 12327 net.cpp:157] Top shape: 16 48 7 7 (37632)
I1206 12:00:09.892956 12327 net.cpp:165] Memory required for data: 889924872
I1206 12:00:09.892956 12327 layer_factory.hpp:77] Creating layer inception_5b/5x5
I1206 12:00:09.892963 12327 net.cpp:100] Creating Layer inception_5b/5x5
I1206 12:00:09.892966 12327 net.cpp:434] inception_5b/5x5 <- inception_5b/5x5_reduce
I1206 12:00:09.892971 12327 net.cpp:408] inception_5b/5x5 -> inception_5b/5x5
I1206 12:00:09.893821 12327 net.cpp:150] Setting up inception_5b/5x5
I1206 12:00:09.893829 12327 net.cpp:157] Top shape: 16 128 7 7 (100352)
I1206 12:00:09.893831 12327 net.cpp:165] Memory required for data: 890326280
I1206 12:00:09.893834 12327 layer_factory.hpp:77] Creating layer inception_5b/relu_5x5
I1206 12:00:09.893841 12327 net.cpp:100] Creating Layer inception_5b/relu_5x5
I1206 12:00:09.893842 12327 net.cpp:434] inception_5b/relu_5x5 <- inception_5b/5x5
I1206 12:00:09.893846 12327 net.cpp:395] inception_5b/relu_5x5 -> inception_5b/5x5 (in-place)
I1206 12:00:09.893849 12327 net.cpp:150] Setting up inception_5b/relu_5x5
I1206 12:00:09.893851 12327 net.cpp:157] Top shape: 16 128 7 7 (100352)
I1206 12:00:09.893853 12327 net.cpp:165] Memory required for data: 890727688
I1206 12:00:09.893854 12327 layer_factory.hpp:77] Creating layer inception_5b/pool
I1206 12:00:09.893860 12327 net.cpp:100] Creating Layer inception_5b/pool
I1206 12:00:09.893862 12327 net.cpp:434] inception_5b/pool <- inception_5a/output_inception_5a/output_0_split_3
I1206 12:00:09.893867 12327 net.cpp:408] inception_5b/pool -> inception_5b/pool
I1206 12:00:09.893899 12327 net.cpp:150] Setting up inception_5b/pool
I1206 12:00:09.893929 12327 net.cpp:157] Top shape: 16 832 7 7 (652288)
I1206 12:00:09.893931 12327 net.cpp:165] Memory required for data: 893336840
I1206 12:00:09.893934 12327 layer_factory.hpp:77] Creating layer inception_5b/pool_proj
I1206 12:00:09.893939 12327 net.cpp:100] Creating Layer inception_5b/pool_proj
I1206 12:00:09.893942 12327 net.cpp:434] inception_5b/pool_proj <- inception_5b/pool
I1206 12:00:09.893947 12327 net.cpp:408] inception_5b/pool_proj -> inception_5b/pool_proj
I1206 12:00:09.894979 12327 net.cpp:150] Setting up inception_5b/pool_proj
I1206 12:00:09.894987 12327 net.cpp:157] Top shape: 16 128 7 7 (100352)
I1206 12:00:09.894989 12327 net.cpp:165] Memory required for data: 893738248
I1206 12:00:09.894994 12327 layer_factory.hpp:77] Creating layer inception_5b/relu_pool_proj
I1206 12:00:09.894999 12327 net.cpp:100] Creating Layer inception_5b/relu_pool_proj
I1206 12:00:09.895001 12327 net.cpp:434] inception_5b/relu_pool_proj <- inception_5b/pool_proj
I1206 12:00:09.895005 12327 net.cpp:395] inception_5b/relu_pool_proj -> inception_5b/pool_proj (in-place)
I1206 12:00:09.895009 12327 net.cpp:150] Setting up inception_5b/relu_pool_proj
I1206 12:00:09.895011 12327 net.cpp:157] Top shape: 16 128 7 7 (100352)
I1206 12:00:09.895015 12327 net.cpp:165] Memory required for data: 894139656
I1206 12:00:09.895015 12327 layer_factory.hpp:77] Creating layer inception_5b/output
I1206 12:00:09.895020 12327 net.cpp:100] Creating Layer inception_5b/output
I1206 12:00:09.895020 12327 net.cpp:434] inception_5b/output <- inception_5b/1x1
I1206 12:00:09.895023 12327 net.cpp:434] inception_5b/output <- inception_5b/3x3
I1206 12:00:09.895025 12327 net.cpp:434] inception_5b/output <- inception_5b/5x5
I1206 12:00:09.895027 12327 net.cpp:434] inception_5b/output <- inception_5b/pool_proj
I1206 12:00:09.895031 12327 net.cpp:408] inception_5b/output -> inception_5b/output
I1206 12:00:09.895053 12327 net.cpp:150] Setting up inception_5b/output
I1206 12:00:09.895057 12327 net.cpp:157] Top shape: 16 1024 7 7 (802816)
I1206 12:00:09.895058 12327 net.cpp:165] Memory required for data: 897350920
I1206 12:00:09.895061 12327 layer_factory.hpp:77] Creating layer pool5/7x7_s1
I1206 12:00:09.895064 12327 net.cpp:100] Creating Layer pool5/7x7_s1
I1206 12:00:09.895066 12327 net.cpp:434] pool5/7x7_s1 <- inception_5b/output
I1206 12:00:09.895078 12327 net.cpp:408] pool5/7x7_s1 -> pool5/7x7_s1
I1206 12:00:09.895099 12327 net.cpp:150] Setting up pool5/7x7_s1
I1206 12:00:09.895108 12327 net.cpp:157] Top shape: 16 1024 1 1 (16384)
I1206 12:00:09.895110 12327 net.cpp:165] Memory required for data: 897416456
I1206 12:00:09.895112 12327 layer_factory.hpp:77] Creating layer pool5/drop_7x7_s1
I1206 12:00:09.895117 12327 net.cpp:100] Creating Layer pool5/drop_7x7_s1
I1206 12:00:09.895120 12327 net.cpp:434] pool5/drop_7x7_s1 <- pool5/7x7_s1
I1206 12:00:09.895124 12327 net.cpp:395] pool5/drop_7x7_s1 -> pool5/7x7_s1 (in-place)
I1206 12:00:09.895143 12327 net.cpp:150] Setting up pool5/drop_7x7_s1
I1206 12:00:09.895148 12327 net.cpp:157] Top shape: 16 1024 1 1 (16384)
I1206 12:00:09.895150 12327 net.cpp:165] Memory required for data: 897481992
I1206 12:00:09.895153 12327 layer_factory.hpp:77] Creating layer loss3/classifier_tune
I1206 12:00:09.895159 12327 net.cpp:100] Creating Layer loss3/classifier_tune
I1206 12:00:09.895160 12327 net.cpp:434] loss3/classifier_tune <- pool5/7x7_s1
I1206 12:00:09.895164 12327 net.cpp:408] loss3/classifier_tune -> loss3/classifier
I1206 12:00:09.895303 12327 net.cpp:150] Setting up loss3/classifier_tune
I1206 12:00:09.895309 12327 net.cpp:157] Top shape: 16 10 (160)
I1206 12:00:09.895311 12327 net.cpp:165] Memory required for data: 897482632
I1206 12:00:09.895315 12327 layer_factory.hpp:77] Creating layer loss3/loss3
I1206 12:00:09.895319 12327 net.cpp:100] Creating Layer loss3/loss3
I1206 12:00:09.895323 12327 net.cpp:434] loss3/loss3 <- loss3/classifier
I1206 12:00:09.895325 12327 net.cpp:434] loss3/loss3 <- label_data_1_split_2
I1206 12:00:09.895330 12327 net.cpp:408] loss3/loss3 -> loss3/loss3
…
I1206 12:00:09.897480 12327 net.cpp:322] The NetState phase (1) differed from the phase (0) specified by a rule in layer data
I1206 12:00:09.898269 12327 net.cpp:58] Initializing net from parameters: 
name: "GoogleNet"
state {
  phase: TEST
}
layer {
  name: "data"
  type: "Data"
  top: "data"
  top: "label"
  include {
    phase: TEST
  }
  transform_param {
    mirror: false
    crop_size: 224
    mean_file: "/home/juran/distracteddriver/input/mean.binaryproto"
  }
  data_param {
    source: "/home/juran/distracteddriver/input/validation_lmdb"
    batch_size: 50
    backend: LMDB
  }
}
layer {
  name: "conv1/7x7_s2"
  type: "Convolution"
  bottom: "data"
  top: "conv1/7x7_s2"
  param {
    lr_mult: 1
    decay_mult: 1
  }
  param {
    lr_mult: 2
    decay_mult: 0
  }
  convolution_param {
    num_output: 64
    pad: 3
    kernel_size: 7
    stride: 2
    weight_filler {
      type: "xavier"
    }
    bias_filler {
      type: "constant"
      value: 0.2
    }
  }
}
layer {
  name: "conv1/relu_7x7"
  type: "ReLU"
  bottom: "conv1/7x7_s2"
  top: "conv1/7x7_s2"
}
layer {
  name: "pool1/3x3_s2"
  type: "Pooling"
  bottom: "conv1/7x7_s2"
  top: "pool1/3x3_s2"
  pooling_param {
    pool: MAX
    kernel_size: 3
    stride: 2
  }
}
layer {
  name: "pool1/norm1"
  type: "LRN"
  bottom: "pool1/3x3_s2"
  top: "pool1/norm1"
  lrn_param {
    local_size: 5
    alpha: 0.0001
    beta: 0.75
  }
}
layer {
  name: "conv2/3x3_reduce"
  type: "Convolution"
  bottom: "pool1/norm1"
  top: "conv2/3x3_reduce"
  param {
    lr_mult: 1
    decay_mult: 1
  }
  param {
    lr_mult: 2
    decay_mult: 0
  }
  convolution_param {
    num_output: 64
    kernel_size: 1
    weight_filler {
      type: "xavier"
    }
    bias_filler {
      type: "constant"
      value: 0.2
    }
  }
}
layer {
  name: "conv2/relu_3x3_reduce"
  type: "ReLU"
  bottom: "conv2/3x3_reduce"
  top: "conv2/3x3_reduce"
}
layer {
  name: "conv2/3x3"
  type: "Convolution"
  bottom: "conv2/3x3_reduce"
  top: "conv2/3x3"
  param {
    lr_mult: 1
    decay_mult: 1
  }
  param {
    lr_mult: 2
    decay_mult: 0
  }
  convolution_param {
    num_output: 192
    pad: 1
    kernel_size: 3
    weight_filler {
      type: "xavier"
    }
    bias_filler {
      type: "constant"
      value: 0.2
    }
  }
}
layer {
  name: "conv2/relu_3x3"
  type: "ReLU"
  bottom: "conv2/3x3"
  top: "conv2/3x3"
}
layer {
  name: "conv2/norm2"
  type: "LRN"
  bottom: "conv2/3x3"
  top: "conv2/norm2"
  lrn_param {
    local_size: 5
    alpha: 0.0001
    beta: 0.75
  }
}
layer {
  name: "pool2/3x3_s2"
  type: "Pooling"
  bottom: "conv2/norm2"
  top: "pool2/3x3_s2"
  pooling_param {
    pool: MAX
    kernel_size: 3
    stride: 2
  }
}
layer {
  name: "inception_3a/1x1"
  type: "Convolution"
  bottom: "pool2/3x3_s2"
  top: "inception_3a/1x1"
  param {
    lr_mult: 1
    decay_mult: 1
  }
  param {
    lr_mult: 2
    decay_mult: 0
  }
  convolution_param {
    num_output: 64
    kernel_size: 1
    weight_filler {
      type: "xavier"
    }
    bias_filler {
      type: "constant"
      value: 0.2
    }
  }
}
layer {
  name: "inception_3a/relu_1x1"
  type: "ReLU"
  bottom: "inception_3a/1x1"
  top: "inception_3a/1x1"
}
layer {
  name: "inception_3a/3x3_reduce"
  type: "Convolution"
  bottom: "pool2/3x3_s2"
  top: "inception_3a/3x3_reduce"
  param {
    lr_mult: 1
    decay_mult: 1
  }
  param {
    lr_mult: 2
    decay_mult: 0
  }
  convolution_param {
    num_output: 96
    kernel_size: 1
    weight_filler {
      type: "xavier"
    }
    bias_filler {
      type: "constant"
      value: 0.2
    }
  }
}
layer {
  name: "inception_3a/relu_3x3_reduce"
  type: "ReLU"
  bottom: "inception_3a/3x3_reduce"
  top: "inception_3a/3x3_reduce"
}
layer {
  name: "inception_3a/3x3"
  type: "Convolution"
  bottom: "inception_3a/3x3_reduce"
  top: "inception_3a/3x3"
  param {
    lr_mult: 1
    decay_mult: 1
  }
  param {
    lr_mult: 2
    decay_mult: 0
  }
  convolution_param {
    num_output: 128
    pad: 1
    kernel_size: 3
    weight_filler {
      type: "xavier"
    }
    bias_filler {
      type: "constant"
      value: 0.2
    }
  }
}
layer {
  name: "inception_3a/relu_3x3"
  type: "ReLU"
  bottom: "inception_3a/3x3"
  top: "inception_3a/3x3"
}
layer {
  name: "inception_3a/5x5_reduce"
  type: "Convolution"
  bottom: "pool2/3x3_s2"
  top: "inception_3a/5x5_reduce"
  param {
    lr_mult: 1
    decay_mult: 1
  }
  param {
    lr_mult: 2
    decay_mult: 0
  }
  convolution_param {
    num_output: 16
    kernel_size: 1
    weight_filler {
      type: "xavier"
    }
    bias_filler {
      type: "constant"
      value: 0.2
    }
  }
}
layer {
  name: "inception_3a/relu_5x5_reduce"
  type: "ReLU"
  bottom: "inception_3a/5x5_reduce"
  top: "inception_3a/5x5_reduce"
}
layer {
  name: "inception_3a/5x5"
  type: "Convolution"
  bottom: "inception_3a/5x5_reduce"
  top: "inception_3a/5x5"
  param {
    lr_mult: 1
    decay_mult: 1
  }
  param {
    lr_mult: 2
    decay_mult: 0
  }
  convolution_param {
    num_output: 32
    pad: 2
    kernel_size: 5
    weight_filler {
      type: "xavier"
    }
    bias_filler {
      type: "constant"
      value: 0.2
    }
  }
}
layer {
  name: "inception_3a/relu_5x5"
  type: "ReLU"
  bottom: "inception_3a/5x5"
  top: "inception_3a/5x5"
}
layer {
  name: "inception_3a/pool"
  type: "Pooling"
  bottom: "pool2/3x3_s2"
  top: "inception_3a/pool"
  pooling_param {
    pool: MAX
    kernel_size: 3
    stride: 1
    pad: 1
  }
}
layer {
  name: "inception_3a/pool_proj"
  type: "Convolution"
  bottom: "inception_3a/pool"
  top: "inception_3a/pool_proj"
  param {
    lr_mult: 1
    decay_mult: 1
  }
  param {
    lr_mult: 2
    decay_mult: 0
  }
  convolution_param {
    num_output: 32
    kernel_size: 1
    weight_filler {
      type: "xavier"
    }
    bias_filler {
      type: "constant"
      value: 0.2
    }
  }
}
layer {
  name: "inception_3a/relu_pool_proj"
  type: "ReLU"
  bottom: "inception_3a/pool_proj"
  top: "inception_3a/pool_proj"
}
layer {
  name: "inception_3a/output"
  type: "Concat"
  bottom: "inception_3a/1x1"
  bottom: "inception_3a/3x3"
  bottom: "inception_3a/5x5"
  bottom: "inception_3a/pool_proj"
  top: "inception_3a/output"
}
layer {
  name: "inception_3b/1x1"
  type: "Convolution"
  bottom: "inception_3a/output"
  top: "inception_3b/1x1"
  param {
    lr_mult: 1
    decay_mult: 1
  }
  param {
    lr_mult: 2
    decay_mult: 0
  }
  convolution_param {
    num_output: 128
    kernel_size: 1
    weight_filler {
      type: "xavier"
    }
    bias_filler {
      type: "constant"
      value: 0.2
    }
  }
}
layer {
  name: "inception_3b/relu_1x1"
  type: "ReLU"
  bottom: "inception_3b/1x1"
  top: "inception_3b/1x1"
}
layer {
  name: "inception_3b/3x3_reduce"
  type: "Convolution"
  bottom: "inception_3a/output"
  top: "inception_3b/3x3_reduce"
  param {
    lr_mult: 1
    decay_mult: 1
  }
  param {
    lr_mult: 2
    decay_mult: 0
  }
  convolution_param {
    num_output: 128
    kernel_size: 1
    weight_filler {
      type: "xavier"
    }
    bias_filler {
      type: "constant"
      value: 0.2
    }
  }
}
layer {
  name: "inception_3b/relu_3x3_reduce"
  type: "ReLU"
  bottom: "inception_3b/3x3_reduce"
  top: "inception_3b/3x3_reduce"
}
layer {
  name: "inception_3b/3x3"
  type: "Convolution"
  bottom: "inception_3b/3x3_reduce"
  top: "inception_3b/3x3"
  param {
    lr_mult: 1
    decay_mult: 1
  }
  param {
    lr_mult: 2
    decay_mult: 0
  }
  convolution_param {
    num_output: 192
    pad: 1
    kernel_size: 3
    weight_filler {
      type: "xavier"
    }
    bias_filler {
      type: "constant"
      value: 0.2
    }
  }
}
layer {
  name: "inception_3b/relu_3x3"
  type: "ReLU"
  bottom: "inception_3b/3x3"
  top: "inception_3b/3x3"
}
layer {
  name: "inception_3b/5x5_reduce"
  type: "Convolution"
  bottom: "inception_3a/output"
  top: "inception_3b/5x5_reduce"
  param {
    lr_mult: 1
    decay_mult: 1
  }
  param {
    lr_mult: 2
    decay_mult: 0
  }
  convolution_param {
    num_output: 32
    kernel_size: 1
    weight_filler {
      type: "xavier"
    }
    bias_filler {
      type: "constant"
      value: 0.2
    }
  }
}
layer {
  name: "inception_3b/relu_5x5_reduce"
  type: "ReLU"
  bottom: "inception_3b/5x5_reduce"
  top: "inception_3b/5x5_reduce"
}
layer {
  name: "inception_3b/5x5"
  type: "Convolution"
  bottom: "inception_3b/5x5_reduce"
  top: "inception_3b/5x5"
  param {
    lr_mult: 1
    decay_mult: 1
  }
  param {
    lr_mult: 2
    decay_mult: 0
  }
  convolution_param {
    num_output: 96
    pad: 2
    kernel_size: 5
    weight_filler {
      type: "xavier"
    }
    bias_filler {
      type: "constant"
      value: 0.2
    }
  }
}
layer {
  name: "inception_3b/relu_5x5"
  type: "ReLU"
  bottom: "inception_3b/5x5"
  top: "inception_3b/5x5"
}
layer {
  name: "inception_3b/pool"
  type: "Pooling"
  bottom: "inception_3a/output"
  top: "inception_3b/pool"
  pooling_param {
    pool: MAX
    kernel_size: 3
    stride: 1
    pad: 1
  }
}
layer {
  name: "inception_3b/pool_proj"
  type: "Convolution"
  bottom: "inception_3b/pool"
  top: "inception_3b/pool_proj"
  param {
    lr_mult: 1
    decay_mult: 1
  }
  param {
    lr_mult: 2
    decay_mult: 0
  }
  convolution_param {
    num_output: 64
    kernel_size: 1
    weight_filler {
      type: "xavier"
    }
    bias_filler {
      type: "constant"
      value: 0.2
    }
  }
}
layer {
  name: "inception_3b/relu_pool_proj"
  type: "ReLU"
  bottom: "inception_3b/pool_proj"
  top: "inception_3b/pool_proj"
}
layer {
  name: "inception_3b/output"
  type: "Concat"
  bottom: "inception_3b/1x1"
  bottom: "inception_3b/3x3"
  bottom: "inception_3b/5x5"
  bottom: "inception_3b/pool_proj"
  top: "inception_3b/output"
}
layer {
  name: "pool3/3x3_s2"
  type: "Pooling"
  bottom: "inception_3b/output"
  top: "pool3/3x3_s2"
  pooling_param {
    pool: MAX
    kernel_size: 3
    stride: 2
  }
}
layer {
  name: "inception_4a/1x1"
  type: "Convolution"
  bottom: "pool3/3x3_s2"
  top: "inception_4a/1x1"
  param {
    lr_mult: 1
    decay_mult: 1
  }
  param {
    lr_mult: 2
    decay_mult: 0
  }
  convolution_param {
    num_output: 192
    kernel_size: 1
    weight_filler {
      type: "xavier"
    }
    bias_filler {
      type: "constant"
      value: 0.2
    }
  }
}
layer {
  name: "inception_4a/relu_1x1"
  type: "ReLU"
  bottom: "inception_4a/1x1"
  top: "inception_4a/1x1"
}
layer {
  name: "inception_4a/3x3_reduce"
  type: "Convolution"
  bottom: "pool3/3x3_s2"
  top: "inception_4a/3x3_reduce"
  param {
    lr_mult: 1
    decay_mult: 1
  }
  param {
    lr_mult: 2
    decay_mult: 0
  }
  convolution_param {
    num_output: 96
    kernel_size: 1
    weight_filler {
      type: "xavier"
    }
    bias_filler {
      type: "constant"
      value: 0.2
    }
  }
}
layer {
  name: "inception_4a/relu_3x3_reduce"
  type: "ReLU"
  bottom: "inception_4a/3x3_reduce"
  top: "inception_4a/3x3_reduce"
}
layer {
  name: "inception_4a/3x3"
  type: "Convolution"
  bottom: "inception_4a/3x3_reduce"
  top: "inception_4a/3x3"
  param {
    lr_mult: 1
    decay_mult: 1
  }
  param {
    lr_mult: 2
    decay_mult: 0
  }
  convolution_param {
    num_output: 208
    pad: 1
    kernel_size: 3
    weight_filler {
      type: "xavier"
    }
    bias_filler {
      type: "constant"
      value: 0.2
    }
  }
}
layer {
  name: "inception_4a/relu_3x3"
  type: "ReLU"
  bottom: "inception_4a/3x3"
  top: "inception_4a/3x3"
}
layer {
  name: "inception_4a/5x5_reduce"
  type: "Convolution"
  bottom: "pool3/3x3_s2"
  top: "inception_4a/5x5_reduce"
  param {
    lr_mult: 1
    decay_mult: 1
  }
  param {
    lr_mult: 2
    decay_mult: 0
  }
  convolution_param {
    num_output: 16
    kernel_size: 1
    weight_filler {
      type: "xavier"
    }
    bias_filler {
      type: "constant"
      value: 0.2
    }
  }
}
layer {
  name: "inception_4a/relu_5x5_reduce"
  type: "ReLU"
  bottom: "inception_4a/5x5_reduce"
  top: "inception_4a/5x5_reduce"
}
layer {
  name: "inception_4a/5x5"
  type: "Convolution"
  bottom: "inception_4a/5x5_reduce"
  top: "inception_4a/5x5"
  param {
    lr_mult: 1
    decay_mult: 1
  }
  param {
    lr_mult: 2
    decay_mult: 0
  }
  convolution_param {
    num_output: 48
    pad: 2
    kernel_size: 5
    weight_filler {
      type: "xavier"
    }
    bias_filler {
      type: "constant"
      value: 0.2
    }
  }
}
layer {
  name: "inception_4a/relu_5x5"
  type: "ReLU"
  bottom: "inception_4a/5x5"
  top: "inception_4a/5x5"
}
layer {
  name: "inception_4a/pool"
  type: "Pooling"
  bottom: "pool3/3x3_s2"
  top: "inception_4a/pool"
  pooling_param {
    pool: MAX
    kernel_size: 3
    stride: 1
    pad: 1
  }
}
layer {
  name: "inception_4a/pool_proj"
  type: "Convolution"
  bottom: "inception_4a/pool"
  top: "inception_4a/pool_proj"
  param {
    lr_mult: 1
    decay_mult: 1
  }
  param {
    lr_mult: 2
    decay_mult: 0
  }
  convolution_param {
    num_output: 64
    kernel_size: 1
    weight_filler {
      type: "xavier"
    }
    bias_filler {
      type: "constant"
      value: 0.2
    }
  }
}
layer {
  name: "inception_4a/relu_pool_proj"
  type: "ReLU"
  bottom: "inception_4a/pool_proj"
  top: "inception_4a/pool_proj"
}
layer {
  name: "inception_4a/output"
  type: "Concat"
  bottom: "inception_4a/1x1"
  bottom: "inception_4a/3x3"
  bottom: "inception_4a/5x5"
  bottom: "inception_4a/pool_proj"
  top: "inception_4a/output"
}
layer {
  name: "loss1/ave_pool"
  type: "Pooling"
  bottom: "inception_4a/output"
  top: "loss1/ave_pool"
  pooling_param {
    pool: AVE
    kernel_size: 5
    stride: 3
  }
}
layer {
  name: "loss1/conv"
  type: "Convolution"
  bottom: "loss1/ave_pool"
  top: "loss1/conv"
  param {
    lr_mult: 1
    decay_mult: 1
  }
  param {
    lr_mult: 2
    decay_mult: 0
  }
  convolution_param {
    num_output: 128
    kernel_size: 1
    weight_filler {
      type: "xavier"
    }
    bias_filler {
      type: "constant"
      value: 0.2
    }
  }
}
layer {
  name: "loss1/relu_conv"
  type: "ReLU"
  bottom: "loss1/conv"
  top: "loss1/conv"
}
layer {
  name: "loss1/fc"
  type: "InnerProduct"
  bottom: "loss1/conv"
  top: "loss1/fc"
  param {
    lr_mult: 1
    decay_mult: 1
  }
  param {
    lr_mult: 2
    decay_mult: 0
  }
  inner_product_param {
    num_output: 1024
    weight_filler {
      type: "xavier"
    }
    bias_filler {
      type: "constant"
      value: 0.2
    }
  }
}
layer {
  name: "loss1/relu_fc"
  type: "ReLU"
  bottom: "loss1/fc"
  top: "loss1/fc"
}
layer {
  name: "loss1/drop_fc"
  type: "Dropout"
  bottom: "loss1/fc"
  top: "loss1/fc"
  dropout_param {
    dropout_ratio: 0.7
  }
}
layer {
…
I1206 12:00:10.074163 12327 net.cpp:100] Creating Layer inception_4c/pool
I1206 12:00:10.074165 12327 net.cpp:434] inception_4c/pool <- inception_4b/output_inception_4b/output_0_split_3
I1206 12:00:10.074168 12327 net.cpp:408] inception_4c/pool -> inception_4c/pool
I1206 12:00:10.074201 12327 net.cpp:150] Setting up inception_4c/pool
I1206 12:00:10.074206 12327 net.cpp:157] Top shape: 50 512 14 14 (5017600)
I1206 12:00:10.074208 12327 net.cpp:165] Memory required for data: 2210363612
I1206 12:00:10.074209 12327 layer_factory.hpp:77] Creating layer inception_4c/pool_proj
I1206 12:00:10.074215 12327 net.cpp:100] Creating Layer inception_4c/pool_proj
I1206 12:00:10.074218 12327 net.cpp:434] inception_4c/pool_proj <- inception_4c/pool
I1206 12:00:10.074223 12327 net.cpp:408] inception_4c/pool_proj -> inception_4c/pool_proj
I1206 12:00:10.074553 12327 net.cpp:150] Setting up inception_4c/pool_proj
I1206 12:00:10.074558 12327 net.cpp:157] Top shape: 50 64 14 14 (627200)
I1206 12:00:10.074560 12327 net.cpp:165] Memory required for data: 2212872412
I1206 12:00:10.074563 12327 layer_factory.hpp:77] Creating layer inception_4c/relu_pool_proj
I1206 12:00:10.074568 12327 net.cpp:100] Creating Layer inception_4c/relu_pool_proj
I1206 12:00:10.074570 12327 net.cpp:434] inception_4c/relu_pool_proj <- inception_4c/pool_proj
I1206 12:00:10.074573 12327 net.cpp:395] inception_4c/relu_pool_proj -> inception_4c/pool_proj (in-place)
I1206 12:00:10.074578 12327 net.cpp:150] Setting up inception_4c/relu_pool_proj
I1206 12:00:10.074579 12327 net.cpp:157] Top shape: 50 64 14 14 (627200)
I1206 12:00:10.074581 12327 net.cpp:165] Memory required for data: 2215381212
I1206 12:00:10.074582 12327 layer_factory.hpp:77] Creating layer inception_4c/output
I1206 12:00:10.074586 12327 net.cpp:100] Creating Layer inception_4c/output
I1206 12:00:10.074589 12327 net.cpp:434] inception_4c/output <- inception_4c/1x1
I1206 12:00:10.074600 12327 net.cpp:434] inception_4c/output <- inception_4c/3x3
I1206 12:00:10.074604 12327 net.cpp:434] inception_4c/output <- inception_4c/5x5
I1206 12:00:10.074606 12327 net.cpp:434] inception_4c/output <- inception_4c/pool_proj
I1206 12:00:10.074609 12327 net.cpp:408] inception_4c/output -> inception_4c/output
I1206 12:00:10.074635 12327 net.cpp:150] Setting up inception_4c/output
I1206 12:00:10.074638 12327 net.cpp:157] Top shape: 50 512 14 14 (5017600)
I1206 12:00:10.074640 12327 net.cpp:165] Memory required for data: 2235451612
I1206 12:00:10.074642 12327 layer_factory.hpp:77] Creating layer inception_4c/output_inception_4c/output_0_split
I1206 12:00:10.074646 12327 net.cpp:100] Creating Layer inception_4c/output_inception_4c/output_0_split
I1206 12:00:10.074650 12327 net.cpp:434] inception_4c/output_inception_4c/output_0_split <- inception_4c/output
I1206 12:00:10.074652 12327 net.cpp:408] inception_4c/output_inception_4c/output_0_split -> inception_4c/output_inception_4c/output_0_split_0
I1206 12:00:10.074657 12327 net.cpp:408] inception_4c/output_inception_4c/output_0_split -> inception_4c/output_inception_4c/output_0_split_1
I1206 12:00:10.074661 12327 net.cpp:408] inception_4c/output_inception_4c/output_0_split -> inception_4c/output_inception_4c/output_0_split_2
I1206 12:00:10.074666 12327 net.cpp:408] inception_4c/output_inception_4c/output_0_split -> inception_4c/output_inception_4c/output_0_split_3
I1206 12:00:10.074712 12327 net.cpp:150] Setting up inception_4c/output_inception_4c/output_0_split
I1206 12:00:10.074715 12327 net.cpp:157] Top shape: 50 512 14 14 (5017600)
I1206 12:00:10.074718 12327 net.cpp:157] Top shape: 50 512 14 14 (5017600)
I1206 12:00:10.074720 12327 net.cpp:157] Top shape: 50 512 14 14 (5017600)
I1206 12:00:10.074723 12327 net.cpp:157] Top shape: 50 512 14 14 (5017600)
I1206 12:00:10.074724 12327 net.cpp:165] Memory required for data: 2315733212
I1206 12:00:10.074725 12327 layer_factory.hpp:77] Creating layer inception_4d/1x1
I1206 12:00:10.074733 12327 net.cpp:100] Creating Layer inception_4d/1x1
I1206 12:00:10.074734 12327 net.cpp:434] inception_4d/1x1 <- inception_4c/output_inception_4c/output_0_split_0
I1206 12:00:10.074738 12327 net.cpp:408] inception_4d/1x1 -> inception_4d/1x1
I1206 12:00:10.075196 12327 net.cpp:150] Setting up inception_4d/1x1
I1206 12:00:10.075203 12327 net.cpp:157] Top shape: 50 112 14 14 (1097600)
I1206 12:00:10.075206 12327 net.cpp:165] Memory required for data: 2320123612
I1206 12:00:10.075209 12327 layer_factory.hpp:77] Creating layer inception_4d/relu_1x1
I1206 12:00:10.075212 12327 net.cpp:100] Creating Layer inception_4d/relu_1x1
I1206 12:00:10.075215 12327 net.cpp:434] inception_4d/relu_1x1 <- inception_4d/1x1
I1206 12:00:10.075218 12327 net.cpp:395] inception_4d/relu_1x1 -> inception_4d/1x1 (in-place)
I1206 12:00:10.075222 12327 net.cpp:150] Setting up inception_4d/relu_1x1
I1206 12:00:10.075224 12327 net.cpp:157] Top shape: 50 112 14 14 (1097600)
I1206 12:00:10.075227 12327 net.cpp:165] Memory required for data: 2324514012
I1206 12:00:10.075227 12327 layer_factory.hpp:77] Creating layer inception_4d/3x3_reduce
I1206 12:00:10.075233 12327 net.cpp:100] Creating Layer inception_4d/3x3_reduce
I1206 12:00:10.075235 12327 net.cpp:434] inception_4d/3x3_reduce <- inception_4c/output_inception_4c/output_0_split_1
I1206 12:00:10.075238 12327 net.cpp:408] inception_4d/3x3_reduce -> inception_4d/3x3_reduce
I1206 12:00:10.075753 12327 net.cpp:150] Setting up inception_4d/3x3_reduce
I1206 12:00:10.075759 12327 net.cpp:157] Top shape: 50 144 14 14 (1411200)
I1206 12:00:10.075762 12327 net.cpp:165] Memory required for data: 2330158812
I1206 12:00:10.075765 12327 layer_factory.hpp:77] Creating layer inception_4d/relu_3x3_reduce
I1206 12:00:10.075768 12327 net.cpp:100] Creating Layer inception_4d/relu_3x3_reduce
I1206 12:00:10.075770 12327 net.cpp:434] inception_4d/relu_3x3_reduce <- inception_4d/3x3_reduce
I1206 12:00:10.075774 12327 net.cpp:395] inception_4d/relu_3x3_reduce -> inception_4d/3x3_reduce (in-place)
I1206 12:00:10.075788 12327 net.cpp:150] Setting up inception_4d/relu_3x3_reduce
I1206 12:00:10.075790 12327 net.cpp:157] Top shape: 50 144 14 14 (1411200)
I1206 12:00:10.075791 12327 net.cpp:165] Memory required for data: 2335803612
I1206 12:00:10.075793 12327 layer_factory.hpp:77] Creating layer inception_4d/3x3
I1206 12:00:10.075798 12327 net.cpp:100] Creating Layer inception_4d/3x3
I1206 12:00:10.075800 12327 net.cpp:434] inception_4d/3x3 <- inception_4d/3x3_reduce
I1206 12:00:10.075804 12327 net.cpp:408] inception_4d/3x3 -> inception_4d/3x3
I1206 12:00:10.080014 12327 net.cpp:150] Setting up inception_4d/3x3
I1206 12:00:10.080029 12327 net.cpp:157] Top shape: 50 288 14 14 (2822400)
I1206 12:00:10.080030 12327 net.cpp:165] Memory required for data: 2347093212
I1206 12:00:10.080035 12327 layer_factory.hpp:77] Creating layer inception_4d/relu_3x3
I1206 12:00:10.080040 12327 net.cpp:100] Creating Layer inception_4d/relu_3x3
I1206 12:00:10.080044 12327 net.cpp:434] inception_4d/relu_3x3 <- inception_4d/3x3
I1206 12:00:10.080047 12327 net.cpp:395] inception_4d/relu_3x3 -> inception_4d/3x3 (in-place)
I1206 12:00:10.080052 12327 net.cpp:150] Setting up inception_4d/relu_3x3
I1206 12:00:10.080054 12327 net.cpp:157] Top shape: 50 288 14 14 (2822400)
I1206 12:00:10.080056 12327 net.cpp:165] Memory required for data: 2358382812
I1206 12:00:10.080059 12327 layer_factory.hpp:77] Creating layer inception_4d/5x5_reduce
I1206 12:00:10.080065 12327 net.cpp:100] Creating Layer inception_4d/5x5_reduce
I1206 12:00:10.080066 12327 net.cpp:434] inception_4d/5x5_reduce <- inception_4c/output_inception_4c/output_0_split_2
I1206 12:00:10.080071 12327 net.cpp:408] inception_4d/5x5_reduce -> inception_4d/5x5_reduce
I1206 12:00:10.080353 12327 net.cpp:150] Setting up inception_4d/5x5_reduce
I1206 12:00:10.080358 12327 net.cpp:157] Top shape: 50 32 14 14 (313600)
I1206 12:00:10.080360 12327 net.cpp:165] Memory required for data: 2359637212
I1206 12:00:10.080364 12327 layer_factory.hpp:77] Creating layer inception_4d/relu_5x5_reduce
I1206 12:00:10.080369 12327 net.cpp:100] Creating Layer inception_4d/relu_5x5_reduce
I1206 12:00:10.080373 12327 net.cpp:434] inception_4d/relu_5x5_reduce <- inception_4d/5x5_reduce
I1206 12:00:10.080375 12327 net.cpp:395] inception_4d/relu_5x5_reduce -> inception_4d/5x5_reduce (in-place)
I1206 12:00:10.080379 12327 net.cpp:150] Setting up inception_4d/relu_5x5_reduce
I1206 12:00:10.080381 12327 net.cpp:157] Top shape: 50 32 14 14 (313600)
I1206 12:00:10.080384 12327 net.cpp:165] Memory required for data: 2360891612
I1206 12:00:10.080384 12327 layer_factory.hpp:77] Creating layer inception_4d/5x5
I1206 12:00:10.080390 12327 net.cpp:100] Creating Layer inception_4d/5x5
I1206 12:00:10.080392 12327 net.cpp:434] inception_4d/5x5 <- inception_4d/5x5_reduce
I1206 12:00:10.080397 12327 net.cpp:408] inception_4d/5x5 -> inception_4d/5x5
I1206 12:00:10.082685 12327 net.cpp:150] Setting up inception_4d/5x5
I1206 12:00:10.082696 12327 net.cpp:157] Top shape: 50 64 14 14 (627200)
I1206 12:00:10.082698 12327 net.cpp:165] Memory required for data: 2363400412
I1206 12:00:10.082703 12327 layer_factory.hpp:77] Creating layer inception_4d/relu_5x5
I1206 12:00:10.082710 12327 net.cpp:100] Creating Layer inception_4d/relu_5x5
I1206 12:00:10.082712 12327 net.cpp:434] inception_4d/relu_5x5 <- inception_4d/5x5
I1206 12:00:10.082716 12327 net.cpp:395] inception_4d/relu_5x5 -> inception_4d/5x5 (in-place)
I1206 12:00:10.082721 12327 net.cpp:150] Setting up inception_4d/relu_5x5
I1206 12:00:10.082725 12327 net.cpp:157] Top shape: 50 64 14 14 (627200)
I1206 12:00:10.082726 12327 net.cpp:165] Memory required for data: 2365909212
I1206 12:00:10.082727 12327 layer_factory.hpp:77] Creating layer inception_4d/pool
I1206 12:00:10.082732 12327 net.cpp:100] Creating Layer inception_4d/pool
I1206 12:00:10.082734 12327 net.cpp:434] inception_4d/pool <- inception_4c/output_inception_4c/output_0_split_3
I1206 12:00:10.082737 12327 net.cpp:408] inception_4d/pool -> inception_4d/pool
I1206 12:00:10.082774 12327 net.cpp:150] Setting up inception_4d/pool
I1206 12:00:10.082789 12327 net.cpp:157] Top shape: 50 512 14 14 (5017600)
I1206 12:00:10.082792 12327 net.cpp:165] Memory required for data: 2385979612
I1206 12:00:10.082793 12327 layer_factory.hpp:77] Creating layer inception_4d/pool_proj
I1206 12:00:10.082801 12327 net.cpp:100] Creating Layer inception_4d/pool_proj
I1206 12:00:10.082804 12327 net.cpp:434] inception_4d/pool_proj <- inception_4d/pool
I1206 12:00:10.082809 12327 net.cpp:408] inception_4d/pool_proj -> inception_4d/pool_proj
I1206 12:00:10.083142 12327 net.cpp:150] Setting up inception_4d/pool_proj
I1206 12:00:10.083148 12327 net.cpp:157] Top shape: 50 64 14 14 (627200)
I1206 12:00:10.083150 12327 net.cpp:165] Memory required for data: 2388488412
I1206 12:00:10.083154 12327 layer_factory.hpp:77] Creating layer inception_4d/relu_pool_proj
I1206 12:00:10.083161 12327 net.cpp:100] Creating Layer inception_4d/relu_pool_proj
I1206 12:00:10.083164 12327 net.cpp:434] inception_4d/relu_pool_proj <- inception_4d/pool_proj
I1206 12:00:10.083168 12327 net.cpp:395] inception_4d/relu_pool_proj -> inception_4d/pool_proj (in-place)
I1206 12:00:10.083173 12327 net.cpp:150] Setting up inception_4d/relu_pool_proj
I1206 12:00:10.083174 12327 net.cpp:157] Top shape: 50 64 14 14 (627200)
I1206 12:00:10.083176 12327 net.cpp:165] Memory required for data: 2390997212
I1206 12:00:10.083178 12327 layer_factory.hpp:77] Creating layer inception_4d/output
I1206 12:00:10.083183 12327 net.cpp:100] Creating Layer inception_4d/output
I1206 12:00:10.083184 12327 net.cpp:434] inception_4d/output <- inception_4d/1x1
I1206 12:00:10.083186 12327 net.cpp:434] inception_4d/output <- inception_4d/3x3
I1206 12:00:10.083189 12327 net.cpp:434] inception_4d/output <- inception_4d/5x5
I1206 12:00:10.083190 12327 net.cpp:434] inception_4d/output <- inception_4d/pool_proj
I1206 12:00:10.083194 12327 net.cpp:408] inception_4d/output -> inception_4d/output
I1206 12:00:10.083215 12327 net.cpp:150] Setting up inception_4d/output
I1206 12:00:10.083220 12327 net.cpp:157] Top shape: 50 528 14 14 (5174400)
I1206 12:00:10.083221 12327 net.cpp:165] Memory required for data: 2411694812
I1206 12:00:10.083223 12327 layer_factory.hpp:77] Creating layer inception_4d/output_inception_4d/output_0_split
I1206 12:00:10.083230 12327 net.cpp:100] Creating Layer inception_4d/output_inception_4d/output_0_split
I1206 12:00:10.083231 12327 net.cpp:434] inception_4d/output_inception_4d/output_0_split <- inception_4d/output
I1206 12:00:10.083235 12327 net.cpp:408] inception_4d/output_inception_4d/output_0_split -> inception_4d/output_inception_4d/output_0_split_0
I1206 12:00:10.083240 12327 net.cpp:408] inception_4d/output_inception_4d/output_0_split -> inception_4d/output_inception_4d/output_0_split_1
I1206 12:00:10.083245 12327 net.cpp:408] inception_4d/output_inception_4d/output_0_split -> inception_4d/output_inception_4d/output_0_split_2
I1206 12:00:10.083248 12327 net.cpp:408] inception_4d/output_inception_4d/output_0_split -> inception_4d/output_inception_4d/output_0_split_3
I1206 12:00:10.083251 12327 net.cpp:408] inception_4d/output_inception_4d/output_0_split -> inception_4d/output_inception_4d/output_0_split_4
I1206 12:00:10.083309 12327 net.cpp:150] Setting up inception_4d/output_inception_4d/output_0_split
I1206 12:00:10.083313 12327 net.cpp:157] Top shape: 50 528 14 14 (5174400)
I1206 12:00:10.083317 12327 net.cpp:157] Top shape: 50 528 14 14 (5174400)
I1206 12:00:10.083318 12327 net.cpp:157] Top shape: 50 528 14 14 (5174400)
I1206 12:00:10.083320 12327 net.cpp:157] Top shape: 50 528 14 14 (5174400)
I1206 12:00:10.083323 12327 net.cpp:157] Top shape: 50 528 14 14 (5174400)
I1206 12:00:10.083325 12327 net.cpp:165] Memory required for data: 2515182812
I1206 12:00:10.083328 12327 layer_factory.hpp:77] Creating layer loss2/ave_pool
I1206 12:00:10.083334 12327 net.cpp:100] Creating Layer loss2/ave_pool
I1206 12:00:10.083338 12327 net.cpp:434] loss2/ave_pool <- inception_4d/output_inception_4d/output_0_split_0
I1206 12:00:10.083343 12327 net.cpp:408] loss2/ave_pool -> loss2/ave_pool
I1206 12:00:10.083374 12327 net.cpp:150] Setting up loss2/ave_pool
I1206 12:00:10.083389 12327 net.cpp:157] Top shape: 50 528 4 4 (422400)
I1206 12:00:10.083390 12327 net.cpp:165] Memory required for data: 2516872412
I1206 12:00:10.083392 12327 layer_factory.hpp:77] Creating layer loss2/conv
I1206 12:00:10.083398 12327 net.cpp:100] Creating Layer loss2/conv
I1206 12:00:10.083401 12327 net.cpp:434] loss2/conv <- loss2/ave_pool
I1206 12:00:10.083406 12327 net.cpp:408] loss2/conv -> loss2/conv
I1206 12:00:10.085989 12327 net.cpp:150] Setting up loss2/conv
I1206 12:00:10.086000 12327 net.cpp:157] Top shape: 50 128 4 4 (102400)
I1206 12:00:10.086002 12327 net.cpp:165] Memory required for data: 2517282012
I1206 12:00:10.086006 12327 layer_factory.hpp:77] Creating layer loss2/relu_conv
I1206 12:00:10.086011 12327 net.cpp:100] Creating Layer loss2/relu_conv
I1206 12:00:10.086014 12327 net.cpp:434] loss2/relu_conv <- loss2/conv
I1206 12:00:10.086017 12327 net.cpp:395] loss2/relu_conv -> loss2/conv (in-place)
I1206 12:00:10.086022 12327 net.cpp:150] Setting up loss2/relu_conv
I1206 12:00:10.086025 12327 net.cpp:157] Top shape: 50 128 4 4 (102400)
I1206 12:00:10.086026 12327 net.cpp:165] Memory required for data: 2517691612
I1206 12:00:10.086028 12327 layer_factory.hpp:77] Creating layer loss2/fc
I1206 12:00:10.086033 12327 net.cpp:100] Creating Layer loss2/fc
I1206 12:00:10.086035 12327 net.cpp:434] loss2/fc <- loss2/conv
I1206 12:00:10.086038 12327 net.cpp:408] loss2/fc -> loss2/fc
I1206 12:00:10.113636 12327 net.cpp:150] Setting up loss2/fc
I1206 12:00:10.113679 12327 net.cpp:157] Top shape: 50 1024 (51200)
I1206 12:00:10.113682 12327 net.cpp:165] Memory required for data: 2517896412
I1206 12:00:10.113689 12327 layer_factory.hpp:77] Creating layer loss2/relu_fc
I1206 12:00:10.113698 12327 net.cpp:100] Creating Layer loss2/relu_fc
I1206 12:00:10.113703 12327 net.cpp:434] loss2/relu_fc <- loss2/fc
I1206 12:00:10.113711 12327 net.cpp:395] loss2/relu_fc -> loss2/fc (in-place)
I1206 12:00:10.113719 12327 net.cpp:150] Setting up loss2/relu_fc
I1206 12:00:10.113723 12327 net.cpp:157] Top shape: 50 1024 (51200)
I1206 12:00:10.113723 12327 net.cpp:165] Memory required for data: 2518101212
I1206 12:00:10.113725 12327 layer_factory.hpp:77] Creating layer loss2/drop_fc
I1206 12:00:10.113731 12327 net.cpp:100] Creating Layer loss2/drop_fc
I1206 12:00:10.113734 12327 net.cpp:434] loss2/drop_fc <- loss2/fc
I1206 12:00:10.113737 12327 net.cpp:395] loss2/drop_fc -> loss2/fc (in-place)
I1206 12:00:10.113765 12327 net.cpp:150] Setting up loss2/drop_fc
I1206 12:00:10.113770 12327 net.cpp:157] Top shape: 50 1024 (51200)
I1206 12:00:10.113771 12327 net.cpp:165] Memory required for data: 2518306012
I1206 12:00:10.113773 12327 layer_factory.hpp:77] Creating layer loss2/classifier_tune
I1206 12:00:10.113781 12327 net.cpp:100] Creating Layer loss2/classifier_tune
I1206 12:00:10.113783 12327 net.cpp:434] loss2/classifier_tune <- loss2/fc
I1206 12:00:10.113788 12327 net.cpp:408] loss2/classifier_tune -> loss2/classifier
I1206 12:00:10.120481 12327 net.cpp:150] Setting up loss2/classifier_tune
I1206 12:00:10.120515 12327 net.cpp:157] Top shape: 50 1000 (50000)
I1206 12:00:10.120518 12327 net.cpp:165] Memory required for data: 2518506012
I1206 12:00:10.120529 12327 layer_factory.hpp:77] Creating layer loss2/classifier_loss2/classifier_tune_0_split
I1206 12:00:10.120542 12327 net.cpp:100] Creating Layer loss2/classifier_loss2/classifier_tune_0_split
I1206 12:00:10.120548 12327 net.cpp:434] loss2/classifier_loss2/classifier_tune_0_split <- loss2/classifier
I1206 12:00:10.120559 12327 net.cpp:408] loss2/classifier_loss2/classifier_tune_0_split -> loss2/classifier_loss2/classifier_tune_0_split_0
I1206 12:00:10.120570 12327 net.cpp:408] loss2/classifier_loss2/classifier_tune_0_split -> loss2/classifier_loss2/classifier_tune_0_split_1
I1206 12:00:10.120579 12327 net.cpp:408] loss2/classifier_loss2/classifier_tune_0_split -> loss2/classifier_loss2/classifier_tune_0_split_2
I1206 12:00:10.120661 12327 net.cpp:150] Setting up loss2/classifier_loss2/classifier_tune_0_split
I1206 12:00:10.120671 12327 net.cpp:157] Top shape: 50 1000 (50000)
I1206 12:00:10.120693 12327 net.cpp:157] Top shape: 50 1000 (50000)
I1206 12:00:10.120697 12327 net.cpp:157] Top shape: 50 1000 (50000)
I1206 12:00:10.120699 12327 net.cpp:165] Memory required for data: 2519106012
I1206 12:00:10.120702 12327 layer_factory.hpp:77] Creating layer loss2/loss
I1206 12:00:10.120708 12327 net.cpp:100] Creating Layer loss2/loss
I1206 12:00:10.120712 12327 net.cpp:434] loss2/loss <- loss2/classifier_loss2/classifier_tune_0_split_0
I1206 12:00:10.120715 12327 net.cpp:434] loss2/loss <- label_data_1_split_3
…
I1206 12:00:10.120923 12327 net.cpp:150] Setting up loss2/top-5
I1206 12:00:10.120924 12327 net.cpp:157] Top shape: (1)
I1206 12:00:10.120925 12327 net.cpp:165] Memory required for data: 2519106024
I1206 12:00:10.120928 12327 layer_factory.hpp:77] Creating layer inception_4e/1x1
I1206 12:00:10.120936 12327 net.cpp:100] Creating Layer inception_4e/1x1
I1206 12:00:10.120939 12327 net.cpp:434] inception_4e/1x1 <- inception_4d/output_inception_4d/output_0_split_1
I1206 12:00:10.120944 12327 net.cpp:408] inception_4e/1x1 -> inception_4e/1x1
I1206 12:00:10.121786 12327 net.cpp:150] Setting up inception_4e/1x1
I1206 12:00:10.121796 12327 net.cpp:157] Top shape: 50 256 14 14 (2508800)
I1206 12:00:10.121798 12327 net.cpp:165] Memory required for data: 2529141224
I1206 12:00:10.121803 12327 layer_factory.hpp:77] Creating layer inception_4e/relu_1x1
I1206 12:00:10.121809 12327 net.cpp:100] Creating Layer inception_4e/relu_1x1
I1206 12:00:10.121811 12327 net.cpp:434] inception_4e/relu_1x1 <- inception_4e/1x1
I1206 12:00:10.121815 12327 net.cpp:395] inception_4e/relu_1x1 -> inception_4e/1x1 (in-place)
I1206 12:00:10.121820 12327 net.cpp:150] Setting up inception_4e/relu_1x1
I1206 12:00:10.121824 12327 net.cpp:157] Top shape: 50 256 14 14 (2508800)
I1206 12:00:10.121824 12327 net.cpp:165] Memory required for data: 2539176424
I1206 12:00:10.121826 12327 layer_factory.hpp:77] Creating layer inception_4e/3x3_reduce
I1206 12:00:10.121860 12327 net.cpp:100] Creating Layer inception_4e/3x3_reduce
I1206 12:00:10.121862 12327 net.cpp:434] inception_4e/3x3_reduce <- inception_4d/output_inception_4d/output_0_split_2
I1206 12:00:10.121868 12327 net.cpp:408] inception_4e/3x3_reduce -> inception_4e/3x3_reduce
I1206 12:00:10.124344 12327 net.cpp:150] Setting up inception_4e/3x3_reduce
I1206 12:00:10.124361 12327 net.cpp:157] Top shape: 50 160 14 14 (1568000)
I1206 12:00:10.124363 12327 net.cpp:165] Memory required for data: 2545448424
I1206 12:00:10.124369 12327 layer_factory.hpp:77] Creating layer inception_4e/relu_3x3_reduce
I1206 12:00:10.124374 12327 net.cpp:100] Creating Layer inception_4e/relu_3x3_reduce
I1206 12:00:10.124377 12327 net.cpp:434] inception_4e/relu_3x3_reduce <- inception_4e/3x3_reduce
I1206 12:00:10.124394 12327 net.cpp:395] inception_4e/relu_3x3_reduce -> inception_4e/3x3_reduce (in-place)
I1206 12:00:10.124400 12327 net.cpp:150] Setting up inception_4e/relu_3x3_reduce
I1206 12:00:10.124403 12327 net.cpp:157] Top shape: 50 160 14 14 (1568000)
I1206 12:00:10.124405 12327 net.cpp:165] Memory required for data: 2551720424
I1206 12:00:10.124408 12327 layer_factory.hpp:77] Creating layer inception_4e/3x3
I1206 12:00:10.124415 12327 net.cpp:100] Creating Layer inception_4e/3x3
I1206 12:00:10.124418 12327 net.cpp:434] inception_4e/3x3 <- inception_4e/3x3_reduce
I1206 12:00:10.124423 12327 net.cpp:408] inception_4e/3x3 -> inception_4e/3x3
I1206 12:00:10.131325 12327 net.cpp:150] Setting up inception_4e/3x3
I1206 12:00:10.131335 12327 net.cpp:157] Top shape: 50 320 14 14 (3136000)
I1206 12:00:10.131337 12327 net.cpp:165] Memory required for data: 2564264424
I1206 12:00:10.131342 12327 layer_factory.hpp:77] Creating layer inception_4e/relu_3x3
I1206 12:00:10.131347 12327 net.cpp:100] Creating Layer inception_4e/relu_3x3
I1206 12:00:10.131350 12327 net.cpp:434] inception_4e/relu_3x3 <- inception_4e/3x3
I1206 12:00:10.131355 12327 net.cpp:395] inception_4e/relu_3x3 -> inception_4e/3x3 (in-place)
I1206 12:00:10.131359 12327 net.cpp:150] Setting up inception_4e/relu_3x3
I1206 12:00:10.131361 12327 net.cpp:157] Top shape: 50 320 14 14 (3136000)
I1206 12:00:10.131363 12327 net.cpp:165] Memory required for data: 2576808424
I1206 12:00:10.131366 12327 layer_factory.hpp:77] Creating layer inception_4e/5x5_reduce
I1206 12:00:10.131372 12327 net.cpp:100] Creating Layer inception_4e/5x5_reduce
I1206 12:00:10.131374 12327 net.cpp:434] inception_4e/5x5_reduce <- inception_4d/output_inception_4d/output_0_split_3
I1206 12:00:10.131379 12327 net.cpp:408] inception_4e/5x5_reduce -> inception_4e/5x5_reduce
I1206 12:00:10.131650 12327 net.cpp:150] Setting up inception_4e/5x5_reduce
I1206 12:00:10.131656 12327 net.cpp:157] Top shape: 50 32 14 14 (313600)
I1206 12:00:10.131659 12327 net.cpp:165] Memory required for data: 2578062824
I1206 12:00:10.131662 12327 layer_factory.hpp:77] Creating layer inception_4e/relu_5x5_reduce
I1206 12:00:10.131666 12327 net.cpp:100] Creating Layer inception_4e/relu_5x5_reduce
I1206 12:00:10.131669 12327 net.cpp:434] inception_4e/relu_5x5_reduce <- inception_4e/5x5_reduce
I1206 12:00:10.131672 12327 net.cpp:395] inception_4e/relu_5x5_reduce -> inception_4e/5x5_reduce (in-place)
I1206 12:00:10.131676 12327 net.cpp:150] Setting up inception_4e/relu_5x5_reduce
I1206 12:00:10.131678 12327 net.cpp:157] Top shape: 50 32 14 14 (313600)
I1206 12:00:10.131680 12327 net.cpp:165] Memory required for data: 2579317224
I1206 12:00:10.131682 12327 layer_factory.hpp:77] Creating layer inception_4e/5x5
I1206 12:00:10.131688 12327 net.cpp:100] Creating Layer inception_4e/5x5
I1206 12:00:10.131690 12327 net.cpp:434] inception_4e/5x5 <- inception_4e/5x5_reduce
I1206 12:00:10.131693 12327 net.cpp:408] inception_4e/5x5 -> inception_4e/5x5
I1206 12:00:10.132303 12327 net.cpp:150] Setting up inception_4e/5x5
I1206 12:00:10.132309 12327 net.cpp:157] Top shape: 50 128 14 14 (1254400)
I1206 12:00:10.132311 12327 net.cpp:165] Memory required for data: 2584334824
I1206 12:00:10.132315 12327 layer_factory.hpp:77] Creating layer inception_4e/relu_5x5
I1206 12:00:10.132319 12327 net.cpp:100] Creating Layer inception_4e/relu_5x5
I1206 12:00:10.132321 12327 net.cpp:434] inception_4e/relu_5x5 <- inception_4e/5x5
I1206 12:00:10.132325 12327 net.cpp:395] inception_4e/relu_5x5 -> inception_4e/5x5 (in-place)
I1206 12:00:10.132329 12327 net.cpp:150] Setting up inception_4e/relu_5x5
I1206 12:00:10.132331 12327 net.cpp:157] Top shape: 50 128 14 14 (1254400)
I1206 12:00:10.132333 12327 net.cpp:165] Memory required for data: 2589352424
I1206 12:00:10.132334 12327 layer_factory.hpp:77] Creating layer inception_4e/pool
I1206 12:00:10.132339 12327 net.cpp:100] Creating Layer inception_4e/pool
I1206 12:00:10.132341 12327 net.cpp:434] inception_4e/pool <- inception_4d/output_inception_4d/output_0_split_4
I1206 12:00:10.132354 12327 net.cpp:408] inception_4e/pool -> inception_4e/pool
I1206 12:00:10.132387 12327 net.cpp:150] Setting up inception_4e/pool
I1206 12:00:10.132392 12327 net.cpp:157] Top shape: 50 528 14 14 (5174400)
I1206 12:00:10.132395 12327 net.cpp:165] Memory required for data: 2610050024
I1206 12:00:10.132395 12327 layer_factory.hpp:77] Creating layer inception_4e/pool_proj
I1206 12:00:10.132402 12327 net.cpp:100] Creating Layer inception_4e/pool_proj
I1206 12:00:10.132405 12327 net.cpp:434] inception_4e/pool_proj <- inception_4e/pool
I1206 12:00:10.132411 12327 net.cpp:408] inception_4e/pool_proj -> inception_4e/pool_proj
I1206 12:00:10.132865 12327 net.cpp:150] Setting up inception_4e/pool_proj
I1206 12:00:10.132871 12327 net.cpp:157] Top shape: 50 128 14 14 (1254400)
I1206 12:00:10.132874 12327 net.cpp:165] Memory required for data: 2615067624
I1206 12:00:10.132877 12327 layer_factory.hpp:77] Creating layer inception_4e/relu_pool_proj
I1206 12:00:10.132881 12327 net.cpp:100] Creating Layer inception_4e/relu_pool_proj
I1206 12:00:10.132884 12327 net.cpp:434] inception_4e/relu_pool_proj <- inception_4e/pool_proj
I1206 12:00:10.132887 12327 net.cpp:395] inception_4e/relu_pool_proj -> inception_4e/pool_proj (in-place)
I1206 12:00:10.132890 12327 net.cpp:150] Setting up inception_4e/relu_pool_proj
I1206 12:00:10.132894 12327 net.cpp:157] Top shape: 50 128 14 14 (1254400)
I1206 12:00:10.132894 12327 net.cpp:165] Memory required for data: 2620085224
I1206 12:00:10.132896 12327 layer_factory.hpp:77] Creating layer inception_4e/output
I1206 12:00:10.132900 12327 net.cpp:100] Creating Layer inception_4e/output
I1206 12:00:10.132902 12327 net.cpp:434] inception_4e/output <- inception_4e/1x1
I1206 12:00:10.132905 12327 net.cpp:434] inception_4e/output <- inception_4e/3x3
I1206 12:00:10.132907 12327 net.cpp:434] inception_4e/output <- inception_4e/5x5
I1206 12:00:10.132910 12327 net.cpp:434] inception_4e/output <- inception_4e/pool_proj
I1206 12:00:10.132913 12327 net.cpp:408] inception_4e/output -> inception_4e/output
I1206 12:00:10.132932 12327 net.cpp:150] Setting up inception_4e/output
I1206 12:00:10.132936 12327 net.cpp:157] Top shape: 50 832 14 14 (8153600)
I1206 12:00:10.132938 12327 net.cpp:165] Memory required for data: 2652699624
I1206 12:00:10.132939 12327 layer_factory.hpp:77] Creating layer pool4/3x3_s2
I1206 12:00:10.132943 12327 net.cpp:100] Creating Layer pool4/3x3_s2
I1206 12:00:10.132946 12327 net.cpp:434] pool4/3x3_s2 <- inception_4e/output
I1206 12:00:10.132951 12327 net.cpp:408] pool4/3x3_s2 -> pool4/3x3_s2
I1206 12:00:10.132977 12327 net.cpp:150] Setting up pool4/3x3_s2
I1206 12:00:10.132982 12327 net.cpp:157] Top shape: 50 832 7 7 (2038400)
I1206 12:00:10.132983 12327 net.cpp:165] Memory required for data: 2660853224
I1206 12:00:10.132985 12327 layer_factory.hpp:77] Creating layer pool4/3x3_s2_pool4/3x3_s2_0_split
I1206 12:00:10.132989 12327 net.cpp:100] Creating Layer pool4/3x3_s2_pool4/3x3_s2_0_split
I1206 12:00:10.132992 12327 net.cpp:434] pool4/3x3_s2_pool4/3x3_s2_0_split <- pool4/3x3_s2
I1206 12:00:10.132995 12327 net.cpp:408] pool4/3x3_s2_pool4/3x3_s2_0_split -> pool4/3x3_s2_pool4/3x3_s2_0_split_0
I1206 12:00:10.132999 12327 net.cpp:408] pool4/3x3_s2_pool4/3x3_s2_0_split -> pool4/3x3_s2_pool4/3x3_s2_0_split_1
I1206 12:00:10.133003 12327 net.cpp:408] pool4/3x3_s2_pool4/3x3_s2_0_split -> pool4/3x3_s2_pool4/3x3_s2_0_split_2
I1206 12:00:10.133028 12327 net.cpp:408] pool4/3x3_s2_pool4/3x3_s2_0_split -> pool4/3x3_s2_pool4/3x3_s2_0_split_3
I1206 12:00:10.133070 12327 net.cpp:150] Setting up pool4/3x3_s2_pool4/3x3_s2_0_split
I1206 12:00:10.133074 12327 net.cpp:157] Top shape: 50 832 7 7 (2038400)
I1206 12:00:10.133076 12327 net.cpp:157] Top shape: 50 832 7 7 (2038400)
I1206 12:00:10.133080 12327 net.cpp:157] Top shape: 50 832 7 7 (2038400)
I1206 12:00:10.133083 12327 net.cpp:157] Top shape: 50 832 7 7 (2038400)
I1206 12:00:10.133085 12327 net.cpp:165] Memory required for data: 2693467624
I1206 12:00:10.133086 12327 layer_factory.hpp:77] Creating layer inception_5a/1x1
I1206 12:00:10.133101 12327 net.cpp:100] Creating Layer inception_5a/1x1
I1206 12:00:10.133103 12327 net.cpp:434] inception_5a/1x1 <- pool4/3x3_s2_pool4/3x3_s2_0_split_0
I1206 12:00:10.133107 12327 net.cpp:408] inception_5a/1x1 -> inception_5a/1x1
I1206 12:00:10.136535 12327 net.cpp:150] Setting up inception_5a/1x1
I1206 12:00:10.136545 12327 net.cpp:157] Top shape: 50 256 7 7 (627200)
I1206 12:00:10.136546 12327 net.cpp:165] Memory required for data: 2695976424
I1206 12:00:10.136551 12327 layer_factory.hpp:77] Creating layer inception_5a/relu_1x1
I1206 12:00:10.136555 12327 net.cpp:100] Creating Layer inception_5a/relu_1x1
I1206 12:00:10.136559 12327 net.cpp:434] inception_5a/relu_1x1 <- inception_5a/1x1
I1206 12:00:10.136561 12327 net.cpp:395] inception_5a/relu_1x1 -> inception_5a/1x1 (in-place)
I1206 12:00:10.136566 12327 net.cpp:150] Setting up inception_5a/relu_1x1
I1206 12:00:10.136569 12327 net.cpp:157] Top shape: 50 256 7 7 (627200)
I1206 12:00:10.136570 12327 net.cpp:165] Memory required for data: 2698485224
I1206 12:00:10.136572 12327 layer_factory.hpp:77] Creating layer inception_5a/3x3_reduce
I1206 12:00:10.136579 12327 net.cpp:100] Creating Layer inception_5a/3x3_reduce
I1206 12:00:10.136581 12327 net.cpp:434] inception_5a/3x3_reduce <- pool4/3x3_s2_pool4/3x3_s2_0_split_1
I1206 12:00:10.136586 12327 net.cpp:408] inception_5a/3x3_reduce -> inception_5a/3x3_reduce
I1206 12:00:10.139403 12327 net.cpp:150] Setting up inception_5a/3x3_reduce
I1206 12:00:10.139413 12327 net.cpp:157] Top shape: 50 160 7 7 (392000)
I1206 12:00:10.139415 12327 net.cpp:165] Memory required for data: 2700053224
I1206 12:00:10.139420 12327 layer_factory.hpp:77] Creating layer inception_5a/relu_3x3_reduce
I1206 12:00:10.139425 12327 net.cpp:100] Creating Layer inception_5a/relu_3x3_reduce
I1206 12:00:10.139426 12327 net.cpp:434] inception_5a/relu_3x3_reduce <- inception_5a/3x3_reduce
I1206 12:00:10.139431 12327 net.cpp:395] inception_5a/relu_3x3_reduce -> inception_5a/3x3_reduce (in-place)
I1206 12:00:10.139436 12327 net.cpp:150] Setting up inception_5a/relu_3x3_reduce
I1206 12:00:10.139438 12327 net.cpp:157] Top shape: 50 160 7 7 (392000)
I1206 12:00:10.139441 12327 net.cpp:165] Memory required for data: 2701621224
I1206 12:00:10.139441 12327 layer_factory.hpp:77] Creating layer inception_5a/3x3
I1206 12:00:10.139448 12327 net.cpp:100] Creating Layer inception_5a/3x3
I1206 12:00:10.139451 12327 net.cpp:434] inception_5a/3x3 <- inception_5a/3x3_reduce
I1206 12:00:10.139453 12327 net.cpp:408] inception_5a/3x3 -> inception_5a/3x3
I1206 12:00:10.143693 12327 net.cpp:150] Setting up inception_5a/3x3
I1206 12:00:10.143703 12327 net.cpp:157] Top shape: 50 320 7 7 (784000)
I1206 12:00:10.143704 12327 net.cpp:165] Memory required for data: 2704757224
I1206 12:00:10.143709 12327 layer_factory.hpp:77] Creating layer inception_5a/relu_3x3
I1206 12:00:10.143713 12327 net.cpp:100] Creating Layer inception_5a/relu_3x3
I1206 12:00:10.143717 12327 net.cpp:434] inception_5a/relu_3x3 <- inception_5a/3x3
I1206 12:00:10.143720 12327 net.cpp:395] inception_5a/relu_3x3 -> inception_5a/3x3 (in-place)
I1206 12:00:10.143725 12327 net.cpp:150] Setting up inception_5a/relu_3x3
I1206 12:00:10.143729 12327 net.cpp:157] Top shape: 50 320 7 7 (784000)
I1206 12:00:10.143730 12327 net.cpp:165] Memory required for data: 2707893224
I1206 12:00:10.143733 12327 layer_factory.hpp:77] Creating layer inception_5a/5x5_reduce
I1206 12:00:10.143739 12327 net.cpp:100] Creating Layer inception_5a/5x5_reduce
I1206 12:00:10.143743 12327 net.cpp:434] inception_5a/5x5_reduce <- pool4/3x3_s2_pool4/3x3_s2_0_split_2
I1206 12:00:10.143748 12327 net.cpp:408] inception_5a/5x5_reduce -> inception_5a/5x5_reduce
I1206 12:00:10.144043 12327 net.cpp:150] Setting up inception_5a/5x5_reduce
I1206 12:00:10.144050 12327 net.cpp:157] Top shape: 50 32 7 7 (78400)
I1206 12:00:10.144052 12327 net.cpp:165] Memory required for data: 2708206824
I1206 12:00:10.144057 12327 layer_factory.hpp:77] Creating layer inception_5a/relu_5x5_reduce
I1206 12:00:10.144060 12327 net.cpp:100] Creating Layer inception_5a/relu_5x5_reduce
I1206 12:00:10.144073 12327 net.cpp:434] inception_5a/relu_5x5_reduce <- inception_5a/5x5_reduce
I1206 12:00:10.144076 12327 net.cpp:395] inception_5a/relu_5x5_reduce -> inception_5a/5x5_reduce (in-place)
I1206 12:00:10.144081 12327 net.cpp:150] Setting up inception_5a/relu_5x5_reduce
I1206 12:00:10.144083 12327 net.cpp:157] Top shape: 50 32 7 7 (78400)
I1206 12:00:10.144085 12327 net.cpp:165] Memory required for data: 2708520424
I1206 12:00:10.144088 12327 layer_factory.hpp:77] Creating layer inception_5a/5x5
I1206 12:00:10.144093 12327 net.cpp:100] Creating Layer inception_5a/5x5
I1206 12:00:10.144096 12327 net.cpp:434] inception_5a/5x5 <- inception_5a/5x5_reduce
I1206 12:00:10.144101 12327 net.cpp:408] inception_5a/5x5 -> inception_5a/5x5
I1206 12:00:10.144708 12327 net.cpp:150] Setting up inception_5a/5x5
I1206 12:00:10.144716 12327 net.cpp:157] Top shape: 50 128 7 7 (313600)
I1206 12:00:10.144716 12327 net.cpp:165] Memory required for data: 2709774824
I1206 12:00:10.144721 12327 layer_factory.hpp:77] Creating layer inception_5a/relu_5x5
I1206 12:00:10.144726 12327 net.cpp:100] Creating Layer inception_5a/relu_5x5
I1206 12:00:10.144729 12327 net.cpp:434] inception_5a/relu_5x5 <- inception_5a/5x5
I1206 12:00:10.144732 12327 net.cpp:395] inception_5a/relu_5x5 -> inception_5a/5x5 (in-place)
I1206 12:00:10.144737 12327 net.cpp:150] Setting up inception_5a/relu_5x5
I1206 12:00:10.144740 12327 net.cpp:157] Top shape: 50 128 7 7 (313600)
I1206 12:00:10.144742 12327 net.cpp:165] Memory required for data: 2711029224
I1206 12:00:10.144743 12327 layer_factory.hpp:77] Creating layer inception_5a/pool
I1206 12:00:10.144748 12327 net.cpp:100] Creating Layer inception_5a/pool
I1206 12:00:10.144752 12327 net.cpp:434] inception_5a/pool <- pool4/3x3_s2_pool4/3x3_s2_0_split_3
I1206 12:00:10.144755 12327 net.cpp:408] inception_5a/pool -> inception_5a/pool
I1206 12:00:10.144785 12327 net.cpp:150] Setting up inception_5a/pool
I1206 12:00:10.144789 12327 net.cpp:157] Top shape: 50 832 7 7 (2038400)
I1206 12:00:10.144791 12327 net.cpp:165] Memory required for data: 2719182824
I1206 12:00:10.144793 12327 layer_factory.hpp:77] Creating layer inception_5a/pool_proj
I1206 12:00:10.144799 12327 net.cpp:100] Creating Layer inception_5a/pool_proj
I1206 12:00:10.144803 12327 net.cpp:434] inception_5a/pool_proj <- inception_5a/pool
I1206 12:00:10.144807 12327 net.cpp:408] inception_5a/pool_proj -> inception_5a/pool_proj
I1206 12:00:10.145836 12327 net.cpp:150] Setting up inception_5a/pool_proj
I1206 12:00:10.145846 12327 net.cpp:157] Top shape: 50 128 7 7 (313600)
I1206 12:00:10.145848 12327 net.cpp:165] Memory required for data: 2720437224
I1206 12:00:10.145853 12327 layer_factory.hpp:77] Creating layer inception_5a/relu_pool_proj
I1206 12:00:10.145859 12327 net.cpp:100] Creating Layer inception_5a/relu_pool_proj
I1206 12:00:10.145862 12327 net.cpp:434] inception_5a/relu_pool_proj <- inception_5a/pool_proj
I1206 12:00:10.145865 12327 net.cpp:395] inception_5a/relu_pool_proj -> inception_5a/pool_proj (in-place)
I1206 12:00:10.145869 12327 net.cpp:150] Setting up inception_5a/relu_pool_proj
I1206 12:00:10.145872 12327 net.cpp:157] Top shape: 50 128 7 7 (313600)
I1206 12:00:10.145874 12327 net.cpp:165] Memory required for data: 2721691624
I1206 12:00:10.145875 12327 layer_factory.hpp:77] Creating layer inception_5a/output
I1206 12:00:10.145879 12327 net.cpp:100] Creating Layer inception_5a/output
I1206 12:00:10.145882 12327 net.cpp:434] inception_5a/output <- inception_5a/1x1
I1206 12:00:10.145885 12327 net.cpp:434] inception_5a/output <- inception_5a/3x3
I1206 12:00:10.145889 12327 net.cpp:434] inception_5a/output <- inception_5a/5x5
I1206 12:00:10.145891 12327 net.cpp:434] inception_5a/output <- inception_5a/pool_proj
I1206 12:00:10.145895 12327 net.cpp:408] inception_5a/output -> inception_5a/output
I1206 12:00:10.145915 12327 net.cpp:150] Setting up inception_5a/output
I1206 12:00:10.145920 12327 net.cpp:157] Top shape: 50 832 7 7 (2038400)
I1206 12:00:10.145921 12327 net.cpp:165] Memory required for data: 2729845224
I1206 12:00:10.145932 12327 layer_factory.hpp:77] Creating layer inception_5a/output_inception_5a/output_0_split
I1206 12:00:10.145937 12327 net.cpp:100] Creating Layer inception_5a/output_inception_5a/output_0_split
I1206 12:00:10.145939 12327 net.cpp:434] inception_5a/output_inception_5a/output_0_split <- inception_5a/output
I1206 12:00:10.145944 12327 net.cpp:408] inception_5a/output_inception_5a/output_0_split -> inception_5a/output_inception_5a/output_0_split_0
I1206 12:00:10.145949 12327 net.cpp:408] inception_5a/output_inception_5a/output_0_split -> inception_5a/output_inception_5a/output_0_split_1
I1206 12:00:10.145953 12327 net.cpp:408] inception_5a/output_inception_5a/output_0_split -> inception_5a/output_inception_5a/output_0_split_2
I1206 12:00:10.145958 12327 net.cpp:408] inception_5a/output_inception_5a/output_0_split -> inception_5a/output_inception_5a/output_0_split_3
I1206 12:00:10.146003 12327 net.cpp:150] Setting up inception_5a/output_inception_5a/output_0_split
I1206 12:00:10.146008 12327 net.cpp:157] Top shape: 50 832 7 7 (2038400)
I1206 12:00:10.146010 12327 net.cpp:157] Top shape: 50 832 7 7 (2038400)
I1206 12:00:10.146013 12327 net.cpp:157] Top shape: 50 832 7 7 (2038400)
I1206 12:00:10.146015 12327 net.cpp:157] Top shape: 50 832 7 7 (2038400)
I1206 12:00:10.146018 12327 net.cpp:165] Memory required for data: 2762459624
I1206 12:00:10.146018 12327 layer_factory.hpp:77] Creating layer inception_5b/1x1
I1206 12:00:10.146025 12327 net.cpp:100] Creating Layer inception_5b/1x1
I1206 12:00:10.146028 12327 net.cpp:434] inception_5b/1x1 <- inception_5a/output_inception_5a/output_0_split_0
I1206 12:00:10.146035 12327 net.cpp:408] inception_5b/1x1 -> inception_5b/1x1
I1206 12:00:10.148018 12327 net.cpp:150] Setting up inception_5b/1x1
I1206 12:00:10.148027 12327 net.cpp:157] Top shape: 50 384 7 7 (940800)
I1206 12:00:10.148030 12327 net.cpp:165] Memory required for data: 2766222824
I1206 12:00:10.148033 12327 layer_factory.hpp:77] Creating layer inception_5b/relu_1x1
I1206 12:00:10.148038 12327 net.cpp:100] Creating Layer inception_5b/relu_1x1
I1206 12:00:10.148041 12327 net.cpp:434] inception_5b/relu_1x1 <- inception_5b/1x1
I1206 12:00:10.148046 12327 net.cpp:395] inception_5b/relu_1x1 -> inception_5b/1x1 (in-place)
I1206 12:00:10.148052 12327 net.cpp:150] Setting up inception_5b/relu_1x1
I1206 12:00:10.148056 12327 net.cpp:157] Top shape: 50 384 7 7 (940800)
I1206 12:00:10.148057 12327 net.cpp:165] Memory required for data: 2769986024
I1206 12:00:10.148058 12327 layer_factory.hpp:77] Creating layer inception_5b/3x3_reduce
I1206 12:00:10.148064 12327 net.cpp:100] Creating Layer inception_5b/3x3_reduce
I1206 12:00:10.148067 12327 net.cpp:434] inception_5b/3x3_reduce <- inception_5a/output_inception_5a/output_0_split_1
I1206 12:00:10.148072 12327 net.cpp:408] inception_5b/3x3_reduce -> inception_5b/3x3_reduce
I1206 12:00:10.149328 12327 net.cpp:150] Setting up inception_5b/3x3_reduce
I1206 12:00:10.149338 12327 net.cpp:157] Top shape: 50 192 7 7 (470400)
I1206 12:00:10.149339 12327 net.cpp:165] Memory required for data: 2771867624
I1206 12:00:10.149343 12327 layer_factory.hpp:77] Creating layer inception_5b/relu_3x3_reduce
I1206 12:00:10.149349 12327 net.cpp:100] Creating Layer inception_5b/relu_3x3_reduce
I1206 12:00:10.149353 12327 net.cpp:434] inception_5b/relu_3x3_reduce <- inception_5b/3x3_reduce
I1206 12:00:10.149358 12327 net.cpp:395] inception_5b/relu_3x3_reduce -> inception_5b/3x3_reduce (in-place)
I1206 12:00:10.149363 12327 net.cpp:150] Setting up inception_5b/relu_3x3_reduce
I1206 12:00:10.149368 12327 net.cpp:157] Top shape: 50 192 7 7 (470400)
I1206 12:00:10.149369 12327 net.cpp:165] Memory required for data: 2773749224
I1206 12:00:10.149370 12327 layer_factory.hpp:77] Creating layer inception_5b/3x3
I1206 12:00:10.149377 12327 net.cpp:100] Creating Layer inception_5b/3x3
I1206 12:00:10.149379 12327 net.cpp:434] inception_5b/3x3 <- inception_5b/3x3_reduce
I1206 12:00:10.149384 12327 net.cpp:408] inception_5b/3x3 -> inception_5b/3x3
I1206 12:00:10.153101 12327 net.cpp:150] Setting up inception_5b/3x3
I1206 12:00:10.153118 12327 net.cpp:157] Top shape: 50 384 7 7 (940800)
I1206 12:00:10.153121 12327 net.cpp:165] Memory required for data: 2777512424
I1206 12:00:10.153126 12327 layer_factory.hpp:77] Creating layer inception_5b/relu_3x3
I1206 12:00:10.153131 12327 net.cpp:100] Creating Layer inception_5b/relu_3x3
I1206 12:00:10.153132 12327 net.cpp:434] inception_5b/relu_3x3 <- inception_5b/3x3
I1206 12:00:10.153137 12327 net.cpp:395] inception_5b/relu_3x3 -> inception_5b/3x3 (in-place)
I1206 12:00:10.153141 12327 net.cpp:150] Setting up inception_5b/relu_3x3
I1206 12:00:10.153144 12327 net.cpp:157] Top shape: 50 384 7 7 (940800)
I1206 12:00:10.153146 12327 net.cpp:165] Memory required for data: 2781275624
I1206 12:00:10.153147 12327 layer_factory.hpp:77] Creating layer inception_5b/5x5_reduce
I1206 12:00:10.153153 12327 net.cpp:100] Creating Layer inception_5b/5x5_reduce
I1206 12:00:10.153156 12327 net.cpp:434] inception_5b/5x5_reduce <- inception_5a/output_inception_5a/output_0_split_2
I1206 12:00:10.153161 12327 net.cpp:408] inception_5b/5x5_reduce -> inception_5b/5x5_reduce
I1206 12:00:10.153513 12327 net.cpp:150] Setting up inception_5b/5x5_reduce
I1206 12:00:10.153520 12327 net.cpp:157] Top shape: 50 48 7 7 (117600)
I1206 12:00:10.153522 12327 net.cpp:165] Memory required for data: 2781746024
I1206 12:00:10.153527 12327 layer_factory.hpp:77] Creating layer inception_5b/relu_5x5_reduce
I1206 12:00:10.153532 12327 net.cpp:100] Creating Layer inception_5b/relu_5x5_reduce
I1206 12:00:10.153534 12327 net.cpp:434] inception_5b/relu_5x5_reduce <- inception_5b/5x5_reduce
I1206 12:00:10.153538 12327 net.cpp:395] inception_5b/relu_5x5_reduce -> inception_5b/5x5_reduce (in-place)
I1206 12:00:10.153542 12327 net.cpp:150] Setting up inception_5b/relu_5x5_reduce
I1206 12:00:10.153544 12327 net.cpp:157] Top shape: 50 48 7 7 (117600)
I1206 12:00:10.153545 12327 net.cpp:165] Memory required for data: 2782216424
I1206 12:00:10.153548 12327 layer_factory.hpp:77] Creating layer inception_5b/5x5
I1206 12:00:10.153553 12327 net.cpp:100] Creating Layer inception_5b/5x5
I1206 12:00:10.153555 12327 net.cpp:434] inception_5b/5x5 <- inception_5b/5x5_reduce
I1206 12:00:10.153559 12327 net.cpp:408] inception_5b/5x5 -> inception_5b/5x5
I1206 12:00:10.154366 12327 net.cpp:150] Setting up inception_5b/5x5
I1206 12:00:10.154372 12327 net.cpp:157] Top shape: 50 128 7 7 (313600)
I1206 12:00:10.154373 12327 net.cpp:165] Memory required for data: 2783470824
I1206 12:00:10.154377 12327 layer_factory.hpp:77] Creating layer inception_5b/relu_5x5
I1206 12:00:10.154381 12327 net.cpp:100] Creating Layer inception_5b/relu_5x5
I1206 12:00:10.154384 12327 net.cpp:434] inception_5b/relu_5x5 <- inception_5b/5x5
I1206 12:00:10.154387 12327 net.cpp:395] inception_5b/relu_5x5 -> inception_5b/5x5 (in-place)
I1206 12:00:10.154391 12327 net.cpp:150] Setting up inception_5b/relu_5x5
I1206 12:00:10.154393 12327 net.cpp:157] Top shape: 50 128 7 7 (313600)
I1206 12:00:10.154394 12327 net.cpp:165] Memory required for data: 2784725224
I1206 12:00:10.154397 12327 layer_factory.hpp:77] Creating layer inception_5b/pool
I1206 12:00:10.154400 12327 net.cpp:100] Creating Layer inception_5b/pool
I1206 12:00:10.154403 12327 net.cpp:434] inception_5b/pool <- inception_5a/output_inception_5a/output_0_split_3
I1206 12:00:10.154407 12327 net.cpp:408] inception_5b/pool -> inception_5b/pool
I1206 12:00:10.154435 12327 net.cpp:150] Setting up inception_5b/pool
I1206 12:00:10.154439 12327 net.cpp:157] Top shape: 50 832 7 7 (2038400)
I1206 12:00:10.154440 12327 net.cpp:165] Memory required for data: 2792878824
I1206 12:00:10.154443 12327 layer_factory.hpp:77] Creating layer inception_5b/pool_proj
I1206 12:00:10.154450 12327 net.cpp:100] Creating Layer inception_5b/pool_proj
I1206 12:00:10.154453 12327 net.cpp:434] inception_5b/pool_proj <- inception_5b/pool
I1206 12:00:10.154455 12327 net.cpp:408] inception_5b/pool_proj -> inception_5b/pool_proj
I1206 12:00:10.155458 12327 net.cpp:150] Setting up inception_5b/pool_proj
I1206 12:00:10.155467 12327 net.cpp:157] Top shape: 50 128 7 7 (313600)
I1206 12:00:10.155478 12327 net.cpp:165] Memory required for data: 2794133224
I1206 12:00:10.155483 12327 layer_factory.hpp:77] Creating layer inception_5b/relu_pool_proj
I1206 12:00:10.155488 12327 net.cpp:100] Creating Layer inception_5b/relu_pool_proj
I1206 12:00:10.155491 12327 net.cpp:434] inception_5b/relu_pool_proj <- inception_5b/pool_proj
I1206 12:00:10.155495 12327 net.cpp:395] inception_5b/relu_pool_proj -> inception_5b/pool_proj (in-place)
I1206 12:00:10.155501 12327 net.cpp:150] Setting up inception_5b/relu_pool_proj
I1206 12:00:10.155503 12327 net.cpp:157] Top shape: 50 128 7 7 (313600)
I1206 12:00:10.155505 12327 net.cpp:165] Memory required for data: 2795387624
I1206 12:00:10.155508 12327 layer_factory.hpp:77] Creating layer inception_5b/output
I1206 12:00:10.155510 12327 net.cpp:100] Creating Layer inception_5b/output
I1206 12:00:10.155513 12327 net.cpp:434] inception_5b/output <- inception_5b/1x1
I1206 12:00:10.155514 12327 net.cpp:434] inception_5b/output <- inception_5b/3x3
I1206 12:00:10.155517 12327 net.cpp:434] inception_5b/output <- inception_5b/5x5
I1206 12:00:10.155519 12327 net.cpp:434] inception_5b/output <- inception_5b/pool_proj
I1206 12:00:10.155524 12327 net.cpp:408] inception_5b/output -> inception_5b/output
I1206 12:00:10.155544 12327 net.cpp:150] Setting up inception_5b/output
I1206 12:00:10.155549 12327 net.cpp:157] Top shape: 50 1024 7 7 (2508800)
I1206 12:00:10.155550 12327 net.cpp:165] Memory required for data: 2805422824
I1206 12:00:10.155551 12327 layer_factory.hpp:77] Creating layer pool5/7x7_s1
I1206 12:00:10.155556 12327 net.cpp:100] Creating Layer pool5/7x7_s1
I1206 12:00:10.155558 12327 net.cpp:434] pool5/7x7_s1 <- inception_5b/output
I1206 12:00:10.155561 12327 net.cpp:408] pool5/7x7_s1 -> pool5/7x7_s1
I1206 12:00:10.155578 12327 net.cpp:150] Setting up pool5/7x7_s1
I1206 12:00:10.155582 12327 net.cpp:157] Top shape: 50 1024 1 1 (51200)
I1206 12:00:10.155585 12327 net.cpp:165] Memory required for data: 2805627624
I1206 12:00:10.155586 12327 layer_factory.hpp:77] Creating layer pool5/drop_7x7_s1
I1206 12:00:10.155591 12327 net.cpp:100] Creating Layer pool5/drop_7x7_s1
I1206 12:00:10.155593 12327 net.cpp:434] pool5/drop_7x7_s1 <- pool5/7x7_s1
I1206 12:00:10.155596 12327 net.cpp:395] pool5/drop_7x7_s1 -> pool5/7x7_s1 (in-place)
I1206 12:00:10.155611 12327 net.cpp:150] Setting up pool5/drop_7x7_s1
I1206 12:00:10.155616 12327 net.cpp:157] Top shape: 50 1024 1 1 (51200)
I1206 12:00:10.155616 12327 net.cpp:165] Memory required for data: 2805832424
I1206 12:00:10.155618 12327 layer_factory.hpp:77] Creating layer loss3/classifier_tune
I1206 12:00:10.155623 12327 net.cpp:100] Creating Layer loss3/classifier_tune
I1206 12:00:10.155625 12327 net.cpp:434] loss3/classifier_tune <- pool5/7x7_s1
I1206 12:00:10.155629 12327 net.cpp:408] loss3/classifier_tune -> loss3/classifier
I1206 12:00:10.155760 12327 net.cpp:150] Setting up loss3/classifier_tune
I1206 12:00:10.155764 12327 net.cpp:157] Top shape: 50 10 (500)
I1206 12:00:10.155766 12327 net.cpp:165] Memory required for data: 2805834424
I1206 12:00:10.155771 12327 layer_factory.hpp:77] Creating layer loss3/classifier_loss3/classifier_tune_0_split
I1206 12:00:10.155774 12327 net.cpp:100] Creating Layer loss3/classifier_loss3/classifier_tune_0_split
I1206 12:00:10.155776 12327 net.cpp:434] loss3/classifier_loss3/classifier_tune_0_split <- loss3/classifier
I1206 12:00:10.155779 12327 net.cpp:408] loss3/classifier_loss3/classifier_tune_0_split -> loss3/classifier_loss3/classifier_tune_0_split_0
I1206 12:00:10.155784 12327 net.cpp:408] loss3/classifier_loss3/classifier_tune_0_split -> loss3/classifier_loss3/classifier_tune_0_split_1
I1206 12:00:10.155789 12327 net.cpp:408] loss3/classifier_loss3/classifier_tune_0_split -> loss3/classifier_loss3/classifier_tune_0_split_2
I1206 12:00:10.155823 12327 net.cpp:150] Setting up loss3/classifier_loss3/classifier_tune_0_split
I1206 12:00:10.155827 12327 net.cpp:157] Top shape: 50 10 (500)
I1206 12:00:10.155829 12327 net.cpp:157] Top shape: 50 10 (500)
I1206 12:00:10.155831 12327 net.cpp:157] Top shape: 50 10 (500)
I1206 12:00:10.155839 12327 net.cpp:165] Memory required for data: 2805840424
I1206 12:00:10.155841 12327 layer_factory.hpp:77] Creating layer loss3/loss3
I1206 12:00:10.155845 12327 net.cpp:100] Creating Layer loss3/loss3
I1206 12:00:10.155848 12327 net.cpp:434] loss3/loss3 <- loss3/classifier_loss3/classifier_tune_0_split_0
I1206 12:00:10.155851 12327 net.cpp:434] loss3/loss3 <- label_data_1_split_6
…
