…
I1128 08:06:27.054415  8697 net.cpp:322] The NetState phase (0) differed from the phase (1) specified by a rule in layer loss3/top-5
I1128 08:06:27.055164  8697 net.cpp:58] Initializing net from parameters: 
name: "GoogleNet"
state {
  phase: TRAIN
  level: 0
  stage: ""
}
layer {
  name: "data"
  type: "Data"
  top: "data"
  top: "label"
  include {
    phase: TRAIN
  }
  transform_param {
    mirror: true
    crop_size: 224
    mean_file: "/home/juran/distracteddriver/input/mean.binaryproto"
  }
  data_param {
    source: "/home/juran/distracteddriver/input/train_lmdb"
    batch_size: 16
    backend: LMDB
  }
}
layer {
  name: "conv1/7x7_s2"
  type: "Convolution"
  bottom: "data"
  top: "conv1/7x7_s2"
  param {
    lr_mult: 1
    decay_mult: 1
  }
  param {
    lr_mult: 2
    decay_mult: 0
  }
  convolution_param {
    num_output: 64
    pad: 3
    kernel_size: 7
    stride: 2
    weight_filler {
      type: "xavier"
    }
    bias_filler {
      type: "constant"
      value: 0.2
    }
  }
}
layer {
  name: "conv1/relu_7x7"
  type: "ReLU"
  bottom: "conv1/7x7_s2"
  top: "conv1/7x7_s2"
}
layer {
  name: "pool1/3x3_s2"
  type: "Pooling"
  bottom: "conv1/7x7_s2"
  top: "pool1/3x3_s2"
  pooling_param {
    pool: MAX
    kernel_size: 3
    stride: 2
  }
}
layer {
  name: "pool1/norm1"
  type: "LRN"
  bottom: "pool1/3x3_s2"
  top: "pool1/norm1"
  lrn_param {
    local_size: 5
    alpha: 0.0001
    beta: 0.75
  }
}
layer {
  name: "conv2/3x3_reduce"
  type: "Convolution"
  bottom: "pool1/norm1"
  top: "conv2/3x3_reduce"
  param {
    lr_mult: 1
    decay_mult: 1
  }
  param {
    lr_mult: 2
    decay_mult: 0
  }
  convolution_param {
    num_output: 64
    kernel_size: 1
    weight_filler {
      type: "xavier"
    }
    bias_filler {
      type: "constant"
      value: 0.2
    }
  }
}
layer {
  name: "conv2/relu_3x3_reduce"
  type: "ReLU"
  bottom: "conv2/3x3_reduce"
  top: "conv2/3x3_reduce"
}
layer {
  name: "conv2/3x3"
  type: "Convolution"
  bottom: "conv2/3x3_reduce"
  top: "conv2/3x3"
  param {
    lr_mult: 1
    decay_mult: 1
  }
  param {
    lr_mult: 2
    decay_mult: 0
  }
  convolution_param {
    num_output: 192
    pad: 1
    kernel_size: 3
    weight_filler {
      type: "xavier"
    }
    bias_filler {
      type: "constant"
      value: 0.2
    }
  }
}
layer {
  name: "conv2/relu_3x3"
  type: "ReLU"
  bottom: "conv2/3x3"
  top: "conv2/3x3"
}
layer {
  name: "conv2/norm2"
  type: "LRN"
  bottom: "conv2/3x3"
  top: "conv2/norm2"
  lrn_param {
    local_size: 5
    alpha: 0.0001
    beta: 0.75
  }
}
layer {
  name: "pool2/3x3_s2"
  type: "Pooling"
  bottom: "conv2/norm2"
  top: "pool2/3x3_s2"
  pooling_param {
    pool: MAX
    kernel_size: 3
    stride: 2
  }
}
layer {
  name: "inception_3a/1x1"
  type: "Convolution"
  bottom: "pool2/3x3_s2"
  top: "inception_3a/1x1"
  param {
    lr_mult: 1
    decay_mult: 1
  }
  param {
    lr_mult: 2
    decay_mult: 0
  }
  convolution_param {
    num_output: 64
    kernel_size: 1
    weight_filler {
      type: "xavier"
    }
    bias_filler {
      type: "constant"
      value: 0.2
    }
  }
}
layer {
  name: "inception_3a/relu_1x1"
  type: "ReLU"
  bottom: "inception_3a/1x1"
  top: "inception_3a/1x1"
}
layer {
  name: "inception_3a/3x3_reduce"
  type: "Convolution"
  bottom: "pool2/3x3_s2"
  top: "inception_3a/3x3_reduce"
  param {
    lr_mult: 1
    decay_mult: 1
  }
  param {
    lr_mult: 2
    decay_mult: 0
  }
  convolution_param {
    num_output: 96
    kernel_size: 1
    weight_filler {
      type: "xavier"
    }
    bias_filler {
      type: "constant"
      value: 0.2
    }
  }
}
layer {
  name: "inception_3a/relu_3x3_reduce"
  type: "ReLU"
  bottom: "inception_3a/3x3_reduce"
  top: "inception_3a/3x3_reduce"
}
layer {
  name: "inception_3a/3x3"
  type: "Convolution"
  bottom: "inception_3a/3x3_reduce"
  top: "inception_3a/3x3"
  param {
    lr_mult: 1
    decay_mult: 1
  }
  param {
    lr_mult: 2
    decay_mult: 0
  }
  convolution_param {
    num_output: 128
    pad: 1
    kernel_size: 3
    weight_filler {
      type: "xavier"
    }
    bias_filler {
      type: "constant"
      value: 0.2
    }
  }
}
layer {
  name: "inception_3a/relu_3x3"
  type: "ReLU"
  bottom: "inception_3a/3x3"
  top: "inception_3a/3x3"
}
layer {
  name: "inception_3a/5x5_reduce"
  type: "Convolution"
  bottom: "pool2/3x3_s2"
  top: "inception_3a/5x5_reduce"
  param {
    lr_mult: 1
    decay_mult: 1
  }
  param {
    lr_mult: 2
    decay_mult: 0
  }
  convolution_param {
    num_output: 16
    kernel_size: 1
    weight_filler {
      type: "xavier"
    }
    bias_filler {
      type: "constant"
      value: 0.2
    }
  }
}
layer {
  name: "inception_3a/relu_5x5_reduce"
  type: "ReLU"
  bottom: "inception_3a/5x5_reduce"
  top: "inception_3a/5x5_reduce"
}
layer {
  name: "inception_3a/5x5"
  type: "Convolution"
  bottom: "inception_3a/5x5_reduce"
  top: "inception_3a/5x5"
  param {
    lr_mult: 1
    decay_mult: 1
  }
  param {
    lr_mult: 2
    decay_mult: 0
  }
  convolution_param {
    num_output: 32
    pad: 2
    kernel_size: 5
    weight_filler {
      type: "xavier"
    }
    bias_filler {
      type: "constant"
      value: 0.2
    }
  }
}
layer {
  name: "inception_3a/relu_5x5"
  type: "ReLU"
  bottom: "inception_3a/5x5"
  top: "inception_3a/5x5"
}
layer {
  name: "inception_3a/pool"
  type: "Pooling"
  bottom: "pool2/3x3_s2"
  top: "inception_3a/pool"
  pooling_param {
    pool: MAX
    kernel_size: 3
    stride: 1
    pad: 1
  }
}
layer {
  name: "inception_3a/pool_proj"
  type: "Convolution"
  bottom: "inception_3a/pool"
  top: "inception_3a/pool_proj"
  param {
    lr_mult: 1
    decay_mult: 1
  }
  param {
    lr_mult: 2
    decay_mult: 0
  }
  convolution_param {
    num_output: 32
    kernel_size: 1
    weight_filler {
      type: "xavier"
    }
    bias_filler {
      type: "constant"
      value: 0.2
    }
  }
}
layer {
  name: "inception_3a/relu_pool_proj"
  type: "ReLU"
  bottom: "inception_3a/pool_proj"
  top: "inception_3a/pool_proj"
}
layer {
  name: "inception_3a/output"
  type: "Concat"
  bottom: "inception_3a/1x1"
  bottom: "inception_3a/3x3"
  bottom: "inception_3a/5x5"
  bottom: "inception_3a/pool_proj"
  top: "inception_3a/output"
}
layer {
  name: "inception_3b/1x1"
  type: "Convolution"
  bottom: "inception_3a/output"
  top: "inception_3b/1x1"
  param {
    lr_mult: 1
    decay_mult: 1
  }
  param {
    lr_mult: 2
    decay_mult: 0
  }
  convolution_param {
    num_output: 128
    kernel_size: 1
    weight_filler {
      type: "xavier"
    }
    bias_filler {
      type: "constant"
      value: 0.2
    }
  }
}
layer {
  name: "inception_3b/relu_1x1"
  type: "ReLU"
  bottom: "inception_3b/1x1"
  top: "inception_3b/1x1"
}
layer {
  name: "inception_3b/3x3_reduce"
  type: "Convolution"
  bottom: "inception_3a/output"
  top: "inception_3b/3x3_reduce"
  param {
    lr_mult: 1
    decay_mult: 1
  }
  param {
    lr_mult: 2
    decay_mult: 0
  }
  convolution_param {
    num_output: 128
    kernel_size: 1
    weight_filler {
      type: "xavier"
    }
    bias_filler {
      type: "constant"
      value: 0.2
    }
  }
}
layer {
  name: "inception_3b/relu_3x3_reduce"
  type: "ReLU"
  bottom: "inception_3b/3x3_reduce"
  top: "inception_3b/3x3_reduce"
}
layer {
  name: "inception_3b/3x3"
  type: "Convolution"
  bottom: "inception_3b/3x3_reduce"
  top: "inception_3b/3x3"
  param {
    lr_mult: 1
    decay_mult: 1
  }
  param {
    lr_mult: 2
    decay_mult: 0
  }
  convolution_param {
    num_output: 192
    pad: 1
    kernel_size: 3
    weight_filler {
      type: "xavier"
    }
    bias_filler {
      type: "constant"
      value: 0.2
    }
  }
}
layer {
  name: "inception_3b/relu_3x3"
  type: "ReLU"
  bottom: "inception_3b/3x3"
  top: "inception_3b/3x3"
}
layer {
  name: "inception_3b/5x5_reduce"
  type: "Convolution"
  bottom: "inception_3a/output"
  top: "inception_3b/5x5_reduce"
  param {
    lr_mult: 1
    decay_mult: 1
  }
  param {
    lr_mult: 2
    decay_mult: 0
  }
  convolution_param {
    num_output: 32
    kernel_size: 1
    weight_filler {
      type: "xavier"
    }
    bias_filler {
      type: "constant"
      value: 0.2
    }
  }
}
layer {
  name: "inception_3b/relu_5x5_reduce"
  type: "ReLU"
  bottom: "inception_3b/5x5_reduce"
  top: "inception_3b/5x5_reduce"
}
layer {
  name: "inception_3b/5x5"
  type: "Convolution"
  bottom: "inception_3b/5x5_reduce"
  top: "inception_3b/5x5"
  param {
    lr_mult: 1
    decay_mult: 1
  }
  param {
    lr_mult: 2
    decay_mult: 0
  }
  convolution_param {
    num_output: 96
    pad: 2
    kernel_size: 5
    weight_filler {
      type: "xavier"
    }
    bias_filler {
      type: "constant"
      value: 0.2
    }
  }
}
layer {
  name: "inception_3b/relu_5x5"
  type: "ReLU"
  bottom: "inception_3b/5x5"
  top: "inception_3b/5x5"
}
layer {
  name: "inception_3b/pool"
  type: "Pooling"
  bottom: "inception_3a/output"
  top: "inception_3b/pool"
  pooling_param {
    pool: MAX
    kernel_size: 3
    stride: 1
    pad: 1
  }
}
layer {
  name: "inception_3b/pool_proj"
  type: "Convolution"
  bottom: "inception_3b/pool"
  top: "inception_3b/pool_proj"
  param {
    lr_mult: 1
    decay_mult: 1
  }
  param {
    lr_mult: 2
    decay_mult: 0
  }
  convolution_param {
    num_output: 64
    kernel_size: 1
    weight_filler {
      type: "xavier"
    }
    bias_filler {
      type: "constant"
      value: 0.2
    }
  }
}
layer {
  name: "inception_3b/relu_pool_proj"
  type: "ReLU"
  bottom: "inception_3b/pool_proj"
  top: "inception_3b/pool_proj"
}
layer {
  name: "inception_3b/output"
  type: "Concat"
  bottom: "inception_3b/1x1"
  bottom: "inception_3b/3x3"
  bottom: "inception_3b/5x5"
  bottom: "inception_3b/pool_proj"
  top: "inception_3b/output"
}
layer {
  name: "pool3/3x3_s2"
  type: "Pooling"
  bottom: "inception_3b/output"
  top: "pool3/3x3_s2"
  pooling_param {
    pool: MAX
    kernel_size: 3
    stride: 2
  }
}
layer {
  name: "inception_4a/1x1"
  type: "Convolution"
  bottom: "pool3/3x3_s2"
  top: "inception_4a/1x1"
  param {
    lr_mult: 1
    decay_mult: 1
  }
  param {
    lr_mult: 2
    decay_mult: 0
  }
  convolution_param {
    num_output: 192
    kernel_size: 1
    weight_filler {
      type: "xavier"
    }
    bias_filler {
      type: "constant"
      value: 0.2
    }
  }
}
layer {
  name: "inception_4a/relu_1x1"
  type: "ReLU"
  bottom: "inception_4a/1x1"
  top: "inception_4a/1x1"
}
layer {
  name: "inception_4a/3x3_reduce"
  type: "Convolution"
  bottom: "pool3/3x3_s2"
  top: "inception_4a/3x3_reduce"
  param {
    lr_mult: 1
    decay_mult: 1
  }
  param {
    lr_mult: 2
    decay_mult: 0
  }
  convolution_param {
    num_output: 96
    kernel_size: 1
    weight_filler {
      type: "xavier"
    }
    bias_filler {
      type: "constant"
      value: 0.2
    }
  }
}
layer {
  name: "inception_4a/relu_3x3_reduce"
  type: "ReLU"
  bottom: "inception_4a/3x3_reduce"
  top: "inception_4a/3x3_reduce"
}
layer {
  name: "inception_4a/3x3"
  type: "Convolution"
  bottom: "inception_4a/3x3_reduce"
  top: "inception_4a/3x3"
  param {
    lr_mult: 1
    decay_mult: 1
  }
  param {
    lr_mult: 2
    decay_mult: 0
  }
  convolution_param {
    num_output: 208
    pad: 1
    kernel_size: 3
    weight_filler {
      type: "xavier"
    }
    bias_filler {
      type: "constant"
      value: 0.2
    }
  }
}
layer {
  name: "inception_4a/relu_3x3"
  type: "ReLU"
  bottom: "inception_4a/3x3"
  top: "inception_4a/3x3"
}
layer {
  name: "inception_4a/5x5_reduce"
  type: "Convolution"
  bottom: "pool3/3x3_s2"
  top: "inception_4a/5x5_reduce"
  param {
    lr_mult: 1
    decay_mult: 1
  }
  param {
    lr_mult: 2
    decay_mult: 0
  }
  convolution_param {
    num_output: 16
    kernel_size: 1
    weight_filler {
      type: "xavier"
    }
    bias_filler {
      type: "constant"
      value: 0.2
    }
  }
}
layer {
  name: "inception_4a/relu_5x5_reduce"
  type: "ReLU"
  bottom: "inception_4a/5x5_reduce"
  top: "inception_4a/5x5_reduce"
}
layer {
  name: "inception_4a/5x5"
  type: "Convolution"
  bottom: "inception_4a/5x5_reduce"
  top: "inception_4a/5x5"
  param {
    lr_mult: 1
    decay_mult: 1
  }
  param {
    lr_mult: 2
    decay_mult: 0
  }
  convolution_param {
    num_output: 48
    pad: 2
    kernel_size: 5
    weight_filler {
      type: "xavier"
    }
    bias_filler {
      type: "constant"
      value: 0.2
    }
  }
}
layer {
  name: "inception_4a/relu_5x5"
  type: "ReLU"
  bottom: "inception_4a/5x5"
  top: "inception_4a/5x5"
}
layer {
  name: "inception_4a/pool"
  type: "Pooling"
  bottom: "pool3/3x3_s2"
  top: "inception_4a/pool"
  pooling_param {
    pool: MAX
    kernel_size: 3
    stride: 1
    pad: 1
  }
}
layer {
  name: "inception_4a/pool_proj"
  type: "Convolution"
  bottom: "inception_4a/pool"
  top: "inception_4a/pool_proj"
  param {
    lr_mult: 1
    decay_mult: 1
  }
  param {
    lr_mult: 2
    decay_mult: 0
  }
  convolution_param {
    num_output: 64
    kernel_size: 1
    weight_filler {
      type: "xavier"
    }
    bias_filler {
      type: "constant"
      value: 0.2
    }
  }
}
layer {
  name: "inception_4a/relu_pool_proj"
  type: "ReLU"
  bottom: "inception_4a/pool_proj"
  top: "inception_4a/pool_proj"
}
layer {
  name: "inception_4a/output"
  type: "Concat"
  bottom: "inception_4a/1x1"
  bottom: "inception_4a/3x3"
  bottom: "inception_4a/5x5"
  bottom: "inception_4a/pool_proj"
  top: "inception_4a/output"
}
layer {
  name: "loss1/ave_pool"
  type: "Pooling"
  bottom: "inception_4a/output"
  top: "loss1/ave_pool"
  pooling_param {
    pool: AVE
    kernel_size: 5
    stride: 3
  }
}
layer {
  name: "loss1/conv"
  type: "Convolution"
  bottom: "loss1/ave_pool"
  top: "loss1/conv"
  param {
    lr_mult: 1
    decay_mult: 1
  }
  param {
    lr_mult: 2
    decay_mult: 0
  }
  convolution_param {
    num_output: 128
    kernel_size: 1
    weight_filler {
      type: "xavier"
    }
    bias_filler {
      type: "constant"
      value: 0.2
    }
  }
}
layer {
  name: "loss1/relu_conv"
  type: "ReLU"
  bottom: "loss1/conv"
  top: "loss1/conv"
}
layer {
  name: "loss1/fc"
  type: "InnerProduct"
  bottom: "loss1/conv"
  top: "loss1/fc"
  param {
    lr_mult: 1
    decay_mult: 1
  }
  param {
    lr_mult: 2
    decay_mult: 0
  }
  inner_product_param {
    num_output: 1024
    weight_filler {
      type: "xavier"
    }
    bias_filler {
      type: "constant"
      value: 0.2
    }
  }
}
layer {
  name: "loss1/relu_fc"
  type: "ReLU"
  bottom: "loss1/fc"
  top: "loss1/fc"
}
layer {
  name: "loss1/drop_fc"
  type: "Dropout"
  bottom: "loss1/fc"
  top: "loss1/fc"
  dropout_param {
    dropout_ratio: 0.7
  }
}
layer {
  name: "loss1/classifier"
  type: "InnerProduct"
  bottom: "loss1/fc"
  top: "loss1/classifier"
  param {
    lr_mult: 1
    decay_mult: 1
  }
  param {
    lr_mult: 2
    decay_mult: 0
  }
  inner_product_param {
    num_output: 1000
    weight_filler {
      type: "xavier"
    }
    bias_filler {
      type: "constant"
      value: 0
    }
  }
}
layer {
  name: "loss1/loss"
  type: "SoftmaxWithLoss"
  bottom: "loss1/classifier"
  bottom: "label"
  top: "loss1/loss1"
  loss_weight: 0.3
}
layer {
  name: "inception_4b/1x1"
  type: "Convolution"
  bottom: "inception_4a/output"
  top: "inception_4b/1x1"
  param {
    lr_mult: 1
    decay_mult: 1
  }
  param {
    lr_mult: 2
    decay_mult: 0
  }
  convolution_param {
    num_output: 160
    kernel_size: 1
    weight_filler {
      type: "xavier"
    }
    bias_filler {
      type: "constant"
      value: 0.2
    }
  }
}
layer {
  name: "inception_4b/relu_1x1"
  type: "ReLU"
  bottom: "inception_4b/1x1"
  top: "inception_4b/1x1"
}
layer {
  name: "inception_4b/3x3_reduce"
  type: "Convolution"
  bottom: "inception_4a/output"
  top: "inception_4b/3x3_reduce"
  param {
    lr_mult: 1
    decay_mult: 1
  }
  param {
    lr_mult: 2
    decay_mult: 0
  }
  convolution_param {
    num_output: 112
    kernel_size: 1
    weight_filler {
      type: "xavier"
    }
    bias_filler {
      type: "constant"
      value: 0.2
    }
  }
}
layer {
  name: "inception_4b/relu_3x3_reduce"
  type: "ReLU"
  bottom: "inception_4b/3x3_reduce"
  top: "inception_4b/3x3_reduce"
}
layer {
  name: "inception_4b/3x3"
  type: "Convolution"
  bottom: "inception_4b/3x3_reduce"
  top: "inception_4b/3x3"
  param {
    lr_mult: 1
    decay_mult: 1
  }
  param {
    lr_mult: 2
    decay_mult: 0
  }
  convolution_param {
    num_output: 224
    pad: 1
    kernel_size: 3
    weight_filler {
      type: "xavier"
    }
    bias_filler {
      type: "constant"
      value: 0.2
    }
  }
}
layer {
  name: "inception_4b/relu_3x3"
  type: "ReLU"
  bottom: "inception_4b/3x3"
  top: "inception_4b/3x3"
}
layer {
  name: "inception_4b/5x5_reduce"
  type: "Convolution"
  bottom: "inception_4a/output"
  top: "inception_4b/5x5_reduce"
  param {
    lr_mult: 1
    decay_mult: 1
  }
  param {
    lr_mult: 2
    decay_mult: 0
  }
  convolution_param {
    num_output: 24
    kernel_size: 1
    weight_filler {
      type: "xavier"
    }
    bias_filler {
      type: "constant"
      value: 0.2
    }
  }
}
layer {
  name: "inception_4b/relu_5x5_reduce"
  type: "ReLU"
  bottom: "inception_4b/5x5_reduce"
  top: "inception_4b/5x5_reduce"
}
layer {
  name: "inception_4b/5x5"
  type: "Convolution"
  bottom: "inception_4b/5x5_reduce"
  top: "inception_4b/5x5"
  param {
    lr_mult: 1
    decay_mult: 1
  }
  param {
    lr_mult: 2
    decay_mult: 0
  }
  convolution_param {
    num_output: 64
    pad: 2
    kernel_size: 5
    weight_filler {
      type: "xavier"
    }
    bias_filler {
      type: "constant"
      value: 0.2
    }
  }
}
layer {
  name: "inception_4b/relu_5x5"
  type: "ReLU"
  bottom: "inception_4b/5x5"
  top: "inception_4b/5x5"
}
layer {
  name: "inception_4b/pool"
  type: "Pooling"
  bottom: "inception_4a/output"
  top: "inception_4b/pool"
  pooling_param {
    pool: MAX
    kernel_size: 3
    stride: 1
    pad: 1
  }
}
layer {
  name: "inception_4b/pool_proj"
  type: "Convolution"
  bottom: "inception_4b/pool"
  top: "inception_4b/pool_proj"
  param {
    lr_mult: 1
    decay_mult: 1
  }
  param {
    lr_mult: 2
    decay_mult: 0
  }
  convolution_param {
    num_output: 64
    kernel_size: 1
    weight_filler {
      type: "xavier"
    }
    bias_filler {
      type: "constant"
      value: 0.2
    }
  }
}
layer {
  name: "inception_4b/relu_pool_proj"
  type: "ReLU"
  bottom: "inception_4b/pool_proj"
  top: "inception_4b/pool_proj"
}
layer {
  name: "inception_4b/output"
  type: "Concat"
  bottom: "inception_4b/1x1"
  bottom: "inception_4b/3x3"
  bottom: "inception_4b/5x5"
  bottom: "inception_4b/pool_proj"
  top: "inception_4b/output"
}
layer {
  name: "inception_4c/1x1"
  type: "Convolution"
  bottom: "inception_4b/output"
  top: "inception_4c/1x1"
  param {
    lr_mult: 1
    decay_mult: 1
  }
  param {
    lr_mult: 2
    decay_mult: 0
  }
  convolution_param {
    num_output: 128
    kernel_size: 1
    weight_filler {
      type: "xavier"
    }
    bias_filler {
      type: "constant"
      value: 0.2
    }
  }
}
layer {
  name: "inception_4c/relu_1x1"
  type: "ReLU"
  bottom: "inception_4c/1x1"
  top: "inception_4c/1x1"
}
layer {
  name: "inception_4c/3x3_reduce"
  type: "Convolution"
  bottom: "inception_4b/output"
  top: "inception_4c/3x3_reduce"
  param {
    lr_mult: 1
    decay_mult: 1
  }
  param {
    lr_mult: 2
    decay_mult: 0
  }
  convolution_param {
    num_output: 128
    kernel_size: 1
    weight_filler {
      type: "xavier"
    }
    bias_filler {
      type: "constant"
      value: 0.2
    }
  }
}
layer {
  name: "inception_4c/relu_3x3_reduce"
  type: "ReLU"
  bottom: "inception_4c/3x3_reduce"
  top: "inception_4c/3x3_reduce"
}
layer {
  name: "inception_4c/3x3"
  type: "Convolution"
  bottom: "inception_4c/3x3_reduce"
  top: "inception_4c/3x3"
  param {
    lr_mult: 1
    decay_mult: 1
  }
  param {
    lr_mult: 2
    decay_mult: 0
  }
  convolution_param {
    num_output: 256
    pad: 1
    kernel_size: 3
    weight_filler {
      type: "xavier"
    }
    bias_filler {
      type: "constant"
      value: 0.2
    }
  }
}
layer {
  name: "inception_4c/relu_3x3"
  type: "ReLU"
  bottom: "inception_4c/3x3"
  top: "inception_4c/3x3"
}
layer {
  name: "inception_4c/5x5_reduce"
  type: "Convolution"
  bottom: "inception_4b/output"
  top: "inception_4c/5x5_reduce"
  param {
    lr_mult: 1
    decay_mult: 1
  }
  param {
    lr_mult: 2
    decay_mult: 0
  }
  convolution_param {
    num_output: 24
    kernel_size: 1
    weight_filler {
      type: "xavier"
    }
    bias_filler {
      type: "constant"
      value: 0.2
    }
  }
}
layer {
  name: "inception_4c/relu_5x5_reduce"
  type: "ReLU"
  bottom: "inception_4c/5x5_reduce"
  top: "inception_4c/5x5_reduce"
}
layer {
  name: "inception_4c/5x5"
  type: "Convolution"
  bottom: "inception_4c/5x5_reduce"
  top: "inception_4c/5x5"
  param {
    lr_mult: 1
    decay_mult: 1
  }
  param {
    lr_mult: 2
    decay_mult: 0
  }
  convolution_param {
    num_output: 64
    pad: 2
    kernel_size: 5
    weight_filler {
      type: "xavier"
    }
    bias_filler {
      type: "constant"
      value: 0.2
    }
  }
}
layer {
  name: "inception_4c/relu_5x5"
  type: "ReLU"
  bottom: "inception_4c/5x5"
  top: "inception_4c/5x5"
}
layer {
  name: "inception_4c/pool"
  type: "Pooling"
  bottom: "inception_4b/output"
  top: "inception_4c/pool"
  pooling_param {
    pool: MAX
    kernel_size: 3
    stride: 1
    pad: 1
  }
}
layer {
  name: "inception_4c/pool_proj"
  type: "Convolution"
  bottom: "inception_4c/pool"
  top: "inception_4c/pool_proj"
  param {
    lr_mult: 1
    decay_mult: 1
  }
  param {
    lr_mult: 2
    decay_mult: 0
  }
  convolution_param {
    num_output: 64
    kernel_size: 1
    weight_filler {
      type: "xavier"
    }
    bias_filler {
      type: "constant"
      value: 0.2
    }
  }
}
layer {
  name: "inception_4c/relu_pool_proj"
  type: "ReLU"
  bottom: "inception_4c/pool_proj"
  top: "inception_4c/pool_proj"
}
layer {
  name: "inception_4c/output"
  type: "Concat"
  bottom: "inception_4c/1x1"
  bottom: "inception_4c/3x3"
  bottom: "inception_4c/5x5"
  bottom: "inception_4c/pool_proj"
  top: "inception_4c/output"
}
layer {
  name: "inception_4d/1x1"
  type: "Convolution"
  bottom: "inception_4c/output"
  top: "inception_4d/1x1"
  param {
    lr_mult: 1
    decay_mult: 1
  }
  param {
    lr_mult: 2
    decay_mult: 0
  }
  convolution_param {
    num_output: 112
    kernel_size: 1
    weight_filler {
      type: "xavier"
    }
    bias_filler {
      type: "constant"
      value: 0.2
    }
  }
}
layer {
  name: "inception_4d/relu_1x1"
  type: "ReLU"
  bottom: "inception_4d/1x1"
  top: "inception_4d/1x1"
}
layer {
  name: "inception_4d/3x3_reduce"
  type: "Convolution"
  bottom: "inception_4c/output"
  top: "inception_4d/3x3_reduce"
  param {
    lr_mult: 1
    decay_mult: 1
  }
  param {
    lr_mult: 2
    decay_mult: 0
  }
  convolution_param {
    num_output: 144
    kernel_size: 1
    weight_filler {
      type: "xavier"
    }
    bias_filler {
      type: "constant"
      value: 0.2
    }
  }
}
layer {
  name: "inception_4d/relu_3x3_reduce"
  type: "ReLU"
  bottom: "inception_4d/3x3_reduce"
  top: "inception_4d/3x3_reduce"
}
layer {
  name: "inception_4d/3x3"
  type: "Convolution"
  bottom: "inception_4d/3x3_reduce"
  top: "inception_4d/3x3"
  param {
    lr_mult: 1
    decay_mult: 1
  }
  param {
    lr_mult: 2
    decay_mult: 0
  }
  convolution_param {
    num_output: 288
    pad: 1
    kernel_size: 3
    weight_filler {
      type: "xavier"
    }
    bias_filler {
      type: "constant"
      value: 0.2
    }
  }
}
layer {
  name: "inception_4d/relu_3x3"
  type: "ReLU"
  bottom: "inception_4d/3x3"
  top: "inception_4d/3x3"
}
layer {
  name: "inception_4d/5x5_reduce"
  type: "Convolution"
  bottom: "inception_4c/output"
  top: "inception_4d/5x5_reduce"
  param {
    lr_mult: 1
    decay_mult: 1
  }
  param {
    lr_mult: 2
    decay_mult: 0
  }
  convolution_param {
    num_output: 32
    kernel_size: 1
    weight_filler {
      type: "xavier"
    }
    bias_filler {
      type: "constant"
      value: 0.2
    }
  }
}
layer {
  name: "inception_4d/relu_5x5_reduce"
  type: "ReLU"
  bottom: "inception_4d/5x5_reduce"
  top: "inception_4d/5x5_reduce"
}
layer {
  name: "inception_4d/5x5"
  type: "Convolution"
  bottom: "inception_4d/5x5_reduce"
  top: "inception_4d/5x5"
  param {
    lr_mult: 1
    decay_mult: 1
  }
  param {
    lr_mult: 2
    decay_mult: 0
  }
  convolution_param {
    num_output: 64
    pad: 2
    kernel_size: 5
    weight_filler {
      type: "xavier"
    }
    bias_filler {
      type: "constant"
      value: 0.2
    }
  }
}
layer {
  name: "inception_4d/relu_5x5"
  type: "ReLU"
  bottom: "inception_4d/5x5"
  top: "inception_4d/5x5"
}
layer {
  name: "inception_4d/pool"
  type: "Pooling"
  bottom: "inception_4c/output"
  top: "inception_4d/pool"
  pooling_param {
    pool: MAX
    kernel_size: 3
    stride: 1
    pad: 1
  }
}
layer {
  name: "inception_4d/pool_proj"
  type: "Convolution"
  bottom: "inception_4d/pool"
  top: "inception_4d/pool_proj"
  param {
    lr_mult: 1
    decay_mult: 1
  }
  param {
    lr_mult: 2
    decay_mult: 0
  }
  convolution_param {
    num_output: 64
    kernel_size: 1
    weight_filler {
      type: "xavier"
    }
    bias_filler {
      type: "constant"
      value: 0.2
    }
  }
}
layer {
  name: "inception_4d/relu_pool_proj"
  type: "ReLU"
  bottom: "inception_4d/pool_proj"
  top: "inception_4d/pool_proj"
}
layer {
  name: "inception_4d/output"
  type: "Concat"
  bottom: "inception_4d/1x1"
  bottom: "inception_4d/3x3"
  bottom: "inception_4d/5x5"
  bottom: "inception_4d/pool_proj"
  top: "inception_4d/output"
}
layer {
  name: "loss2/ave_pool"
  type: "Pooling"
  bottom: "inception_4d/output"
  top: "loss2/ave_pool"
  pooling_param {
    pool: AVE
    kernel_size: 5
    stride: 3
  }
}
layer {
  name: "loss2/conv"
  type: "Convolution"
  bottom: "loss2/ave_pool"
  top: "loss2/conv"
  param {
    lr_mult: 1
    decay_mult: 1
  }
  param {
    lr_mult: 2
    decay_mult: 0
  }
  convolution_param {
    num_output: 128
    kernel_size: 1
    weight_filler {
      type: "xavier"
    }
    bias_filler {
      type: "constant"
      value: 0.2
    }
  }
}
layer {
  name: "loss2/relu_conv"
  type: "ReLU"
  bottom: "loss2/conv"
  top: "loss2/conv"
}
layer {
  name: "loss2/fc"
  type: "InnerProduct"
  bottom: "loss2/conv"
  top: "loss2/fc"
  param {
    lr_mult: 1
    decay_mult: 1
  }
  param {
    lr_mult: 2
    decay_mult: 0
  }
  inner_product_param {
    num_output: 1024
    weight_filler {
      type: "xavier"
    }
    bias_filler {
      type: "constant"
      value: 0.2
    }
  }
}
layer {
  name: "loss2/relu_fc"
  type: "ReLU"
  bottom: "loss2/fc"
  top: "loss2/fc"
}
layer {
  name: "loss2/drop_fc"
  type: "Dropout"
  bottom: "loss2/fc"
  top: "loss2/fc"
  dropout_param {
    dropout_ratio: 0.7
  }
}
layer {
  name: "loss2/classifier"
  type: "InnerProduct"
  bottom: "loss2/fc"
  top: "loss2/classifier"
  param {
    lr_mult: 1
    decay_mult: 1
  }
  param {
    lr_mult: 2
    decay_mult: 0
  }
  inner_product_param {
    num_output: 1000
    weight_filler {
      type: "xavier"
    }
    bias_filler {
      type: "constant"
      value: 0
    }
  }
}
layer {
  name: "loss2/loss"
  type: "SoftmaxWithLoss"
  bottom: "loss2/classifier"
  bottom: "label"
  top: "loss2/loss1"
  loss_weight: 0.3
}
layer {
  name: "inception_4e/1x1"
  type: "Convolution"
  bottom: "inception_4d/output"
  top: "inception_4e/1x1"
  param {
    lr_mult: 1
    decay_mult: 1
  }
  param {
    lr_mult: 2
    decay_mult: 0
  }
  convolution_param {
    num_output: 256
    kernel_size: 1
    weight_filler {
      type: "xavier"
    }
    bias_filler {
      type: "constant"
      value: 0.2
    }
  }
}
layer {
  name: "inception_4e/relu_1x1"
  type: "ReLU"
  bottom: "inception_4e/1x1"
  top: "inception_4e/1x1"
}
layer {
  name: "inception_4e/3x3_reduce"
  type: "Convolution"
  bottom: "inception_4d/output"
  top: "inception_4e/3x3_reduce"
  param {
    lr_mult: 1
    decay_mult: 1
  }
  param {
    lr_mult: 2
    decay_mult: 0
  }
  convolution_param {
    num_output: 160
    kernel_size: 1
    weight_filler {
      type: "xavier"
    }
    bias_filler {
      type: "constant"
      value: 0.2
    }
  }
}
layer {
  name: "inception_4e/relu_3x3_reduce"
  type: "ReLU"
  bottom: "inception_4e/3x3_reduce"
  top: "inception_4e/3x3_reduce"
}
layer {
  name: "inception_4e/3x3"
  type: "Convolution"
  bottom: "inception_4e/3x3_reduce"
  top: "inception_4e/3x3"
  param {
    lr_mult: 1
    decay_mult: 1
  }
  param {
    lr_mult: 2
    decay_mult: 0
  }
  convolution_param {
    num_output: 320
    pad: 1
    kernel_size: 3
    weight_filler {
      type: "xavier"
    }
    bias_filler {
      type: "constant"
      value: 0.2
    }
  }
}
layer {
  name: "inception_4e/relu_3x3"
  type: "ReLU"
  bottom: "inception_4e/3x3"
  top: "inception_4e/3x3"
}
layer {
  name: "inception_4e/5x5_reduce"
  type: "Convolution"
  bottom: "inception_4d/output"
  top: "inception_4e/5x5_reduce"
  param {
    lr_mult: 1
    decay_mult: 1
  }
  param {
    lr_mult: 2
    decay_mult: 0
  }
  convolution_param {
    num_output: 32
    kernel_size: 1
    weight_filler {
      type: "xavier"
    }
    bias_filler {
      type: "constant"
      value: 0.2
    }
  }
}
layer {
  name: "inception_4e/relu_5x5_reduce"
  type: "ReLU"
  bottom: "inception_4e/5x5_reduce"
  top: "inception_4e/5x5_reduce"
}
layer {
  name: "inception_4e/5x5"
  type: "Convolution"
  bottom: "inception_4e/5x5_reduce"
  top: "inception_4e/5x5"
  param {
    lr_mult: 1
    decay_mult: 1
  }
  param {
    lr_mult: 2
    decay_mult: 0
  }
  convolution_param {
    num_output: 128
    pad: 2
    kernel_size: 5
    weight_filler {
      type: "xavier"
    }
    bias_filler {
      type: "constant"
      value: 0.2
    }
  }
}
layer {
  name: "inception_4e/relu_5x5"
  type: "ReLU"
  bottom: "inception_4e/5x5"
  top: "inception_4e/5x5"
}
layer {
  name: "inception_4e/pool"
  type: "Pooling"
  bottom: "inception_4d/output"
  top: "inception_4e/pool"
  pooling_param {
    poo
I1128 08:06:27.055732  8697 layer_factory.hpp:77] Creating layer data
I1128 08:06:27.056110  8697 net.cpp:100] Creating Layer data
I1128 08:06:27.056119  8697 net.cpp:408] data -> data
I1128 08:06:27.056138  8697 net.cpp:408] data -> label
I1128 08:06:27.056149  8697 data_transformer.cpp:25] Loading mean file from: /home/juran/distracteddriver/input/mean.binaryproto
I1128 08:06:27.057559  8702 db_lmdb.cpp:35] Opened lmdb /home/juran/distracteddriver/input/train_lmdb
I1128 08:06:27.065120  8697 data_layer.cpp:41] output data size: 16,3,224,224
I1128 08:06:27.096462  8697 net.cpp:150] Setting up data
I1128 08:06:27.096487  8697 net.cpp:157] Top shape: 16 3 224 224 (2408448)
I1128 08:06:27.096492  8697 net.cpp:157] Top shape: 16 (16)
I1128 08:06:27.096493  8697 net.cpp:165] Memory required for data: 9633856
I1128 08:06:27.096503  8697 layer_factory.hpp:77] Creating layer label_data_1_split
I1128 08:06:27.096515  8697 net.cpp:100] Creating Layer label_data_1_split
I1128 08:06:27.096520  8697 net.cpp:434] label_data_1_split <- label
I1128 08:06:27.096532  8697 net.cpp:408] label_data_1_split -> label_data_1_split_0
I1128 08:06:27.096554  8697 net.cpp:408] label_data_1_split -> label_data_1_split_1
I1128 08:06:27.096559  8697 net.cpp:408] label_data_1_split -> label_data_1_split_2
I1128 08:06:27.096650  8697 net.cpp:150] Setting up label_data_1_split
I1128 08:06:27.096657  8697 net.cpp:157] Top shape: 16 (16)
I1128 08:06:27.096659  8697 net.cpp:157] Top shape: 16 (16)
I1128 08:06:27.096662  8697 net.cpp:157] Top shape: 16 (16)
I1128 08:06:27.096663  8697 net.cpp:165] Memory required for data: 9634048
I1128 08:06:27.096665  8697 layer_factory.hpp:77] Creating layer conv1/7x7_s2
I1128 08:06:27.096681  8697 net.cpp:100] Creating Layer conv1/7x7_s2
I1128 08:06:27.096683  8697 net.cpp:434] conv1/7x7_s2 <- data
I1128 08:06:27.096688  8697 net.cpp:408] conv1/7x7_s2 -> conv1/7x7_s2
I1128 08:06:27.097362  8697 net.cpp:150] Setting up conv1/7x7_s2
I1128 08:06:27.097373  8697 net.cpp:157] Top shape: 16 64 112 112 (12845056)
I1128 08:06:27.097374  8697 net.cpp:165] Memory required for data: 61014272
I1128 08:06:27.097388  8697 layer_factory.hpp:77] Creating layer conv1/relu_7x7
I1128 08:06:27.097393  8697 net.cpp:100] Creating Layer conv1/relu_7x7
I1128 08:06:27.097396  8697 net.cpp:434] conv1/relu_7x7 <- conv1/7x7_s2
I1128 08:06:27.097399  8697 net.cpp:395] conv1/relu_7x7 -> conv1/7x7_s2 (in-place)
I1128 08:06:27.097404  8697 net.cpp:150] Setting up conv1/relu_7x7
I1128 08:06:27.097407  8697 net.cpp:157] Top shape: 16 64 112 112 (12845056)
I1128 08:06:27.097409  8697 net.cpp:165] Memory required for data: 112394496
I1128 08:06:27.097410  8697 layer_factory.hpp:77] Creating layer pool1/3x3_s2
I1128 08:06:27.097415  8697 net.cpp:100] Creating Layer pool1/3x3_s2
I1128 08:06:27.097417  8697 net.cpp:434] pool1/3x3_s2 <- conv1/7x7_s2
I1128 08:06:27.097420  8697 net.cpp:408] pool1/3x3_s2 -> pool1/3x3_s2
I1128 08:06:27.097453  8697 net.cpp:150] Setting up pool1/3x3_s2
I1128 08:06:27.097458  8697 net.cpp:157] Top shape: 16 64 56 56 (3211264)
I1128 08:06:27.097460  8697 net.cpp:165] Memory required for data: 125239552
I1128 08:06:27.097462  8697 layer_factory.hpp:77] Creating layer pool1/norm1
I1128 08:06:27.097467  8697 net.cpp:100] Creating Layer pool1/norm1
I1128 08:06:27.097470  8697 net.cpp:434] pool1/norm1 <- pool1/3x3_s2
I1128 08:06:27.097472  8697 net.cpp:408] pool1/norm1 -> pool1/norm1
I1128 08:06:27.097494  8697 net.cpp:150] Setting up pool1/norm1
I1128 08:06:27.097498  8697 net.cpp:157] Top shape: 16 64 56 56 (3211264)
I1128 08:06:27.097501  8697 net.cpp:165] Memory required for data: 138084608
I1128 08:06:27.097502  8697 layer_factory.hpp:77] Creating layer conv2/3x3_reduce
I1128 08:06:27.097509  8697 net.cpp:100] Creating Layer conv2/3x3_reduce
I1128 08:06:27.097512  8697 net.cpp:434] conv2/3x3_reduce <- pool1/norm1
I1128 08:06:27.097515  8697 net.cpp:408] conv2/3x3_reduce -> conv2/3x3_reduce
I1128 08:06:27.098080  8697 net.cpp:150] Setting up conv2/3x3_reduce
I1128 08:06:27.098090  8697 net.cpp:157] Top shape: 16 64 56 56 (3211264)
I1128 08:06:27.098093  8697 net.cpp:165] Memory required for data: 150929664
I1128 08:06:27.098098  8697 layer_factory.hpp:77] Creating layer conv2/relu_3x3_reduce
I1128 08:06:27.098104  8697 net.cpp:100] Creating Layer conv2/relu_3x3_reduce
I1128 08:06:27.098105  8697 net.cpp:434] conv2/relu_3x3_reduce <- conv2/3x3_reduce
I1128 08:06:27.098109  8697 net.cpp:395] conv2/relu_3x3_reduce -> conv2/3x3_reduce (in-place)
I1128 08:06:27.098114  8697 net.cpp:150] Setting up conv2/relu_3x3_reduce
I1128 08:06:27.098115  8697 net.cpp:157] Top shape: 16 64 56 56 (3211264)
I1128 08:06:27.098117  8697 net.cpp:165] Memory required for data: 163774720
I1128 08:06:27.098119  8697 layer_factory.hpp:77] Creating layer conv2/3x3
I1128 08:06:27.098126  8697 net.cpp:100] Creating Layer conv2/3x3
I1128 08:06:27.098129  8697 net.cpp:434] conv2/3x3 <- conv2/3x3_reduce
I1128 08:06:27.098131  8697 net.cpp:408] conv2/3x3 -> conv2/3x3
I1128 08:06:27.104259  8697 net.cpp:150] Setting up conv2/3x3
I1128 08:06:27.104269  8697 net.cpp:157] Top shape: 16 192 56 56 (9633792)
I1128 08:06:27.104270  8697 net.cpp:165] Memory required for data: 202309888
I1128 08:06:27.104287  8697 layer_factory.hpp:77] Creating layer conv2/relu_3x3
I1128 08:06:27.104293  8697 net.cpp:100] Creating Layer conv2/relu_3x3
I1128 08:06:27.104295  8697 net.cpp:434] conv2/relu_3x3 <- conv2/3x3
I1128 08:06:27.104298  8697 net.cpp:395] conv2/relu_3x3 -> conv2/3x3 (in-place)
I1128 08:06:27.104303  8697 net.cpp:150] Setting up conv2/relu_3x3
I1128 08:06:27.104305  8697 net.cpp:157] Top shape: 16 192 56 56 (9633792)
I1128 08:06:27.104307  8697 net.cpp:165] Memory required for data: 240845056
I1128 08:06:27.104308  8697 layer_factory.hpp:77] Creating layer conv2/norm2
I1128 08:06:27.104312  8697 net.cpp:100] Creating Layer conv2/norm2
I1128 08:06:27.104315  8697 net.cpp:434] conv2/norm2 <- conv2/3x3
I1128 08:06:27.104317  8697 net.cpp:408] conv2/norm2 -> conv2/norm2
I1128 08:06:27.104342  8697 net.cpp:150] Setting up conv2/norm2
I1128 08:06:27.104346  8697 net.cpp:157] Top shape: 16 192 56 56 (9633792)
I1128 08:06:27.104347  8697 net.cpp:165] Memory required for data: 279380224
I1128 08:06:27.104349  8697 layer_factory.hpp:77] Creating layer pool2/3x3_s2
I1128 08:06:27.104352  8697 net.cpp:100] Creating Layer pool2/3x3_s2
I1128 08:06:27.104354  8697 net.cpp:434] pool2/3x3_s2 <- conv2/norm2
I1128 08:06:27.104357  8697 net.cpp:408] pool2/3x3_s2 -> pool2/3x3_s2
I1128 08:06:27.104377  8697 net.cpp:150] Setting up pool2/3x3_s2
I1128 08:06:27.104380  8697 net.cpp:157] Top shape: 16 192 28 28 (2408448)
I1128 08:06:27.104382  8697 net.cpp:165] Memory required for data: 289014016
I1128 08:06:27.104383  8697 layer_factory.hpp:77] Creating layer pool2/3x3_s2_pool2/3x3_s2_0_split
I1128 08:06:27.104388  8697 net.cpp:100] Creating Layer pool2/3x3_s2_pool2/3x3_s2_0_split
I1128 08:06:27.104390  8697 net.cpp:434] pool2/3x3_s2_pool2/3x3_s2_0_split <- pool2/3x3_s2
I1128 08:06:27.104393  8697 net.cpp:408] pool2/3x3_s2_pool2/3x3_s2_0_split -> pool2/3x3_s2_pool2/3x3_s2_0_split_0
I1128 08:06:27.104398  8697 net.cpp:408] pool2/3x3_s2_pool2/3x3_s2_0_split -> pool2/3x3_s2_pool2/3x3_s2_0_split_1
I1128 08:06:27.104401  8697 net.cpp:408] pool2/3x3_s2_pool2/3x3_s2_0_split -> pool2/3x3_s2_pool2/3x3_s2_0_split_2
I1128 08:06:27.104405  8697 net.cpp:408] pool2/3x3_s2_pool2/3x3_s2_0_split -> pool2/3x3_s2_pool2/3x3_s2_0_split_3
I1128 08:06:27.104436  8697 net.cpp:150] Setting up pool2/3x3_s2_pool2/3x3_s2_0_split
I1128 08:06:27.104441  8697 net.cpp:157] Top shape: 16 192 28 28 (2408448)
I1128 08:06:27.104444  8697 net.cpp:157] Top shape: 16 192 28 28 (2408448)
I1128 08:06:27.104446  8697 net.cpp:157] Top shape: 16 192 28 28 (2408448)
I1128 08:06:27.104449  8697 net.cpp:157] Top shape: 16 192 28 28 (2408448)
I1128 08:06:27.104449  8697 net.cpp:165] Memory required for data: 327549184
I1128 08:06:27.104451  8697 layer_factory.hpp:77] Creating layer inception_3a/1x1
I1128 08:06:27.104457  8697 net.cpp:100] Creating Layer inception_3a/1x1
I1128 08:06:27.104460  8697 net.cpp:434] inception_3a/1x1 <- pool2/3x3_s2_pool2/3x3_s2_0_split_0
I1128 08:06:27.104463  8697 net.cpp:408] inception_3a/1x1 -> inception_3a/1x1
I1128 08:06:27.105082  8697 net.cpp:150] Setting up inception_3a/1x1
I1128 08:06:27.105092  8697 net.cpp:157] Top shape: 16 64 28 28 (802816)
I1128 08:06:27.105093  8697 net.cpp:165] Memory required for data: 330760448
I1128 08:06:27.105098  8697 layer_factory.hpp:77] Creating layer inception_3a/relu_1x1
I1128 08:06:27.105103  8697 net.cpp:100] Creating Layer inception_3a/relu_1x1
I1128 08:06:27.105105  8697 net.cpp:434] inception_3a/relu_1x1 <- inception_3a/1x1
I1128 08:06:27.105108  8697 net.cpp:395] inception_3a/relu_1x1 -> inception_3a/1x1 (in-place)
I1128 08:06:27.105113  8697 net.cpp:150] Setting up inception_3a/relu_1x1
I1128 08:06:27.105115  8697 net.cpp:157] Top shape: 16 64 28 28 (802816)
I1128 08:06:27.105118  8697 net.cpp:165] Memory required for data: 333971712
I1128 08:06:27.105118  8697 layer_factory.hpp:77] Creating layer inception_3a/3x3_reduce
I1128 08:06:27.105124  8697 net.cpp:100] Creating Layer inception_3a/3x3_reduce
I1128 08:06:27.105126  8697 net.cpp:434] inception_3a/3x3_reduce <- pool2/3x3_s2_pool2/3x3_s2_0_split_1
I1128 08:06:27.105139  8697 net.cpp:408] inception_3a/3x3_reduce -> inception_3a/3x3_reduce
I1128 08:06:27.105792  8697 net.cpp:150] Setting up inception_3a/3x3_reduce
I1128 08:06:27.105800  8697 net.cpp:157] Top shape: 16 96 28 28 (1204224)
I1128 08:06:27.105803  8697 net.cpp:165] Memory required for data: 338788608
I1128 08:06:27.105811  8697 layer_factory.hpp:77] Creating layer inception_3a/relu_3x3_reduce
I1128 08:06:27.105818  8697 net.cpp:100] Creating Layer inception_3a/relu_3x3_reduce
I1128 08:06:27.105821  8697 net.cpp:434] inception_3a/relu_3x3_reduce <- inception_3a/3x3_reduce
I1128 08:06:27.105824  8697 net.cpp:395] inception_3a/relu_3x3_reduce -> inception_3a/3x3_reduce (in-place)
I1128 08:06:27.105829  8697 net.cpp:150] Setting up inception_3a/relu_3x3_reduce
I1128 08:06:27.105831  8697 net.cpp:157] Top shape: 16 96 28 28 (1204224)
I1128 08:06:27.105834  8697 net.cpp:165] Memory required for data: 343605504
I1128 08:06:27.105835  8697 layer_factory.hpp:77] Creating layer inception_3a/3x3
I1128 08:06:27.105841  8697 net.cpp:100] Creating Layer inception_3a/3x3
I1128 08:06:27.105844  8697 net.cpp:434] inception_3a/3x3 <- inception_3a/3x3_reduce
I1128 08:06:27.105849  8697 net.cpp:408] inception_3a/3x3 -> inception_3a/3x3
I1128 08:06:27.106873  8697 net.cpp:150] Setting up inception_3a/3x3
I1128 08:06:27.106884  8697 net.cpp:157] Top shape: 16 128 28 28 (1605632)
I1128 08:06:27.106885  8697 net.cpp:165] Memory required for data: 350028032
I1128 08:06:27.106889  8697 layer_factory.hpp:77] Creating layer inception_3a/relu_3x3
I1128 08:06:27.106894  8697 net.cpp:100] Creating Layer inception_3a/relu_3x3
I1128 08:06:27.106897  8697 net.cpp:434] inception_3a/relu_3x3 <- inception_3a/3x3
I1128 08:06:27.106901  8697 net.cpp:395] inception_3a/relu_3x3 -> inception_3a/3x3 (in-place)
I1128 08:06:27.106905  8697 net.cpp:150] Setting up inception_3a/relu_3x3
I1128 08:06:27.106907  8697 net.cpp:157] Top shape: 16 128 28 28 (1605632)
I1128 08:06:27.106910  8697 net.cpp:165] Memory required for data: 356450560
I1128 08:06:27.106911  8697 layer_factory.hpp:77] Creating layer inception_3a/5x5_reduce
I1128 08:06:27.106917  8697 net.cpp:100] Creating Layer inception_3a/5x5_reduce
I1128 08:06:27.106920  8697 net.cpp:434] inception_3a/5x5_reduce <- pool2/3x3_s2_pool2/3x3_s2_0_split_2
I1128 08:06:27.106925  8697 net.cpp:408] inception_3a/5x5_reduce -> inception_3a/5x5_reduce
I1128 08:06:27.107111  8697 net.cpp:150] Setting up inception_3a/5x5_reduce
I1128 08:06:27.107118  8697 net.cpp:157] Top shape: 16 16 28 28 (200704)
I1128 08:06:27.107120  8697 net.cpp:165] Memory required for data: 357253376
I1128 08:06:27.107125  8697 layer_factory.hpp:77] Creating layer inception_3a/relu_5x5_reduce
I1128 08:06:27.107130  8697 net.cpp:100] Creating Layer inception_3a/relu_5x5_reduce
I1128 08:06:27.107131  8697 net.cpp:434] inception_3a/relu_5x5_reduce <- inception_3a/5x5_reduce
I1128 08:06:27.107136  8697 net.cpp:395] inception_3a/relu_5x5_reduce -> inception_3a/5x5_reduce (in-place)
I1128 08:06:27.107139  8697 net.cpp:150] Setting up inception_3a/relu_5x5_reduce
I1128 08:06:27.107141  8697 net.cpp:157] Top shape: 16 16 28 28 (200704)
I1128 08:06:27.107143  8697 net.cpp:165] Memory required for data: 358056192
I1128 08:06:27.107144  8697 layer_factory.hpp:77] Creating layer inception_3a/5x5
I1128 08:06:27.107151  8697 net.cpp:100] Creating Layer inception_3a/5x5
I1128 08:06:27.107152  8697 net.cpp:434] inception_3a/5x5 <- inception_3a/5x5_reduce
I1128 08:06:27.107156  8697 net.cpp:408] inception_3a/5x5 -> inception_3a/5x5
I1128 08:06:27.107362  8697 net.cpp:150] Setting up inception_3a/5x5
I1128 08:06:27.107367  8697 net.cpp:157] Top shape: 16 32 28 28 (401408)
I1128 08:06:27.107369  8697 net.cpp:165] Memory required for data: 359661824
I1128 08:06:27.107373  8697 layer_factory.hpp:77] Creating layer inception_3a/relu_5x5
I1128 08:06:27.107378  8697 net.cpp:100] Creating Layer inception_3a/relu_5x5
I1128 08:06:27.107379  8697 net.cpp:434] inception_3a/relu_5x5 <- inception_3a/5x5
I1128 08:06:27.107383  8697 net.cpp:395] inception_3a/relu_5x5 -> inception_3a/5x5 (in-place)
I1128 08:06:27.107398  8697 net.cpp:150] Setting up inception_3a/relu_5x5
I1128 08:06:27.107400  8697 net.cpp:157] Top shape: 16 32 28 28 (401408)
I1128 08:06:27.107403  8697 net.cpp:165] Memory required for data: 361267456
I1128 08:06:27.107404  8697 layer_factory.hpp:77] Creating layer inception_3a/pool
I1128 08:06:27.107409  8697 net.cpp:100] Creating Layer inception_3a/pool
I1128 08:06:27.107411  8697 net.cpp:434] inception_3a/pool <- pool2/3x3_s2_pool2/3x3_s2_0_split_3
I1128 08:06:27.107414  8697 net.cpp:408] inception_3a/pool -> inception_3a/pool
I1128 08:06:27.107441  8697 net.cpp:150] Setting up inception_3a/pool
I1128 08:06:27.107446  8697 net.cpp:157] Top shape: 16 192 28 28 (2408448)
I1128 08:06:27.107448  8697 net.cpp:165] Memory required for data: 370901248
I1128 08:06:27.107450  8697 layer_factory.hpp:77] Creating layer inception_3a/pool_proj
I1128 08:06:27.107456  8697 net.cpp:100] Creating Layer inception_3a/pool_proj
I1128 08:06:27.107458  8697 net.cpp:434] inception_3a/pool_proj <- inception_3a/pool
I1128 08:06:27.107462  8697 net.cpp:408] inception_3a/pool_proj -> inception_3a/pool_proj
I1128 08:06:27.107630  8697 net.cpp:150] Setting up inception_3a/pool_proj
I1128 08:06:27.107635  8697 net.cpp:157] Top shape: 16 32 28 28 (401408)
I1128 08:06:27.107637  8697 net.cpp:165] Memory required for data: 372506880
I1128 08:06:27.107645  8697 layer_factory.hpp:77] Creating layer inception_3a/relu_pool_proj
I1128 08:06:27.107650  8697 net.cpp:100] Creating Layer inception_3a/relu_pool_proj
I1128 08:06:27.107651  8697 net.cpp:434] inception_3a/relu_pool_proj <- inception_3a/pool_proj
I1128 08:06:27.107656  8697 net.cpp:395] inception_3a/relu_pool_proj -> inception_3a/pool_proj (in-place)
I1128 08:06:27.107658  8697 net.cpp:150] Setting up inception_3a/relu_pool_proj
I1128 08:06:27.107661  8697 net.cpp:157] Top shape: 16 32 28 28 (401408)
I1128 08:06:27.107662  8697 net.cpp:165] Memory required for data: 374112512
I1128 08:06:27.107666  8697 layer_factory.hpp:77] Creating layer inception_3a/output
I1128 08:06:27.107669  8697 net.cpp:100] Creating Layer inception_3a/output
I1128 08:06:27.107671  8697 net.cpp:434] inception_3a/output <- inception_3a/1x1
I1128 08:06:27.107674  8697 net.cpp:434] inception_3a/output <- inception_3a/3x3
I1128 08:06:27.107676  8697 net.cpp:434] inception_3a/output <- inception_3a/5x5
I1128 08:06:27.107678  8697 net.cpp:434] inception_3a/output <- inception_3a/pool_proj
I1128 08:06:27.107681  8697 net.cpp:408] inception_3a/output -> inception_3a/output
I1128 08:06:27.107698  8697 net.cpp:150] Setting up inception_3a/output
I1128 08:06:27.107702  8697 net.cpp:157] Top shape: 16 256 28 28 (3211264)
I1128 08:06:27.107703  8697 net.cpp:165] Memory required for data: 386957568
I1128 08:06:27.107704  8697 layer_factory.hpp:77] Creating layer inception_3a/output_inception_3a/output_0_split
I1128 08:06:27.107709  8697 net.cpp:100] Creating Layer inception_3a/output_inception_3a/output_0_split
I1128 08:06:27.107712  8697 net.cpp:434] inception_3a/output_inception_3a/output_0_split <- inception_3a/output
I1128 08:06:27.107714  8697 net.cpp:408] inception_3a/output_inception_3a/output_0_split -> inception_3a/output_inception_3a/output_0_split_0
I1128 08:06:27.107719  8697 net.cpp:408] inception_3a/output_inception_3a/output_0_split -> inception_3a/output_inception_3a/output_0_split_1
I1128 08:06:27.107722  8697 net.cpp:408] inception_3a/output_inception_3a/output_0_split -> inception_3a/output_inception_3a/output_0_split_2
I1128 08:06:27.107727  8697 net.cpp:408] inception_3a/output_inception_3a/output_0_split -> inception_3a/output_inception_3a/output_0_split_3
I1128 08:06:27.107759  8697 net.cpp:150] Setting up inception_3a/output_inception_3a/output_0_split
I1128 08:06:27.107764  8697 net.cpp:157] Top shape: 16 256 28 28 (3211264)
I1128 08:06:27.107766  8697 net.cpp:157] Top shape: 16 256 28 28 (3211264)
I1128 08:06:27.107769  8697 net.cpp:157] Top shape: 16 256 28 28 (3211264)
I1128 08:06:27.107770  8697 net.cpp:157] Top shape: 16 256 28 28 (3211264)
I1128 08:06:27.107779  8697 net.cpp:165] Memory required for data: 438337792
I1128 08:06:27.107781  8697 layer_factory.hpp:77] Creating layer inception_3b/1x1
I1128 08:06:27.107787  8697 net.cpp:100] Creating Layer inception_3b/1x1
I1128 08:06:27.107789  8697 net.cpp:434] inception_3b/1x1 <- inception_3a/output_inception_3a/output_0_split_0
I1128 08:06:27.107794  8697 net.cpp:408] inception_3b/1x1 -> inception_3b/1x1
I1128 08:06:27.108083  8697 net.cpp:150] Setting up inception_3b/1x1
I1128 08:06:27.108088  8697 net.cpp:157] Top shape: 16 128 28 28 (1605632)
I1128 08:06:27.108090  8697 net.cpp:165] Memory required for data: 444760320
I1128 08:06:27.108094  8697 layer_factory.hpp:77] Creating layer inception_3b/relu_1x1
I1128 08:06:27.108098  8697 net.cpp:100] Creating Layer inception_3b/relu_1x1
I1128 08:06:27.108100  8697 net.cpp:434] inception_3b/relu_1x1 <- inception_3b/1x1
I1128 08:06:27.108104  8697 net.cpp:395] inception_3b/relu_1x1 -> inception_3b/1x1 (in-place)
I1128 08:06:27.108108  8697 net.cpp:150] Setting up inception_3b/relu_1x1
I1128 08:06:27.108110  8697 net.cpp:157] Top shape: 16 128 28 28 (1605632)
I1128 08:06:27.108111  8697 net.cpp:165] Memory required for data: 451182848
I1128 08:06:27.108114  8697 layer_factory.hpp:77] Creating layer inception_3b/3x3_reduce
I1128 08:06:27.108119  8697 net.cpp:100] Creating Layer inception_3b/3x3_reduce
I1128 08:06:27.108121  8697 net.cpp:434] inception_3b/3x3_reduce <- inception_3a/output_inception_3a/output_0_split_1
I1128 08:06:27.108125  8697 net.cpp:408] inception_3b/3x3_reduce -> inception_3b/3x3_reduce
I1128 08:06:27.108410  8697 net.cpp:150] Setting up inception_3b/3x3_reduce
I1128 08:06:27.108417  8697 net.cpp:157] Top shape: 16 128 28 28 (1605632)
I1128 08:06:27.108419  8697 net.cpp:165] Memory required for data: 457605376
I1128 08:06:27.108422  8697 layer_factory.hpp:77] Creating layer inception_3b/relu_3x3_reduce
I1128 08:06:27.108427  8697 net.cpp:100] Creating Layer inception_3b/relu_3x3_reduce
I1128 08:06:27.108428  8697 net.cpp:434] inception_3b/relu_3x3_reduce <- inception_3b/3x3_reduce
I1128 08:06:27.108433  8697 net.cpp:395] inception_3b/relu_3x3_reduce -> inception_3b/3x3_reduce (in-place)
I1128 08:06:27.108435  8697 net.cpp:150] Setting up inception_3b/relu_3x3_reduce
I1128 08:06:27.108438  8697 net.cpp:157] Top shape: 16 128 28 28 (1605632)
I1128 08:06:27.108439  8697 net.cpp:165] Memory required for data: 464027904
I1128 08:06:27.108441  8697 layer_factory.hpp:77] Creating layer inception_3b/3x3
I1128 08:06:27.108451  8697 net.cpp:100] Creating Layer inception_3b/3x3
I1128 08:06:27.108453  8697 net.cpp:434] inception_3b/3x3 <- inception_3b/3x3_reduce
I1128 08:06:27.108456  8697 net.cpp:408] inception_3b/3x3 -> inception_3b/3x3
I1128 08:06:27.110007  8697 net.cpp:150] Setting up inception_3b/3x3
I1128 08:06:27.110018  8697 net.cpp:157] Top shape: 16 192 28 28 (2408448)
I1128 08:06:27.110019  8697 net.cpp:165] Memory required for data: 473661696
I1128 08:06:27.110024  8697 layer_factory.hpp:77] Creating layer inception_3b/relu_3x3
I1128 08:06:27.110028  8697 net.cpp:100] Creating Layer inception_3b/relu_3x3
I1128 08:06:27.110031  8697 net.cpp:434] inception_3b/relu_3x3 <- inception_3b/3x3
I1128 08:06:27.110034  8697 net.cpp:395] inception_3b/relu_3x3 -> inception_3b/3x3 (in-place)
I1128 08:06:27.110039  8697 net.cpp:150] Setting up inception_3b/relu_3x3
I1128 08:06:27.110043  8697 net.cpp:157] Top shape: 16 192 28 28 (2408448)
I1128 08:06:27.110044  8697 net.cpp:165] Memory required for data: 483295488
I1128 08:06:27.110046  8697 layer_factory.hpp:77] Creating layer inception_3b/5x5_reduce
I1128 08:06:27.110052  8697 net.cpp:100] Creating Layer inception_3b/5x5_reduce
I1128 08:06:27.110054  8697 net.cpp:434] inception_3b/5x5_reduce <- inception_3a/output_inception_3a/output_0_split_2
I1128 08:06:27.110059  8697 net.cpp:408] inception_3b/5x5_reduce -> inception_3b/5x5_reduce
I1128 08:06:27.110255  8697 net.cpp:150] Setting up inception_3b/5x5_reduce
I1128 08:06:27.110261  8697 net.cpp:157] Top shape: 16 32 28 28 (401408)
I1128 08:06:27.110271  8697 net.cpp:165] Memory required for data: 484901120
I1128 08:06:27.110275  8697 layer_factory.hpp:77] Creating layer inception_3b/relu_5x5_reduce
I1128 08:06:27.110280  8697 net.cpp:100] Creating Layer inception_3b/relu_5x5_reduce
I1128 08:06:27.110282  8697 net.cpp:434] inception_3b/relu_5x5_reduce <- inception_3b/5x5_reduce
I1128 08:06:27.110285  8697 net.cpp:395] inception_3b/relu_5x5_reduce -> inception_3b/5x5_reduce (in-place)
I1128 08:06:27.110290  8697 net.cpp:150] Setting up inception_3b/relu_5x5_reduce
I1128 08:06:27.110291  8697 net.cpp:157] Top shape: 16 32 28 28 (401408)
I1128 08:06:27.110294  8697 net.cpp:165] Memory required for data: 486506752
I1128 08:06:27.110296  8697 layer_factory.hpp:77] Creating layer inception_3b/5x5
I1128 08:06:27.110301  8697 net.cpp:100] Creating Layer inception_3b/5x5
I1128 08:06:27.110302  8697 net.cpp:434] inception_3b/5x5 <- inception_3b/5x5_reduce
I1128 08:06:27.110307  8697 net.cpp:408] inception_3b/5x5 -> inception_3b/5x5
I1128 08:06:27.110806  8697 net.cpp:150] Setting up inception_3b/5x5
I1128 08:06:27.110813  8697 net.cpp:157] Top shape: 16 96 28 28 (1204224)
I1128 08:06:27.110816  8697 net.cpp:165] Memory required for data: 491323648
I1128 08:06:27.110819  8697 layer_factory.hpp:77] Creating layer inception_3b/relu_5x5
I1128 08:06:27.110824  8697 net.cpp:100] Creating Layer inception_3b/relu_5x5
I1128 08:06:27.110826  8697 net.cpp:434] inception_3b/relu_5x5 <- inception_3b/5x5
I1128 08:06:27.110829  8697 net.cpp:395] inception_3b/relu_5x5 -> inception_3b/5x5 (in-place)
I1128 08:06:27.110833  8697 net.cpp:150] Setting up inception_3b/relu_5x5
I1128 08:06:27.110836  8697 net.cpp:157] Top shape: 16 96 28 28 (1204224)
I1128 08:06:27.110837  8697 net.cpp:165] Memory required for data: 496140544
I1128 08:06:27.110839  8697 layer_factory.hpp:77] Creating layer inception_3b/pool
I1128 08:06:27.110844  8697 net.cpp:100] Creating Layer inception_3b/pool
I1128 08:06:27.110846  8697 net.cpp:434] inception_3b/pool <- inception_3a/output_inception_3a/output_0_split_3
I1128 08:06:27.110851  8697 net.cpp:408] inception_3b/pool -> inception_3b/pool
I1128 08:06:27.110877  8697 net.cpp:150] Setting up inception_3b/pool
I1128 08:06:27.110882  8697 net.cpp:157] Top shape: 16 256 28 28 (3211264)
I1128 08:06:27.110883  8697 net.cpp:165] Memory required for data: 508985600
I1128 08:06:27.110885  8697 layer_factory.hpp:77] Creating layer inception_3b/pool_proj
I1128 08:06:27.110893  8697 net.cpp:100] Creating Layer inception_3b/pool_proj
I1128 08:06:27.110895  8697 net.cpp:434] inception_3b/pool_proj <- inception_3b/pool
I1128 08:06:27.110899  8697 net.cpp:408] inception_3b/pool_proj -> inception_3b/pool_proj
I1128 08:06:27.111132  8697 net.cpp:150] Setting up inception_3b/pool_proj
I1128 08:06:27.111140  8697 net.cpp:157] Top shape: 16 64 28 28 (802816)
I1128 08:06:27.111141  8697 net.cpp:165] Memory required for data: 512196864
I1128 08:06:27.111145  8697 layer_factory.hpp:77] Creating layer inception_3b/relu_pool_proj
I1128 08:06:27.111150  8697 net.cpp:100] Creating Layer inception_3b/relu_pool_proj
I1128 08:06:27.111152  8697 net.cpp:434] inception_3b/relu_pool_proj <- inception_3b/pool_proj
I1128 08:06:27.111156  8697 net.cpp:395] inception_3b/relu_pool_proj -> inception_3b/pool_proj (in-place)
I1128 08:06:27.111160  8697 net.cpp:150] Setting up inception_3b/relu_pool_proj
I1128 08:06:27.111162  8697 net.cpp:157] Top shape: 16 64 28 28 (802816)
I1128 08:06:27.111163  8697 net.cpp:165] Memory required for data: 515408128
I1128 08:06:27.111166  8697 layer_factory.hpp:77] Creating layer inception_3b/output
I1128 08:06:27.111171  8697 net.cpp:100] Creating Layer inception_3b/output
I1128 08:06:27.111172  8697 net.cpp:434] inception_3b/output <- inception_3b/1x1
I1128 08:06:27.111176  8697 net.cpp:434] inception_3b/output <- inception_3b/3x3
I1128 08:06:27.111178  8697 net.cpp:434] inception_3b/output <- inception_3b/5x5
I1128 08:06:27.111181  8697 net.cpp:434] inception_3b/output <- inception_3b/pool_proj
I1128 08:06:27.111183  8697 net.cpp:408] inception_3b/output -> inception_3b/output
I1128 08:06:27.111207  8697 net.cpp:150] Setting up inception_3b/output
I1128 08:06:27.111213  8697 net.cpp:157] Top shape: 16 480 28 28 (6021120)
I1128 08:06:27.111214  8697 net.cpp:165] Memory required for data: 539492608
I1128 08:06:27.111217  8697 layer_factory.hpp:77] Creating layer pool3/3x3_s2
I1128 08:06:27.111220  8697 net.cpp:100] Creating Layer pool3/3x3_s2
I1128 08:06:27.111222  8697 net.cpp:434] pool3/3x3_s2 <- inception_3b/output
I1128 08:06:27.111225  8697 net.cpp:408] pool3/3x3_s2 -> pool3/3x3_s2
I1128 08:06:27.111249  8697 net.cpp:150] Setting up pool3/3x3_s2
I1128 08:06:27.111254  8697 net.cpp:157] Top shape: 16 480 14 14 (1505280)
I1128 08:06:27.111258  8697 net.cpp:165] Memory required for data: 545513728
I1128 08:06:27.111258  8697 layer_factory.hpp:77] Creating layer pool3/3x3_s2_pool3/3x3_s2_0_split
I1128 08:06:27.111263  8697 net.cpp:100] Creating Layer pool3/3x3_s2_pool3/3x3_s2_0_split
I1128 08:06:27.111264  8697 net.cpp:434] pool3/3x3_s2_pool3/3x3_s2_0_split <- pool3/3x3_s2
I1128 08:06:27.111269  8697 net.cpp:408] pool3/3x3_s2_pool3/3x3_s2_0_split -> pool3/3x3_s2_pool3/3x3_s2_0_split_0
I1128 08:06:27.111274  8697 net.cpp:408] pool3/3x3_s2_pool3/3x3_s2_0_split -> pool3/3x3_s2_pool3/3x3_s2_0_split_1
I1128 08:06:27.111277  8697 net.cpp:408] pool3/3x3_s2_pool3/3x3_s2_0_split -> pool3/3x3_s2_pool3/3x3_s2_0_split_2
I1128 08:06:27.111282  8697 net.cpp:408] pool3/3x3_s2_pool3/3x3_s2_0_split -> pool3/3x3_s2_pool3/3x3_s2_0_split_3
I1128 08:06:27.111318  8697 net.cpp:150] Setting up pool3/3x3_s2_pool3/3x3_s2_0_split
I1128 08:06:27.111322  8697 net.cpp:157] Top shape: 16 480 14 14 (1505280)
I1128 08:06:27.111325  8697 net.cpp:157] Top shape: 16 480 14 14 (1505280)
I1128 08:06:27.111328  8697 net.cpp:157] Top shape: 16 480 14 14 (1505280)
I1128 08:06:27.111330  8697 net.cpp:157] Top shape: 16 480 14 14 (1505280)
I1128 08:06:27.111331  8697 net.cpp:165] Memory required for data: 569598208
I1128 08:06:27.111333  8697 layer_factory.hpp:77] Creating layer inception_4a/1x1
I1128 08:06:27.111340  8697 net.cpp:100] Creating Layer inception_4a/1x1
I1128 08:06:27.111342  8697 net.cpp:434] inception_4a/1x1 <- pool3/3x3_s2_pool3/3x3_s2_0_split_0
I1128 08:06:27.111346  8697 net.cpp:408] inception_4a/1x1 -> inception_4a/1x1
I1128 08:06:27.113921  8697 net.cpp:150] Setting up inception_4a/1x1
I1128 08:06:27.113930  8697 net.cpp:157] Top shape: 16 192 14 14 (602112)
I1128 08:06:27.113932  8697 net.cpp:165] Memory required for data: 572006656
I1128 08:06:27.113937  8697 layer_factory.hpp:77] Creating layer inception_4a/relu_1x1
I1128 08:06:27.113941  8697 net.cpp:100] Creating Layer inception_4a/relu_1x1
I1128 08:06:27.113945  8697 net.cpp:434] inception_4a/relu_1x1 <- inception_4a/1x1
I1128 08:06:27.113948  8697 net.cpp:395] inception_4a/relu_1x1 -> inception_4a/1x1 (in-place)
I1128 08:06:27.113953  8697 net.cpp:150] Setting up inception_4a/relu_1x1
I1128 08:06:27.113955  8697 net.cpp:157] Top shape: 16 192 14 14 (602112)
I1128 08:06:27.113957  8697 net.cpp:165] Memory required for data: 574415104
I1128 08:06:27.113958  8697 layer_factory.hpp:77] Creating layer inception_4a/3x3_reduce
I1128 08:06:27.113965  8697 net.cpp:100] Creating Layer inception_4a/3x3_reduce
I1128 08:06:27.113967  8697 net.cpp:434] inception_4a/3x3_reduce <- pool3/3x3_s2_pool3/3x3_s2_0_split_1
I1128 08:06:27.113971  8697 net.cpp:408] inception_4a/3x3_reduce -> inception_4a/3x3_reduce
I1128 08:06:27.114337  8697 net.cpp:150] Setting up inception_4a/3x3_reduce
I1128 08:06:27.114343  8697 net.cpp:157] Top shape: 16 96 14 14 (301056)
I1128 08:06:27.114346  8697 net.cpp:165] Memory required for data: 575619328
I1128 08:06:27.114354  8697 layer_factory.hpp:77] Creating layer inception_4a/relu_3x3_reduce
I1128 08:06:27.114359  8697 net.cpp:100] Creating Layer inception_4a/relu_3x3_reduce
I1128 08:06:27.114362  8697 net.cpp:434] inception_4a/relu_3x3_reduce <- inception_4a/3x3_reduce
I1128 08:06:27.114365  8697 net.cpp:395] inception_4a/relu_3x3_reduce -> inception_4a/3x3_reduce (in-place)
I1128 08:06:27.114369  8697 net.cpp:150] Setting up inception_4a/relu_3x3_reduce
I1128 08:06:27.114379  8697 net.cpp:157] Top shape: 16 96 14 14 (301056)
I1128 08:06:27.114382  8697 net.cpp:165] Memory required for data: 576823552
I1128 08:06:27.114383  8697 layer_factory.hpp:77] Creating layer inception_4a/3x3
I1128 08:06:27.114389  8697 net.cpp:100] Creating Layer inception_4a/3x3
I1128 08:06:27.114392  8697 net.cpp:434] inception_4a/3x3 <- inception_4a/3x3_reduce
I1128 08:06:27.114397  8697 net.cpp:408] inception_4a/3x3 -> inception_4a/3x3
I1128 08:06:27.121546  8697 net.cpp:150] Setting up inception_4a/3x3
I1128 08:06:27.121558  8697 net.cpp:157] Top shape: 16 208 14 14 (652288)
I1128 08:06:27.121561  8697 net.cpp:165] Memory required for data: 579432704
I1128 08:06:27.121564  8697 layer_factory.hpp:77] Creating layer inception_4a/relu_3x3
I1128 08:06:27.121569  8697 net.cpp:100] Creating Layer inception_4a/relu_3x3
I1128 08:06:27.121572  8697 net.cpp:434] inception_4a/relu_3x3 <- inception_4a/3x3
I1128 08:06:27.121577  8697 net.cpp:395] inception_4a/relu_3x3 -> inception_4a/3x3 (in-place)
I1128 08:06:27.121582  8697 net.cpp:150] Setting up inception_4a/relu_3x3
I1128 08:06:27.121584  8697 net.cpp:157] Top shape: 16 208 14 14 (652288)
I1128 08:06:27.121585  8697 net.cpp:165] Memory required for data: 582041856
I1128 08:06:27.121587  8697 layer_factory.hpp:77] Creating layer inception_4a/5x5_reduce
I1128 08:06:27.121594  8697 net.cpp:100] Creating Layer inception_4a/5x5_reduce
I1128 08:06:27.121598  8697 net.cpp:434] inception_4a/5x5_reduce <- pool3/3x3_s2_pool3/3x3_s2_0_split_2
I1128 08:06:27.121601  8697 net.cpp:408] inception_4a/5x5_reduce -> inception_4a/5x5_reduce
I1128 08:06:27.121799  8697 net.cpp:150] Setting up inception_4a/5x5_reduce
I1128 08:06:27.121805  8697 net.cpp:157] Top shape: 16 16 14 14 (50176)
I1128 08:06:27.121808  8697 net.cpp:165] Memory required for data: 582242560
I1128 08:06:27.121811  8697 layer_factory.hpp:77] Creating layer inception_4a/relu_5x5_reduce
I1128 08:06:27.121815  8697 net.cpp:100] Creating Layer inception_4a/relu_5x5_reduce
I1128 08:06:27.121819  8697 net.cpp:434] inception_4a/relu_5x5_reduce <- inception_4a/5x5_reduce
I1128 08:06:27.121822  8697 net.cpp:395] inception_4a/relu_5x5_reduce -> inception_4a/5x5_reduce (in-place)
I1128 08:06:27.121826  8697 net.cpp:150] Setting up inception_4a/relu_5x5_reduce
I1128 08:06:27.121829  8697 net.cpp:157] Top shape: 16 16 14 14 (50176)
I1128 08:06:27.121830  8697 net.cpp:165] Memory required for data: 582443264
I1128 08:06:27.121831  8697 layer_factory.hpp:77] Creating layer inception_4a/5x5
I1128 08:06:27.121839  8697 net.cpp:100] Creating Layer inception_4a/5x5
I1128 08:06:27.121840  8697 net.cpp:434] inception_4a/5x5 <- inception_4a/5x5_reduce
I1128 08:06:27.121845  8697 net.cpp:408] inception_4a/5x5 -> inception_4a/5x5
I1128 08:06:27.122087  8697 net.cpp:150] Setting up inception_4a/5x5
I1128 08:06:27.122092  8697 net.cpp:157] Top shape: 16 48 14 14 (150528)
I1128 08:06:27.122094  8697 net.cpp:165] Memory required for data: 583045376
I1128 08:06:27.122099  8697 layer_factory.hpp:77] Creating layer inception_4a/relu_5x5
I1128 08:06:27.122104  8697 net.cpp:100] Creating Layer inception_4a/relu_5x5
I1128 08:06:27.122107  8697 net.cpp:434] inception_4a/relu_5x5 <- inception_4a/5x5
I1128 08:06:27.122109  8697 net.cpp:395] inception_4a/relu_5x5 -> inception_4a/5x5 (in-place)
I1128 08:06:27.122113  8697 net.cpp:150] Setting up inception_4a/relu_5x5
I1128 08:06:27.122117  8697 net.cpp:157] Top shape: 16 48 14 14 (150528)
I1128 08:06:27.122118  8697 net.cpp:165] Memory required for data: 583647488
I1128 08:06:27.122119  8697 layer_factory.hpp:77] Creating layer inception_4a/pool
I1128 08:06:27.122123  8697 net.cpp:100] Creating Layer inception_4a/pool
I1128 08:06:27.122125  8697 net.cpp:434] inception_4a/pool <- pool3/3x3_s2_pool3/3x3_s2_0_split_3
I1128 08:06:27.122128  8697 net.cpp:408] inception_4a/pool -> inception_4a/pool
I1128 08:06:27.122155  8697 net.cpp:150] Setting up inception_4a/pool
I1128 08:06:27.122159  8697 net.cpp:157] Top shape: 16 480 14 14 (1505280)
I1128 08:06:27.122162  8697 net.cpp:165] Memory required for data: 589668608
I1128 08:06:27.122174  8697 layer_factory.hpp:77] Creating layer inception_4a/pool_proj
I1128 08:06:27.122181  8697 net.cpp:100] Creating Layer inception_4a/pool_proj
I1128 08:06:27.122184  8697 net.cpp:434] inception_4a/pool_proj <- inception_4a/pool
I1128 08:06:27.122187  8697 net.cpp:408] inception_4a/pool_proj -> inception_4a/pool_proj
I1128 08:06:27.122478  8697 net.cpp:150] Setting up inception_4a/pool_proj
I1128 08:06:27.122484  8697 net.cpp:157] Top shape: 16 64 14 14 (200704)
I1128 08:06:27.122486  8697 net.cpp:165] Memory required for data: 590471424
I1128 08:06:27.122491  8697 layer_factory.hpp:77] Creating layer inception_4a/relu_pool_proj
I1128 08:06:27.122496  8697 net.cpp:100] Creating Layer inception_4a/relu_pool_proj
I1128 08:06:27.122498  8697 net.cpp:434] inception_4a/relu_pool_proj <- inception_4a/pool_proj
I1128 08:06:27.122501  8697 net.cpp:395] inception_4a/relu_pool_proj -> inception_4a/pool_proj (in-place)
I1128 08:06:27.122505  8697 net.cpp:150] Setting up inception_4a/relu_pool_proj
I1128 08:06:27.122509  8697 net.cpp:157] Top shape: 16 64 14 14 (200704)
I1128 08:06:27.122510  8697 net.cpp:165] Memory required for data: 591274240
I1128 08:06:27.122512  8697 layer_factory.hpp:77] Creating layer inception_4a/output
I1128 08:06:27.122516  8697 net.cpp:100] Creating Layer inception_4a/output
I1128 08:06:27.122519  8697 net.cpp:434] inception_4a/output <- inception_4a/1x1
I1128 08:06:27.122520  8697 net.cpp:434] inception_4a/output <- inception_4a/3x3
I1128 08:06:27.122522  8697 net.cpp:434] inception_4a/output <- inception_4a/5x5
I1128 08:06:27.122525  8697 net.cpp:434] inception_4a/output <- inception_4a/pool_proj
I1128 08:06:27.122529  8697 net.cpp:408] inception_4a/output -> inception_4a/output
I1128 08:06:27.122545  8697 net.cpp:150] Setting up inception_4a/output
I1128 08:06:27.122548  8697 net.cpp:157] Top shape: 16 512 14 14 (1605632)
I1128 08:06:27.122550  8697 net.cpp:165] Memory required for data: 597696768
I1128 08:06:27.122551  8697 layer_factory.hpp:77] Creating layer inception_4a/output_inception_4a/output_0_split
I1128 08:06:27.122557  8697 net.cpp:100] Creating Layer inception_4a/output_inception_4a/output_0_split
I1128 08:06:27.122560  8697 net.cpp:434] inception_4a/output_inception_4a/output_0_split <- inception_4a/output
I1128 08:06:27.122563  8697 net.cpp:408] inception_4a/output_inception_4a/output_0_split -> inception_4a/output_inception_4a/output_0_split_0
I1128 08:06:27.122568  8697 net.cpp:408] inception_4a/output_inception_4a/output_0_split -> inception_4a/output_inception_4a/output_0_split_1
I1128 08:06:27.122572  8697 net.cpp:408] inception_4a/output_inception_4a/output_0_split -> inception_4a/output_inception_4a/output_0_split_2
I1128 08:06:27.122577  8697 net.cpp:408] inception_4a/output_inception_4a/output_0_split -> inception_4a/output_inception_4a/output_0_split_3
I1128 08:06:27.122581  8697 net.cpp:408] inception_4a/output_inception_4a/output_0_split -> inception_4a/output_inception_4a/output_0_split_4
I1128 08:06:27.122627  8697 net.cpp:150] Setting up inception_4a/output_inception_4a/output_0_split
I1128 08:06:27.122632  8697 net.cpp:157] Top shape: 16 512 14 14 (1605632)
I1128 08:06:27.122633  8697 net.cpp:157] Top shape: 16 512 14 14 (1605632)
I1128 08:06:27.122637  8697 net.cpp:157] Top shape: 16 512 14 14 (1605632)
I1128 08:06:27.122638  8697 net.cpp:157] Top shape: 16 512 14 14 (1605632)
I1128 08:06:27.122640  8697 net.cpp:157] Top shape: 16 512 14 14 (1605632)
I1128 08:06:27.122642  8697 net.cpp:165] Memory required for data: 629809408
I1128 08:06:27.122643  8697 layer_factory.hpp:77] Creating layer loss1/ave_pool
I1128 08:06:27.122648  8697 net.cpp:100] Creating Layer loss1/ave_pool
I1128 08:06:27.122650  8697 net.cpp:434] loss1/ave_pool <- inception_4a/output_inception_4a/output_0_split_0
I1128 08:06:27.122654  8697 net.cpp:408] loss1/ave_pool -> loss1/ave_pool
I1128 08:06:27.122669  8697 net.cpp:150] Setting up loss1/ave_pool
I1128 08:06:27.122673  8697 net.cpp:157] Top shape: 16 512 4 4 (131072)
I1128 08:06:27.122681  8697 net.cpp:165] Memory required for data: 630333696
I1128 08:06:27.122684  8697 layer_factory.hpp:77] Creating layer loss1/conv
I1128 08:06:27.122690  8697 net.cpp:100] Creating Layer loss1/conv
I1128 08:06:27.122692  8697 net.cpp:434] loss1/conv <- loss1/ave_pool
I1128 08:06:27.122696  8697 net.cpp:408] loss1/conv -> loss1/conv
I1128 08:06:27.123153  8697 net.cpp:150] Setting up loss1/conv
I1128 08:06:27.123162  8697 net.cpp:157] Top shape: 16 128 4 4 (32768)
I1128 08:06:27.123164  8697 net.cpp:165] Memory required for data: 630464768
I1128 08:06:27.123168  8697 layer_factory.hpp:77] Creating layer loss1/relu_conv
I1128 08:06:27.123172  8697 net.cpp:100] Creating Layer loss1/relu_conv
I1128 08:06:27.123174  8697 net.cpp:434] loss1/relu_conv <- loss1/conv
I1128 08:06:27.123178  8697 net.cpp:395] loss1/relu_conv -> loss1/conv (in-place)
I1128 08:06:27.123181  8697 net.cpp:150] Setting up loss1/relu_conv
I1128 08:06:27.123183  8697 net.cpp:157] Top shape: 16 128 4 4 (32768)
I1128 08:06:27.123185  8697 net.cpp:165] Memory required for data: 630595840
I1128 08:06:27.123186  8697 layer_factory.hpp:77] Creating layer loss1/fc
I1128 08:06:27.123193  8697 net.cpp:100] Creating Layer loss1/fc
I1128 08:06:27.123194  8697 net.cpp:434] loss1/fc <- loss1/conv
I1128 08:06:27.123198  8697 net.cpp:408] loss1/fc -> loss1/fc
I1128 08:06:27.138418  8697 net.cpp:150] Setting up loss1/fc
I1128 08:06:27.138445  8697 net.cpp:157] Top shape: 16 1024 (16384)
I1128 08:06:27.138447  8697 net.cpp:165] Memory required for data: 630661376
I1128 08:06:27.138456  8697 layer_factory.hpp:77] Creating layer loss1/relu_fc
I1128 08:06:27.138468  8697 net.cpp:100] Creating Layer loss1/relu_fc
I1128 08:06:27.138470  8697 net.cpp:434] loss1/relu_fc <- loss1/fc
I1128 08:06:27.138476  8697 net.cpp:395] loss1/relu_fc -> loss1/fc (in-place)
I1128 08:06:27.138484  8697 net.cpp:150] Setting up loss1/relu_fc
I1128 08:06:27.138485  8697 net.cpp:157] Top shape: 16 1024 (16384)
I1128 08:06:27.138486  8697 net.cpp:165] Memory required for data: 630726912
I1128 08:06:27.138489  8697 layer_factory.hpp:77] Creating layer loss1/drop_fc
I1128 08:06:27.138511  8697 net.cpp:100] Creating Layer loss1/drop_fc
I1128 08:06:27.138514  8697 net.cpp:434] loss1/drop_fc <- loss1/fc
I1128 08:06:27.138516  8697 net.cpp:395] loss1/drop_fc -> loss1/fc (in-place)
I1128 08:06:27.138540  8697 net.cpp:150] Setting up loss1/drop_fc
I1128 08:06:27.138543  8697 net.cpp:157] Top shape: 16 1024 (16384)
I1128 08:06:27.138545  8697 net.cpp:165] Memory required for data: 630792448
I1128 08:06:27.138547  8697 layer_factory.hpp:77] Creating layer loss1/classifier
I1128 08:06:27.138555  8697 net.cpp:100] Creating Layer loss1/classifier
I1128 08:06:27.138556  8697 net.cpp:434] loss1/classifier <- loss1/fc
I1128 08:06:27.138561  8697 net.cpp:408] loss1/classifier -> loss1/classifier
I1128 08:06:27.144335  8697 net.cpp:150] Setting up loss1/classifier
I1128 08:06:27.144361  8697 net.cpp:157] Top shape: 16 1000 (16000)
I1128 08:06:27.144363  8697 net.cpp:165] Memory required for data: 630856448
I1128 08:06:27.144372  8697 layer_factory.hpp:77] Creating layer loss1/loss
I1128 08:06:27.144382  8697 net.cpp:100] Creating Layer loss1/loss
I1128 08:06:27.144387  8697 net.cpp:434] loss1/loss <- loss1/classifier
I1128 08:06:27.144392  8697 net.cpp:434] loss1/loss <- label_data_1_split_0
I1128 08:06:27.144397  8697 net.cpp:408] loss1/loss -> loss1/loss1
I1128 08:06:27.144408  8697 layer_factory.hpp:77] Creating layer loss1/loss
I1128 08:06:27.144497  8697 net.cpp:150] Setting up loss1/loss
I1128 08:06:27.144503  8697 net.cpp:157] Top shape: (1)
I1128 08:06:27.144505  8697 net.cpp:160]     with loss weight 0.3
I1128 08:06:27.144526  8697 net.cpp:165] Memory required for data: 630856452
I1128 08:06:27.144529  8697 layer_factory.hpp:77] Creating layer inception_4b/1x1
I1128 08:06:27.144538  8697 net.cpp:100] Creating Layer inception_4b/1x1
I1128 08:06:27.144541  8697 net.cpp:434] inception_4b/1x1 <- inception_4a/output_inception_4a/output_0_split_1
I1128 08:06:27.144547  8697 net.cpp:408] inception_4b/1x1 -> inception_4b/1x1
I1128 08:06:27.145107  8697 net.cpp:150] Setting up inception_4b/1x1
I1128 08:06:27.145115  8697 net.cpp:157] Top shape: 16 160 14 14 (501760)
I1128 08:06:27.145117  8697 net.cpp:165] Memory required for data: 632863492
I1128 08:06:27.145120  8697 layer_factory.hpp:77] Creating layer inception_4b/relu_1x1
I1128 08:06:27.145125  8697 net.cpp:100] Creating Layer inception_4b/relu_1x1
I1128 08:06:27.145128  8697 net.cpp:434] inception_4b/relu_1x1 <- inception_4b/1x1
I1128 08:06:27.145133  8697 net.cpp:395] inception_4b/relu_1x1 -> inception_4b/1x1 (in-place)
I1128 08:06:27.145136  8697 net.cpp:150] Setting up inception_4b/relu_1x1
I1128 08:06:27.145138  8697 net.cpp:157] Top shape: 16 160 14 14 (501760)
I1128 08:06:27.145140  8697 net.cpp:165] Memory required for data: 634870532
I1128 08:06:27.145143  8697 layer_factory.hpp:77] Creating layer inception_4b/3x3_reduce
I1128 08:06:27.145148  8697 net.cpp:100] Creating Layer inception_4b/3x3_reduce
I1128 08:06:27.145149  8697 net.cpp:434] inception_4b/3x3_reduce <- inception_4a/output_inception_4a/output_0_split_2
I1128 08:06:27.145154  8697 net.cpp:408] inception_4b/3x3_reduce -> inception_4b/3x3_reduce
I1128 08:06:27.147897  8697 net.cpp:150] Setting up inception_4b/3x3_reduce
I1128 08:06:27.147907  8697 net.cpp:157] Top shape: 16 112 14 14 (351232)
I1128 08:06:27.147908  8697 net.cpp:165] Memory required for data: 636275460
I1128 08:06:27.147912  8697 layer_factory.hpp:77] Creating layer inception_4b/relu_3x3_reduce
I1128 08:06:27.147917  8697 net.cpp:100] Creating Layer inception_4b/relu_3x3_reduce
I1128 08:06:27.147919  8697 net.cpp:434] inception_4b/relu_3x3_reduce <- inception_4b/3x3_reduce
I1128 08:06:27.147924  8697 net.cpp:395] inception_4b/relu_3x3_reduce -> inception_4b/3x3_reduce (in-place)
I1128 08:06:27.147929  8697 net.cpp:150] Setting up inception_4b/relu_3x3_reduce
I1128 08:06:27.147931  8697 net.cpp:157] Top shape: 16 112 14 14 (351232)
I1128 08:06:27.147933  8697 net.cpp:165] Memory required for data: 637680388
I1128 08:06:27.147934  8697 layer_factory.hpp:77] Creating layer inception_4b/3x3
I1128 08:06:27.147943  8697 net.cpp:100] Creating Layer inception_4b/3x3
I1128 08:06:27.147944  8697 net.cpp:434] inception_4b/3x3 <- inception_4b/3x3_reduce
I1128 08:06:27.147948  8697 net.cpp:408] inception_4b/3x3 -> inception_4b/3x3
I1128 08:06:27.149726  8697 net.cpp:150] Setting up inception_4b/3x3
I1128 08:06:27.149737  8697 net.cpp:157] Top shape: 16 224 14 14 (702464)
I1128 08:06:27.149739  8697 net.cpp:165] Memory required for data: 640490244
I1128 08:06:27.149744  8697 layer_factory.hpp:77] Creating layer inception_4b/relu_3x3
I1128 08:06:27.149749  8697 net.cpp:100] Creating Layer inception_4b/relu_3x3
I1128 08:06:27.149750  8697 net.cpp:434] inception_4b/relu_3x3 <- inception_4b/3x3
I1128 08:06:27.149754  8697 net.cpp:395] inception_4b/relu_3x3 -> inception_4b/3x3 (in-place)
I1128 08:06:27.149758  8697 net.cpp:150] Setting up inception_4b/relu_3x3
I1128 08:06:27.149760  8697 net.cpp:157] Top shape: 16 224 14 14 (702464)
I1128 08:06:27.149763  8697 net.cpp:165] Memory required for data: 643300100
I1128 08:06:27.149765  8697 layer_factory.hpp:77] Creating layer inception_4b/5x5_reduce
I1128 08:06:27.149771  8697 net.cpp:100] Creating Layer inception_4b/5x5_reduce
I1128 08:06:27.149773  8697 net.cpp:434] inception_4b/5x5_reduce <- inception_4a/output_inception_4a/output_0_split_3
I1128 08:06:27.149778  8697 net.cpp:408] inception_4b/5x5_reduce -> inception_4b/5x5_reduce
I1128 08:06:27.149997  8697 net.cpp:150] Setting up inception_4b/5x5_reduce
I1128 08:06:27.150003  8697 net.cpp:157] Top shape: 16 24 14 14 (75264)
I1128 08:06:27.150007  8697 net.cpp:165] Memory required for data: 643601156
I1128 08:06:27.150010  8697 layer_factory.hpp:77] Creating layer inception_4b/relu_5x5_reduce
I1128 08:06:27.150014  8697 net.cpp:100] Creating Layer inception_4b/relu_5x5_reduce
I1128 08:06:27.150017  8697 net.cpp:434] inception_4b/relu_5x5_reduce <- inception_4b/5x5_reduce
I1128 08:06:27.150020  8697 net.cpp:395] inception_4b/relu_5x5_reduce -> inception_4b/5x5_reduce (in-place)
I1128 08:06:27.150033  8697 net.cpp:150] Setting up inception_4b/relu_5x5_reduce
I1128 08:06:27.150037  8697 net.cpp:157] Top shape: 16 24 14 14 (75264)
I1128 08:06:27.150038  8697 net.cpp:165] Memory required for data: 643902212
I1128 08:06:27.150039  8697 layer_factory.hpp:77] Creating layer inception_4b/5x5
I1128 08:06:27.150045  8697 net.cpp:100] Creating Layer inception_4b/5x5
I1128 08:06:27.150048  8697 net.cpp:434] inception_4b/5x5 <- inception_4b/5x5_reduce
I1128 08:06:27.150051  8697 net.cpp:408] inception_4b/5x5 -> inception_4b/5x5
I1128 08:06:27.150383  8697 net.cpp:150] Setting up inception_4b/5x5
I1128 08:06:27.150390  8697 net.cpp:157] Top shape: 16 64 14 14 (200704)
I1128 08:06:27.150393  8697 net.cpp:165] Memory required for data: 644705028
I1128 08:06:27.150396  8697 layer_factory.hpp:77] Creating layer inception_4b/relu_5x5
I1128 08:06:27.150400  8697 net.cpp:100] Creating Layer inception_4b/relu_5x5
I1128 08:06:27.150403  8697 net.cpp:434] inception_4b/relu_5x5 <- inception_4b/5x5
I1128 08:06:27.150408  8697 net.cpp:395] inception_4b/relu_5x5 -> inception_4b/5x5 (in-place)
I1128 08:06:27.150410  8697 net.cpp:150] Setting up inception_4b/relu_5x5
I1128 08:06:27.150413  8697 net.cpp:157] Top shape: 16 64 14 14 (200704)
I1128 08:06:27.150414  8697 net.cpp:165] Memory required for data: 645507844
I1128 08:06:27.150416  8697 layer_factory.hpp:77] Creating layer inception_4b/pool
I1128 08:06:27.150421  8697 net.cpp:100] Creating Layer inception_4b/pool
I1128 08:06:27.150424  8697 net.cpp:434] inception_4b/pool <- inception_4a/output_inception_4a/output_0_split_4
I1128 08:06:27.150429  8697 net.cpp:408] inception_4b/pool -> inception_4b/pool
I1128 08:06:27.150468  8697 net.cpp:150] Setting up inception_4b/pool
I1128 08:06:27.150475  8697 net.cpp:157] Top shape: 16 512 14 14 (1605632)
I1128 08:06:27.150477  8697 net.cpp:165] Memory required for data: 651930372
I1128 08:06:27.150478  8697 layer_factory.hpp:77] Creating layer inception_4b/pool_proj
I1128 08:06:27.150485  8697 net.cpp:100] Creating Layer inception_4b/pool_proj
I1128 08:06:27.150486  8697 net.cpp:434] inception_4b/pool_proj <- inception_4b/pool
I1128 08:06:27.150491  8697 net.cpp:408] inception_4b/pool_proj -> inception_4b/pool_proj
I1128 08:06:27.150789  8697 net.cpp:150] Setting up inception_4b/pool_proj
I1128 08:06:27.150795  8697 net.cpp:157] Top shape: 16 64 14 14 (200704)
I1128 08:06:27.150797  8697 net.cpp:165] Memory required for data: 652733188
I1128 08:06:27.150801  8697 layer_factory.hpp:77] Creating layer inception_4b/relu_pool_proj
I1128 08:06:27.150805  8697 net.cpp:100] Creating Layer inception_4b/relu_pool_proj
I1128 08:06:27.150807  8697 net.cpp:434] inception_4b/relu_pool_proj <- inception_4b/pool_proj
I1128 08:06:27.150810  8697 net.cpp:395] inception_4b/relu_pool_proj -> inception_4b/pool_proj (in-place)
I1128 08:06:27.150815  8697 net.cpp:150] Setting up inception_4b/relu_pool_proj
I1128 08:06:27.150816  8697 net.cpp:157] Top shape: 16 64 14 14 (200704)
I1128 08:06:27.150818  8697 net.cpp:165] Memory required for data: 653536004
I1128 08:06:27.150820  8697 layer_factory.hpp:77] Creating layer inception_4b/output
I1128 08:06:27.150825  8697 net.cpp:100] Creating Layer inception_4b/output
I1128 08:06:27.150826  8697 net.cpp:434] inception_4b/output <- inception_4b/1x1
I1128 08:06:27.150830  8697 net.cpp:434] inception_4b/output <- inception_4b/3x3
I1128 08:06:27.150831  8697 net.cpp:434] inception_4b/output <- inception_4b/5x5
I1128 08:06:27.150833  8697 net.cpp:434] inception_4b/output <- inception_4b/pool_proj
I1128 08:06:27.150836  8697 net.cpp:408] inception_4b/output -> inception_4b/output
I1128 08:06:27.150856  8697 net.cpp:150] Setting up inception_4b/output
I1128 08:06:27.150858  8697 net.cpp:157] Top shape: 16 512 14 14 (1605632)
I1128 08:06:27.150861  8697 net.cpp:165] Memory required for data: 659958532
I1128 08:06:27.150861  8697 layer_factory.hpp:77] Creating layer inception_4b/output_inception_4b/output_0_split
I1128 08:06:27.150866  8697 net.cpp:100] Creating Layer inception_4b/output_inception_4b/output_0_split
I1128 08:06:27.150876  8697 net.cpp:434] inception_4b/output_inception_4b/output_0_split <- inception_4b/output
I1128 08:06:27.150881  8697 net.cpp:408] inception_4b/output_inception_4b/output_0_split -> inception_4b/output_inception_4b/output_0_split_0
I1128 08:06:27.150884  8697 net.cpp:408] inception_4b/output_inception_4b/output_0_split -> inception_4b/output_inception_4b/output_0_split_1
I1128 08:06:27.150889  8697 net.cpp:408] inception_4b/output_inception_4b/output_0_split -> inception_4b/output_inception_4b/output_0_split_2
I1128 08:06:27.150893  8697 net.cpp:408] inception_4b/output_inception_4b/output_0_split -> inception_4b/output_inception_4b/output_0_split_3
I1128 08:06:27.150939  8697 net.cpp:150] Setting up inception_4b/output_inception_4b/output_0_split
I1128 08:06:27.150944  8697 net.cpp:157] Top shape: 16 512 14 14 (1605632)
I1128 08:06:27.150948  8697 net.cpp:157] Top shape: 16 512 14 14 (1605632)
I1128 08:06:27.150949  8697 net.cpp:157] Top shape: 16 512 14 14 (1605632)
I1128 08:06:27.150951  8697 net.cpp:157] Top shape: 16 512 14 14 (1605632)
I1128 08:06:27.150954  8697 net.cpp:165] Memory required for data: 685648644
I1128 08:06:27.150954  8697 layer_factory.hpp:77] Creating layer inception_4c/1x1
I1128 08:06:27.150961  8697 net.cpp:100] Creating Layer inception_4c/1x1
I1128 08:06:27.150964  8697 net.cpp:434] inception_4c/1x1 <- inception_4b/output_inception_4b/output_0_split_0
I1128 08:06:27.150969  8697 net.cpp:408] inception_4c/1x1 -> inception_4c/1x1
I1128 08:06:27.151407  8697 net.cpp:150] Setting up inception_4c/1x1
I1128 08:06:27.151414  8697 net.cpp:157] Top shape: 16 128 14 14 (401408)
I1128 08:06:27.151417  8697 net.cpp:165] Memory required for data: 687254276
I1128 08:06:27.151422  8697 layer_factory.hpp:77] Creating layer inception_4c/relu_1x1
I1128 08:06:27.151425  8697 net.cpp:100] Creating Layer inception_4c/relu_1x1
I1128 08:06:27.151427  8697 net.cpp:434] inception_4c/relu_1x1 <- inception_4c/1x1
I1128 08:06:27.151430  8697 net.cpp:395] inception_4c/relu_1x1 -> inception_4c/1x1 (in-place)
I1128 08:06:27.151434  8697 net.cpp:150] Setting up inception_4c/relu_1x1
I1128 08:06:27.151437  8697 net.cpp:157] Top shape: 16 128 14 14 (401408)
I1128 08:06:27.151438  8697 net.cpp:165] Memory required for data: 688859908
I1128 08:06:27.151440  8697 layer_factory.hpp:77] Creating layer inception_4c/3x3_reduce
I1128 08:06:27.151446  8697 net.cpp:100] Creating Layer inception_4c/3x3_reduce
I1128 08:06:27.151448  8697 net.cpp:434] inception_4c/3x3_reduce <- inception_4b/output_inception_4b/output_0_split_1
I1128 08:06:27.151454  8697 net.cpp:408] inception_4c/3x3_reduce -> inception_4c/3x3_reduce
I1128 08:06:27.151893  8697 net.cpp:150] Setting up inception_4c/3x3_reduce
I1128 08:06:27.151901  8697 net.cpp:157] Top shape: 16 128 14 14 (401408)
I1128 08:06:27.151901  8697 net.cpp:165] Memory required for data: 690465540
I1128 08:06:27.151906  8697 layer_factory.hpp:77] Creating layer inception_4c/relu_3x3_reduce
I1128 08:06:27.151911  8697 net.cpp:100] Creating Layer inception_4c/relu_3x3_reduce
I1128 08:06:27.151912  8697 net.cpp:434] inception_4c/relu_3x3_reduce <- inception_4c/3x3_reduce
I1128 08:06:27.151916  8697 net.cpp:395] inception_4c/relu_3x3_reduce -> inception_4c/3x3_reduce (in-place)
I1128 08:06:27.151919  8697 net.cpp:150] Setting up inception_4c/relu_3x3_reduce
I1128 08:06:27.151922  8697 net.cpp:157] Top shape: 16 128 14 14 (401408)
I1128 08:06:27.151923  8697 net.cpp:165] Memory required for data: 692071172
I1128 08:06:27.151926  8697 layer_factory.hpp:77] Creating layer inception_4c/3x3
I1128 08:06:27.151932  8697 net.cpp:100] Creating Layer inception_4c/3x3
I1128 08:06:27.151933  8697 net.cpp:434] inception_4c/3x3 <- inception_4c/3x3_reduce
I1128 08:06:27.151937  8697 net.cpp:408] inception_4c/3x3 -> inception_4c/3x3
I1128 08:06:27.153770  8697 net.cpp:150] Setting up inception_4c/3x3
I1128 08:06:27.153779  8697 net.cpp:157] Top shape: 16 256 14 14 (802816)
I1128 08:06:27.153781  8697 net.cpp:165] Memory required for data: 695282436
I1128 08:06:27.153803  8697 layer_factory.hpp:77] Creating layer inception_4c/relu_3x3
I1128 08:06:27.153810  8697 net.cpp:100] Creating Layer inception_4c/relu_3x3
I1128 08:06:27.153812  8697 net.cpp:434] inception_4c/relu_3x3 <- inception_4c/3x3
I1128 08:06:27.153816  8697 net.cpp:395] inception_4c/relu_3x3 -> inception_4c/3x3 (in-place)
I1128 08:06:27.153820  8697 net.cpp:150] Setting up inception_4c/relu_3x3
I1128 08:06:27.153822  8697 net.cpp:157] Top shape: 16 256 14 14 (802816)
I1128 08:06:27.153825  8697 net.cpp:165] Memory required for data: 698493700
I1128 08:06:27.153825  8697 layer_factory.hpp:77] Creating layer inception_4c/5x5_reduce
I1128 08:06:27.153833  8697 net.cpp:100] Creating Layer inception_4c/5x5_reduce
I1128 08:06:27.153836  8697 net.cpp:434] inception_4c/5x5_reduce <- inception_4b/output_inception_4b/output_0_split_2
I1128 08:06:27.153841  8697 net.cpp:408] inception_4c/5x5_reduce -> inception_4c/5x5_reduce
I1128 08:06:27.154063  8697 net.cpp:150] Setting up inception_4c/5x5_reduce
I1128 08:06:27.154070  8697 net.cpp:157] Top shape: 16 24 14 14 (75264)
I1128 08:06:27.154072  8697 net.cpp:165] Memory required for data: 698794756
I1128 08:06:27.154076  8697 layer_factory.hpp:77] Creating layer inception_4c/relu_5x5_reduce
I1128 08:06:27.154081  8697 net.cpp:100] Creating Layer inception_4c/relu_5x5_reduce
I1128 08:06:27.154084  8697 net.cpp:434] inception_4c/relu_5x5_reduce <- inception_4c/5x5_reduce
I1128 08:06:27.154088  8697 net.cpp:395] inception_4c/relu_5x5_reduce -> inception_4c/5x5_reduce (in-place)
I1128 08:06:27.154090  8697 net.cpp:150] Setting up inception_4c/relu_5x5_reduce
I1128 08:06:27.154093  8697 net.cpp:157] Top shape: 16 24 14 14 (75264)
I1128 08:06:27.154094  8697 net.cpp:165] Memory required for data: 699095812
I1128 08:06:27.154096  8697 layer_factory.hpp:77] Creating layer inception_4c/5x5
I1128 08:06:27.154103  8697 net.cpp:100] Creating Layer inception_4c/5x5
I1128 08:06:27.154104  8697 net.cpp:434] inception_4c/5x5 <- inception_4c/5x5_reduce
I1128 08:06:27.154109  8697 net.cpp:408] inception_4c/5x5 -> inception_4c/5x5
I1128 08:06:27.154826  8697 net.cpp:150] Setting up inception_4c/5x5
I1128 08:06:27.154835  8697 net.cpp:157] Top shape: 16 64 14 14 (200704)
I1128 08:06:27.154837  8697 net.cpp:165] Memory required for data: 699898628
I1128 08:06:27.154841  8697 layer_factory.hpp:77] Creating layer inception_4c/relu_5x5
I1128 08:06:27.154846  8697 net.cpp:100] Creating Layer inception_4c/relu_5x5
I1128 08:06:27.154850  8697 net.cpp:434] inception_4c/relu_5x5 <- inception_4c/5x5
I1128 08:06:27.154852  8697 net.cpp:395] inception_4c/relu_5x5 -> inception_4c/5x5 (in-place)
I1128 08:06:27.154857  8697 net.cpp:150] Setting up inception_4c/relu_5x5
I1128 08:06:27.154860  8697 net.cpp:157] Top shape: 16 64 14 14 (200704)
I1128 08:06:27.154862  8697 net.cpp:165] Memory required for data: 700701444
I1128 08:06:27.154863  8697 layer_factory.hpp:77] Creating layer inception_4c/pool
I1128 08:06:27.154868  8697 net.cpp:100] Creating Layer inception_4c/pool
I1128 08:06:27.154870  8697 net.cpp:434] inception_4c/pool <- inception_4b/output_inception_4b/output_0_split_3
I1128 08:06:27.154875  8697 net.cpp:408] inception_4c/pool -> inception_4c/pool
I1128 08:06:27.154904  8697 net.cpp:150] Setting up inception_4c/pool
I1128 08:06:27.154908  8697 net.cpp:157] Top shape: 16 512 14 14 (1605632)
I1128 08:06:27.154909  8697 net.cpp:165] Memory required for data: 707123972
I1128 08:06:27.154911  8697 layer_factory.hpp:77] Creating layer inception_4c/pool_proj
I1128 08:06:27.154918  8697 net.cpp:100] Creating Layer inception_4c/pool_proj
I1128 08:06:27.154920  8697 net.cpp:434] inception_4c/pool_proj <- inception_4c/pool
I1128 08:06:27.154925  8697 net.cpp:408] inception_4c/pool_proj -> inception_4c/pool_proj
I1128 08:06:27.155233  8697 net.cpp:150] Setting up inception_4c/pool_proj
I1128 08:06:27.155241  8697 net.cpp:157] Top shape: 16 64 14 14 (200704)
I1128 08:06:27.155241  8697 net.cpp:165] Memory required for data: 707926788
I1128 08:06:27.155246  8697 layer_factory.hpp:77] Creating layer inception_4c/relu_pool_proj
I1128 08:06:27.155258  8697 net.cpp:100] Creating Layer inception_4c/relu_pool_proj
I1128 08:06:27.155261  8697 net.cpp:434] inception_4c/relu_pool_proj <- inception_4c/pool_proj
I1128 08:06:27.155266  8697 net.cpp:395] inception_4c/relu_pool_proj -> inception_4c/pool_proj (in-place)
I1128 08:06:27.155269  8697 net.cpp:150] Setting up inception_4c/relu_pool_proj
I1128 08:06:27.155272  8697 net.cpp:157] Top shape: 16 64 14 14 (200704)
I1128 08:06:27.155273  8697 net.cpp:165] Memory required for data: 708729604
I1128 08:06:27.155275  8697 layer_factory.hpp:77] Creating layer inception_4c/output
I1128 08:06:27.155279  8697 net.cpp:100] Creating Layer inception_4c/output
I1128 08:06:27.155282  8697 net.cpp:434] inception_4c/output <- inception_4c/1x1
I1128 08:06:27.155284  8697 net.cpp:434] inception_4c/output <- inception_4c/3x3
I1128 08:06:27.155287  8697 net.cpp:434] inception_4c/output <- inception_4c/5x5
I1128 08:06:27.155288  8697 net.cpp:434] inception_4c/output <- inception_4c/pool_proj
I1128 08:06:27.155292  8697 net.cpp:408] inception_4c/output -> inception_4c/output
I1128 08:06:27.155311  8697 net.cpp:150] Setting up inception_4c/output
I1128 08:06:27.155314  8697 net.cpp:157] Top shape: 16 512 14 14 (1605632)
I1128 08:06:27.155316  8697 net.cpp:165] Memory required for data: 715152132
I1128 08:06:27.155318  8697 layer_factory.hpp:77] Creating layer inception_4c/output_inception_4c/output_0_split
I1128 08:06:27.155321  8697 net.cpp:100] Creating Layer inception_4c/output_inception_4c/output_0_split
I1128 08:06:27.155323  8697 net.cpp:434] inception_4c/output_inception_4c/output_0_split <- inception_4c/output
I1128 08:06:27.155328  8697 net.cpp:408] inception_4c/output_inception_4c/output_0_split -> inception_4c/output_inception_4c/output_0_split_0
I1128 08:06:27.155333  8697 net.cpp:408] inception_4c/output_inception_4c/output_0_split -> inception_4c/output_inception_4c/output_0_split_1
I1128 08:06:27.155336  8697 net.cpp:408] inception_4c/output_inception_4c/output_0_split -> inception_4c/output_inception_4c/output_0_split_2
I1128 08:06:27.155341  8697 net.cpp:408] inception_4c/output_inception_4c/output_0_split -> inception_4c/output_inception_4c/output_0_split_3
I1128 08:06:27.155380  8697 net.cpp:150] Setting up inception_4c/output_inception_4c/output_0_split
I1128 08:06:27.155385  8697 net.cpp:157] Top shape: 16 512 14 14 (1605632)
I1128 08:06:27.155388  8697 net.cpp:157] Top shape: 16 512 14 14 (1605632)
I1128 08:06:27.155390  8697 net.cpp:157] Top shape: 16 512 14 14 (1605632)
I1128 08:06:27.155392  8697 net.cpp:157] Top shape: 16 512 14 14 (1605632)
I1128 08:06:27.155393  8697 net.cpp:165] Memory required for data: 740842244
I1128 08:06:27.155395  8697 layer_factory.hpp:77] Creating layer inception_4d/1x1
I1128 08:06:27.155402  8697 net.cpp:100] Creating Layer inception_4d/1x1
I1128 08:06:27.155405  8697 net.cpp:434] inception_4d/1x1 <- inception_4c/output_inception_4c/output_0_split_0
I1128 08:06:27.155410  8697 net.cpp:408] inception_4d/1x1 -> inception_4d/1x1
I1128 08:06:27.155817  8697 net.cpp:150] Setting up inception_4d/1x1
I1128 08:06:27.155822  8697 net.cpp:157] Top shape: 16 112 14 14 (351232)
I1128 08:06:27.155824  8697 net.cpp:165] Memory required for data: 742247172
I1128 08:06:27.155828  8697 layer_factory.hpp:77] Creating layer inception_4d/relu_1x1
I1128 08:06:27.155833  8697 net.cpp:100] Creating Layer inception_4d/relu_1x1
I1128 08:06:27.155834  8697 net.cpp:434] inception_4d/relu_1x1 <- inception_4d/1x1
I1128 08:06:27.155838  8697 net.cpp:395] inception_4d/relu_1x1 -> inception_4d/1x1 (in-place)
I1128 08:06:27.155843  8697 net.cpp:150] Setting up inception_4d/relu_1x1
I1128 08:06:27.155844  8697 net.cpp:157] Top shape: 16 112 14 14 (351232)
I1128 08:06:27.155845  8697 net.cpp:165] Memory required for data: 743652100
I1128 08:06:27.155848  8697 layer_factory.hpp:77] Creating layer inception_4d/3x3_reduce
I1128 08:06:27.155853  8697 net.cpp:100] Creating Layer inception_4d/3x3_reduce
I1128 08:06:27.155855  8697 net.cpp:434] inception_4d/3x3_reduce <- inception_4c/output_inception_4c/output_0_split_1
I1128 08:06:27.155869  8697 net.cpp:408] inception_4d/3x3_reduce -> inception_4d/3x3_reduce
I1128 08:06:27.156357  8697 net.cpp:150] Setting up inception_4d/3x3_reduce
I1128 08:06:27.156363  8697 net.cpp:157] Top shape: 16 144 14 14 (451584)
I1128 08:06:27.156364  8697 net.cpp:165] Memory required for data: 745458436
I1128 08:06:27.156368  8697 layer_factory.hpp:77] Creating layer inception_4d/relu_3x3_reduce
I1128 08:06:27.156373  8697 net.cpp:100] Creating Layer inception_4d/relu_3x3_reduce
I1128 08:06:27.156374  8697 net.cpp:434] inception_4d/relu_3x3_reduce <- inception_4d/3x3_reduce
I1128 08:06:27.156378  8697 net.cpp:395] inception_4d/relu_3x3_reduce -> inception_4d/3x3_reduce (in-place)
I1128 08:06:27.156383  8697 net.cpp:150] Setting up inception_4d/relu_3x3_reduce
I1128 08:06:27.156384  8697 net.cpp:157] Top shape: 16 144 14 14 (451584)
I1128 08:06:27.156386  8697 net.cpp:165] Memory required for data: 747264772
I1128 08:06:27.156388  8697 layer_factory.hpp:77] Creating layer inception_4d/3x3
I1128 08:06:27.156394  8697 net.cpp:100] Creating Layer inception_4d/3x3
I1128 08:06:27.156396  8697 net.cpp:434] inception_4d/3x3 <- inception_4d/3x3_reduce
I1128 08:06:27.156400  8697 net.cpp:408] inception_4d/3x3 -> inception_4d/3x3
I1128 08:06:27.158677  8697 net.cpp:150] Setting up inception_4d/3x3
I1128 08:06:27.158686  8697 net.cpp:157] Top shape: 16 288 14 14 (903168)
I1128 08:06:27.158689  8697 net.cpp:165] Memory required for data: 750877444
I1128 08:06:27.158692  8697 layer_factory.hpp:77] Creating layer inception_4d/relu_3x3
I1128 08:06:27.158699  8697 net.cpp:100] Creating Layer inception_4d/relu_3x3
I1128 08:06:27.158701  8697 net.cpp:434] inception_4d/relu_3x3 <- inception_4d/3x3
I1128 08:06:27.158704  8697 net.cpp:395] inception_4d/relu_3x3 -> inception_4d/3x3 (in-place)
I1128 08:06:27.158709  8697 net.cpp:150] Setting up inception_4d/relu_3x3
I1128 08:06:27.158711  8697 net.cpp:157] Top shape: 16 288 14 14 (903168)
I1128 08:06:27.158713  8697 net.cpp:165] Memory required for data: 754490116
I1128 08:06:27.158715  8697 layer_factory.hpp:77] Creating layer inception_4d/5x5_reduce
I1128 08:06:27.158722  8697 net.cpp:100] Creating Layer inception_4d/5x5_reduce
I1128 08:06:27.158725  8697 net.cpp:434] inception_4d/5x5_reduce <- inception_4c/output_inception_4c/output_0_split_2
I1128 08:06:27.158730  8697 net.cpp:408] inception_4d/5x5_reduce -> inception_4d/5x5_reduce
I1128 08:06:27.158972  8697 net.cpp:150] Setting up inception_4d/5x5_reduce
I1128 08:06:27.158978  8697 net.cpp:157] Top shape: 16 32 14 14 (100352)
I1128 08:06:27.158980  8697 net.cpp:165] Memory required for data: 754891524
I1128 08:06:27.158984  8697 layer_factory.hpp:77] Creating layer inception_4d/relu_5x5_reduce
I1128 08:06:27.158988  8697 net.cpp:100] Creating Layer inception_4d/relu_5x5_reduce
I1128 08:06:27.158990  8697 net.cpp:434] inception_4d/relu_5x5_reduce <- inception_4d/5x5_reduce
I1128 08:06:27.158993  8697 net.cpp:395] inception_4d/relu_5x5_reduce -> inception_4d/5x5_reduce (in-place)
I1128 08:06:27.159001  8697 net.cpp:150] Setting up inception_4d/relu_5x5_reduce
I1128 08:06:27.159004  8697 net.cpp:157] Top shape: 16 32 14 14 (100352)
I1128 08:06:27.159006  8697 net.cpp:165] Memory required for data: 755292932
I1128 08:06:27.159008  8697 layer_factory.hpp:77] Creating layer inception_4d/5x5
I1128 08:06:27.159014  8697 net.cpp:100] Creating Layer inception_4d/5x5
I1128 08:06:27.159016  8697 net.cpp:434] inception_4d/5x5 <- inception_4d/5x5_reduce
I1128 08:06:27.159021  8697 net.cpp:408] inception_4d/5x5 -> inception_4d/5x5
I1128 08:06:27.159409  8697 net.cpp:150] Setting up inception_4d/5x5
I1128 08:06:27.159415  8697 net.cpp:157] Top shape: 16 64 14 14 (200704)
I1128 08:06:27.159417  8697 net.cpp:165] Memory required for data: 756095748
I1128 08:06:27.159420  8697 layer_factory.hpp:77] Creating layer inception_4d/relu_5x5
I1128 08:06:27.159425  8697 net.cpp:100] Creating Layer inception_4d/relu_5x5
I1128 08:06:27.159426  8697 net.cpp:434] inception_4d/relu_5x5 <- inception_4d/5x5
I1128 08:06:27.159430  8697 net.cpp:395] inception_4d/relu_5x5 -> inception_4d/5x5 (in-place)
I1128 08:06:27.159442  8697 net.cpp:150] Setting up inception_4d/relu_5x5
I1128 08:06:27.159446  8697 net.cpp:157] Top shape: 16 64 14 14 (200704)
I1128 08:06:27.159447  8697 net.cpp:165] Memory required for data: 756898564
I1128 08:06:27.159448  8697 layer_factory.hpp:77] Creating layer inception_4d/pool
I1128 08:06:27.159453  8697 net.cpp:100] Creating Layer inception_4d/pool
I1128 08:06:27.159456  8697 net.cpp:434] inception_4d/pool <- inception_4c/output_inception_4c/output_0_split_3
I1128 08:06:27.159458  8697 net.cpp:408] inception_4d/pool -> inception_4d/pool
I1128 08:06:27.159488  8697 net.cpp:150] Setting up inception_4d/pool
I1128 08:06:27.159492  8697 net.cpp:157] Top shape: 16 512 14 14 (1605632)
I1128 08:06:27.159494  8697 net.cpp:165] Memory required for data: 763321092
I1128 08:06:27.159497  8697 layer_factory.hpp:77] Creating layer inception_4d/pool_proj
I1128 08:06:27.159502  8697 net.cpp:100] Creating Layer inception_4d/pool_proj
I1128 08:06:27.159504  8697 net.cpp:434] inception_4d/pool_proj <- inception_4d/pool
I1128 08:06:27.159509  8697 net.cpp:408] inception_4d/pool_proj -> inception_4d/pool_proj
I1128 08:06:27.159808  8697 net.cpp:150] Setting up inception_4d/pool_proj
I1128 08:06:27.159814  8697 net.cpp:157] Top shape: 16 64 14 14 (200704)
I1128 08:06:27.159816  8697 net.cpp:165] Memory required for data: 764123908
I1128 08:06:27.159819  8697 layer_factory.hpp:77] Creating layer inception_4d/relu_pool_proj
I1128 08:06:27.159823  8697 net.cpp:100] Creating Layer inception_4d/relu_pool_proj
I1128 08:06:27.159826  8697 net.cpp:434] inception_4d/relu_pool_proj <- inception_4d/pool_proj
I1128 08:06:27.159831  8697 net.cpp:395] inception_4d/relu_pool_proj -> inception_4d/pool_proj (in-place)
I1128 08:06:27.159834  8697 net.cpp:150] Setting up inception_4d/relu_pool_proj
I1128 08:06:27.159837  8697 net.cpp:157] Top shape: 16 64 14 14 (200704)
I1128 08:06:27.159837  8697 net.cpp:165] Memory required for data: 764926724
I1128 08:06:27.159839  8697 layer_factory.hpp:77] Creating layer inception_4d/output
I1128 08:06:27.159843  8697 net.cpp:100] Creating Layer inception_4d/output
I1128 08:06:27.159845  8697 net.cpp:434] inception_4d/output <- inception_4d/1x1
I1128 08:06:27.159848  8697 net.cpp:434] inception_4d/output <- inception_4d/3x3
I1128 08:06:27.159850  8697 net.cpp:434] inception_4d/output <- inception_4d/5x5
I1128 08:06:27.159852  8697 net.cpp:434] inception_4d/output <- inception_4d/pool_proj
I1128 08:06:27.159857  8697 net.cpp:408] inception_4d/output -> inception_4d/output
I1128 08:06:27.159874  8697 net.cpp:150] Setting up inception_4d/output
I1128 08:06:27.159878  8697 net.cpp:157] Top shape: 16 528 14 14 (1655808)
I1128 08:06:27.159879  8697 net.cpp:165] Memory required for data: 771549956
I1128 08:06:27.159881  8697 layer_factory.hpp:77] Creating layer inception_4d/output_inception_4d/output_0_split
I1128 08:06:27.159885  8697 net.cpp:100] Creating Layer inception_4d/output_inception_4d/output_0_split
I1128 08:06:27.159888  8697 net.cpp:434] inception_4d/output_inception_4d/output_0_split <- inception_4d/output
I1128 08:06:27.159893  8697 net.cpp:408] inception_4d/output_inception_4d/output_0_split -> inception_4d/output_inception_4d/output_0_split_0
I1128 08:06:27.159898  8697 net.cpp:408] inception_4d/output_inception_4d/output_0_split -> inception_4d/output_inception_4d/output_0_split_1
I1128 08:06:27.159900  8697 net.cpp:408] inception_4d/output_inception_4d/output_0_split -> inception_4d/output_inception_4d/output_0_split_2
I1128 08:06:27.159904  8697 net.cpp:408] inception_4d/output_inception_4d/output_0_split -> inception_4d/output_inception_4d/output_0_split_3
I1128 08:06:27.159909  8697 net.cpp:408] inception_4d/output_inception_4d/output_0_split -> inception_4d/output_inception_4d/output_0_split_4
I1128 08:06:27.159960  8697 net.cpp:150] Setting up inception_4d/output_inception_4d/output_0_split
I1128 08:06:27.159965  8697 net.cpp:157] Top shape: 16 528 14 14 (1655808)
I1128 08:06:27.159966  8697 net.cpp:157] Top shape: 16 528 14 14 (1655808)
I1128 08:06:27.159976  8697 net.cpp:157] Top shape: 16 528 14 14 (1655808)
I1128 08:06:27.159977  8697 net.cpp:157] Top shape: 16 528 14 14 (1655808)
I1128 08:06:27.159979  8697 net.cpp:157] Top shape: 16 528 14 14 (1655808)
I1128 08:06:27.159981  8697 net.cpp:165] Memory required for data: 804666116
I1128 08:06:27.159983  8697 layer_factory.hpp:77] Creating layer loss2/ave_pool
I1128 08:06:27.159987  8697 net.cpp:100] Creating Layer loss2/ave_pool
I1128 08:06:27.159989  8697 net.cpp:434] loss2/ave_pool <- inception_4d/output_inception_4d/output_0_split_0
I1128 08:06:27.159996  8697 net.cpp:408] loss2/ave_pool -> loss2/ave_pool
I1128 08:06:27.160013  8697 net.cpp:150] Setting up loss2/ave_pool
I1128 08:06:27.160029  8697 net.cpp:157] Top shape: 16 528 4 4 (135168)
I1128 08:06:27.160030  8697 net.cpp:165] Memory required for data: 805206788
I1128 08:06:27.160032  8697 layer_factory.hpp:77] Creating layer loss2/conv
I1128 08:06:27.160038  8697 net.cpp:100] Creating Layer loss2/conv
I1128 08:06:27.160042  8697 net.cpp:434] loss2/conv <- loss2/ave_pool
I1128 08:06:27.160044  8697 net.cpp:408] loss2/conv -> loss2/conv
I1128 08:06:27.160503  8697 net.cpp:150] Setting up loss2/conv
I1128 08:06:27.160509  8697 net.cpp:157] Top shape: 16 128 4 4 (32768)
I1128 08:06:27.160511  8697 net.cpp:165] Memory required for data: 805337860
I1128 08:06:27.160516  8697 layer_factory.hpp:77] Creating layer loss2/relu_conv
I1128 08:06:27.160519  8697 net.cpp:100] Creating Layer loss2/relu_conv
I1128 08:06:27.160521  8697 net.cpp:434] loss2/relu_conv <- loss2/conv
I1128 08:06:27.160526  8697 net.cpp:395] loss2/relu_conv -> loss2/conv (in-place)
I1128 08:06:27.160529  8697 net.cpp:150] Setting up loss2/relu_conv
I1128 08:06:27.160531  8697 net.cpp:157] Top shape: 16 128 4 4 (32768)
I1128 08:06:27.160533  8697 net.cpp:165] Memory required for data: 805468932
I1128 08:06:27.160534  8697 layer_factory.hpp:77] Creating layer loss2/fc
I1128 08:06:27.160542  8697 net.cpp:100] Creating Layer loss2/fc
I1128 08:06:27.160542  8697 net.cpp:434] loss2/fc <- loss2/conv
I1128 08:06:27.160547  8697 net.cpp:408] loss2/fc -> loss2/fc
I1128 08:06:27.173264  8697 net.cpp:150] Setting up loss2/fc
I1128 08:06:27.173290  8697 net.cpp:157] Top shape: 16 1024 (16384)
I1128 08:06:27.173291  8697 net.cpp:165] Memory required for data: 805534468
I1128 08:06:27.173300  8697 layer_factory.hpp:77] Creating layer loss2/relu_fc
I1128 08:06:27.173310  8697 net.cpp:100] Creating Layer loss2/relu_fc
I1128 08:06:27.173316  8697 net.cpp:434] loss2/relu_fc <- loss2/fc
I1128 08:06:27.173321  8697 net.cpp:395] loss2/relu_fc -> loss2/fc (in-place)
I1128 08:06:27.173328  8697 net.cpp:150] Setting up loss2/relu_fc
I1128 08:06:27.173331  8697 net.cpp:157] Top shape: 16 1024 (16384)
I1128 08:06:27.173332  8697 net.cpp:165] Memory required for data: 805600004
I1128 08:06:27.173333  8697 layer_factory.hpp:77] Creating layer loss2/drop_fc
I1128 08:06:27.173341  8697 net.cpp:100] Creating Layer loss2/drop_fc
I1128 08:06:27.173342  8697 net.cpp:434] loss2/drop_fc <- loss2/fc
I1128 08:06:27.173344  8697 net.cpp:395] loss2/drop_fc -> loss2/fc (in-place)
I1128 08:06:27.173367  8697 net.cpp:150] Setting up loss2/drop_fc
I1128 08:06:27.173369  8697 net.cpp:157] Top shape: 16 1024 (16384)
I1128 08:06:27.173372  8697 net.cpp:165] Memory required for data: 805665540
I1128 08:06:27.173373  8697 layer_factory.hpp:77] Creating layer loss2/classifier
I1128 08:06:27.173380  8697 net.cpp:100] Creating Layer loss2/classifier
I1128 08:06:27.173382  8697 net.cpp:434] loss2/classifier <- loss2/fc
I1128 08:06:27.173388  8697 net.cpp:408] loss2/classifier -> loss2/classifier
I1128 08:06:27.178944  8697 net.cpp:150] Setting up loss2/classifier
I1128 08:06:27.178956  8697 net.cpp:157] Top shape: 16 1000 (16000)
I1128 08:06:27.178957  8697 net.cpp:165] Memory required for data: 805729540
I1128 08:06:27.178961  8697 layer_factory.hpp:77] Creating layer loss2/loss
I1128 08:06:27.178967  8697 net.cpp:100] Creating Layer loss2/loss
I1128 08:06:27.178969  8697 net.cpp:434] loss2/loss <- loss2/classifier
I1128 08:06:27.178990  8697 net.cpp:434] loss2/loss <- label_data_1_split_1
I1128 08:06:27.179003  8697 net.cpp:408] loss2/loss -> loss2/loss1
I1128 08:06:27.179010  8697 layer_factory.hpp:77] Creating layer loss2/loss
I1128 08:06:27.179100  8697 net.cpp:150] Setting up loss2/loss
I1128 08:06:27.179106  8697 net.cpp:157] Top shape: (1)
I1128 08:06:27.179108  8697 net.cpp:160]     with loss weight 0.3
I1128 08:06:27.179117  8697 net.cpp:165] Memory required for data: 805729544
I1128 08:06:27.179119  8697 layer_factory.hpp:77] Creating layer inception_4e/1x1
I1128 08:06:27.179129  8697 net.cpp:100] Creating Layer inception_4e/1x1
I1128 08:06:27.179132  8697 net.cpp:434] inception_4e/1x1 <- inception_4d/output_inception_4d/output_0_split_1
I1128 08:06:27.179137  8697 net.cpp:408] inception_4e/1x1 -> inception_4e/1x1
I1128 08:06:27.180299  8697 net.cpp:150] Setting up inception_4e/1x1
I1128 08:06:27.180308  8697 net.cpp:157] Top shape: 16 256 14 14 (802816)
I1128 08:06:27.180310  8697 net.cpp:165] Memory required for data: 808940808
I1128 08:06:27.180315  8697 layer_factory.hpp:77] Creating layer inception_4e/relu_1x1
I1128 08:06:27.180320  8697 net.cpp:100] Creating Layer inception_4e/relu_1x1
I1128 08:06:27.180322  8697 net.cpp:434] inception_4e/relu_1x1 <- inception_4e/1x1
I1128 08:06:27.180326  8697 net.cpp:395] inception_4e/relu_1x1 -> inception_4e/1x1 (in-place)
I1128 08:06:27.180331  8697 net.cpp:150] Setting up inception_4e/relu_1x1
I1128 08:06:27.180333  8697 net.cpp:157] Top shape: 16 256 14 14 (802816)
I1128 08:06:27.180336  8697 net.cpp:165] Memory required for data: 812152072
I1128 08:06:27.180338  8697 layer_factory.hpp:77] Creating layer inception_4e/3x3_reduce
I1128 08:06:27.180344  8697 net.cpp:100] Creating Layer inception_4e/3x3_reduce
I1128 08:06:27.180346  8697 net.cpp:434] inception_4e/3x3_reduce <- inception_4d/output_inception_4d/output_0_split_2
I1128 08:06:27.180351  8697 net.cpp:408] inception_4e/3x3_reduce -> inception_4e/3x3_reduce
I1128 08:06:27.180887  8697 net.cpp:150] Setting up inception_4e/3x3_reduce
I1128 08:06:27.180893  8697 net.cpp:157] Top shape: 16 160 14 14 (501760)
I1128 08:06:27.180896  8697 net.cpp:165] Memory required for data: 814159112
I1128 08:06:27.180899  8697 layer_factory.hpp:77] Creating layer inception_4e/relu_3x3_reduce
I1128 08:06:27.180904  8697 net.cpp:100] Creating Layer inception_4e/relu_3x3_reduce
I1128 08:06:27.180907  8697 net.cpp:434] inception_4e/relu_3x3_reduce <- inception_4e/3x3_reduce
I1128 08:06:27.180909  8697 net.cpp:395] inception_4e/relu_3x3_reduce -> inception_4e/3x3_reduce (in-place)
I1128 08:06:27.180913  8697 net.cpp:150] Setting up inception_4e/relu_3x3_reduce
I1128 08:06:27.180915  8697 net.cpp:157] Top shape: 16 160 14 14 (501760)
I1128 08:06:27.180917  8697 net.cpp:165] Memory required for data: 816166152
I1128 08:06:27.180919  8697 layer_factory.hpp:77] Creating layer inception_4e/3x3
I1128 08:06:27.180925  8697 net.cpp:100] Creating Layer inception_4e/3x3
I1128 08:06:27.180927  8697 net.cpp:434] inception_4e/3x3 <- inception_4e/3x3_reduce
I1128 08:06:27.180932  8697 net.cpp:408] inception_4e/3x3 -> inception_4e/3x3
I1128 08:06:27.183629  8697 net.cpp:150] Setting up inception_4e/3x3
I1128 08:06:27.183640  8697 net.cpp:157] Top shape: 16 320 14 14 (1003520)
I1128 08:06:27.183642  8697 net.cpp:165] Memory required for data: 820180232
I1128 08:06:27.183647  8697 layer_factory.hpp:77] Creating layer inception_4e/relu_3x3
I1128 08:06:27.183651  8697 net.cpp:100] Creating Layer inception_4e/relu_3x3
I1128 08:06:27.183655  8697 net.cpp:434] inception_4e/relu_3x3 <- inception_4e/3x3
I1128 08:06:27.183657  8697 net.cpp:395] inception_4e/relu_3x3 -> inception_4e/3x3 (in-place)
I1128 08:06:27.183662  8697 net.cpp:150] Setting up inception_4e/relu_3x3
I1128 08:06:27.183665  8697 net.cpp:157] Top shape: 16 320 14 14 (1003520)
I1128 08:06:27.183667  8697 net.cpp:165] Memory required for data: 824194312
I1128 08:06:27.183668  8697 layer_factory.hpp:77] Creating layer inception_4e/5x5_reduce
I1128 08:06:27.183676  8697 net.cpp:100] Creating Layer inception_4e/5x5_reduce
I1128 08:06:27.183686  8697 net.cpp:434] inception_4e/5x5_reduce <- inception_4d/output_inception_4d/output_0_split_3
I1128 08:06:27.183691  8697 net.cpp:408] inception_4e/5x5_reduce -> inception_4e/5x5_reduce
I1128 08:06:27.183953  8697 net.cpp:150] Setting up inception_4e/5x5_reduce
I1128 08:06:27.183959  8697 net.cpp:157] Top shape: 16 32 14 14 (100352)
I1128 08:06:27.183960  8697 net.cpp:165] Memory required for data: 824595720
I1128 08:06:27.183964  8697 layer_factory.hpp:77] Creating layer inception_4e/relu_5x5_reduce
I1128 08:06:27.183969  8697 net.cpp:100] Creating Layer inception_4e/relu_5x5_reduce
I1128 08:06:27.183971  8697 net.cpp:434] inception_4e/relu_5x5_reduce <- inception_4e/5x5_reduce
I1128 08:06:27.183975  8697 net.cpp:395] inception_4e/relu_5x5_reduce -> inception_4e/5x5_reduce (in-place)
I1128 08:06:27.183979  8697 net.cpp:150] Setting up inception_4e/relu_5x5_reduce
I1128 08:06:27.183981  8697 net.cpp:157] Top shape: 16 32 14 14 (100352)
I1128 08:06:27.183982  8697 net.cpp:165] Memory required for data: 824997128
I1128 08:06:27.183984  8697 layer_factory.hpp:77] Creating layer inception_4e/5x5
I1128 08:06:27.184012  8697 net.cpp:100] Creating Layer inception_4e/5x5
I1128 08:06:27.184015  8697 net.cpp:434] inception_4e/5x5 <- inception_4e/5x5_reduce
I1128 08:06:27.184018  8697 net.cpp:408] inception_4e/5x5 -> inception_4e/5x5
I1128 08:06:27.185029  8697 net.cpp:150] Setting up inception_4e/5x5
I1128 08:06:27.185039  8697 net.cpp:157] Top shape: 16 128 14 14 (401408)
I1128 08:06:27.185040  8697 net.cpp:165] Memory required for data: 826602760
I1128 08:06:27.185045  8697 layer_factory.hpp:77] Creating layer inception_4e/relu_5x5
I1128 08:06:27.185050  8697 net.cpp:100] Creating Layer inception_4e/relu_5x5
I1128 08:06:27.185052  8697 net.cpp:434] inception_4e/relu_5x5 <- inception_4e/5x5
I1128 08:06:27.185056  8697 net.cpp:395] inception_4e/relu_5x5 -> inception_4e/5x5 (in-place)
I1128 08:06:27.185060  8697 net.cpp:150] Setting up inception_4e/relu_5x5
I1128 08:06:27.185063  8697 net.cpp:157] Top shape: 16 128 14 14 (401408)
I1128 08:06:27.185065  8697 net.cpp:165] Memory required for data: 828208392
I1128 08:06:27.185066  8697 layer_factory.hpp:77] Creating layer inception_4e/pool
I1128 08:06:27.185071  8697 net.cpp:100] Creating Layer inception_4e/pool
I1128 08:06:27.185073  8697 net.cpp:434] inception_4e/pool <- inception_4d/output_inception_4d/output_0_split_4
I1128 08:06:27.185076  8697 net.cpp:408] inception_4e/pool -> inception_4e/pool
I1128 08:06:27.185107  8697 net.cpp:150] Setting up inception_4e/pool
I1128 08:06:27.185122  8697 net.cpp:157] Top shape: 16 528 14 14 (1655808)
I1128 08:06:27.185124  8697 net.cpp:165] Memory required for data: 834831624
I1128 08:06:27.185127  8697 layer_factory.hpp:77] Creating layer inception_4e/pool_proj
I1128 08:06:27.185132  8697 net.cpp:100] Creating Layer inception_4e/pool_proj
I1128 08:06:27.185135  8697 net.cpp:434] inception_4e/pool_proj <- inception_4e/pool
I1128 08:06:27.185139  8697 net.cpp:408] inception_4e/pool_proj -> inception_4e/pool_proj
I1128 08:06:27.185590  8697 net.cpp:150] Setting up inception_4e/pool_proj
I1128 08:06:27.185595  8697 net.cpp:157] Top shape: 16 128 14 14 (401408)
I1128 08:06:27.185597  8697 net.cpp:165] Memory required for data: 836437256
I1128 08:06:27.185601  8697 layer_factory.hpp:77] Creating layer inception_4e/relu_pool_proj
I1128 08:06:27.185606  8697 net.cpp:100] Creating Layer inception_4e/relu_pool_proj
I1128 08:06:27.185607  8697 net.cpp:434] inception_4e/relu_pool_proj <- inception_4e/pool_proj
I1128 08:06:27.185611  8697 net.cpp:395] inception_4e/relu_pool_proj -> inception_4e/pool_proj (in-place)
I1128 08:06:27.185613  8697 net.cpp:150] Setting up inception_4e/relu_pool_proj
I1128 08:06:27.185616  8697 net.cpp:157] Top shape: 16 128 14 14 (401408)
I1128 08:06:27.185617  8697 net.cpp:165] Memory required for data: 838042888
I1128 08:06:27.185619  8697 layer_factory.hpp:77] Creating layer inception_4e/output
I1128 08:06:27.185626  8697 net.cpp:100] Creating Layer inception_4e/output
I1128 08:06:27.185636  8697 net.cpp:434] inception_4e/output <- inception_4e/1x1
I1128 08:06:27.185637  8697 net.cpp:434] inception_4e/output <- inception_4e/3x3
I1128 08:06:27.185639  8697 net.cpp:434] inception_4e/output <- inception_4e/5x5
I1128 08:06:27.185642  8697 net.cpp:434] inception_4e/output <- inception_4e/pool_proj
I1128 08:06:27.185645  8697 net.cpp:408] inception_4e/output -> inception_4e/output
I1128 08:06:27.185667  8697 net.cpp:150] Setting up inception_4e/output
I1128 08:06:27.185670  8697 net.cpp:157] Top shape: 16 832 14 14 (2609152)
I1128 08:06:27.185672  8697 net.cpp:165] Memory required for data: 848479496
I1128 08:06:27.185673  8697 layer_factory.hpp:77] Creating layer pool4/3x3_s2
I1128 08:06:27.185678  8697 net.cpp:100] Creating Layer pool4/3x3_s2
I1128 08:06:27.185679  8697 net.cpp:434] pool4/3x3_s2 <- inception_4e/output
I1128 08:06:27.185684  8697 net.cpp:408] pool4/3x3_s2 -> pool4/3x3_s2
I1128 08:06:27.185710  8697 net.cpp:150] Setting up pool4/3x3_s2
I1128 08:06:27.185714  8697 net.cpp:157] Top shape: 16 832 7 7 (652288)
I1128 08:06:27.185716  8697 net.cpp:165] Memory required for data: 851088648
I1128 08:06:27.185719  8697 layer_factory.hpp:77] Creating layer pool4/3x3_s2_pool4/3x3_s2_0_split
I1128 08:06:27.185724  8697 net.cpp:100] Creating Layer pool4/3x3_s2_pool4/3x3_s2_0_split
I1128 08:06:27.185725  8697 net.cpp:434] pool4/3x3_s2_pool4/3x3_s2_0_split <- pool4/3x3_s2
I1128 08:06:27.185729  8697 net.cpp:408] pool4/3x3_s2_pool4/3x3_s2_0_split -> pool4/3x3_s2_pool4/3x3_s2_0_split_0
I1128 08:06:27.185734  8697 net.cpp:408] pool4/3x3_s2_pool4/3x3_s2_0_split -> pool4/3x3_s2_pool4/3x3_s2_0_split_1
I1128 08:06:27.185739  8697 net.cpp:408] pool4/3x3_s2_pool4/3x3_s2_0_split -> pool4/3x3_s2_pool4/3x3_s2_0_split_2
I1128 08:06:27.185742  8697 net.cpp:408] pool4/3x3_s2_pool4/3x3_s2_0_split -> pool4/3x3_s2_pool4/3x3_s2_0_split_3
I1128 08:06:27.185782  8697 net.cpp:150] Setting up pool4/3x3_s2_pool4/3x3_s2_0_split
I1128 08:06:27.185786  8697 net.cpp:157] Top shape: 16 832 7 7 (652288)
I1128 08:06:27.185789  8697 net.cpp:157] Top shape: 16 832 7 7 (652288)
I1128 08:06:27.185791  8697 net.cpp:157] Top shape: 16 832 7 7 (652288)
I1128 08:06:27.185793  8697 net.cpp:157] Top shape: 16 832 7 7 (652288)
I1128 08:06:27.185796  8697 net.cpp:165] Memory required for data: 861525256
I1128 08:06:27.185796  8697 layer_factory.hpp:77] Creating layer inception_5a/1x1
I1128 08:06:27.185803  8697 net.cpp:100] Creating Layer inception_5a/1x1
I1128 08:06:27.185806  8697 net.cpp:434] inception_5a/1x1 <- pool4/3x3_s2_pool4/3x3_s2_0_split_0
I1128 08:06:27.185811  8697 net.cpp:408] inception_5a/1x1 -> inception_5a/1x1
I1128 08:06:27.187292  8697 net.cpp:150] Setting up inception_5a/1x1
I1128 08:06:27.187302  8697 net.cpp:157] Top shape: 16 256 7 7 (200704)
I1128 08:06:27.187304  8697 net.cpp:165] Memory required for data: 862328072
I1128 08:06:27.187309  8697 layer_factory.hpp:77] Creating layer inception_5a/relu_1x1
I1128 08:06:27.187314  8697 net.cpp:100] Creating Layer inception_5a/relu_1x1
I1128 08:06:27.187317  8697 net.cpp:434] inception_5a/relu_1x1 <- inception_5a/1x1
I1128 08:06:27.187320  8697 net.cpp:395] inception_5a/relu_1x1 -> inception_5a/1x1 (in-place)
I1128 08:06:27.187325  8697 net.cpp:150] Setting up inception_5a/relu_1x1
I1128 08:06:27.187327  8697 net.cpp:157] Top shape: 16 256 7 7 (200704)
I1128 08:06:27.187330  8697 net.cpp:165] Memory required for data: 863130888
I1128 08:06:27.187330  8697 layer_factory.hpp:77] Creating layer inception_5a/3x3_reduce
I1128 08:06:27.187337  8697 net.cpp:100] Creating Layer inception_5a/3x3_reduce
I1128 08:06:27.187340  8697 net.cpp:434] inception_5a/3x3_reduce <- pool4/3x3_s2_pool4/3x3_s2_0_split_1
I1128 08:06:27.187345  8697 net.cpp:408] inception_5a/3x3_reduce -> inception_5a/3x3_reduce
I1128 08:06:27.188482  8697 net.cpp:150] Setting up inception_5a/3x3_reduce
I1128 08:06:27.188493  8697 net.cpp:157] Top shape: 16 160 7 7 (125440)
I1128 08:06:27.188494  8697 net.cpp:165] Memory required for data: 863632648
I1128 08:06:27.188498  8697 layer_factory.hpp:77] Creating layer inception_5a/relu_3x3_reduce
I1128 08:06:27.188513  8697 net.cpp:100] Creating Layer inception_5a/relu_3x3_reduce
I1128 08:06:27.188514  8697 net.cpp:434] inception_5a/relu_3x3_reduce <- inception_5a/3x3_reduce
I1128 08:06:27.188519  8697 net.cpp:395] inception_5a/relu_3x3_reduce -> inception_5a/3x3_reduce (in-place)
I1128 08:06:27.188524  8697 net.cpp:150] Setting up inception_5a/relu_3x3_reduce
I1128 08:06:27.188525  8697 net.cpp:157] Top shape: 16 160 7 7 (125440)
I1128 08:06:27.188527  8697 net.cpp:165] Memory required for data: 864134408
I1128 08:06:27.188529  8697 layer_factory.hpp:77] Creating layer inception_5a/3x3
I1128 08:06:27.188536  8697 net.cpp:100] Creating Layer inception_5a/3x3
I1128 08:06:27.188539  8697 net.cpp:434] inception_5a/3x3 <- inception_5a/3x3_reduce
I1128 08:06:27.188542  8697 net.cpp:408] inception_5a/3x3 -> inception_5a/3x3
I1128 08:06:27.191257  8697 net.cpp:150] Setting up inception_5a/3x3
I1128 08:06:27.191268  8697 net.cpp:157] Top shape: 16 320 7 7 (250880)
I1128 08:06:27.191270  8697 net.cpp:165] Memory required for data: 865137928
I1128 08:06:27.191274  8697 layer_factory.hpp:77] Creating layer inception_5a/relu_3x3
I1128 08:06:27.191279  8697 net.cpp:100] Creating Layer inception_5a/relu_3x3
I1128 08:06:27.191282  8697 net.cpp:434] inception_5a/relu_3x3 <- inception_5a/3x3
I1128 08:06:27.191287  8697 net.cpp:395] inception_5a/relu_3x3 -> inception_5a/3x3 (in-place)
I1128 08:06:27.191290  8697 net.cpp:150] Setting up inception_5a/relu_3x3
I1128 08:06:27.191293  8697 net.cpp:157] Top shape: 16 320 7 7 (250880)
I1128 08:06:27.191294  8697 net.cpp:165] Memory required for data: 866141448
I1128 08:06:27.191298  8697 layer_factory.hpp:77] Creating layer inception_5a/5x5_reduce
I1128 08:06:27.191304  8697 net.cpp:100] Creating Layer inception_5a/5x5_reduce
I1128 08:06:27.191306  8697 net.cpp:434] inception_5a/5x5_reduce <- pool4/3x3_s2_pool4/3x3_s2_0_split_2
I1128 08:06:27.191310  8697 net.cpp:408] inception_5a/5x5_reduce -> inception_5a/5x5_reduce
I1128 08:06:27.191606  8697 net.cpp:150] Setting up inception_5a/5x5_reduce
I1128 08:06:27.191612  8697 net.cpp:157] Top shape: 16 32 7 7 (25088)
I1128 08:06:27.191614  8697 net.cpp:165] Memory required for data: 866241800
I1128 08:06:27.191617  8697 layer_factory.hpp:77] Creating layer inception_5a/relu_5x5_reduce
I1128 08:06:27.191623  8697 net.cpp:100] Creating Layer inception_5a/relu_5x5_reduce
I1128 08:06:27.191625  8697 net.cpp:434] inception_5a/relu_5x5_reduce <- inception_5a/5x5_reduce
I1128 08:06:27.191628  8697 net.cpp:395] inception_5a/relu_5x5_reduce -> inception_5a/5x5_reduce (in-place)
I1128 08:06:27.191632  8697 net.cpp:150] Setting up inception_5a/relu_5x5_reduce
I1128 08:06:27.191642  8697 net.cpp:157] Top shape: 16 32 7 7 (25088)
I1128 08:06:27.191642  8697 net.cpp:165] Memory required for data: 866342152
I1128 08:06:27.191644  8697 layer_factory.hpp:77] Creating layer inception_5a/5x5
I1128 08:06:27.191651  8697 net.cpp:100] Creating Layer inception_5a/5x5
I1128 08:06:27.191653  8697 net.cpp:434] inception_5a/5x5 <- inception_5a/5x5_reduce
I1128 08:06:27.191658  8697 net.cpp:408] inception_5a/5x5 -> inception_5a/5x5
I1128 08:06:27.192265  8697 net.cpp:150] Setting up inception_5a/5x5
I1128 08:06:27.192272  8697 net.cpp:157] Top shape: 16 128 7 7 (100352)
I1128 08:06:27.192273  8697 net.cpp:165] Memory required for data: 866743560
I1128 08:06:27.192277  8697 layer_factory.hpp:77] Creating layer inception_5a/relu_5x5
I1128 08:06:27.192281  8697 net.cpp:100] Creating Layer inception_5a/relu_5x5
I1128 08:06:27.192284  8697 net.cpp:434] inception_5a/relu_5x5 <- inception_5a/5x5
I1128 08:06:27.192288  8697 net.cpp:395] inception_5a/relu_5x5 -> inception_5a/5x5 (in-place)
I1128 08:06:27.192291  8697 net.cpp:150] Setting up inception_5a/relu_5x5
I1128 08:06:27.192294  8697 net.cpp:157] Top shape: 16 128 7 7 (100352)
I1128 08:06:27.192296  8697 net.cpp:165] Memory required for data: 867144968
I1128 08:06:27.192297  8697 layer_factory.hpp:77] Creating layer inception_5a/pool
I1128 08:06:27.192301  8697 net.cpp:100] Creating Layer inception_5a/pool
I1128 08:06:27.192312  8697 net.cpp:434] inception_5a/pool <- pool4/3x3_s2_pool4/3x3_s2_0_split_3
I1128 08:06:27.192317  8697 net.cpp:408] inception_5a/pool -> inception_5a/pool
I1128 08:06:27.192348  8697 net.cpp:150] Setting up inception_5a/pool
I1128 08:06:27.192353  8697 net.cpp:157] Top shape: 16 832 7 7 (652288)
I1128 08:06:27.192353  8697 net.cpp:165] Memory required for data: 869754120
I1128 08:06:27.192355  8697 layer_factory.hpp:77] Creating layer inception_5a/pool_proj
I1128 08:06:27.192363  8697 net.cpp:100] Creating Layer inception_5a/pool_proj
I1128 08:06:27.192365  8697 net.cpp:434] inception_5a/pool_proj <- inception_5a/pool
I1128 08:06:27.192369  8697 net.cpp:408] inception_5a/pool_proj -> inception_5a/pool_proj
I1128 08:06:27.193374  8697 net.cpp:150] Setting up inception_5a/pool_proj
I1128 08:06:27.193383  8697 net.cpp:157] Top shape: 16 128 7 7 (100352)
I1128 08:06:27.193385  8697 net.cpp:165] Memory required for data: 870155528
I1128 08:06:27.193389  8697 layer_factory.hpp:77] Creating layer inception_5a/relu_pool_proj
I1128 08:06:27.193394  8697 net.cpp:100] Creating Layer inception_5a/relu_pool_proj
I1128 08:06:27.193397  8697 net.cpp:434] inception_5a/relu_pool_proj <- inception_5a/pool_proj
I1128 08:06:27.193402  8697 net.cpp:395] inception_5a/relu_pool_proj -> inception_5a/pool_proj (in-place)
I1128 08:06:27.193406  8697 net.cpp:150] Setting up inception_5a/relu_pool_proj
I1128 08:06:27.193408  8697 net.cpp:157] Top shape: 16 128 7 7 (100352)
I1128 08:06:27.193410  8697 net.cpp:165] Memory required for data: 870556936
I1128 08:06:27.193413  8697 layer_factory.hpp:77] Creating layer inception_5a/output
I1128 08:06:27.193415  8697 net.cpp:100] Creating Layer inception_5a/output
I1128 08:06:27.193418  8697 net.cpp:434] inception_5a/output <- inception_5a/1x1
I1128 08:06:27.193420  8697 net.cpp:434] inception_5a/output <- inception_5a/3x3
I1128 08:06:27.193423  8697 net.cpp:434] inception_5a/output <- inception_5a/5x5
I1128 08:06:27.193424  8697 net.cpp:434] inception_5a/output <- inception_5a/pool_proj
I1128 08:06:27.193428  8697 net.cpp:408] inception_5a/output -> inception_5a/output
I1128 08:06:27.193447  8697 net.cpp:150] Setting up inception_5a/output
I1128 08:06:27.193452  8697 net.cpp:157] Top shape: 16 832 7 7 (652288)
I1128 08:06:27.193454  8697 net.cpp:165] Memory required for data: 873166088
I1128 08:06:27.193455  8697 layer_factory.hpp:77] Creating layer inception_5a/output_inception_5a/output_0_split
I1128 08:06:27.193459  8697 net.cpp:100] Creating Layer inception_5a/output_inception_5a/output_0_split
I1128 08:06:27.193461  8697 net.cpp:434] inception_5a/output_inception_5a/output_0_split <- inception_5a/output
I1128 08:06:27.193466  8697 net.cpp:408] inception_5a/output_inception_5a/output_0_split -> inception_5a/output_inception_5a/output_0_split_0
I1128 08:06:27.193470  8697 net.cpp:408] inception_5a/output_inception_5a/output_0_split -> inception_5a/output_inception_5a/output_0_split_1
I1128 08:06:27.193475  8697 net.cpp:408] inception_5a/output_inception_5a/output_0_split -> inception_5a/output_inception_5a/output_0_split_2
I1128 08:06:27.193478  8697 net.cpp:408] inception_5a/output_inception_5a/output_0_split -> inception_5a/output_inception_5a/output_0_split_3
I1128 08:06:27.193521  8697 net.cpp:150] Setting up inception_5a/output_inception_5a/output_0_split
I1128 08:06:27.193527  8697 net.cpp:157] Top shape: 16 832 7 7 (652288)
I1128 08:06:27.193531  8697 net.cpp:157] Top shape: 16 832 7 7 (652288)
I1128 08:06:27.193532  8697 net.cpp:157] Top shape: 16 832 7 7 (652288)
I1128 08:06:27.193534  8697 net.cpp:157] Top shape: 16 832 7 7 (652288)
I1128 08:06:27.193536  8697 net.cpp:165] Memory required for data: 883602696
I1128 08:06:27.193538  8697 layer_factory.hpp:77] Creating layer inception_5b/1x1
I1128 08:06:27.193545  8697 net.cpp:100] Creating Layer inception_5b/1x1
I1128 08:06:27.193547  8697 net.cpp:434] inception_5b/1x1 <- inception_5a/output_inception_5a/output_0_split_0
I1128 08:06:27.193553  8697 net.cpp:408] inception_5b/1x1 -> inception_5b/1x1
I1128 08:06:27.195554  8697 net.cpp:150] Setting up inception_5b/1x1
I1128 08:06:27.195564  8697 net.cpp:157] Top shape: 16 384 7 7 (301056)
I1128 08:06:27.195565  8697 net.cpp:165] Memory required for data: 884806920
I1128 08:06:27.195569  8697 layer_factory.hpp:77] Creating layer inception_5b/relu_1x1
I1128 08:06:27.195575  8697 net.cpp:100] Creating Layer inception_5b/relu_1x1
I1128 08:06:27.195577  8697 net.cpp:434] inception_5b/relu_1x1 <- inception_5b/1x1
I1128 08:06:27.195581  8697 net.cpp:395] inception_5b/relu_1x1 -> inception_5b/1x1 (in-place)
I1128 08:06:27.195585  8697 net.cpp:150] Setting up inception_5b/relu_1x1
I1128 08:06:27.195590  8697 net.cpp:157] Top shape: 16 384 7 7 (301056)
I1128 08:06:27.195591  8697 net.cpp:165] Memory required for data: 886011144
I1128 08:06:27.195592  8697 layer_factory.hpp:77] Creating layer inception_5b/3x3_reduce
I1128 08:06:27.195600  8697 net.cpp:100] Creating Layer inception_5b/3x3_reduce
I1128 08:06:27.195601  8697 net.cpp:434] inception_5b/3x3_reduce <- inception_5a/output_inception_5a/output_0_split_1
I1128 08:06:27.195606  8697 net.cpp:408] inception_5b/3x3_reduce -> inception_5b/3x3_reduce
I1128 08:06:27.196863  8697 net.cpp:150] Setting up inception_5b/3x3_reduce
I1128 08:06:27.196872  8697 net.cpp:157] Top shape: 16 192 7 7 (150528)
I1128 08:06:27.196874  8697 net.cpp:165] Memory required for data: 886613256
I1128 08:06:27.196878  8697 layer_factory.hpp:77] Creating layer inception_5b/relu_3x3_reduce
I1128 08:06:27.196883  8697 net.cpp:100] Creating Layer inception_5b/relu_3x3_reduce
I1128 08:06:27.196887  8697 net.cpp:434] inception_5b/relu_3x3_reduce <- inception_5b/3x3_reduce
I1128 08:06:27.196892  8697 net.cpp:395] inception_5b/relu_3x3_reduce -> inception_5b/3x3_reduce (in-place)
I1128 08:06:27.196895  8697 net.cpp:150] Setting up inception_5b/relu_3x3_reduce
I1128 08:06:27.196898  8697 net.cpp:157] Top shape: 16 192 7 7 (150528)
I1128 08:06:27.196900  8697 net.cpp:165] Memory required for data: 887215368
I1128 08:06:27.196902  8697 layer_factory.hpp:77] Creating layer inception_5b/3x3
I1128 08:06:27.196908  8697 net.cpp:100] Creating Layer inception_5b/3x3
I1128 08:06:27.196910  8697 net.cpp:434] inception_5b/3x3 <- inception_5b/3x3_reduce
I1128 08:06:27.196914  8697 net.cpp:408] inception_5b/3x3 -> inception_5b/3x3
I1128 08:06:27.200652  8697 net.cpp:150] Setting up inception_5b/3x3
I1128 08:06:27.200664  8697 net.cpp:157] Top shape: 16 384 7 7 (301056)
I1128 08:06:27.200666  8697 net.cpp:165] Memory required for data: 888419592
I1128 08:06:27.200670  8697 layer_factory.hpp:77] Creating layer inception_5b/relu_3x3
I1128 08:06:27.200677  8697 net.cpp:100] Creating Layer inception_5b/relu_3x3
I1128 08:06:27.200680  8697 net.cpp:434] inception_5b/relu_3x3 <- inception_5b/3x3
I1128 08:06:27.200683  8697 net.cpp:395] inception_5b/relu_3x3 -> inception_5b/3x3 (in-place)
I1128 08:06:27.200688  8697 net.cpp:150] Setting up inception_5b/relu_3x3
I1128 08:06:27.200690  8697 net.cpp:157] Top shape: 16 384 7 7 (301056)
I1128 08:06:27.200692  8697 net.cpp:165] Memory required for data: 889623816
I1128 08:06:27.200693  8697 layer_factory.hpp:77] Creating layer inception_5b/5x5_reduce
I1128 08:06:27.200700  8697 net.cpp:100] Creating Layer inception_5b/5x5_reduce
I1128 08:06:27.200702  8697 net.cpp:434] inception_5b/5x5_reduce <- inception_5a/output_inception_5a/output_0_split_2
I1128 08:06:27.200706  8697 net.cpp:408] inception_5b/5x5_reduce -> inception_5b/5x5_reduce
I1128 08:06:27.201462  8697 net.cpp:150] Setting up inception_5b/5x5_reduce
I1128 08:06:27.201470  8697 net.cpp:157] Top shape: 16 48 7 7 (37632)
I1128 08:06:27.201472  8697 net.cpp:165] Memory required for data: 889774344
I1128 08:06:27.201477  8697 layer_factory.hpp:77] Creating layer inception_5b/relu_5x5_reduce
I1128 08:06:27.201483  8697 net.cpp:100] Creating Layer inception_5b/relu_5x5_reduce
I1128 08:06:27.201485  8697 net.cpp:434] inception_5b/relu_5x5_reduce <- inception_5b/5x5_reduce
I1128 08:06:27.201489  8697 net.cpp:395] inception_5b/relu_5x5_reduce -> inception_5b/5x5_reduce (in-place)
I1128 08:06:27.201493  8697 net.cpp:150] Setting up inception_5b/relu_5x5_reduce
I1128 08:06:27.201506  8697 net.cpp:157] Top shape: 16 48 7 7 (37632)
I1128 08:06:27.201508  8697 net.cpp:165] Memory required for data: 889924872
I1128 08:06:27.201510  8697 layer_factory.hpp:77] Creating layer inception_5b/5x5
I1128 08:06:27.201516  8697 net.cpp:100] Creating Layer inception_5b/5x5
I1128 08:06:27.201519  8697 net.cpp:434] inception_5b/5x5 <- inception_5b/5x5_reduce
I1128 08:06:27.201522  8697 net.cpp:408] inception_5b/5x5 -> inception_5b/5x5
I1128 08:06:27.202373  8697 net.cpp:150] Setting up inception_5b/5x5
I1128 08:06:27.202379  8697 net.cpp:157] Top shape: 16 128 7 7 (100352)
I1128 08:06:27.202381  8697 net.cpp:165] Memory required for data: 890326280
I1128 08:06:27.202385  8697 layer_factory.hpp:77] Creating layer inception_5b/relu_5x5
I1128 08:06:27.202389  8697 net.cpp:100] Creating Layer inception_5b/relu_5x5
I1128 08:06:27.202392  8697 net.cpp:434] inception_5b/relu_5x5 <- inception_5b/5x5
I1128 08:06:27.202394  8697 net.cpp:395] inception_5b/relu_5x5 -> inception_5b/5x5 (in-place)
I1128 08:06:27.202399  8697 net.cpp:150] Setting up inception_5b/relu_5x5
I1128 08:06:27.202400  8697 net.cpp:157] Top shape: 16 128 7 7 (100352)
I1128 08:06:27.202402  8697 net.cpp:165] Memory required for data: 890727688
I1128 08:06:27.202404  8697 layer_factory.hpp:77] Creating layer inception_5b/pool
I1128 08:06:27.202409  8697 net.cpp:100] Creating Layer inception_5b/pool
I1128 08:06:27.202411  8697 net.cpp:434] inception_5b/pool <- inception_5a/output_inception_5a/output_0_split_3
I1128 08:06:27.202414  8697 net.cpp:408] inception_5b/pool -> inception_5b/pool
I1128 08:06:27.202445  8697 net.cpp:150] Setting up inception_5b/pool
I1128 08:06:27.202450  8697 net.cpp:157] Top shape: 16 832 7 7 (652288)
I1128 08:06:27.202451  8697 net.cpp:165] Memory required for data: 893336840
I1128 08:06:27.202453  8697 layer_factory.hpp:77] Creating layer inception_5b/pool_proj
I1128 08:06:27.202460  8697 net.cpp:100] Creating Layer inception_5b/pool_proj
I1128 08:06:27.202461  8697 net.cpp:434] inception_5b/pool_proj <- inception_5b/pool
I1128 08:06:27.202466  8697 net.cpp:408] inception_5b/pool_proj -> inception_5b/pool_proj
I1128 08:06:27.203518  8697 net.cpp:150] Setting up inception_5b/pool_proj
I1128 08:06:27.203528  8697 net.cpp:157] Top shape: 16 128 7 7 (100352)
I1128 08:06:27.203531  8697 net.cpp:165] Memory required for data: 893738248
I1128 08:06:27.203534  8697 layer_factory.hpp:77] Creating layer inception_5b/relu_pool_proj
I1128 08:06:27.203541  8697 net.cpp:100] Creating Layer inception_5b/relu_pool_proj
I1128 08:06:27.203542  8697 net.cpp:434] inception_5b/relu_pool_proj <- inception_5b/pool_proj
I1128 08:06:27.203547  8697 net.cpp:395] inception_5b/relu_pool_proj -> inception_5b/pool_proj (in-place)
I1128 08:06:27.203550  8697 net.cpp:150] Setting up inception_5b/relu_pool_proj
I1128 08:06:27.203553  8697 net.cpp:157] Top shape: 16 128 7 7 (100352)
I1128 08:06:27.203554  8697 net.cpp:165] Memory required for data: 894139656
I1128 08:06:27.203557  8697 layer_factory.hpp:77] Creating layer inception_5b/output
I1128 08:06:27.203562  8697 net.cpp:100] Creating Layer inception_5b/output
I1128 08:06:27.203564  8697 net.cpp:434] inception_5b/output <- inception_5b/1x1
I1128 08:06:27.203567  8697 net.cpp:434] inception_5b/output <- inception_5b/3x3
I1128 08:06:27.203569  8697 net.cpp:434] inception_5b/output <- inception_5b/5x5
I1128 08:06:27.203572  8697 net.cpp:434] inception_5b/output <- inception_5b/pool_proj
I1128 08:06:27.203574  8697 net.cpp:408] inception_5b/output -> inception_5b/output
I1128 08:06:27.203596  8697 net.cpp:150] Setting up inception_5b/output
I1128 08:06:27.203599  8697 net.cpp:157] Top shape: 16 1024 7 7 (802816)
I1128 08:06:27.203601  8697 net.cpp:165] Memory required for data: 897350920
I1128 08:06:27.203603  8697 layer_factory.hpp:77] Creating layer pool5/7x7_s1
I1128 08:06:27.203606  8697 net.cpp:100] Creating Layer pool5/7x7_s1
I1128 08:06:27.203608  8697 net.cpp:434] pool5/7x7_s1 <- inception_5b/output
I1128 08:06:27.203613  8697 net.cpp:408] pool5/7x7_s1 -> pool5/7x7_s1
I1128 08:06:27.203640  8697 net.cpp:150] Setting up pool5/7x7_s1
I1128 08:06:27.203644  8697 net.cpp:157] Top shape: 16 1024 1 1 (16384)
I1128 08:06:27.203645  8697 net.cpp:165] Memory required for data: 897416456
I1128 08:06:27.203647  8697 layer_factory.hpp:77] Creating layer pool5/drop_7x7_s1
I1128 08:06:27.203654  8697 net.cpp:100] Creating Layer pool5/drop_7x7_s1
I1128 08:06:27.203656  8697 net.cpp:434] pool5/drop_7x7_s1 <- pool5/7x7_s1
I1128 08:06:27.203660  8697 net.cpp:395] pool5/drop_7x7_s1 -> pool5/7x7_s1 (in-place)
I1128 08:06:27.203677  8697 net.cpp:150] Setting up pool5/drop_7x7_s1
I1128 08:06:27.203680  8697 net.cpp:157] Top shape: 16 1024 1 1 (16384)
I1128 08:06:27.203682  8697 net.cpp:165] Memory required for data: 897481992
I1128 08:06:27.203683  8697 layer_factory.hpp:77] Creating layer loss3/classifier
I1128 08:06:27.203691  8697 net.cpp:100] Creating Layer loss3/classifier
I1128 08:06:27.203692  8697 net.cpp:434] loss3/classifier <- pool5/7x7_s1
I1128 08:06:27.203696  8697 net.cpp:408] loss3/classifier -> loss3/classifier
I1128 08:06:27.203831  8697 net.cpp:150] Setting up loss3/classifier
I1128 08:06:27.203841  8697 net.cpp:157] Top shape: 16 10 (160)
I1128 08:06:27.203842  8697 net.cpp:165] Memory required for data: 897482632
I1128 08:06:27.203847  8697 layer_factory.hpp:77] Creating layer loss3/loss3
I1128 08:06:27.203851  8697 net.cpp:100] Creating Layer loss3/loss3
I1128 08:06:27.203853  8697 net.cpp:434] loss3/loss3 <- loss3/classifier
I1128 08:06:27.203856  8697 net.cpp:434] loss3/loss3 <- label_data_1_split_2
I1128 08:06:27.203860  8697 net.cpp:408] loss3/loss3 -> loss3/loss3
…
I1128 08:06:27.205921  8697 net.cpp:322] The NetState phase (1) differed from the phase (0) specified by a rule in layer data
I1128 08:06:27.206746  8697 net.cpp:58] Initializing net from parameters: 
name: "GoogleNet"
state {
  phase: TEST
}
layer {
  name: "data"
  type: "Data"
  top: "data"
  top: "label"
  include {
    phase: TEST
  }
  transform_param {
    mirror: false
    crop_size: 224
    mean_file: "/home/juran/distracteddriver/input/mean.binaryproto"
  }
  data_param {
    source: "/home/juran/distracteddriver/input/validation_lmdb"
    batch_size: 50
    backend: LMDB
  }
}
layer {
  name: "conv1/7x7_s2"
  type: "Convolution"
  bottom: "data"
  top: "conv1/7x7_s2"
  param {
    lr_mult: 1
    decay_mult: 1
  }
  param {
    lr_mult: 2
    decay_mult: 0
  }
  convolution_param {
    num_output: 64
    pad: 3
    kernel_size: 7
    stride: 2
    weight_filler {
      type: "xavier"
    }
    bias_filler {
      type: "constant"
      value: 0.2
    }
  }
}
layer {
  name: "conv1/relu_7x7"
  type: "ReLU"
  bottom: "conv1/7x7_s2"
  top: "conv1/7x7_s2"
}
layer {
  name: "pool1/3x3_s2"
  type: "Pooling"
  bottom: "conv1/7x7_s2"
  top: "pool1/3x3_s2"
  pooling_param {
    pool: MAX
    kernel_size: 3
    stride: 2
  }
}
layer {
  name: "pool1/norm1"
  type: "LRN"
  bottom: "pool1/3x3_s2"
  top: "pool1/norm1"
  lrn_param {
    local_size: 5
    alpha: 0.0001
    beta: 0.75
  }
}
layer {
  name: "conv2/3x3_reduce"
  type: "Convolution"
  bottom: "pool1/norm1"
  top: "conv2/3x3_reduce"
  param {
    lr_mult: 1
    decay_mult: 1
  }
  param {
    lr_mult: 2
    decay_mult: 0
  }
  convolution_param {
    num_output: 64
    kernel_size: 1
    weight_filler {
      type: "xavier"
    }
    bias_filler {
      type: "constant"
      value: 0.2
    }
  }
}
layer {
  name: "conv2/relu_3x3_reduce"
  type: "ReLU"
  bottom: "conv2/3x3_reduce"
  top: "conv2/3x3_reduce"
}
layer {
  name: "conv2/3x3"
  type: "Convolution"
  bottom: "conv2/3x3_reduce"
  top: "conv2/3x3"
  param {
    lr_mult: 1
    decay_mult: 1
  }
  param {
    lr_mult: 2
    decay_mult: 0
  }
  convolution_param {
    num_output: 192
    pad: 1
    kernel_size: 3
    weight_filler {
      type: "xavier"
    }
    bias_filler {
      type: "constant"
      value: 0.2
    }
  }
}
layer {
  name: "conv2/relu_3x3"
  type: "ReLU"
  bottom: "conv2/3x3"
  top: "conv2/3x3"
}
layer {
  name: "conv2/norm2"
  type: "LRN"
  bottom: "conv2/3x3"
  top: "conv2/norm2"
  lrn_param {
    local_size: 5
    alpha: 0.0001
    beta: 0.75
  }
}
layer {
  name: "pool2/3x3_s2"
  type: "Pooling"
  bottom: "conv2/norm2"
  top: "pool2/3x3_s2"
  pooling_param {
    pool: MAX
    kernel_size: 3
    stride: 2
  }
}
layer {
  name: "inception_3a/1x1"
  type: "Convolution"
  bottom: "pool2/3x3_s2"
  top: "inception_3a/1x1"
  param {
    lr_mult: 1
    decay_mult: 1
  }
  param {
    lr_mult: 2
    decay_mult: 0
  }
  convolution_param {
    num_output: 64
    kernel_size: 1
    weight_filler {
      type: "xavier"
    }
    bias_filler {
      type: "constant"
      value: 0.2
    }
  }
}
layer {
  name: "inception_3a/relu_1x1"
  type: "ReLU"
  bottom: "inception_3a/1x1"
  top: "inception_3a/1x1"
}
layer {
  name: "inception_3a/3x3_reduce"
  type: "Convolution"
  bottom: "pool2/3x3_s2"
  top: "inception_3a/3x3_reduce"
  param {
    lr_mult: 1
    decay_mult: 1
  }
  param {
    lr_mult: 2
    decay_mult: 0
  }
  convolution_param {
    num_output: 96
    kernel_size: 1
    weight_filler {
      type: "xavier"
    }
    bias_filler {
      type: "constant"
      value: 0.2
    }
  }
}
layer {
  name: "inception_3a/relu_3x3_reduce"
  type: "ReLU"
  bottom: "inception_3a/3x3_reduce"
  top: "inception_3a/3x3_reduce"
}
layer {
  name: "inception_3a/3x3"
  type: "Convolution"
  bottom: "inception_3a/3x3_reduce"
  top: "inception_3a/3x3"
  param {
    lr_mult: 1
    decay_mult: 1
  }
  param {
    lr_mult: 2
    decay_mult: 0
  }
  convolution_param {
    num_output: 128
    pad: 1
    kernel_size: 3
    weight_filler {
      type: "xavier"
    }
    bias_filler {
      type: "constant"
      value: 0.2
    }
  }
}
layer {
  name: "inception_3a/relu_3x3"
  type: "ReLU"
  bottom: "inception_3a/3x3"
  top: "inception_3a/3x3"
}
layer {
  name: "inception_3a/5x5_reduce"
  type: "Convolution"
  bottom: "pool2/3x3_s2"
  top: "inception_3a/5x5_reduce"
  param {
    lr_mult: 1
    decay_mult: 1
  }
  param {
    lr_mult: 2
    decay_mult: 0
  }
  convolution_param {
    num_output: 16
    kernel_size: 1
    weight_filler {
      type: "xavier"
    }
    bias_filler {
      type: "constant"
      value: 0.2
    }
  }
}
layer {
  name: "inception_3a/relu_5x5_reduce"
  type: "ReLU"
  bottom: "inception_3a/5x5_reduce"
  top: "inception_3a/5x5_reduce"
}
layer {
  name: "inception_3a/5x5"
  type: "Convolution"
  bottom: "inception_3a/5x5_reduce"
  top: "inception_3a/5x5"
  param {
    lr_mult: 1
    decay_mult: 1
  }
  param {
    lr_mult: 2
    decay_mult: 0
  }
  convolution_param {
    num_output: 32
    pad: 2
    kernel_size: 5
    weight_filler {
      type: "xavier"
    }
    bias_filler {
      type: "constant"
      value: 0.2
    }
  }
}
layer {
  name: "inception_3a/relu_5x5"
  type: "ReLU"
  bottom: "inception_3a/5x5"
  top: "inception_3a/5x5"
}
layer {
  name: "inception_3a/pool"
  type: "Pooling"
  bottom: "pool2/3x3_s2"
  top: "inception_3a/pool"
  pooling_param {
    pool: MAX
    kernel_size: 3
    stride: 1
    pad: 1
  }
}
layer {
  name: "inception_3a/pool_proj"
  type: "Convolution"
  bottom: "inception_3a/pool"
  top: "inception_3a/pool_proj"
  param {
    lr_mult: 1
    decay_mult: 1
  }
  param {
    lr_mult: 2
    decay_mult: 0
  }
  convolution_param {
    num_output: 32
    kernel_size: 1
    weight_filler {
      type: "xavier"
    }
    bias_filler {
      type: "constant"
      value: 0.2
    }
  }
}
layer {
  name: "inception_3a/relu_pool_proj"
  type: "ReLU"
  bottom: "inception_3a/pool_proj"
  top: "inception_3a/pool_proj"
}
layer {
  name: "inception_3a/output"
  type: "Concat"
  bottom: "inception_3a/1x1"
  bottom: "inception_3a/3x3"
  bottom: "inception_3a/5x5"
  bottom: "inception_3a/pool_proj"
  top: "inception_3a/output"
}
layer {
  name: "inception_3b/1x1"
  type: "Convolution"
  bottom: "inception_3a/output"
  top: "inception_3b/1x1"
  param {
    lr_mult: 1
    decay_mult: 1
  }
  param {
    lr_mult: 2
    decay_mult: 0
  }
  convolution_param {
    num_output: 128
    kernel_size: 1
    weight_filler {
      type: "xavier"
    }
    bias_filler {
      type: "constant"
      value: 0.2
    }
  }
}
layer {
  name: "inception_3b/relu_1x1"
  type: "ReLU"
  bottom: "inception_3b/1x1"
  top: "inception_3b/1x1"
}
layer {
  name: "inception_3b/3x3_reduce"
  type: "Convolution"
  bottom: "inception_3a/output"
  top: "inception_3b/3x3_reduce"
  param {
    lr_mult: 1
    decay_mult: 1
  }
  param {
    lr_mult: 2
    decay_mult: 0
  }
  convolution_param {
    num_output: 128
    kernel_size: 1
    weight_filler {
      type: "xavier"
    }
    bias_filler {
      type: "constant"
      value: 0.2
    }
  }
}
layer {
  name: "inception_3b/relu_3x3_reduce"
  type: "ReLU"
  bottom: "inception_3b/3x3_reduce"
  top: "inception_3b/3x3_reduce"
}
layer {
  name: "inception_3b/3x3"
  type: "Convolution"
  bottom: "inception_3b/3x3_reduce"
  top: "inception_3b/3x3"
  param {
    lr_mult: 1
    decay_mult: 1
  }
  param {
    lr_mult: 2
    decay_mult: 0
  }
  convolution_param {
    num_output: 192
    pad: 1
    kernel_size: 3
    weight_filler {
      type: "xavier"
    }
    bias_filler {
      type: "constant"
      value: 0.2
    }
  }
}
layer {
  name: "inception_3b/relu_3x3"
  type: "ReLU"
  bottom: "inception_3b/3x3"
  top: "inception_3b/3x3"
}
layer {
  name: "inception_3b/5x5_reduce"
  type: "Convolution"
  bottom: "inception_3a/output"
  top: "inception_3b/5x5_reduce"
  param {
    lr_mult: 1
    decay_mult: 1
  }
  param {
    lr_mult: 2
    decay_mult: 0
  }
  convolution_param {
    num_output: 32
    kernel_size: 1
    weight_filler {
      type: "xavier"
    }
    bias_filler {
      type: "constant"
      value: 0.2
    }
  }
}
layer {
  name: "inception_3b/relu_5x5_reduce"
  type: "ReLU"
  bottom: "inception_3b/5x5_reduce"
  top: "inception_3b/5x5_reduce"
}
layer {
  name: "inception_3b/5x5"
  type: "Convolution"
  bottom: "inception_3b/5x5_reduce"
  top: "inception_3b/5x5"
  param {
    lr_mult: 1
    decay_mult: 1
  }
  param {
    lr_mult: 2
    decay_mult: 0
  }
  convolution_param {
    num_output: 96
    pad: 2
    kernel_size: 5
    weight_filler {
      type: "xavier"
    }
    bias_filler {
      type: "constant"
      value: 0.2
    }
  }
}
layer {
  name: "inception_3b/relu_5x5"
  type: "ReLU"
  bottom: "inception_3b/5x5"
  top: "inception_3b/5x5"
}
layer {
  name: "inception_3b/pool"
  type: "Pooling"
  bottom: "inception_3a/output"
  top: "inception_3b/pool"
  pooling_param {
    pool: MAX
    kernel_size: 3
    stride: 1
    pad: 1
  }
}
layer {
  name: "inception_3b/pool_proj"
  type: "Convolution"
  bottom: "inception_3b/pool"
  top: "inception_3b/pool_proj"
  param {
    lr_mult: 1
    decay_mult: 1
  }
  param {
    lr_mult: 2
    decay_mult: 0
  }
  convolution_param {
    num_output: 64
    kernel_size: 1
    weight_filler {
      type: "xavier"
    }
    bias_filler {
      type: "constant"
      value: 0.2
    }
  }
}
layer {
  name: "inception_3b/relu_pool_proj"
  type: "ReLU"
  bottom: "inception_3b/pool_proj"
  top: "inception_3b/pool_proj"
}
layer {
  name: "inception_3b/output"
  type: "Concat"
  bottom: "inception_3b/1x1"
  bottom: "inception_3b/3x3"
  bottom: "inception_3b/5x5"
  bottom: "inception_3b/pool_proj"
  top: "inception_3b/output"
}
layer {
  name: "pool3/3x3_s2"
  type: "Pooling"
  bottom: "inception_3b/output"
  top: "pool3/3x3_s2"
  pooling_param {
    pool: MAX
    kernel_size: 3
    stride: 2
  }
}
layer {
  name: "inception_4a/1x1"
  type: "Convolution"
  bottom: "pool3/3x3_s2"
  top: "inception_4a/1x1"
  param {
    lr_mult: 1
    decay_mult: 1
  }
  param {
    lr_mult: 2
    decay_mult: 0
  }
  convolution_param {
    num_output: 192
    kernel_size: 1
    weight_filler {
      type: "xavier"
    }
    bias_filler {
      type: "constant"
      value: 0.2
    }
  }
}
layer {
  name: "inception_4a/relu_1x1"
  type: "ReLU"
  bottom: "inception_4a/1x1"
  top: "inception_4a/1x1"
}
layer {
  name: "inception_4a/3x3_reduce"
  type: "Convolution"
  bottom: "pool3/3x3_s2"
  top: "inception_4a/3x3_reduce"
  param {
    lr_mult: 1
    decay_mult: 1
  }
  param {
    lr_mult: 2
    decay_mult: 0
  }
  convolution_param {
    num_output: 96
    kernel_size: 1
    weight_filler {
      type: "xavier"
    }
    bias_filler {
      type: "constant"
      value: 0.2
    }
  }
}
layer {
  name: "inception_4a/relu_3x3_reduce"
  type: "ReLU"
  bottom: "inception_4a/3x3_reduce"
  top: "inception_4a/3x3_reduce"
}
layer {
  name: "inception_4a/3x3"
  type: "Convolution"
  bottom: "inception_4a/3x3_reduce"
  top: "inception_4a/3x3"
  param {
    lr_mult: 1
    decay_mult: 1
  }
  param {
    lr_mult: 2
    decay_mult: 0
  }
  convolution_param {
    num_output: 208
    pad: 1
    kernel_size: 3
    weight_filler {
      type: "xavier"
    }
    bias_filler {
      type: "constant"
      value: 0.2
    }
  }
}
layer {
  name: "inception_4a/relu_3x3"
  type: "ReLU"
  bottom: "inception_4a/3x3"
  top: "inception_4a/3x3"
}
layer {
  name: "inception_4a/5x5_reduce"
  type: "Convolution"
  bottom: "pool3/3x3_s2"
  top: "inception_4a/5x5_reduce"
  param {
    lr_mult: 1
    decay_mult: 1
  }
  param {
    lr_mult: 2
    decay_mult: 0
  }
  convolution_param {
    num_output: 16
    kernel_size: 1
    weight_filler {
      type: "xavier"
    }
    bias_filler {
      type: "constant"
      value: 0.2
    }
  }
}
layer {
  name: "inception_4a/relu_5x5_reduce"
  type: "ReLU"
  bottom: "inception_4a/5x5_reduce"
  top: "inception_4a/5x5_reduce"
}
layer {
  name: "inception_4a/5x5"
  type: "Convolution"
  bottom: "inception_4a/5x5_reduce"
  top: "inception_4a/5x5"
  param {
    lr_mult: 1
    decay_mult: 1
  }
  param {
    lr_mult: 2
    decay_mult: 0
  }
  convolution_param {
    num_output: 48
    pad: 2
    kernel_size: 5
    weight_filler {
      type: "xavier"
    }
    bias_filler {
      type: "constant"
      value: 0.2
    }
  }
}
layer {
  name: "inception_4a/relu_5x5"
  type: "ReLU"
  bottom: "inception_4a/5x5"
  top: "inception_4a/5x5"
}
layer {
  name: "inception_4a/pool"
  type: "Pooling"
  bottom: "pool3/3x3_s2"
  top: "inception_4a/pool"
  pooling_param {
    pool: MAX
    kernel_size: 3
    stride: 1
    pad: 1
  }
}
layer {
  name: "inception_4a/pool_proj"
  type: "Convolution"
  bottom: "inception_4a/pool"
  top: "inception_4a/pool_proj"
  param {
    lr_mult: 1
    decay_mult: 1
  }
  param {
    lr_mult: 2
    decay_mult: 0
  }
  convolution_param {
    num_output: 64
    kernel_size: 1
    weight_filler {
      type: "xavier"
    }
    bias_filler {
      type: "constant"
      value: 0.2
    }
  }
}
layer {
  name: "inception_4a/relu_pool_proj"
  type: "ReLU"
  bottom: "inception_4a/pool_proj"
  top: "inception_4a/pool_proj"
}
layer {
  name: "inception_4a/output"
  type: "Concat"
  bottom: "inception_4a/1x1"
  bottom: "inception_4a/3x3"
  bottom: "inception_4a/5x5"
  bottom: "inception_4a/pool_proj"
  top: "inception_4a/output"
}
layer {
  name: "loss1/ave_pool"
  type: "Pooling"
  bottom: "inception_4a/output"
  top: "loss1/ave_pool"
  pooling_param {
    pool: AVE
    kernel_size: 5
    stride: 3
  }
}
layer {
  name: "loss1/conv"
  type: "Convolution"
  bottom: "loss1/ave_pool"
  top: "loss1/conv"
  param {
    lr_mult: 1
    decay_mult: 1
  }
  param {
    lr_mult: 2
    decay_mult: 0
  }
  convolution_param {
    num_output: 128
    kernel_size: 1
    weight_filler {
      type: "xavier"
    }
    bias_filler {
      type: "constant"
      value: 0.2
    }
  }
}
layer {
  name: "loss1/relu_conv"
  type: "ReLU"
  bottom: "loss1/conv"
  top: "loss1/conv"
}
layer {
  name: "loss1/fc"
  type: "InnerProduct"
  bottom: "loss1/conv"
  top: "loss1/fc"
  param {
    lr_mult: 1
    decay_mult: 1
  }
  param {
    lr_mult: 2
    decay_mult: 0
  }
  inner_product_param {
    num_output: 1024
    weight_filler {
      type: "xavier"
    }
    bias_filler {
      type: "constant"
      value: 0.2
    }
  }
}
layer {
  name: "loss1/relu_fc"
  type: "ReLU"
  bottom: "loss1/fc"
  top: "loss1/fc"
}
layer {
  name: "loss1/drop_fc"
  type: "Dropout"
  bottom: "loss1/fc"
  top: "loss1/fc"
  dropout_param {
    dropout_ratio: 0.7
  }
}
layer {
  name: "loss1/classifier"
  type: "InnerProduct"
  bottom: "loss1/fc"
  top: "loss1/classifier"
…
I1128 08:06:27.384554  8697 net.cpp:165] Memory required for data: 2190293212
I1128 08:06:27.384557  8697 layer_factory.hpp:77] Creating layer inception_4c/pool
I1128 08:06:27.384562  8697 net.cpp:100] Creating Layer inception_4c/pool
I1128 08:06:27.384563  8697 net.cpp:434] inception_4c/pool <- inception_4b/output_inception_4b/output_0_split_3
I1128 08:06:27.384567  8697 net.cpp:408] inception_4c/pool -> inception_4c/pool
I1128 08:06:27.384599  8697 net.cpp:150] Setting up inception_4c/pool
I1128 08:06:27.384603  8697 net.cpp:157] Top shape: 50 512 14 14 (5017600)
I1128 08:06:27.384604  8697 net.cpp:165] Memory required for data: 2210363612
I1128 08:06:27.384606  8697 layer_factory.hpp:77] Creating layer inception_4c/pool_proj
I1128 08:06:27.384611  8697 net.cpp:100] Creating Layer inception_4c/pool_proj
I1128 08:06:27.384613  8697 net.cpp:434] inception_4c/pool_proj <- inception_4c/pool
I1128 08:06:27.384618  8697 net.cpp:408] inception_4c/pool_proj -> inception_4c/pool_proj
I1128 08:06:27.384945  8697 net.cpp:150] Setting up inception_4c/pool_proj
I1128 08:06:27.384953  8697 net.cpp:157] Top shape: 50 64 14 14 (627200)
I1128 08:06:27.384954  8697 net.cpp:165] Memory required for data: 2212872412
I1128 08:06:27.384958  8697 layer_factory.hpp:77] Creating layer inception_4c/relu_pool_proj
I1128 08:06:27.384963  8697 net.cpp:100] Creating Layer inception_4c/relu_pool_proj
I1128 08:06:27.384964  8697 net.cpp:434] inception_4c/relu_pool_proj <- inception_4c/pool_proj
I1128 08:06:27.384968  8697 net.cpp:395] inception_4c/relu_pool_proj -> inception_4c/pool_proj (in-place)
I1128 08:06:27.384973  8697 net.cpp:150] Setting up inception_4c/relu_pool_proj
I1128 08:06:27.384974  8697 net.cpp:157] Top shape: 50 64 14 14 (627200)
I1128 08:06:27.384976  8697 net.cpp:165] Memory required for data: 2215381212
I1128 08:06:27.384977  8697 layer_factory.hpp:77] Creating layer inception_4c/output
I1128 08:06:27.384981  8697 net.cpp:100] Creating Layer inception_4c/output
I1128 08:06:27.384984  8697 net.cpp:434] inception_4c/output <- inception_4c/1x1
I1128 08:06:27.384986  8697 net.cpp:434] inception_4c/output <- inception_4c/3x3
I1128 08:06:27.384989  8697 net.cpp:434] inception_4c/output <- inception_4c/5x5
I1128 08:06:27.384999  8697 net.cpp:434] inception_4c/output <- inception_4c/pool_proj
I1128 08:06:27.385004  8697 net.cpp:408] inception_4c/output -> inception_4c/output
I1128 08:06:27.385027  8697 net.cpp:150] Setting up inception_4c/output
I1128 08:06:27.385030  8697 net.cpp:157] Top shape: 50 512 14 14 (5017600)
I1128 08:06:27.385032  8697 net.cpp:165] Memory required for data: 2235451612
I1128 08:06:27.385035  8697 layer_factory.hpp:77] Creating layer inception_4c/output_inception_4c/output_0_split
I1128 08:06:27.385038  8697 net.cpp:100] Creating Layer inception_4c/output_inception_4c/output_0_split
I1128 08:06:27.385041  8697 net.cpp:434] inception_4c/output_inception_4c/output_0_split <- inception_4c/output
I1128 08:06:27.385045  8697 net.cpp:408] inception_4c/output_inception_4c/output_0_split -> inception_4c/output_inception_4c/output_0_split_0
I1128 08:06:27.385049  8697 net.cpp:408] inception_4c/output_inception_4c/output_0_split -> inception_4c/output_inception_4c/output_0_split_1
I1128 08:06:27.385053  8697 net.cpp:408] inception_4c/output_inception_4c/output_0_split -> inception_4c/output_inception_4c/output_0_split_2
I1128 08:06:27.385057  8697 net.cpp:408] inception_4c/output_inception_4c/output_0_split -> inception_4c/output_inception_4c/output_0_split_3
I1128 08:06:27.385102  8697 net.cpp:150] Setting up inception_4c/output_inception_4c/output_0_split
I1128 08:06:27.385114  8697 net.cpp:157] Top shape: 50 512 14 14 (5017600)
I1128 08:06:27.385118  8697 net.cpp:157] Top shape: 50 512 14 14 (5017600)
I1128 08:06:27.385119  8697 net.cpp:157] Top shape: 50 512 14 14 (5017600)
I1128 08:06:27.385121  8697 net.cpp:157] Top shape: 50 512 14 14 (5017600)
I1128 08:06:27.385123  8697 net.cpp:165] Memory required for data: 2315733212
I1128 08:06:27.385124  8697 layer_factory.hpp:77] Creating layer inception_4d/1x1
I1128 08:06:27.385131  8697 net.cpp:100] Creating Layer inception_4d/1x1
I1128 08:06:27.385134  8697 net.cpp:434] inception_4d/1x1 <- inception_4c/output_inception_4c/output_0_split_0
I1128 08:06:27.385138  8697 net.cpp:408] inception_4d/1x1 -> inception_4d/1x1
I1128 08:06:27.385592  8697 net.cpp:150] Setting up inception_4d/1x1
I1128 08:06:27.385599  8697 net.cpp:157] Top shape: 50 112 14 14 (1097600)
I1128 08:06:27.385601  8697 net.cpp:165] Memory required for data: 2320123612
I1128 08:06:27.385606  8697 layer_factory.hpp:77] Creating layer inception_4d/relu_1x1
I1128 08:06:27.385609  8697 net.cpp:100] Creating Layer inception_4d/relu_1x1
I1128 08:06:27.385612  8697 net.cpp:434] inception_4d/relu_1x1 <- inception_4d/1x1
I1128 08:06:27.385615  8697 net.cpp:395] inception_4d/relu_1x1 -> inception_4d/1x1 (in-place)
I1128 08:06:27.385619  8697 net.cpp:150] Setting up inception_4d/relu_1x1
I1128 08:06:27.385622  8697 net.cpp:157] Top shape: 50 112 14 14 (1097600)
I1128 08:06:27.385623  8697 net.cpp:165] Memory required for data: 2324514012
I1128 08:06:27.385624  8697 layer_factory.hpp:77] Creating layer inception_4d/3x3_reduce
I1128 08:06:27.385630  8697 net.cpp:100] Creating Layer inception_4d/3x3_reduce
I1128 08:06:27.385632  8697 net.cpp:434] inception_4d/3x3_reduce <- inception_4c/output_inception_4c/output_0_split_1
I1128 08:06:27.385637  8697 net.cpp:408] inception_4d/3x3_reduce -> inception_4d/3x3_reduce
I1128 08:06:27.386152  8697 net.cpp:150] Setting up inception_4d/3x3_reduce
I1128 08:06:27.386158  8697 net.cpp:157] Top shape: 50 144 14 14 (1411200)
I1128 08:06:27.386160  8697 net.cpp:165] Memory required for data: 2330158812
I1128 08:06:27.386164  8697 layer_factory.hpp:77] Creating layer inception_4d/relu_3x3_reduce
I1128 08:06:27.386168  8697 net.cpp:100] Creating Layer inception_4d/relu_3x3_reduce
I1128 08:06:27.386171  8697 net.cpp:434] inception_4d/relu_3x3_reduce <- inception_4d/3x3_reduce
I1128 08:06:27.386174  8697 net.cpp:395] inception_4d/relu_3x3_reduce -> inception_4d/3x3_reduce (in-place)
I1128 08:06:27.386178  8697 net.cpp:150] Setting up inception_4d/relu_3x3_reduce
I1128 08:06:27.386180  8697 net.cpp:157] Top shape: 50 144 14 14 (1411200)
I1128 08:06:27.386191  8697 net.cpp:165] Memory required for data: 2335803612
I1128 08:06:27.386193  8697 layer_factory.hpp:77] Creating layer inception_4d/3x3
I1128 08:06:27.386199  8697 net.cpp:100] Creating Layer inception_4d/3x3
I1128 08:06:27.386201  8697 net.cpp:434] inception_4d/3x3 <- inception_4d/3x3_reduce
I1128 08:06:27.386205  8697 net.cpp:408] inception_4d/3x3 -> inception_4d/3x3
I1128 08:06:27.388645  8697 net.cpp:150] Setting up inception_4d/3x3
I1128 08:06:27.388659  8697 net.cpp:157] Top shape: 50 288 14 14 (2822400)
I1128 08:06:27.388660  8697 net.cpp:165] Memory required for data: 2347093212
I1128 08:06:27.388665  8697 layer_factory.hpp:77] Creating layer inception_4d/relu_3x3
I1128 08:06:27.388670  8697 net.cpp:100] Creating Layer inception_4d/relu_3x3
I1128 08:06:27.388674  8697 net.cpp:434] inception_4d/relu_3x3 <- inception_4d/3x3
I1128 08:06:27.388677  8697 net.cpp:395] inception_4d/relu_3x3 -> inception_4d/3x3 (in-place)
I1128 08:06:27.388682  8697 net.cpp:150] Setting up inception_4d/relu_3x3
I1128 08:06:27.388684  8697 net.cpp:157] Top shape: 50 288 14 14 (2822400)
I1128 08:06:27.388686  8697 net.cpp:165] Memory required for data: 2358382812
I1128 08:06:27.388687  8697 layer_factory.hpp:77] Creating layer inception_4d/5x5_reduce
I1128 08:06:27.388695  8697 net.cpp:100] Creating Layer inception_4d/5x5_reduce
I1128 08:06:27.388696  8697 net.cpp:434] inception_4d/5x5_reduce <- inception_4c/output_inception_4c/output_0_split_2
I1128 08:06:27.388700  8697 net.cpp:408] inception_4d/5x5_reduce -> inception_4d/5x5_reduce
I1128 08:06:27.388999  8697 net.cpp:150] Setting up inception_4d/5x5_reduce
I1128 08:06:27.389006  8697 net.cpp:157] Top shape: 50 32 14 14 (313600)
I1128 08:06:27.389008  8697 net.cpp:165] Memory required for data: 2359637212
I1128 08:06:27.389013  8697 layer_factory.hpp:77] Creating layer inception_4d/relu_5x5_reduce
I1128 08:06:27.389016  8697 net.cpp:100] Creating Layer inception_4d/relu_5x5_reduce
I1128 08:06:27.389019  8697 net.cpp:434] inception_4d/relu_5x5_reduce <- inception_4d/5x5_reduce
I1128 08:06:27.389022  8697 net.cpp:395] inception_4d/relu_5x5_reduce -> inception_4d/5x5_reduce (in-place)
I1128 08:06:27.389026  8697 net.cpp:150] Setting up inception_4d/relu_5x5_reduce
I1128 08:06:27.389029  8697 net.cpp:157] Top shape: 50 32 14 14 (313600)
I1128 08:06:27.389030  8697 net.cpp:165] Memory required for data: 2360891612
I1128 08:06:27.389031  8697 layer_factory.hpp:77] Creating layer inception_4d/5x5
I1128 08:06:27.389039  8697 net.cpp:100] Creating Layer inception_4d/5x5
I1128 08:06:27.389040  8697 net.cpp:434] inception_4d/5x5 <- inception_4d/5x5_reduce
I1128 08:06:27.389044  8697 net.cpp:408] inception_4d/5x5 -> inception_4d/5x5
I1128 08:06:27.392586  8697 net.cpp:150] Setting up inception_4d/5x5
I1128 08:06:27.392597  8697 net.cpp:157] Top shape: 50 64 14 14 (627200)
I1128 08:06:27.392599  8697 net.cpp:165] Memory required for data: 2363400412
I1128 08:06:27.392603  8697 layer_factory.hpp:77] Creating layer inception_4d/relu_5x5
I1128 08:06:27.392608  8697 net.cpp:100] Creating Layer inception_4d/relu_5x5
I1128 08:06:27.392611  8697 net.cpp:434] inception_4d/relu_5x5 <- inception_4d/5x5
I1128 08:06:27.392616  8697 net.cpp:395] inception_4d/relu_5x5 -> inception_4d/5x5 (in-place)
I1128 08:06:27.392621  8697 net.cpp:150] Setting up inception_4d/relu_5x5
I1128 08:06:27.392622  8697 net.cpp:157] Top shape: 50 64 14 14 (627200)
I1128 08:06:27.392626  8697 net.cpp:165] Memory required for data: 2365909212
I1128 08:06:27.392627  8697 layer_factory.hpp:77] Creating layer inception_4d/pool
I1128 08:06:27.392632  8697 net.cpp:100] Creating Layer inception_4d/pool
I1128 08:06:27.392634  8697 net.cpp:434] inception_4d/pool <- inception_4c/output_inception_4c/output_0_split_3
I1128 08:06:27.392638  8697 net.cpp:408] inception_4d/pool -> inception_4d/pool
I1128 08:06:27.392674  8697 net.cpp:150] Setting up inception_4d/pool
I1128 08:06:27.392678  8697 net.cpp:157] Top shape: 50 512 14 14 (5017600)
I1128 08:06:27.392679  8697 net.cpp:165] Memory required for data: 2385979612
I1128 08:06:27.392681  8697 layer_factory.hpp:77] Creating layer inception_4d/pool_proj
I1128 08:06:27.392700  8697 net.cpp:100] Creating Layer inception_4d/pool_proj
I1128 08:06:27.392704  8697 net.cpp:434] inception_4d/pool_proj <- inception_4d/pool
I1128 08:06:27.392709  8697 net.cpp:408] inception_4d/pool_proj -> inception_4d/pool_proj
I1128 08:06:27.393043  8697 net.cpp:150] Setting up inception_4d/pool_proj
I1128 08:06:27.393050  8697 net.cpp:157] Top shape: 50 64 14 14 (627200)
I1128 08:06:27.393051  8697 net.cpp:165] Memory required for data: 2388488412
I1128 08:06:27.393055  8697 layer_factory.hpp:77] Creating layer inception_4d/relu_pool_proj
I1128 08:06:27.393059  8697 net.cpp:100] Creating Layer inception_4d/relu_pool_proj
I1128 08:06:27.393062  8697 net.cpp:434] inception_4d/relu_pool_proj <- inception_4d/pool_proj
I1128 08:06:27.393066  8697 net.cpp:395] inception_4d/relu_pool_proj -> inception_4d/pool_proj (in-place)
I1128 08:06:27.393070  8697 net.cpp:150] Setting up inception_4d/relu_pool_proj
I1128 08:06:27.393072  8697 net.cpp:157] Top shape: 50 64 14 14 (627200)
I1128 08:06:27.393074  8697 net.cpp:165] Memory required for data: 2390997212
I1128 08:06:27.393075  8697 layer_factory.hpp:77] Creating layer inception_4d/output
I1128 08:06:27.393079  8697 net.cpp:100] Creating Layer inception_4d/output
I1128 08:06:27.393081  8697 net.cpp:434] inception_4d/output <- inception_4d/1x1
I1128 08:06:27.393085  8697 net.cpp:434] inception_4d/output <- inception_4d/3x3
I1128 08:06:27.393086  8697 net.cpp:434] inception_4d/output <- inception_4d/5x5
I1128 08:06:27.393088  8697 net.cpp:434] inception_4d/output <- inception_4d/pool_proj
I1128 08:06:27.393092  8697 net.cpp:408] inception_4d/output -> inception_4d/output
I1128 08:06:27.393113  8697 net.cpp:150] Setting up inception_4d/output
I1128 08:06:27.393116  8697 net.cpp:157] Top shape: 50 528 14 14 (5174400)
I1128 08:06:27.393118  8697 net.cpp:165] Memory required for data: 2411694812
I1128 08:06:27.393121  8697 layer_factory.hpp:77] Creating layer inception_4d/output_inception_4d/output_0_split
I1128 08:06:27.393126  8697 net.cpp:100] Creating Layer inception_4d/output_inception_4d/output_0_split
I1128 08:06:27.393128  8697 net.cpp:434] inception_4d/output_inception_4d/output_0_split <- inception_4d/output
I1128 08:06:27.393133  8697 net.cpp:408] inception_4d/output_inception_4d/output_0_split -> inception_4d/output_inception_4d/output_0_split_0
I1128 08:06:27.393137  8697 net.cpp:408] inception_4d/output_inception_4d/output_0_split -> inception_4d/output_inception_4d/output_0_split_1
I1128 08:06:27.393141  8697 net.cpp:408] inception_4d/output_inception_4d/output_0_split -> inception_4d/output_inception_4d/output_0_split_2
I1128 08:06:27.393146  8697 net.cpp:408] inception_4d/output_inception_4d/output_0_split -> inception_4d/output_inception_4d/output_0_split_3
I1128 08:06:27.393151  8697 net.cpp:408] inception_4d/output_inception_4d/output_0_split -> inception_4d/output_inception_4d/output_0_split_4
I1128 08:06:27.393208  8697 net.cpp:150] Setting up inception_4d/output_inception_4d/output_0_split
I1128 08:06:27.393211  8697 net.cpp:157] Top shape: 50 528 14 14 (5174400)
I1128 08:06:27.393213  8697 net.cpp:157] Top shape: 50 528 14 14 (5174400)
I1128 08:06:27.393215  8697 net.cpp:157] Top shape: 50 528 14 14 (5174400)
I1128 08:06:27.393218  8697 net.cpp:157] Top shape: 50 528 14 14 (5174400)
I1128 08:06:27.393219  8697 net.cpp:157] Top shape: 50 528 14 14 (5174400)
I1128 08:06:27.393221  8697 net.cpp:165] Memory required for data: 2515182812
I1128 08:06:27.393224  8697 layer_factory.hpp:77] Creating layer loss2/ave_pool
I1128 08:06:27.393226  8697 net.cpp:100] Creating Layer loss2/ave_pool
I1128 08:06:27.393229  8697 net.cpp:434] loss2/ave_pool <- inception_4d/output_inception_4d/output_0_split_0
I1128 08:06:27.393234  8697 net.cpp:408] loss2/ave_pool -> loss2/ave_pool
I1128 08:06:27.393252  8697 net.cpp:150] Setting up loss2/ave_pool
I1128 08:06:27.393255  8697 net.cpp:157] Top shape: 50 528 4 4 (422400)
I1128 08:06:27.393257  8697 net.cpp:165] Memory required for data: 2516872412
I1128 08:06:27.393266  8697 layer_factory.hpp:77] Creating layer loss2/conv
I1128 08:06:27.393273  8697 net.cpp:100] Creating Layer loss2/conv
I1128 08:06:27.393275  8697 net.cpp:434] loss2/conv <- loss2/ave_pool
I1128 08:06:27.393280  8697 net.cpp:408] loss2/conv -> loss2/conv
I1128 08:06:27.396903  8697 net.cpp:150] Setting up loss2/conv
I1128 08:06:27.396914  8697 net.cpp:157] Top shape: 50 128 4 4 (102400)
I1128 08:06:27.396915  8697 net.cpp:165] Memory required for data: 2517282012
I1128 08:06:27.396919  8697 layer_factory.hpp:77] Creating layer loss2/relu_conv
I1128 08:06:27.396924  8697 net.cpp:100] Creating Layer loss2/relu_conv
I1128 08:06:27.396926  8697 net.cpp:434] loss2/relu_conv <- loss2/conv
I1128 08:06:27.396932  8697 net.cpp:395] loss2/relu_conv -> loss2/conv (in-place)
I1128 08:06:27.396936  8697 net.cpp:150] Setting up loss2/relu_conv
I1128 08:06:27.396939  8697 net.cpp:157] Top shape: 50 128 4 4 (102400)
I1128 08:06:27.396941  8697 net.cpp:165] Memory required for data: 2517691612
I1128 08:06:27.396944  8697 layer_factory.hpp:77] Creating layer loss2/fc
I1128 08:06:27.396948  8697 net.cpp:100] Creating Layer loss2/fc
I1128 08:06:27.396950  8697 net.cpp:434] loss2/fc <- loss2/conv
I1128 08:06:27.396955  8697 net.cpp:408] loss2/fc -> loss2/fc
I1128 08:06:27.425572  8697 net.cpp:150] Setting up loss2/fc
I1128 08:06:27.425604  8697 net.cpp:157] Top shape: 50 1024 (51200)
I1128 08:06:27.425609  8697 net.cpp:165] Memory required for data: 2517896412
I1128 08:06:27.425618  8697 layer_factory.hpp:77] Creating layer loss2/relu_fc
I1128 08:06:27.425631  8697 net.cpp:100] Creating Layer loss2/relu_fc
I1128 08:06:27.425634  8697 net.cpp:434] loss2/relu_fc <- loss2/fc
I1128 08:06:27.425640  8697 net.cpp:395] loss2/relu_fc -> loss2/fc (in-place)
I1128 08:06:27.425648  8697 net.cpp:150] Setting up loss2/relu_fc
I1128 08:06:27.425650  8697 net.cpp:157] Top shape: 50 1024 (51200)
I1128 08:06:27.425652  8697 net.cpp:165] Memory required for data: 2518101212
I1128 08:06:27.425653  8697 layer_factory.hpp:77] Creating layer loss2/drop_fc
I1128 08:06:27.425660  8697 net.cpp:100] Creating Layer loss2/drop_fc
I1128 08:06:27.425662  8697 net.cpp:434] loss2/drop_fc <- loss2/fc
I1128 08:06:27.425665  8697 net.cpp:395] loss2/drop_fc -> loss2/fc (in-place)
I1128 08:06:27.425694  8697 net.cpp:150] Setting up loss2/drop_fc
I1128 08:06:27.425698  8697 net.cpp:157] Top shape: 50 1024 (51200)
I1128 08:06:27.425699  8697 net.cpp:165] Memory required for data: 2518306012
I1128 08:06:27.425701  8697 layer_factory.hpp:77] Creating layer loss2/classifier
I1128 08:06:27.425710  8697 net.cpp:100] Creating Layer loss2/classifier
I1128 08:06:27.425714  8697 net.cpp:434] loss2/classifier <- loss2/fc
I1128 08:06:27.425719  8697 net.cpp:408] loss2/classifier -> loss2/classifier
I1128 08:06:27.431955  8697 net.cpp:150] Setting up loss2/classifier
I1128 08:06:27.431982  8697 net.cpp:157] Top shape: 50 1000 (50000)
I1128 08:06:27.431984  8697 net.cpp:165] Memory required for data: 2518506012
I1128 08:06:27.432049  8697 layer_factory.hpp:77] Creating layer loss2/classifier_loss2/classifier_0_split
I1128 08:06:27.432060  8697 net.cpp:100] Creating Layer loss2/classifier_loss2/classifier_0_split
I1128 08:06:27.432065  8697 net.cpp:434] loss2/classifier_loss2/classifier_0_split <- loss2/classifier
I1128 08:06:27.432073  8697 net.cpp:408] loss2/classifier_loss2/classifier_0_split -> loss2/classifier_loss2/classifier_0_split_0
I1128 08:06:27.432081  8697 net.cpp:408] loss2/classifier_loss2/classifier_0_split -> loss2/classifier_loss2/classifier_0_split_1
I1128 08:06:27.432087  8697 net.cpp:408] loss2/classifier_loss2/classifier_0_split -> loss2/classifier_loss2/classifier_0_split_2
I1128 08:06:27.432142  8697 net.cpp:150] Setting up loss2/classifier_loss2/classifier_0_split
I1128 08:06:27.432148  8697 net.cpp:157] Top shape: 50 1000 (50000)
I1128 08:06:27.432150  8697 net.cpp:157] Top shape: 50 1000 (50000)
I1128 08:06:27.432152  8697 net.cpp:157] Top shape: 50 1000 (50000)
I1128 08:06:27.432153  8697 net.cpp:165] Memory required for data: 2519106012
I1128 08:06:27.432173  8697 layer_factory.hpp:77] Creating layer loss2/loss
I1128 08:06:27.432180  8697 net.cpp:100] Creating Layer loss2/loss
I1128 08:06:27.432183  8697 net.cpp:434] loss2/loss <- loss2/classifier_loss2/classifier_0_split_0
I1128 08:06:27.432186  8697 net.cpp:434] loss2/loss <- label_data_1_split_3
…
I1128 08:06:27.432386  8697 net.cpp:150] Setting up loss2/top-5
I1128 08:06:27.432389  8697 net.cpp:157] Top shape: (1)
I1128 08:06:27.432390  8697 net.cpp:165] Memory required for data: 2519106024
I1128 08:06:27.432392  8697 layer_factory.hpp:77] Creating layer inception_4e/1x1
I1128 08:06:27.432400  8697 net.cpp:100] Creating Layer inception_4e/1x1
I1128 08:06:27.432404  8697 net.cpp:434] inception_4e/1x1 <- inception_4d/output_inception_4d/output_0_split_1
I1128 08:06:27.432407  8697 net.cpp:408] inception_4e/1x1 -> inception_4e/1x1
I1128 08:06:27.433224  8697 net.cpp:150] Setting up inception_4e/1x1
I1128 08:06:27.433233  8697 net.cpp:157] Top shape: 50 256 14 14 (2508800)
I1128 08:06:27.433235  8697 net.cpp:165] Memory required for data: 2529141224
I1128 08:06:27.433240  8697 layer_factory.hpp:77] Creating layer inception_4e/relu_1x1
I1128 08:06:27.433245  8697 net.cpp:100] Creating Layer inception_4e/relu_1x1
I1128 08:06:27.433248  8697 net.cpp:434] inception_4e/relu_1x1 <- inception_4e/1x1
I1128 08:06:27.433253  8697 net.cpp:395] inception_4e/relu_1x1 -> inception_4e/1x1 (in-place)
I1128 08:06:27.433257  8697 net.cpp:150] Setting up inception_4e/relu_1x1
I1128 08:06:27.433259  8697 net.cpp:157] Top shape: 50 256 14 14 (2508800)
I1128 08:06:27.433261  8697 net.cpp:165] Memory required for data: 2539176424
I1128 08:06:27.433262  8697 layer_factory.hpp:77] Creating layer inception_4e/3x3_reduce
I1128 08:06:27.433293  8697 net.cpp:100] Creating Layer inception_4e/3x3_reduce
I1128 08:06:27.433312  8697 net.cpp:434] inception_4e/3x3_reduce <- inception_4d/output_inception_4d/output_0_split_2
I1128 08:06:27.433316  8697 net.cpp:408] inception_4e/3x3_reduce -> inception_4e/3x3_reduce
I1128 08:06:27.434463  8697 net.cpp:150] Setting up inception_4e/3x3_reduce
I1128 08:06:27.434481  8697 net.cpp:157] Top shape: 50 160 14 14 (1568000)
I1128 08:06:27.434484  8697 net.cpp:165] Memory required for data: 2545448424
I1128 08:06:27.434489  8697 layer_factory.hpp:77] Creating layer inception_4e/relu_3x3_reduce
I1128 08:06:27.434496  8697 net.cpp:100] Creating Layer inception_4e/relu_3x3_reduce
I1128 08:06:27.434500  8697 net.cpp:434] inception_4e/relu_3x3_reduce <- inception_4e/3x3_reduce
I1128 08:06:27.434504  8697 net.cpp:395] inception_4e/relu_3x3_reduce -> inception_4e/3x3_reduce (in-place)
I1128 08:06:27.434509  8697 net.cpp:150] Setting up inception_4e/relu_3x3_reduce
I1128 08:06:27.434527  8697 net.cpp:157] Top shape: 50 160 14 14 (1568000)
I1128 08:06:27.434530  8697 net.cpp:165] Memory required for data: 2551720424
I1128 08:06:27.434531  8697 layer_factory.hpp:77] Creating layer inception_4e/3x3
I1128 08:06:27.434538  8697 net.cpp:100] Creating Layer inception_4e/3x3
I1128 08:06:27.434540  8697 net.cpp:434] inception_4e/3x3 <- inception_4e/3x3_reduce
I1128 08:06:27.434545  8697 net.cpp:408] inception_4e/3x3 -> inception_4e/3x3
I1128 08:06:27.440762  8697 net.cpp:150] Setting up inception_4e/3x3
I1128 08:06:27.440778  8697 net.cpp:157] Top shape: 50 320 14 14 (3136000)
I1128 08:06:27.440780  8697 net.cpp:165] Memory required for data: 2564264424
I1128 08:06:27.440786  8697 layer_factory.hpp:77] Creating layer inception_4e/relu_3x3
I1128 08:06:27.440793  8697 net.cpp:100] Creating Layer inception_4e/relu_3x3
I1128 08:06:27.440796  8697 net.cpp:434] inception_4e/relu_3x3 <- inception_4e/3x3
I1128 08:06:27.440800  8697 net.cpp:395] inception_4e/relu_3x3 -> inception_4e/3x3 (in-place)
I1128 08:06:27.440806  8697 net.cpp:150] Setting up inception_4e/relu_3x3
I1128 08:06:27.440809  8697 net.cpp:157] Top shape: 50 320 14 14 (3136000)
I1128 08:06:27.440810  8697 net.cpp:165] Memory required for data: 2576808424
I1128 08:06:27.440812  8697 layer_factory.hpp:77] Creating layer inception_4e/5x5_reduce
I1128 08:06:27.440820  8697 net.cpp:100] Creating Layer inception_4e/5x5_reduce
I1128 08:06:27.440822  8697 net.cpp:434] inception_4e/5x5_reduce <- inception_4d/output_inception_4d/output_0_split_3
I1128 08:06:27.440829  8697 net.cpp:408] inception_4e/5x5_reduce -> inception_4e/5x5_reduce
I1128 08:06:27.441104  8697 net.cpp:150] Setting up inception_4e/5x5_reduce
I1128 08:06:27.441110  8697 net.cpp:157] Top shape: 50 32 14 14 (313600)
I1128 08:06:27.441112  8697 net.cpp:165] Memory required for data: 2578062824
I1128 08:06:27.441117  8697 layer_factory.hpp:77] Creating layer inception_4e/relu_5x5_reduce
I1128 08:06:27.441123  8697 net.cpp:100] Creating Layer inception_4e/relu_5x5_reduce
I1128 08:06:27.441124  8697 net.cpp:434] inception_4e/relu_5x5_reduce <- inception_4e/5x5_reduce
I1128 08:06:27.441129  8697 net.cpp:395] inception_4e/relu_5x5_reduce -> inception_4e/5x5_reduce (in-place)
I1128 08:06:27.441133  8697 net.cpp:150] Setting up inception_4e/relu_5x5_reduce
I1128 08:06:27.441135  8697 net.cpp:157] Top shape: 50 32 14 14 (313600)
I1128 08:06:27.441138  8697 net.cpp:165] Memory required for data: 2579317224
I1128 08:06:27.441139  8697 layer_factory.hpp:77] Creating layer inception_4e/5x5
I1128 08:06:27.441150  8697 net.cpp:100] Creating Layer inception_4e/5x5
I1128 08:06:27.441153  8697 net.cpp:434] inception_4e/5x5 <- inception_4e/5x5_reduce
I1128 08:06:27.441157  8697 net.cpp:408] inception_4e/5x5 -> inception_4e/5x5
I1128 08:06:27.441773  8697 net.cpp:150] Setting up inception_4e/5x5
I1128 08:06:27.441779  8697 net.cpp:157] Top shape: 50 128 14 14 (1254400)
I1128 08:06:27.441781  8697 net.cpp:165] Memory required for data: 2584334824
I1128 08:06:27.441786  8697 layer_factory.hpp:77] Creating layer inception_4e/relu_5x5
I1128 08:06:27.441789  8697 net.cpp:100] Creating Layer inception_4e/relu_5x5
I1128 08:06:27.441792  8697 net.cpp:434] inception_4e/relu_5x5 <- inception_4e/5x5
I1128 08:06:27.441795  8697 net.cpp:395] inception_4e/relu_5x5 -> inception_4e/5x5 (in-place)
I1128 08:06:27.441799  8697 net.cpp:150] Setting up inception_4e/relu_5x5
I1128 08:06:27.441802  8697 net.cpp:157] Top shape: 50 128 14 14 (1254400)
I1128 08:06:27.441803  8697 net.cpp:165] Memory required for data: 2589352424
I1128 08:06:27.441805  8697 layer_factory.hpp:77] Creating layer inception_4e/pool
I1128 08:06:27.441810  8697 net.cpp:100] Creating Layer inception_4e/pool
I1128 08:06:27.441812  8697 net.cpp:434] inception_4e/pool <- inception_4d/output_inception_4d/output_0_split_4
I1128 08:06:27.441817  8697 net.cpp:408] inception_4e/pool -> inception_4e/pool
I1128 08:06:27.441846  8697 net.cpp:150] Setting up inception_4e/pool
I1128 08:06:27.441850  8697 net.cpp:157] Top shape: 50 528 14 14 (5174400)
I1128 08:06:27.441864  8697 net.cpp:165] Memory required for data: 2610050024
I1128 08:06:27.441865  8697 layer_factory.hpp:77] Creating layer inception_4e/pool_proj
I1128 08:06:27.441870  8697 net.cpp:100] Creating Layer inception_4e/pool_proj
I1128 08:06:27.441874  8697 net.cpp:434] inception_4e/pool_proj <- inception_4e/pool
I1128 08:06:27.441879  8697 net.cpp:408] inception_4e/pool_proj -> inception_4e/pool_proj
I1128 08:06:27.442342  8697 net.cpp:150] Setting up inception_4e/pool_proj
I1128 08:06:27.442348  8697 net.cpp:157] Top shape: 50 128 14 14 (1254400)
I1128 08:06:27.442350  8697 net.cpp:165] Memory required for data: 2615067624
I1128 08:06:27.442354  8697 layer_factory.hpp:77] Creating layer inception_4e/relu_pool_proj
I1128 08:06:27.442358  8697 net.cpp:100] Creating Layer inception_4e/relu_pool_proj
I1128 08:06:27.442360  8697 net.cpp:434] inception_4e/relu_pool_proj <- inception_4e/pool_proj
I1128 08:06:27.442364  8697 net.cpp:395] inception_4e/relu_pool_proj -> inception_4e/pool_proj (in-place)
I1128 08:06:27.442368  8697 net.cpp:150] Setting up inception_4e/relu_pool_proj
I1128 08:06:27.442370  8697 net.cpp:157] Top shape: 50 128 14 14 (1254400)
I1128 08:06:27.442373  8697 net.cpp:165] Memory required for data: 2620085224
I1128 08:06:27.442373  8697 layer_factory.hpp:77] Creating layer inception_4e/output
I1128 08:06:27.442379  8697 net.cpp:100] Creating Layer inception_4e/output
I1128 08:06:27.442381  8697 net.cpp:434] inception_4e/output <- inception_4e/1x1
I1128 08:06:27.442384  8697 net.cpp:434] inception_4e/output <- inception_4e/3x3
I1128 08:06:27.442385  8697 net.cpp:434] inception_4e/output <- inception_4e/5x5
I1128 08:06:27.442389  8697 net.cpp:434] inception_4e/output <- inception_4e/pool_proj
I1128 08:06:27.442391  8697 net.cpp:408] inception_4e/output -> inception_4e/output
I1128 08:06:27.442410  8697 net.cpp:150] Setting up inception_4e/output
I1128 08:06:27.442414  8697 net.cpp:157] Top shape: 50 832 14 14 (8153600)
I1128 08:06:27.442414  8697 net.cpp:165] Memory required for data: 2652699624
I1128 08:06:27.442416  8697 layer_factory.hpp:77] Creating layer pool4/3x3_s2
I1128 08:06:27.442421  8697 net.cpp:100] Creating Layer pool4/3x3_s2
I1128 08:06:27.442423  8697 net.cpp:434] pool4/3x3_s2 <- inception_4e/output
I1128 08:06:27.442427  8697 net.cpp:408] pool4/3x3_s2 -> pool4/3x3_s2
I1128 08:06:27.442452  8697 net.cpp:150] Setting up pool4/3x3_s2
I1128 08:06:27.442456  8697 net.cpp:157] Top shape: 50 832 7 7 (2038400)
I1128 08:06:27.442457  8697 net.cpp:165] Memory required for data: 2660853224
I1128 08:06:27.442458  8697 layer_factory.hpp:77] Creating layer pool4/3x3_s2_pool4/3x3_s2_0_split
I1128 08:06:27.442464  8697 net.cpp:100] Creating Layer pool4/3x3_s2_pool4/3x3_s2_0_split
I1128 08:06:27.442466  8697 net.cpp:434] pool4/3x3_s2_pool4/3x3_s2_0_split <- pool4/3x3_s2
I1128 08:06:27.442471  8697 net.cpp:408] pool4/3x3_s2_pool4/3x3_s2_0_split -> pool4/3x3_s2_pool4/3x3_s2_0_split_0
I1128 08:06:27.442474  8697 net.cpp:408] pool4/3x3_s2_pool4/3x3_s2_0_split -> pool4/3x3_s2_pool4/3x3_s2_0_split_1
I1128 08:06:27.442478  8697 net.cpp:408] pool4/3x3_s2_pool4/3x3_s2_0_split -> pool4/3x3_s2_pool4/3x3_s2_0_split_2
I1128 08:06:27.442503  8697 net.cpp:408] pool4/3x3_s2_pool4/3x3_s2_0_split -> pool4/3x3_s2_pool4/3x3_s2_0_split_3
I1128 08:06:27.442543  8697 net.cpp:150] Setting up pool4/3x3_s2_pool4/3x3_s2_0_split
I1128 08:06:27.442548  8697 net.cpp:157] Top shape: 50 832 7 7 (2038400)
I1128 08:06:27.442550  8697 net.cpp:157] Top shape: 50 832 7 7 (2038400)
I1128 08:06:27.442554  8697 net.cpp:157] Top shape: 50 832 7 7 (2038400)
I1128 08:06:27.442556  8697 net.cpp:157] Top shape: 50 832 7 7 (2038400)
I1128 08:06:27.442558  8697 net.cpp:165] Memory required for data: 2693467624
I1128 08:06:27.442559  8697 layer_factory.hpp:77] Creating layer inception_5a/1x1
I1128 08:06:27.442566  8697 net.cpp:100] Creating Layer inception_5a/1x1
I1128 08:06:27.442569  8697 net.cpp:434] inception_5a/1x1 <- pool4/3x3_s2_pool4/3x3_s2_0_split_0
I1128 08:06:27.442572  8697 net.cpp:408] inception_5a/1x1 -> inception_5a/1x1
I1128 08:06:27.447022  8697 net.cpp:150] Setting up inception_5a/1x1
I1128 08:06:27.447032  8697 net.cpp:157] Top shape: 50 256 7 7 (627200)
I1128 08:06:27.447034  8697 net.cpp:165] Memory required for data: 2695976424
I1128 08:06:27.447038  8697 layer_factory.hpp:77] Creating layer inception_5a/relu_1x1
I1128 08:06:27.447044  8697 net.cpp:100] Creating Layer inception_5a/relu_1x1
I1128 08:06:27.447047  8697 net.cpp:434] inception_5a/relu_1x1 <- inception_5a/1x1
I1128 08:06:27.447052  8697 net.cpp:395] inception_5a/relu_1x1 -> inception_5a/1x1 (in-place)
I1128 08:06:27.447057  8697 net.cpp:150] Setting up inception_5a/relu_1x1
I1128 08:06:27.447059  8697 net.cpp:157] Top shape: 50 256 7 7 (627200)
I1128 08:06:27.447060  8697 net.cpp:165] Memory required for data: 2698485224
I1128 08:06:27.447062  8697 layer_factory.hpp:77] Creating layer inception_5a/3x3_reduce
I1128 08:06:27.447068  8697 net.cpp:100] Creating Layer inception_5a/3x3_reduce
I1128 08:06:27.447072  8697 net.cpp:434] inception_5a/3x3_reduce <- pool4/3x3_s2_pool4/3x3_s2_0_split_1
I1128 08:06:27.447077  8697 net.cpp:408] inception_5a/3x3_reduce -> inception_5a/3x3_reduce
I1128 08:06:27.450933  8697 net.cpp:150] Setting up inception_5a/3x3_reduce
I1128 08:06:27.450943  8697 net.cpp:157] Top shape: 50 160 7 7 (392000)
I1128 08:06:27.450945  8697 net.cpp:165] Memory required for data: 2700053224
I1128 08:06:27.450949  8697 layer_factory.hpp:77] Creating layer inception_5a/relu_3x3_reduce
I1128 08:06:27.450954  8697 net.cpp:100] Creating Layer inception_5a/relu_3x3_reduce
I1128 08:06:27.450958  8697 net.cpp:434] inception_5a/relu_3x3_reduce <- inception_5a/3x3_reduce
I1128 08:06:27.450961  8697 net.cpp:395] inception_5a/relu_3x3_reduce -> inception_5a/3x3_reduce (in-place)
I1128 08:06:27.450965  8697 net.cpp:150] Setting up inception_5a/relu_3x3_reduce
I1128 08:06:27.450968  8697 net.cpp:157] Top shape: 50 160 7 7 (392000)
I1128 08:06:27.450970  8697 net.cpp:165] Memory required for data: 2701621224
I1128 08:06:27.450973  8697 layer_factory.hpp:77] Creating layer inception_5a/3x3
I1128 08:06:27.450978  8697 net.cpp:100] Creating Layer inception_5a/3x3
I1128 08:06:27.450980  8697 net.cpp:434] inception_5a/3x3 <- inception_5a/3x3_reduce
I1128 08:06:27.450985  8697 net.cpp:408] inception_5a/3x3 -> inception_5a/3x3
I1128 08:06:27.456589  8697 net.cpp:150] Setting up inception_5a/3x3
I1128 08:06:27.456600  8697 net.cpp:157] Top shape: 50 320 7 7 (784000)
I1128 08:06:27.456603  8697 net.cpp:165] Memory required for data: 2704757224
I1128 08:06:27.456606  8697 layer_factory.hpp:77] Creating layer inception_5a/relu_3x3
I1128 08:06:27.456611  8697 net.cpp:100] Creating Layer inception_5a/relu_3x3
I1128 08:06:27.456614  8697 net.cpp:434] inception_5a/relu_3x3 <- inception_5a/3x3
I1128 08:06:27.456617  8697 net.cpp:395] inception_5a/relu_3x3 -> inception_5a/3x3 (in-place)
I1128 08:06:27.456621  8697 net.cpp:150] Setting up inception_5a/relu_3x3
I1128 08:06:27.456625  8697 net.cpp:157] Top shape: 50 320 7 7 (784000)
I1128 08:06:27.456626  8697 net.cpp:165] Memory required for data: 2707893224
I1128 08:06:27.456629  8697 layer_factory.hpp:77] Creating layer inception_5a/5x5_reduce
I1128 08:06:27.456635  8697 net.cpp:100] Creating Layer inception_5a/5x5_reduce
I1128 08:06:27.456637  8697 net.cpp:434] inception_5a/5x5_reduce <- pool4/3x3_s2_pool4/3x3_s2_0_split_2
I1128 08:06:27.456642  8697 net.cpp:408] inception_5a/5x5_reduce -> inception_5a/5x5_reduce
I1128 08:06:27.456939  8697 net.cpp:150] Setting up inception_5a/5x5_reduce
I1128 08:06:27.456945  8697 net.cpp:157] Top shape: 50 32 7 7 (78400)
I1128 08:06:27.456948  8697 net.cpp:165] Memory required for data: 2708206824
I1128 08:06:27.456951  8697 layer_factory.hpp:77] Creating layer inception_5a/relu_5x5_reduce
I1128 08:06:27.456955  8697 net.cpp:100] Creating Layer inception_5a/relu_5x5_reduce
I1128 08:06:27.456957  8697 net.cpp:434] inception_5a/relu_5x5_reduce <- inception_5a/5x5_reduce
I1128 08:06:27.456962  8697 net.cpp:395] inception_5a/relu_5x5_reduce -> inception_5a/5x5_reduce (in-place)
I1128 08:06:27.456965  8697 net.cpp:150] Setting up inception_5a/relu_5x5_reduce
I1128 08:06:27.456977  8697 net.cpp:157] Top shape: 50 32 7 7 (78400)
I1128 08:06:27.456979  8697 net.cpp:165] Memory required for data: 2708520424
I1128 08:06:27.456980  8697 layer_factory.hpp:77] Creating layer inception_5a/5x5
I1128 08:06:27.456986  8697 net.cpp:100] Creating Layer inception_5a/5x5
I1128 08:06:27.456987  8697 net.cpp:434] inception_5a/5x5 <- inception_5a/5x5_reduce
I1128 08:06:27.456992  8697 net.cpp:408] inception_5a/5x5 -> inception_5a/5x5
I1128 08:06:27.457598  8697 net.cpp:150] Setting up inception_5a/5x5
I1128 08:06:27.457604  8697 net.cpp:157] Top shape: 50 128 7 7 (313600)
I1128 08:06:27.457607  8697 net.cpp:165] Memory required for data: 2709774824
I1128 08:06:27.457610  8697 layer_factory.hpp:77] Creating layer inception_5a/relu_5x5
I1128 08:06:27.457614  8697 net.cpp:100] Creating Layer inception_5a/relu_5x5
I1128 08:06:27.457617  8697 net.cpp:434] inception_5a/relu_5x5 <- inception_5a/5x5
I1128 08:06:27.457619  8697 net.cpp:395] inception_5a/relu_5x5 -> inception_5a/5x5 (in-place)
I1128 08:06:27.457623  8697 net.cpp:150] Setting up inception_5a/relu_5x5
I1128 08:06:27.457625  8697 net.cpp:157] Top shape: 50 128 7 7 (313600)
I1128 08:06:27.457626  8697 net.cpp:165] Memory required for data: 2711029224
I1128 08:06:27.457628  8697 layer_factory.hpp:77] Creating layer inception_5a/pool
I1128 08:06:27.457635  8697 net.cpp:100] Creating Layer inception_5a/pool
I1128 08:06:27.457638  8697 net.cpp:434] inception_5a/pool <- pool4/3x3_s2_pool4/3x3_s2_0_split_3
I1128 08:06:27.457640  8697 net.cpp:408] inception_5a/pool -> inception_5a/pool
I1128 08:06:27.457674  8697 net.cpp:150] Setting up inception_5a/pool
I1128 08:06:27.457677  8697 net.cpp:157] Top shape: 50 832 7 7 (2038400)
I1128 08:06:27.457679  8697 net.cpp:165] Memory required for data: 2719182824
I1128 08:06:27.457680  8697 layer_factory.hpp:77] Creating layer inception_5a/pool_proj
I1128 08:06:27.457686  8697 net.cpp:100] Creating Layer inception_5a/pool_proj
I1128 08:06:27.457690  8697 net.cpp:434] inception_5a/pool_proj <- inception_5a/pool
I1128 08:06:27.457695  8697 net.cpp:408] inception_5a/pool_proj -> inception_5a/pool_proj
I1128 08:06:27.458711  8697 net.cpp:150] Setting up inception_5a/pool_proj
I1128 08:06:27.458720  8697 net.cpp:157] Top shape: 50 128 7 7 (313600)
I1128 08:06:27.458722  8697 net.cpp:165] Memory required for data: 2720437224
I1128 08:06:27.458726  8697 layer_factory.hpp:77] Creating layer inception_5a/relu_pool_proj
I1128 08:06:27.458732  8697 net.cpp:100] Creating Layer inception_5a/relu_pool_proj
I1128 08:06:27.458735  8697 net.cpp:434] inception_5a/relu_pool_proj <- inception_5a/pool_proj
I1128 08:06:27.458739  8697 net.cpp:395] inception_5a/relu_pool_proj -> inception_5a/pool_proj (in-place)
I1128 08:06:27.458742  8697 net.cpp:150] Setting up inception_5a/relu_pool_proj
I1128 08:06:27.458745  8697 net.cpp:157] Top shape: 50 128 7 7 (313600)
I1128 08:06:27.458747  8697 net.cpp:165] Memory required for data: 2721691624
I1128 08:06:27.458750  8697 layer_factory.hpp:77] Creating layer inception_5a/output
I1128 08:06:27.458755  8697 net.cpp:100] Creating Layer inception_5a/output
I1128 08:06:27.458756  8697 net.cpp:434] inception_5a/output <- inception_5a/1x1
I1128 08:06:27.458760  8697 net.cpp:434] inception_5a/output <- inception_5a/3x3
I1128 08:06:27.458761  8697 net.cpp:434] inception_5a/output <- inception_5a/5x5
I1128 08:06:27.458763  8697 net.cpp:434] inception_5a/output <- inception_5a/pool_proj
I1128 08:06:27.458766  8697 net.cpp:408] inception_5a/output -> inception_5a/output
I1128 08:06:27.458786  8697 net.cpp:150] Setting up inception_5a/output
I1128 08:06:27.458793  8697 net.cpp:157] Top shape: 50 832 7 7 (2038400)
I1128 08:06:27.458794  8697 net.cpp:165] Memory required for data: 2729845224
I1128 08:06:27.458796  8697 layer_factory.hpp:77] Creating layer inception_5a/output_inception_5a/output_0_split
I1128 08:06:27.458801  8697 net.cpp:100] Creating Layer inception_5a/output_inception_5a/output_0_split
I1128 08:06:27.458806  8697 net.cpp:434] inception_5a/output_inception_5a/output_0_split <- inception_5a/output
I1128 08:06:27.458817  8697 net.cpp:408] inception_5a/output_inception_5a/output_0_split -> inception_5a/output_inception_5a/output_0_split_0
I1128 08:06:27.458822  8697 net.cpp:408] inception_5a/output_inception_5a/output_0_split -> inception_5a/output_inception_5a/output_0_split_1
I1128 08:06:27.458827  8697 net.cpp:408] inception_5a/output_inception_5a/output_0_split -> inception_5a/output_inception_5a/output_0_split_2
I1128 08:06:27.458832  8697 net.cpp:408] inception_5a/output_inception_5a/output_0_split -> inception_5a/output_inception_5a/output_0_split_3
I1128 08:06:27.458875  8697 net.cpp:150] Setting up inception_5a/output_inception_5a/output_0_split
I1128 08:06:27.458880  8697 net.cpp:157] Top shape: 50 832 7 7 (2038400)
I1128 08:06:27.458884  8697 net.cpp:157] Top shape: 50 832 7 7 (2038400)
I1128 08:06:27.458885  8697 net.cpp:157] Top shape: 50 832 7 7 (2038400)
I1128 08:06:27.458887  8697 net.cpp:157] Top shape: 50 832 7 7 (2038400)
I1128 08:06:27.458889  8697 net.cpp:165] Memory required for data: 2762459624
I1128 08:06:27.458891  8697 layer_factory.hpp:77] Creating layer inception_5b/1x1
I1128 08:06:27.458899  8697 net.cpp:100] Creating Layer inception_5b/1x1
I1128 08:06:27.458902  8697 net.cpp:434] inception_5b/1x1 <- inception_5a/output_inception_5a/output_0_split_0
I1128 08:06:27.458906  8697 net.cpp:408] inception_5b/1x1 -> inception_5b/1x1
I1128 08:06:27.460883  8697 net.cpp:150] Setting up inception_5b/1x1
I1128 08:06:27.460893  8697 net.cpp:157] Top shape: 50 384 7 7 (940800)
I1128 08:06:27.460896  8697 net.cpp:165] Memory required for data: 2766222824
I1128 08:06:27.460901  8697 layer_factory.hpp:77] Creating layer inception_5b/relu_1x1
I1128 08:06:27.460906  8697 net.cpp:100] Creating Layer inception_5b/relu_1x1
I1128 08:06:27.460908  8697 net.cpp:434] inception_5b/relu_1x1 <- inception_5b/1x1
I1128 08:06:27.460913  8697 net.cpp:395] inception_5b/relu_1x1 -> inception_5b/1x1 (in-place)
I1128 08:06:27.460918  8697 net.cpp:150] Setting up inception_5b/relu_1x1
I1128 08:06:27.460921  8697 net.cpp:157] Top shape: 50 384 7 7 (940800)
I1128 08:06:27.460922  8697 net.cpp:165] Memory required for data: 2769986024
I1128 08:06:27.460923  8697 layer_factory.hpp:77] Creating layer inception_5b/3x3_reduce
I1128 08:06:27.460930  8697 net.cpp:100] Creating Layer inception_5b/3x3_reduce
I1128 08:06:27.460932  8697 net.cpp:434] inception_5b/3x3_reduce <- inception_5a/output_inception_5a/output_0_split_1
I1128 08:06:27.460937  8697 net.cpp:408] inception_5b/3x3_reduce -> inception_5b/3x3_reduce
I1128 08:06:27.462185  8697 net.cpp:150] Setting up inception_5b/3x3_reduce
I1128 08:06:27.462195  8697 net.cpp:157] Top shape: 50 192 7 7 (470400)
I1128 08:06:27.462198  8697 net.cpp:165] Memory required for data: 2771867624
I1128 08:06:27.462201  8697 layer_factory.hpp:77] Creating layer inception_5b/relu_3x3_reduce
I1128 08:06:27.462208  8697 net.cpp:100] Creating Layer inception_5b/relu_3x3_reduce
I1128 08:06:27.462209  8697 net.cpp:434] inception_5b/relu_3x3_reduce <- inception_5b/3x3_reduce
I1128 08:06:27.462213  8697 net.cpp:395] inception_5b/relu_3x3_reduce -> inception_5b/3x3_reduce (in-place)
I1128 08:06:27.462218  8697 net.cpp:150] Setting up inception_5b/relu_3x3_reduce
I1128 08:06:27.462220  8697 net.cpp:157] Top shape: 50 192 7 7 (470400)
I1128 08:06:27.462222  8697 net.cpp:165] Memory required for data: 2773749224
I1128 08:06:27.462224  8697 layer_factory.hpp:77] Creating layer inception_5b/3x3
I1128 08:06:27.462231  8697 net.cpp:100] Creating Layer inception_5b/3x3
I1128 08:06:27.462234  8697 net.cpp:434] inception_5b/3x3 <- inception_5b/3x3_reduce
I1128 08:06:27.462237  8697 net.cpp:408] inception_5b/3x3 -> inception_5b/3x3
I1128 08:06:27.465965  8697 net.cpp:150] Setting up inception_5b/3x3
I1128 08:06:27.465975  8697 net.cpp:157] Top shape: 50 384 7 7 (940800)
I1128 08:06:27.465977  8697 net.cpp:165] Memory required for data: 2777512424
I1128 08:06:27.465981  8697 layer_factory.hpp:77] Creating layer inception_5b/relu_3x3
I1128 08:06:27.465987  8697 net.cpp:100] Creating Layer inception_5b/relu_3x3
I1128 08:06:27.465999  8697 net.cpp:434] inception_5b/relu_3x3 <- inception_5b/3x3
I1128 08:06:27.466003  8697 net.cpp:395] inception_5b/relu_3x3 -> inception_5b/3x3 (in-place)
I1128 08:06:27.466008  8697 net.cpp:150] Setting up inception_5b/relu_3x3
I1128 08:06:27.466011  8697 net.cpp:157] Top shape: 50 384 7 7 (940800)
I1128 08:06:27.466012  8697 net.cpp:165] Memory required for data: 2781275624
I1128 08:06:27.466014  8697 layer_factory.hpp:77] Creating layer inception_5b/5x5_reduce
I1128 08:06:27.466022  8697 net.cpp:100] Creating Layer inception_5b/5x5_reduce
I1128 08:06:27.466023  8697 net.cpp:434] inception_5b/5x5_reduce <- inception_5a/output_inception_5a/output_0_split_2
I1128 08:06:27.466028  8697 net.cpp:408] inception_5b/5x5_reduce -> inception_5b/5x5_reduce
I1128 08:06:27.466389  8697 net.cpp:150] Setting up inception_5b/5x5_reduce
I1128 08:06:27.466399  8697 net.cpp:157] Top shape: 50 48 7 7 (117600)
I1128 08:06:27.466403  8697 net.cpp:165] Memory required for data: 2781746024
I1128 08:06:27.466409  8697 layer_factory.hpp:77] Creating layer inception_5b/relu_5x5_reduce
I1128 08:06:27.466415  8697 net.cpp:100] Creating Layer inception_5b/relu_5x5_reduce
I1128 08:06:27.466418  8697 net.cpp:434] inception_5b/relu_5x5_reduce <- inception_5b/5x5_reduce
I1128 08:06:27.466421  8697 net.cpp:395] inception_5b/relu_5x5_reduce -> inception_5b/5x5_reduce (in-place)
I1128 08:06:27.466426  8697 net.cpp:150] Setting up inception_5b/relu_5x5_reduce
I1128 08:06:27.466428  8697 net.cpp:157] Top shape: 50 48 7 7 (117600)
I1128 08:06:27.466430  8697 net.cpp:165] Memory required for data: 2782216424
I1128 08:06:27.466433  8697 layer_factory.hpp:77] Creating layer inception_5b/5x5
I1128 08:06:27.466439  8697 net.cpp:100] Creating Layer inception_5b/5x5
I1128 08:06:27.466441  8697 net.cpp:434] inception_5b/5x5 <- inception_5b/5x5_reduce
I1128 08:06:27.466445  8697 net.cpp:408] inception_5b/5x5 -> inception_5b/5x5
I1128 08:06:27.467286  8697 net.cpp:150] Setting up inception_5b/5x5
I1128 08:06:27.467293  8697 net.cpp:157] Top shape: 50 128 7 7 (313600)
I1128 08:06:27.467295  8697 net.cpp:165] Memory required for data: 2783470824
I1128 08:06:27.467300  8697 layer_factory.hpp:77] Creating layer inception_5b/relu_5x5
I1128 08:06:27.467305  8697 net.cpp:100] Creating Layer inception_5b/relu_5x5
I1128 08:06:27.467308  8697 net.cpp:434] inception_5b/relu_5x5 <- inception_5b/5x5
I1128 08:06:27.467311  8697 net.cpp:395] inception_5b/relu_5x5 -> inception_5b/5x5 (in-place)
I1128 08:06:27.467316  8697 net.cpp:150] Setting up inception_5b/relu_5x5
I1128 08:06:27.467319  8697 net.cpp:157] Top shape: 50 128 7 7 (313600)
I1128 08:06:27.467320  8697 net.cpp:165] Memory required for data: 2784725224
I1128 08:06:27.467321  8697 layer_factory.hpp:77] Creating layer inception_5b/pool
I1128 08:06:27.467325  8697 net.cpp:100] Creating Layer inception_5b/pool
I1128 08:06:27.467327  8697 net.cpp:434] inception_5b/pool <- inception_5a/output_inception_5a/output_0_split_3
I1128 08:06:27.467331  8697 net.cpp:408] inception_5b/pool -> inception_5b/pool
I1128 08:06:27.467361  8697 net.cpp:150] Setting up inception_5b/pool
I1128 08:06:27.467366  8697 net.cpp:157] Top shape: 50 832 7 7 (2038400)
I1128 08:06:27.467370  8697 net.cpp:165] Memory required for data: 2792878824
I1128 08:06:27.467370  8697 layer_factory.hpp:77] Creating layer inception_5b/pool_proj
I1128 08:06:27.467377  8697 net.cpp:100] Creating Layer inception_5b/pool_proj
I1128 08:06:27.467381  8697 net.cpp:434] inception_5b/pool_proj <- inception_5b/pool
I1128 08:06:27.467386  8697 net.cpp:408] inception_5b/pool_proj -> inception_5b/pool_proj
I1128 08:06:27.468477  8697 net.cpp:150] Setting up inception_5b/pool_proj
I1128 08:06:27.468487  8697 net.cpp:157] Top shape: 50 128 7 7 (313600)
I1128 08:06:27.468489  8697 net.cpp:165] Memory required for data: 2794133224
I1128 08:06:27.468493  8697 layer_factory.hpp:77] Creating layer inception_5b/relu_pool_proj
I1128 08:06:27.468497  8697 net.cpp:100] Creating Layer inception_5b/relu_pool_proj
I1128 08:06:27.468509  8697 net.cpp:434] inception_5b/relu_pool_proj <- inception_5b/pool_proj
I1128 08:06:27.468513  8697 net.cpp:395] inception_5b/relu_pool_proj -> inception_5b/pool_proj (in-place)
I1128 08:06:27.468518  8697 net.cpp:150] Setting up inception_5b/relu_pool_proj
I1128 08:06:27.468520  8697 net.cpp:157] Top shape: 50 128 7 7 (313600)
I1128 08:06:27.468523  8697 net.cpp:165] Memory required for data: 2795387624
I1128 08:06:27.468523  8697 layer_factory.hpp:77] Creating layer inception_5b/output
I1128 08:06:27.468528  8697 net.cpp:100] Creating Layer inception_5b/output
I1128 08:06:27.468531  8697 net.cpp:434] inception_5b/output <- inception_5b/1x1
I1128 08:06:27.468533  8697 net.cpp:434] inception_5b/output <- inception_5b/3x3
I1128 08:06:27.468535  8697 net.cpp:434] inception_5b/output <- inception_5b/5x5
I1128 08:06:27.468538  8697 net.cpp:434] inception_5b/output <- inception_5b/pool_proj
I1128 08:06:27.468541  8697 net.cpp:408] inception_5b/output -> inception_5b/output
I1128 08:06:27.468569  8697 net.cpp:150] Setting up inception_5b/output
I1128 08:06:27.468574  8697 net.cpp:157] Top shape: 50 1024 7 7 (2508800)
I1128 08:06:27.468575  8697 net.cpp:165] Memory required for data: 2805422824
I1128 08:06:27.468576  8697 layer_factory.hpp:77] Creating layer pool5/7x7_s1
I1128 08:06:27.468580  8697 net.cpp:100] Creating Layer pool5/7x7_s1
I1128 08:06:27.468582  8697 net.cpp:434] pool5/7x7_s1 <- inception_5b/output
I1128 08:06:27.468587  8697 net.cpp:408] pool5/7x7_s1 -> pool5/7x7_s1
I1128 08:06:27.468605  8697 net.cpp:150] Setting up pool5/7x7_s1
I1128 08:06:27.468610  8697 net.cpp:157] Top shape: 50 1024 1 1 (51200)
I1128 08:06:27.468611  8697 net.cpp:165] Memory required for data: 2805627624
I1128 08:06:27.468612  8697 layer_factory.hpp:77] Creating layer pool5/drop_7x7_s1
I1128 08:06:27.468616  8697 net.cpp:100] Creating Layer pool5/drop_7x7_s1
I1128 08:06:27.468618  8697 net.cpp:434] pool5/drop_7x7_s1 <- pool5/7x7_s1
I1128 08:06:27.468621  8697 net.cpp:395] pool5/drop_7x7_s1 -> pool5/7x7_s1 (in-place)
I1128 08:06:27.468638  8697 net.cpp:150] Setting up pool5/drop_7x7_s1
I1128 08:06:27.468643  8697 net.cpp:157] Top shape: 50 1024 1 1 (51200)
I1128 08:06:27.468644  8697 net.cpp:165] Memory required for data: 2805832424
I1128 08:06:27.468647  8697 layer_factory.hpp:77] Creating layer loss3/classifier
I1128 08:06:27.468652  8697 net.cpp:100] Creating Layer loss3/classifier
I1128 08:06:27.468654  8697 net.cpp:434] loss3/classifier <- pool5/7x7_s1
I1128 08:06:27.468659  8697 net.cpp:408] loss3/classifier -> loss3/classifier
I1128 08:06:27.468799  8697 net.cpp:150] Setting up loss3/classifier
I1128 08:06:27.468804  8697 net.cpp:157] Top shape: 50 10 (500)
I1128 08:06:27.468806  8697 net.cpp:165] Memory required for data: 2805834424
I1128 08:06:27.468811  8697 layer_factory.hpp:77] Creating layer loss3/classifier_loss3/classifier_0_split
I1128 08:06:27.468816  8697 net.cpp:100] Creating Layer loss3/classifier_loss3/classifier_0_split
I1128 08:06:27.468818  8697 net.cpp:434] loss3/classifier_loss3/classifier_0_split <- loss3/classifier
I1128 08:06:27.468822  8697 net.cpp:408] loss3/classifier_loss3/classifier_0_split -> loss3/classifier_loss3/classifier_0_split_0
I1128 08:06:27.468827  8697 net.cpp:408] loss3/classifier_loss3/classifier_0_split -> loss3/classifier_loss3/classifier_0_split_1
I1128 08:06:27.468830  8697 net.cpp:408] loss3/classifier_loss3/classifier_0_split -> loss3/classifier_loss3/classifier_0_split_2
I1128 08:06:27.468868  8697 net.cpp:150] Setting up loss3/classifier_loss3/classifier_0_split
I1128 08:06:27.468873  8697 net.cpp:157] Top shape: 50 10 (500)
I1128 08:06:27.468874  8697 net.cpp:157] Top shape: 50 10 (500)
I1128 08:06:27.468876  8697 net.cpp:157] Top shape: 50 10 (500)
I1128 08:06:27.468878  8697 net.cpp:165] Memory required for data: 2805840424
I1128 08:06:27.468880  8697 layer_factory.hpp:77] Creating layer loss3/loss3
I1128 08:06:27.468884  8697 net.cpp:100] Creating Layer loss3/loss3
I1128 08:06:27.468886  8697 net.cpp:434] loss3/loss3 <- loss3/classifier_loss3/classifier_0_split_0
I1128 08:06:27.468896  8697 net.cpp:434] loss3/loss3 <- label_data_1_split_6
…
