…
I1206 00:28:01.885221  6164 net.cpp:322] The NetState phase (0) differed from the phase (1) specified by a rule in layer loss3/top-5
I1206 00:28:01.885967  6164 net.cpp:58] Initializing net from parameters: 
name: "GoogleNet"
state {
  phase: TRAIN
  level: 0
  stage: ""
}
layer {
  name: "data"
  type: "Data"
  top: "data"
  top: "label"
  include {
    phase: TRAIN
  }
  transform_param {
    mirror: true
    crop_size: 224
    mean_file: "/home/juran/distracteddriver/input/mean.binaryproto"
  }
  data_param {
    source: "/home/juran/distracteddriver/input/train_lmdb"
    batch_size: 16
    backend: LMDB
  }
}
layer {
  name: "conv1/7x7_s2"
  type: "Convolution"
  bottom: "data"
  top: "conv1/7x7_s2"
  param {
    lr_mult: 1
    decay_mult: 1
  }
  param {
    lr_mult: 2
    decay_mult: 0
  }
  convolution_param {
    num_output: 64
    pad: 3
    kernel_size: 7
    stride: 2
    weight_filler {
      type: "xavier"
    }
    bias_filler {
      type: "constant"
      value: 0.2
    }
  }
}
layer {
  name: "conv1/relu_7x7"
  type: "ReLU"
  bottom: "conv1/7x7_s2"
  top: "conv1/7x7_s2"
}
layer {
  name: "pool1/3x3_s2"
  type: "Pooling"
  bottom: "conv1/7x7_s2"
  top: "pool1/3x3_s2"
  pooling_param {
    pool: MAX
    kernel_size: 3
    stride: 2
  }
}
layer {
  name: "pool1/norm1"
  type: "LRN"
  bottom: "pool1/3x3_s2"
  top: "pool1/norm1"
  lrn_param {
    local_size: 5
    alpha: 0.0001
    beta: 0.75
  }
}
layer {
  name: "conv2/3x3_reduce"
  type: "Convolution"
  bottom: "pool1/norm1"
  top: "conv2/3x3_reduce"
  param {
    lr_mult: 1
    decay_mult: 1
  }
  param {
    lr_mult: 2
    decay_mult: 0
  }
  convolution_param {
    num_output: 64
    kernel_size: 1
    weight_filler {
      type: "xavier"
    }
    bias_filler {
      type: "constant"
      value: 0.2
    }
  }
}
layer {
  name: "conv2/relu_3x3_reduce"
  type: "ReLU"
  bottom: "conv2/3x3_reduce"
  top: "conv2/3x3_reduce"
}
layer {
  name: "conv2/3x3"
  type: "Convolution"
  bottom: "conv2/3x3_reduce"
  top: "conv2/3x3"
  param {
    lr_mult: 1
    decay_mult: 1
  }
  param {
    lr_mult: 2
    decay_mult: 0
  }
  convolution_param {
    num_output: 192
    pad: 1
    kernel_size: 3
    weight_filler {
      type: "xavier"
    }
    bias_filler {
      type: "constant"
      value: 0.2
    }
  }
}
layer {
  name: "conv2/relu_3x3"
  type: "ReLU"
  bottom: "conv2/3x3"
  top: "conv2/3x3"
}
layer {
  name: "conv2/norm2"
  type: "LRN"
  bottom: "conv2/3x3"
  top: "conv2/norm2"
  lrn_param {
    local_size: 5
    alpha: 0.0001
    beta: 0.75
  }
}
layer {
  name: "pool2/3x3_s2"
  type: "Pooling"
  bottom: "conv2/norm2"
  top: "pool2/3x3_s2"
  pooling_param {
    pool: MAX
    kernel_size: 3
    stride: 2
  }
}
layer {
  name: "inception_3a/1x1"
  type: "Convolution"
  bottom: "pool2/3x3_s2"
  top: "inception_3a/1x1"
  param {
    lr_mult: 1
    decay_mult: 1
  }
  param {
    lr_mult: 2
    decay_mult: 0
  }
  convolution_param {
    num_output: 64
    kernel_size: 1
    weight_filler {
      type: "xavier"
    }
    bias_filler {
      type: "constant"
      value: 0.2
    }
  }
}
layer {
  name: "inception_3a/relu_1x1"
  type: "ReLU"
  bottom: "inception_3a/1x1"
  top: "inception_3a/1x1"
}
layer {
  name: "inception_3a/3x3_reduce"
  type: "Convolution"
  bottom: "pool2/3x3_s2"
  top: "inception_3a/3x3_reduce"
  param {
    lr_mult: 1
    decay_mult: 1
  }
  param {
    lr_mult: 2
    decay_mult: 0
  }
  convolution_param {
    num_output: 96
    kernel_size: 1
    weight_filler {
      type: "xavier"
    }
    bias_filler {
      type: "constant"
      value: 0.2
    }
  }
}
layer {
  name: "inception_3a/relu_3x3_reduce"
  type: "ReLU"
  bottom: "inception_3a/3x3_reduce"
  top: "inception_3a/3x3_reduce"
}
layer {
  name: "inception_3a/3x3"
  type: "Convolution"
  bottom: "inception_3a/3x3_reduce"
  top: "inception_3a/3x3"
  param {
    lr_mult: 1
    decay_mult: 1
  }
  param {
    lr_mult: 2
    decay_mult: 0
  }
  convolution_param {
    num_output: 128
    pad: 1
    kernel_size: 3
    weight_filler {
      type: "xavier"
    }
    bias_filler {
      type: "constant"
      value: 0.2
    }
  }
}
layer {
  name: "inception_3a/relu_3x3"
  type: "ReLU"
  bottom: "inception_3a/3x3"
  top: "inception_3a/3x3"
}
layer {
  name: "inception_3a/5x5_reduce"
  type: "Convolution"
  bottom: "pool2/3x3_s2"
  top: "inception_3a/5x5_reduce"
  param {
    lr_mult: 1
    decay_mult: 1
  }
  param {
    lr_mult: 2
    decay_mult: 0
  }
  convolution_param {
    num_output: 16
    kernel_size: 1
    weight_filler {
      type: "xavier"
    }
    bias_filler {
      type: "constant"
      value: 0.2
    }
  }
}
layer {
  name: "inception_3a/relu_5x5_reduce"
  type: "ReLU"
  bottom: "inception_3a/5x5_reduce"
  top: "inception_3a/5x5_reduce"
}
layer {
  name: "inception_3a/5x5"
  type: "Convolution"
  bottom: "inception_3a/5x5_reduce"
  top: "inception_3a/5x5"
  param {
    lr_mult: 1
    decay_mult: 1
  }
  param {
    lr_mult: 2
    decay_mult: 0
  }
  convolution_param {
    num_output: 32
    pad: 2
    kernel_size: 5
    weight_filler {
      type: "xavier"
    }
    bias_filler {
      type: "constant"
      value: 0.2
    }
  }
}
layer {
  name: "inception_3a/relu_5x5"
  type: "ReLU"
  bottom: "inception_3a/5x5"
  top: "inception_3a/5x5"
}
layer {
  name: "inception_3a/pool"
  type: "Pooling"
  bottom: "pool2/3x3_s2"
  top: "inception_3a/pool"
  pooling_param {
    pool: MAX
    kernel_size: 3
    stride: 1
    pad: 1
  }
}
layer {
  name: "inception_3a/pool_proj"
  type: "Convolution"
  bottom: "inception_3a/pool"
  top: "inception_3a/pool_proj"
  param {
    lr_mult: 1
    decay_mult: 1
  }
  param {
    lr_mult: 2
    decay_mult: 0
  }
  convolution_param {
    num_output: 32
    kernel_size: 1
    weight_filler {
      type: "xavier"
    }
    bias_filler {
      type: "constant"
      value: 0.2
    }
  }
}
layer {
  name: "inception_3a/relu_pool_proj"
  type: "ReLU"
  bottom: "inception_3a/pool_proj"
  top: "inception_3a/pool_proj"
}
layer {
  name: "inception_3a/output"
  type: "Concat"
  bottom: "inception_3a/1x1"
  bottom: "inception_3a/3x3"
  bottom: "inception_3a/5x5"
  bottom: "inception_3a/pool_proj"
  top: "inception_3a/output"
}
layer {
  name: "inception_3b/1x1"
  type: "Convolution"
  bottom: "inception_3a/output"
  top: "inception_3b/1x1"
  param {
    lr_mult: 1
    decay_mult: 1
  }
  param {
    lr_mult: 2
    decay_mult: 0
  }
  convolution_param {
    num_output: 128
    kernel_size: 1
    weight_filler {
      type: "xavier"
    }
    bias_filler {
      type: "constant"
      value: 0.2
    }
  }
}
layer {
  name: "inception_3b/relu_1x1"
  type: "ReLU"
  bottom: "inception_3b/1x1"
  top: "inception_3b/1x1"
}
layer {
  name: "inception_3b/3x3_reduce"
  type: "Convolution"
  bottom: "inception_3a/output"
  top: "inception_3b/3x3_reduce"
  param {
    lr_mult: 1
    decay_mult: 1
  }
  param {
    lr_mult: 2
    decay_mult: 0
  }
  convolution_param {
    num_output: 128
    kernel_size: 1
    weight_filler {
      type: "xavier"
    }
    bias_filler {
      type: "constant"
      value: 0.2
    }
  }
}
layer {
  name: "inception_3b/relu_3x3_reduce"
  type: "ReLU"
  bottom: "inception_3b/3x3_reduce"
  top: "inception_3b/3x3_reduce"
}
layer {
  name: "inception_3b/3x3"
  type: "Convolution"
  bottom: "inception_3b/3x3_reduce"
  top: "inception_3b/3x3"
  param {
    lr_mult: 1
    decay_mult: 1
  }
  param {
    lr_mult: 2
    decay_mult: 0
  }
  convolution_param {
    num_output: 192
    pad: 1
    kernel_size: 3
    weight_filler {
      type: "xavier"
    }
    bias_filler {
      type: "constant"
      value: 0.2
    }
  }
}
layer {
  name: "inception_3b/relu_3x3"
  type: "ReLU"
  bottom: "inception_3b/3x3"
  top: "inception_3b/3x3"
}
layer {
  name: "inception_3b/5x5_reduce"
  type: "Convolution"
  bottom: "inception_3a/output"
  top: "inception_3b/5x5_reduce"
  param {
    lr_mult: 1
    decay_mult: 1
  }
  param {
    lr_mult: 2
    decay_mult: 0
  }
  convolution_param {
    num_output: 32
    kernel_size: 1
    weight_filler {
      type: "xavier"
    }
    bias_filler {
      type: "constant"
      value: 0.2
    }
  }
}
layer {
  name: "inception_3b/relu_5x5_reduce"
  type: "ReLU"
  bottom: "inception_3b/5x5_reduce"
  top: "inception_3b/5x5_reduce"
}
layer {
  name: "inception_3b/5x5"
  type: "Convolution"
  bottom: "inception_3b/5x5_reduce"
  top: "inception_3b/5x5"
  param {
    lr_mult: 1
    decay_mult: 1
  }
  param {
    lr_mult: 2
    decay_mult: 0
  }
  convolution_param {
    num_output: 96
    pad: 2
    kernel_size: 5
    weight_filler {
      type: "xavier"
    }
    bias_filler {
      type: "constant"
      value: 0.2
    }
  }
}
layer {
  name: "inception_3b/relu_5x5"
  type: "ReLU"
  bottom: "inception_3b/5x5"
  top: "inception_3b/5x5"
}
layer {
  name: "inception_3b/pool"
  type: "Pooling"
  bottom: "inception_3a/output"
  top: "inception_3b/pool"
  pooling_param {
    pool: MAX
    kernel_size: 3
    stride: 1
    pad: 1
  }
}
layer {
  name: "inception_3b/pool_proj"
  type: "Convolution"
  bottom: "inception_3b/pool"
  top: "inception_3b/pool_proj"
  param {
    lr_mult: 1
    decay_mult: 1
  }
  param {
    lr_mult: 2
    decay_mult: 0
  }
  convolution_param {
    num_output: 64
    kernel_size: 1
    weight_filler {
      type: "xavier"
    }
    bias_filler {
      type: "constant"
      value: 0.2
    }
  }
}
layer {
  name: "inception_3b/relu_pool_proj"
  type: "ReLU"
  bottom: "inception_3b/pool_proj"
  top: "inception_3b/pool_proj"
}
layer {
  name: "inception_3b/output"
  type: "Concat"
  bottom: "inception_3b/1x1"
  bottom: "inception_3b/3x3"
  bottom: "inception_3b/5x5"
  bottom: "inception_3b/pool_proj"
  top: "inception_3b/output"
}
layer {
  name: "pool3/3x3_s2"
  type: "Pooling"
  bottom: "inception_3b/output"
  top: "pool3/3x3_s2"
  pooling_param {
    pool: MAX
    kernel_size: 3
    stride: 2
  }
}
layer {
  name: "inception_4a/1x1"
  type: "Convolution"
  bottom: "pool3/3x3_s2"
  top: "inception_4a/1x1"
  param {
    lr_mult: 1
    decay_mult: 1
  }
  param {
    lr_mult: 2
    decay_mult: 0
  }
  convolution_param {
    num_output: 192
    kernel_size: 1
    weight_filler {
      type: "xavier"
    }
    bias_filler {
      type: "constant"
      value: 0.2
    }
  }
}
layer {
  name: "inception_4a/relu_1x1"
  type: "ReLU"
  bottom: "inception_4a/1x1"
  top: "inception_4a/1x1"
}
layer {
  name: "inception_4a/3x3_reduce"
  type: "Convolution"
  bottom: "pool3/3x3_s2"
  top: "inception_4a/3x3_reduce"
  param {
    lr_mult: 1
    decay_mult: 1
  }
  param {
    lr_mult: 2
    decay_mult: 0
  }
  convolution_param {
    num_output: 96
    kernel_size: 1
    weight_filler {
      type: "xavier"
    }
    bias_filler {
      type: "constant"
      value: 0.2
    }
  }
}
layer {
  name: "inception_4a/relu_3x3_reduce"
  type: "ReLU"
  bottom: "inception_4a/3x3_reduce"
  top: "inception_4a/3x3_reduce"
}
layer {
  name: "inception_4a/3x3"
  type: "Convolution"
  bottom: "inception_4a/3x3_reduce"
  top: "inception_4a/3x3"
  param {
    lr_mult: 1
    decay_mult: 1
  }
  param {
    lr_mult: 2
    decay_mult: 0
  }
  convolution_param {
    num_output: 208
    pad: 1
    kernel_size: 3
    weight_filler {
      type: "xavier"
    }
    bias_filler {
      type: "constant"
      value: 0.2
    }
  }
}
layer {
  name: "inception_4a/relu_3x3"
  type: "ReLU"
  bottom: "inception_4a/3x3"
  top: "inception_4a/3x3"
}
layer {
  name: "inception_4a/5x5_reduce"
  type: "Convolution"
  bottom: "pool3/3x3_s2"
  top: "inception_4a/5x5_reduce"
  param {
    lr_mult: 1
    decay_mult: 1
  }
  param {
    lr_mult: 2
    decay_mult: 0
  }
  convolution_param {
    num_output: 16
    kernel_size: 1
    weight_filler {
      type: "xavier"
    }
    bias_filler {
      type: "constant"
      value: 0.2
    }
  }
}
layer {
  name: "inception_4a/relu_5x5_reduce"
  type: "ReLU"
  bottom: "inception_4a/5x5_reduce"
  top: "inception_4a/5x5_reduce"
}
layer {
  name: "inception_4a/5x5"
  type: "Convolution"
  bottom: "inception_4a/5x5_reduce"
  top: "inception_4a/5x5"
  param {
    lr_mult: 1
    decay_mult: 1
  }
  param {
    lr_mult: 2
    decay_mult: 0
  }
  convolution_param {
    num_output: 48
    pad: 2
    kernel_size: 5
    weight_filler {
      type: "xavier"
    }
    bias_filler {
      type: "constant"
      value: 0.2
    }
  }
}
layer {
  name: "inception_4a/relu_5x5"
  type: "ReLU"
  bottom: "inception_4a/5x5"
  top: "inception_4a/5x5"
}
layer {
  name: "inception_4a/pool"
  type: "Pooling"
  bottom: "pool3/3x3_s2"
  top: "inception_4a/pool"
  pooling_param {
    pool: MAX
    kernel_size: 3
    stride: 1
    pad: 1
  }
}
layer {
  name: "inception_4a/pool_proj"
  type: "Convolution"
  bottom: "inception_4a/pool"
  top: "inception_4a/pool_proj"
  param {
    lr_mult: 1
    decay_mult: 1
  }
  param {
    lr_mult: 2
    decay_mult: 0
  }
  convolution_param {
    num_output: 64
    kernel_size: 1
    weight_filler {
      type: "xavier"
    }
    bias_filler {
      type: "constant"
      value: 0.2
    }
  }
}
layer {
  name: "inception_4a/relu_pool_proj"
  type: "ReLU"
  bottom: "inception_4a/pool_proj"
  top: "inception_4a/pool_proj"
}
layer {
  name: "inception_4a/output"
  type: "Concat"
  bottom: "inception_4a/1x1"
  bottom: "inception_4a/3x3"
  bottom: "inception_4a/5x5"
  bottom: "inception_4a/pool_proj"
  top: "inception_4a/output"
}
layer {
  name: "loss1/ave_pool"
  type: "Pooling"
  bottom: "inception_4a/output"
  top: "loss1/ave_pool"
  pooling_param {
    pool: AVE
    kernel_size: 5
    stride: 3
  }
}
layer {
  name: "loss1/conv"
  type: "Convolution"
  bottom: "loss1/ave_pool"
  top: "loss1/conv"
  param {
    lr_mult: 1
    decay_mult: 1
  }
  param {
    lr_mult: 2
    decay_mult: 0
  }
  convolution_param {
    num_output: 128
    kernel_size: 1
    weight_filler {
      type: "xavier"
    }
    bias_filler {
      type: "constant"
      value: 0.2
    }
  }
}
layer {
  name: "loss1/relu_conv"
  type: "ReLU"
  bottom: "loss1/conv"
  top: "loss1/conv"
}
layer {
  name: "loss1/fc"
  type: "InnerProduct"
  bottom: "loss1/conv"
  top: "loss1/fc"
  param {
    lr_mult: 1
    decay_mult: 1
  }
  param {
    lr_mult: 2
    decay_mult: 0
  }
  inner_product_param {
    num_output: 1024
    weight_filler {
      type: "xavier"
    }
    bias_filler {
      type: "constant"
      value: 0.2
    }
  }
}
layer {
  name: "loss1/relu_fc"
  type: "ReLU"
  bottom: "loss1/fc"
  top: "loss1/fc"
}
layer {
  name: "loss1/drop_fc"
  type: "Dropout"
  bottom: "loss1/fc"
  top: "loss1/fc"
  dropout_param {
    dropout_ratio: 0.7
  }
}
layer {
  name: "loss1/classifier"
  type: "InnerProduct"
  bottom: "loss1/fc"
  top: "loss1/classifier"
  param {
    lr_mult: 1
    decay_mult: 1
  }
  param {
    lr_mult: 2
    decay_mult: 0
  }
  inner_product_param {
    num_output: 1000
    weight_filler {
      type: "xavier"
    }
    bias_filler {
      type: "constant"
      value: 0
    }
  }
}
layer {
  name: "loss1/loss"
  type: "SoftmaxWithLoss"
  bottom: "loss1/classifier"
  bottom: "label"
  top: "loss1/loss1"
  loss_weight: 0.3
}
layer {
  name: "inception_4b/1x1"
  type: "Convolution"
  bottom: "inception_4a/output"
  top: "inception_4b/1x1"
  param {
    lr_mult: 1
    decay_mult: 1
  }
  param {
    lr_mult: 2
    decay_mult: 0
  }
  convolution_param {
    num_output: 160
    kernel_size: 1
    weight_filler {
      type: "xavier"
    }
    bias_filler {
      type: "constant"
      value: 0.2
    }
  }
}
layer {
  name: "inception_4b/relu_1x1"
  type: "ReLU"
  bottom: "inception_4b/1x1"
  top: "inception_4b/1x1"
}
layer {
  name: "inception_4b/3x3_reduce"
  type: "Convolution"
  bottom: "inception_4a/output"
  top: "inception_4b/3x3_reduce"
  param {
    lr_mult: 1
    decay_mult: 1
  }
  param {
    lr_mult: 2
    decay_mult: 0
  }
  convolution_param {
    num_output: 112
    kernel_size: 1
    weight_filler {
      type: "xavier"
    }
    bias_filler {
      type: "constant"
      value: 0.2
    }
  }
}
layer {
  name: "inception_4b/relu_3x3_reduce"
  type: "ReLU"
  bottom: "inception_4b/3x3_reduce"
  top: "inception_4b/3x3_reduce"
}
layer {
  name: "inception_4b/3x3"
  type: "Convolution"
  bottom: "inception_4b/3x3_reduce"
  top: "inception_4b/3x3"
  param {
    lr_mult: 1
    decay_mult: 1
  }
  param {
    lr_mult: 2
    decay_mult: 0
  }
  convolution_param {
    num_output: 224
    pad: 1
    kernel_size: 3
    weight_filler {
      type: "xavier"
    }
    bias_filler {
      type: "constant"
      value: 0.2
    }
  }
}
layer {
  name: "inception_4b/relu_3x3"
  type: "ReLU"
  bottom: "inception_4b/3x3"
  top: "inception_4b/3x3"
}
layer {
  name: "inception_4b/5x5_reduce"
  type: "Convolution"
  bottom: "inception_4a/output"
  top: "inception_4b/5x5_reduce"
  param {
    lr_mult: 1
    decay_mult: 1
  }
  param {
    lr_mult: 2
    decay_mult: 0
  }
  convolution_param {
    num_output: 24
    kernel_size: 1
    weight_filler {
      type: "xavier"
    }
    bias_filler {
      type: "constant"
      value: 0.2
    }
  }
}
layer {
  name: "inception_4b/relu_5x5_reduce"
  type: "ReLU"
  bottom: "inception_4b/5x5_reduce"
  top: "inception_4b/5x5_reduce"
}
layer {
  name: "inception_4b/5x5"
  type: "Convolution"
  bottom: "inception_4b/5x5_reduce"
  top: "inception_4b/5x5"
  param {
    lr_mult: 1
    decay_mult: 1
  }
  param {
    lr_mult: 2
    decay_mult: 0
  }
  convolution_param {
    num_output: 64
    pad: 2
    kernel_size: 5
    weight_filler {
      type: "xavier"
    }
    bias_filler {
      type: "constant"
      value: 0.2
    }
  }
}
layer {
  name: "inception_4b/relu_5x5"
  type: "ReLU"
  bottom: "inception_4b/5x5"
  top: "inception_4b/5x5"
}
layer {
  name: "inception_4b/pool"
  type: "Pooling"
  bottom: "inception_4a/output"
  top: "inception_4b/pool"
  pooling_param {
    pool: MAX
    kernel_size: 3
    stride: 1
    pad: 1
  }
}
layer {
  name: "inception_4b/pool_proj"
  type: "Convolution"
  bottom: "inception_4b/pool"
  top: "inception_4b/pool_proj"
  param {
    lr_mult: 1
    decay_mult: 1
  }
  param {
    lr_mult: 2
    decay_mult: 0
  }
  convolution_param {
    num_output: 64
    kernel_size: 1
    weight_filler {
      type: "xavier"
    }
    bias_filler {
      type: "constant"
      value: 0.2
    }
  }
}
layer {
  name: "inception_4b/relu_pool_proj"
  type: "ReLU"
  bottom: "inception_4b/pool_proj"
  top: "inception_4b/pool_proj"
}
layer {
  name: "inception_4b/output"
  type: "Concat"
  bottom: "inception_4b/1x1"
  bottom: "inception_4b/3x3"
  bottom: "inception_4b/5x5"
  bottom: "inception_4b/pool_proj"
  top: "inception_4b/output"
}
layer {
  name: "inception_4c/1x1"
  type: "Convolution"
  bottom: "inception_4b/output"
  top: "inception_4c/1x1"
  param {
    lr_mult: 1
    decay_mult: 1
  }
  param {
    lr_mult: 2
    decay_mult: 0
  }
  convolution_param {
    num_output: 128
    kernel_size: 1
    weight_filler {
      type: "xavier"
    }
    bias_filler {
      type: "constant"
      value: 0.2
    }
  }
}
layer {
  name: "inception_4c/relu_1x1"
  type: "ReLU"
  bottom: "inception_4c/1x1"
  top: "inception_4c/1x1"
}
layer {
  name: "inception_4c/3x3_reduce"
  type: "Convolution"
  bottom: "inception_4b/output"
  top: "inception_4c/3x3_reduce"
  param {
    lr_mult: 1
    decay_mult: 1
  }
  param {
    lr_mult: 2
    decay_mult: 0
  }
  convolution_param {
    num_output: 128
    kernel_size: 1
    weight_filler {
      type: "xavier"
    }
    bias_filler {
      type: "constant"
      value: 0.2
    }
  }
}
layer {
  name: "inception_4c/relu_3x3_reduce"
  type: "ReLU"
  bottom: "inception_4c/3x3_reduce"
  top: "inception_4c/3x3_reduce"
}
layer {
  name: "inception_4c/3x3"
  type: "Convolution"
  bottom: "inception_4c/3x3_reduce"
  top: "inception_4c/3x3"
  param {
    lr_mult: 1
    decay_mult: 1
  }
  param {
    lr_mult: 2
    decay_mult: 0
  }
  convolution_param {
    num_output: 256
    pad: 1
    kernel_size: 3
    weight_filler {
      type: "xavier"
    }
    bias_filler {
      type: "constant"
      value: 0.2
    }
  }
}
layer {
  name: "inception_4c/relu_3x3"
  type: "ReLU"
  bottom: "inception_4c/3x3"
  top: "inception_4c/3x3"
}
layer {
  name: "inception_4c/5x5_reduce"
  type: "Convolution"
  bottom: "inception_4b/output"
  top: "inception_4c/5x5_reduce"
  param {
    lr_mult: 1
    decay_mult: 1
  }
  param {
    lr_mult: 2
    decay_mult: 0
  }
  convolution_param {
    num_output: 24
    kernel_size: 1
    weight_filler {
      type: "xavier"
    }
    bias_filler {
      type: "constant"
      value: 0.2
    }
  }
}
layer {
  name: "inception_4c/relu_5x5_reduce"
  type: "ReLU"
  bottom: "inception_4c/5x5_reduce"
  top: "inception_4c/5x5_reduce"
}
layer {
  name: "inception_4c/5x5"
  type: "Convolution"
  bottom: "inception_4c/5x5_reduce"
  top: "inception_4c/5x5"
  param {
    lr_mult: 1
    decay_mult: 1
  }
  param {
    lr_mult: 2
    decay_mult: 0
  }
  convolution_param {
    num_output: 64
    pad: 2
    kernel_size: 5
    weight_filler {
      type: "xavier"
    }
    bias_filler {
      type: "constant"
      value: 0.2
    }
  }
}
layer {
  name: "inception_4c/relu_5x5"
  type: "ReLU"
  bottom: "inception_4c/5x5"
  top: "inception_4c/5x5"
}
layer {
  name: "inception_4c/pool"
  type: "Pooling"
  bottom: "inception_4b/output"
  top: "inception_4c/pool"
  pooling_param {
    pool: MAX
    kernel_size: 3
    stride: 1
    pad: 1
  }
}
layer {
  name: "inception_4c/pool_proj"
  type: "Convolution"
  bottom: "inception_4c/pool"
  top: "inception_4c/pool_proj"
  param {
    lr_mult: 1
    decay_mult: 1
  }
  param {
    lr_mult: 2
    decay_mult: 0
  }
  convolution_param {
    num_output: 64
    kernel_size: 1
    weight_filler {
      type: "xavier"
    }
    bias_filler {
      type: "constant"
      value: 0.2
    }
  }
}
layer {
  name: "inception_4c/relu_pool_proj"
  type: "ReLU"
  bottom: "inception_4c/pool_proj"
  top: "inception_4c/pool_proj"
}
layer {
  name: "inception_4c/output"
  type: "Concat"
  bottom: "inception_4c/1x1"
  bottom: "inception_4c/3x3"
  bottom: "inception_4c/5x5"
  bottom: "inception_4c/pool_proj"
  top: "inception_4c/output"
}
layer {
  name: "inception_4d/1x1"
  type: "Convolution"
  bottom: "inception_4c/output"
  top: "inception_4d/1x1"
  param {
    lr_mult: 1
    decay_mult: 1
  }
  param {
    lr_mult: 2
    decay_mult: 0
  }
  convolution_param {
    num_output: 112
    kernel_size: 1
    weight_filler {
      type: "xavier"
    }
    bias_filler {
      type: "constant"
      value: 0.2
    }
  }
}
layer {
  name: "inception_4d/relu_1x1"
  type: "ReLU"
  bottom: "inception_4d/1x1"
  top: "inception_4d/1x1"
}
layer {
  name: "inception_4d/3x3_reduce"
  type: "Convolution"
  bottom: "inception_4c/output"
  top: "inception_4d/3x3_reduce"
  param {
    lr_mult: 1
    decay_mult: 1
  }
  param {
    lr_mult: 2
    decay_mult: 0
  }
  convolution_param {
    num_output: 144
    kernel_size: 1
    weight_filler {
      type: "xavier"
    }
    bias_filler {
      type: "constant"
      value: 0.2
    }
  }
}
layer {
  name: "inception_4d/relu_3x3_reduce"
  type: "ReLU"
  bottom: "inception_4d/3x3_reduce"
  top: "inception_4d/3x3_reduce"
}
layer {
  name: "inception_4d/3x3"
  type: "Convolution"
  bottom: "inception_4d/3x3_reduce"
  top: "inception_4d/3x3"
  param {
    lr_mult: 1
    decay_mult: 1
  }
  param {
    lr_mult: 2
    decay_mult: 0
  }
  convolution_param {
    num_output: 288
    pad: 1
    kernel_size: 3
    weight_filler {
      type: "xavier"
    }
    bias_filler {
      type: "constant"
      value: 0.2
    }
  }
}
layer {
  name: "inception_4d/relu_3x3"
  type: "ReLU"
  bottom: "inception_4d/3x3"
  top: "inception_4d/3x3"
}
layer {
  name: "inception_4d/5x5_reduce"
  type: "Convolution"
  bottom: "inception_4c/output"
  top: "inception_4d/5x5_reduce"
  param {
    lr_mult: 1
    decay_mult: 1
  }
  param {
    lr_mult: 2
    decay_mult: 0
  }
  convolution_param {
    num_output: 32
    kernel_size: 1
    weight_filler {
      type: "xavier"
    }
    bias_filler {
      type: "constant"
      value: 0.2
    }
  }
}
layer {
  name: "inception_4d/relu_5x5_reduce"
  type: "ReLU"
  bottom: "inception_4d/5x5_reduce"
  top: "inception_4d/5x5_reduce"
}
layer {
  name: "inception_4d/5x5"
  type: "Convolution"
  bottom: "inception_4d/5x5_reduce"
  top: "inception_4d/5x5"
  param {
    lr_mult: 1
    decay_mult: 1
  }
  param {
    lr_mult: 2
    decay_mult: 0
  }
  convolution_param {
    num_output: 64
    pad: 2
    kernel_size: 5
    weight_filler {
      type: "xavier"
    }
    bias_filler {
      type: "constant"
      value: 0.2
    }
  }
}
layer {
  name: "inception_4d/relu_5x5"
  type: "ReLU"
  bottom: "inception_4d/5x5"
  top: "inception_4d/5x5"
}
layer {
  name: "inception_4d/pool"
  type: "Pooling"
  bottom: "inception_4c/output"
  top: "inception_4d/pool"
  pooling_param {
    pool: MAX
    kernel_size: 3
    stride: 1
    pad: 1
  }
}
layer {
  name: "inception_4d/pool_proj"
  type: "Convolution"
  bottom: "inception_4d/pool"
  top: "inception_4d/pool_proj"
  param {
    lr_mult: 1
    decay_mult: 1
  }
  param {
    lr_mult: 2
    decay_mult: 0
  }
  convolution_param {
    num_output: 64
    kernel_size: 1
    weight_filler {
      type: "xavier"
    }
    bias_filler {
      type: "constant"
      value: 0.2
    }
  }
}
layer {
  name: "inception_4d/relu_pool_proj"
  type: "ReLU"
  bottom: "inception_4d/pool_proj"
  top: "inception_4d/pool_proj"
}
layer {
  name: "inception_4d/output"
  type: "Concat"
  bottom: "inception_4d/1x1"
  bottom: "inception_4d/3x3"
  bottom: "inception_4d/5x5"
  bottom: "inception_4d/pool_proj"
  top: "inception_4d/output"
}
layer {
  name: "loss2/ave_pool"
  type: "Pooling"
  bottom: "inception_4d/output"
  top: "loss2/ave_pool"
  pooling_param {
    pool: AVE
    kernel_size: 5
    stride: 3
  }
}
layer {
  name: "loss2/conv"
  type: "Convolution"
  bottom: "loss2/ave_pool"
  top: "loss2/conv"
  param {
    lr_mult: 1
    decay_mult: 1
  }
  param {
    lr_mult: 2
    decay_mult: 0
  }
  convolution_param {
    num_output: 128
    kernel_size: 1
    weight_filler {
      type: "xavier"
    }
    bias_filler {
      type: "constant"
      value: 0.2
    }
  }
}
layer {
  name: "loss2/relu_conv"
  type: "ReLU"
  bottom: "loss2/conv"
  top: "loss2/conv"
}
layer {
  name: "loss2/fc"
  type: "InnerProduct"
  bottom: "loss2/conv"
  top: "loss2/fc"
  param {
    lr_mult: 1
    decay_mult: 1
  }
  param {
    lr_mult: 2
    decay_mult: 0
  }
  inner_product_param {
    num_output: 1024
    weight_filler {
      type: "xavier"
    }
    bias_filler {
      type: "constant"
      value: 0.2
    }
  }
}
layer {
  name: "loss2/relu_fc"
  type: "ReLU"
  bottom: "loss2/fc"
  top: "loss2/fc"
}
layer {
  name: "loss2/drop_fc"
  type: "Dropout"
  bottom: "loss2/fc"
  top: "loss2/fc"
  dropout_param {
    dropout_ratio: 0.7
  }
}
layer {
  name: "loss2/classifier"
  type: "InnerProduct"
  bottom: "loss2/fc"
  top: "loss2/classifier"
  param {
    lr_mult: 1
    decay_mult: 1
  }
  param {
    lr_mult: 2
    decay_mult: 0
  }
  inner_product_param {
    num_output: 1000
    weight_filler {
      type: "xavier"
    }
    bias_filler {
      type: "constant"
      value: 0
    }
  }
}
layer {
  name: "loss2/loss"
  type: "SoftmaxWithLoss"
  bottom: "loss2/classifier"
  bottom: "label"
  top: "loss2/loss1"
  loss_weight: 0.3
}
layer {
  name: "inception_4e/1x1"
  type: "Convolution"
  bottom: "inception_4d/output"
  top: "inception_4e/1x1"
  param {
    lr_mult: 1
    decay_mult: 1
  }
  param {
    lr_mult: 2
    decay_mult: 0
  }
  convolution_param {
    num_output: 256
    kernel_size: 1
    weight_filler {
      type: "xavier"
    }
    bias_filler {
      type: "constant"
      value: 0.2
    }
  }
}
layer {
  name: "inception_4e/relu_1x1"
  type: "ReLU"
  bottom: "inception_4e/1x1"
  top: "inception_4e/1x1"
}
layer {
  name: "inception_4e/3x3_reduce"
  type: "Convolution"
  bottom: "inception_4d/output"
  top: "inception_4e/3x3_reduce"
  param {
    lr_mult: 1
    decay_mult: 1
  }
  param {
    lr_mult: 2
    decay_mult: 0
  }
  convolution_param {
    num_output: 160
    kernel_size: 1
    weight_filler {
      type: "xavier"
    }
    bias_filler {
      type: "constant"
      value: 0.2
    }
  }
}
layer {
  name: "inception_4e/relu_3x3_reduce"
  type: "ReLU"
  bottom: "inception_4e/3x3_reduce"
  top: "inception_4e/3x3_reduce"
}
layer {
  name: "inception_4e/3x3"
  type: "Convolution"
  bottom: "inception_4e/3x3_reduce"
  top: "inception_4e/3x3"
  param {
    lr_mult: 1
    decay_mult: 1
  }
  param {
    lr_mult: 2
    decay_mult: 0
  }
  convolution_param {
    num_output: 320
    pad: 1
    kernel_size: 3
    weight_filler {
      type: "xavier"
    }
    bias_filler {
      type: "constant"
      value: 0.2
    }
  }
}
layer {
  name: "inception_4e/relu_3x3"
  type: "ReLU"
  bottom: "inception_4e/3x3"
  top: "inception_4e/3x3"
}
layer {
  name: "inception_4e/5x5_reduce"
  type: "Convolution"
  bottom: "inception_4d/output"
  top: "inception_4e/5x5_reduce"
  param {
    lr_mult: 1
    decay_mult: 1
  }
  param {
    lr_mult: 2
    decay_mult: 0
  }
  convolution_param {
    num_output: 32
    kernel_size: 1
    weight_filler {
      type: "xavier"
    }
    bias_filler {
      type: "constant"
      value: 0.2
    }
  }
}
layer {
  name: "inception_4e/relu_5x5_reduce"
  type: "ReLU"
  bottom: "inception_4e/5x5_reduce"
  top: "inception_4e/5x5_reduce"
}
layer {
  name: "inception_4e/5x5"
  type: "Convolution"
  bottom: "inception_4e/5x5_reduce"
  top: "inception_4e/5x5"
  param {
    lr_mult: 1
    decay_mult: 1
  }
  param {
    lr_mult: 2
    decay_mult: 0
  }
  convolution_param {
    num_output: 128
    pad: 2
    kernel_size: 5
    weight_filler {
      type: "xavier"
    }
    bias_filler {
      type: "constant"
      value: 0.2
    }
  }
}
layer {
  name: "inception_4e/relu_5x5"
  type: "ReLU"
  bottom: "inception_4e/5x5"
  top: "inception_4e/5x5"
}
layer {
  name: "inception_4e/pool"
  type: "Pooling"
  bottom: "inception_4d/output"
  top: "inception_4e/pool"
  pooling_param {
    poo
I1206 00:28:01.886687  6164 layer_factory.hpp:77] Creating layer data
I1206 00:28:01.887063  6164 net.cpp:100] Creating Layer data
I1206 00:28:01.887071  6164 net.cpp:408] data -> data
I1206 00:28:01.887089  6164 net.cpp:408] data -> label
I1206 00:28:01.887104  6164 data_transformer.cpp:25] Loading mean file from: /home/juran/distracteddriver/input/mean.binaryproto
I1206 00:28:01.891350  6172 db_lmdb.cpp:35] Opened lmdb /home/juran/distracteddriver/input/train_lmdb
I1206 00:28:01.896518  6164 data_layer.cpp:41] output data size: 16,3,224,224
I1206 00:28:01.927971  6164 net.cpp:150] Setting up data
I1206 00:28:01.927996  6164 net.cpp:157] Top shape: 16 3 224 224 (2408448)
I1206 00:28:01.928000  6164 net.cpp:157] Top shape: 16 (16)
I1206 00:28:01.928002  6164 net.cpp:165] Memory required for data: 9633856
I1206 00:28:01.928015  6164 layer_factory.hpp:77] Creating layer label_data_1_split
I1206 00:28:01.928030  6164 net.cpp:100] Creating Layer label_data_1_split
I1206 00:28:01.928035  6164 net.cpp:434] label_data_1_split <- label
I1206 00:28:01.928047  6164 net.cpp:408] label_data_1_split -> label_data_1_split_0
I1206 00:28:01.928076  6164 net.cpp:408] label_data_1_split -> label_data_1_split_1
I1206 00:28:01.928081  6164 net.cpp:408] label_data_1_split -> label_data_1_split_2
I1206 00:28:01.928169  6164 net.cpp:150] Setting up label_data_1_split
I1206 00:28:01.928176  6164 net.cpp:157] Top shape: 16 (16)
I1206 00:28:01.928179  6164 net.cpp:157] Top shape: 16 (16)
I1206 00:28:01.928181  6164 net.cpp:157] Top shape: 16 (16)
I1206 00:28:01.928184  6164 net.cpp:165] Memory required for data: 9634048
I1206 00:28:01.928185  6164 layer_factory.hpp:77] Creating layer conv1/7x7_s2
I1206 00:28:01.928200  6164 net.cpp:100] Creating Layer conv1/7x7_s2
I1206 00:28:01.928205  6164 net.cpp:434] conv1/7x7_s2 <- data
I1206 00:28:01.928210  6164 net.cpp:408] conv1/7x7_s2 -> conv1/7x7_s2
I1206 00:28:01.928908  6164 net.cpp:150] Setting up conv1/7x7_s2
I1206 00:28:01.928920  6164 net.cpp:157] Top shape: 16 64 112 112 (12845056)
I1206 00:28:01.928922  6164 net.cpp:165] Memory required for data: 61014272
I1206 00:28:01.928941  6164 layer_factory.hpp:77] Creating layer conv1/relu_7x7
I1206 00:28:01.928948  6164 net.cpp:100] Creating Layer conv1/relu_7x7
I1206 00:28:01.928951  6164 net.cpp:434] conv1/relu_7x7 <- conv1/7x7_s2
I1206 00:28:01.928956  6164 net.cpp:395] conv1/relu_7x7 -> conv1/7x7_s2 (in-place)
I1206 00:28:01.928962  6164 net.cpp:150] Setting up conv1/relu_7x7
I1206 00:28:01.928966  6164 net.cpp:157] Top shape: 16 64 112 112 (12845056)
I1206 00:28:01.928968  6164 net.cpp:165] Memory required for data: 112394496
I1206 00:28:01.928972  6164 layer_factory.hpp:77] Creating layer pool1/3x3_s2
I1206 00:28:01.928978  6164 net.cpp:100] Creating Layer pool1/3x3_s2
I1206 00:28:01.928980  6164 net.cpp:434] pool1/3x3_s2 <- conv1/7x7_s2
I1206 00:28:01.928985  6164 net.cpp:408] pool1/3x3_s2 -> pool1/3x3_s2
I1206 00:28:01.929025  6164 net.cpp:150] Setting up pool1/3x3_s2
I1206 00:28:01.929031  6164 net.cpp:157] Top shape: 16 64 56 56 (3211264)
I1206 00:28:01.929033  6164 net.cpp:165] Memory required for data: 125239552
I1206 00:28:01.929035  6164 layer_factory.hpp:77] Creating layer pool1/norm1
I1206 00:28:01.929041  6164 net.cpp:100] Creating Layer pool1/norm1
I1206 00:28:01.929044  6164 net.cpp:434] pool1/norm1 <- pool1/3x3_s2
I1206 00:28:01.929047  6164 net.cpp:408] pool1/norm1 -> pool1/norm1
I1206 00:28:01.929071  6164 net.cpp:150] Setting up pool1/norm1
I1206 00:28:01.929077  6164 net.cpp:157] Top shape: 16 64 56 56 (3211264)
I1206 00:28:01.929078  6164 net.cpp:165] Memory required for data: 138084608
I1206 00:28:01.929081  6164 layer_factory.hpp:77] Creating layer conv2/3x3_reduce
I1206 00:28:01.929088  6164 net.cpp:100] Creating Layer conv2/3x3_reduce
I1206 00:28:01.929091  6164 net.cpp:434] conv2/3x3_reduce <- pool1/norm1
I1206 00:28:01.929095  6164 net.cpp:408] conv2/3x3_reduce -> conv2/3x3_reduce
I1206 00:28:01.929682  6164 net.cpp:150] Setting up conv2/3x3_reduce
I1206 00:28:01.929693  6164 net.cpp:157] Top shape: 16 64 56 56 (3211264)
I1206 00:28:01.929695  6164 net.cpp:165] Memory required for data: 150929664
I1206 00:28:01.929702  6164 layer_factory.hpp:77] Creating layer conv2/relu_3x3_reduce
I1206 00:28:01.929707  6164 net.cpp:100] Creating Layer conv2/relu_3x3_reduce
I1206 00:28:01.929708  6164 net.cpp:434] conv2/relu_3x3_reduce <- conv2/3x3_reduce
I1206 00:28:01.929713  6164 net.cpp:395] conv2/relu_3x3_reduce -> conv2/3x3_reduce (in-place)
I1206 00:28:01.929718  6164 net.cpp:150] Setting up conv2/relu_3x3_reduce
I1206 00:28:01.929719  6164 net.cpp:157] Top shape: 16 64 56 56 (3211264)
I1206 00:28:01.929721  6164 net.cpp:165] Memory required for data: 163774720
I1206 00:28:01.929723  6164 layer_factory.hpp:77] Creating layer conv2/3x3
I1206 00:28:01.929733  6164 net.cpp:100] Creating Layer conv2/3x3
I1206 00:28:01.929738  6164 net.cpp:434] conv2/3x3 <- conv2/3x3_reduce
I1206 00:28:01.929741  6164 net.cpp:408] conv2/3x3 -> conv2/3x3
I1206 00:28:01.935986  6164 net.cpp:150] Setting up conv2/3x3
I1206 00:28:01.935997  6164 net.cpp:157] Top shape: 16 192 56 56 (9633792)
I1206 00:28:01.935999  6164 net.cpp:165] Memory required for data: 202309888
I1206 00:28:01.936022  6164 layer_factory.hpp:77] Creating layer conv2/relu_3x3
I1206 00:28:01.936028  6164 net.cpp:100] Creating Layer conv2/relu_3x3
I1206 00:28:01.936030  6164 net.cpp:434] conv2/relu_3x3 <- conv2/3x3
I1206 00:28:01.936034  6164 net.cpp:395] conv2/relu_3x3 -> conv2/3x3 (in-place)
I1206 00:28:01.936040  6164 net.cpp:150] Setting up conv2/relu_3x3
I1206 00:28:01.936044  6164 net.cpp:157] Top shape: 16 192 56 56 (9633792)
I1206 00:28:01.936048  6164 net.cpp:165] Memory required for data: 240845056
I1206 00:28:01.936050  6164 layer_factory.hpp:77] Creating layer conv2/norm2
I1206 00:28:01.936054  6164 net.cpp:100] Creating Layer conv2/norm2
I1206 00:28:01.936056  6164 net.cpp:434] conv2/norm2 <- conv2/3x3
I1206 00:28:01.936060  6164 net.cpp:408] conv2/norm2 -> conv2/norm2
I1206 00:28:01.936092  6164 net.cpp:150] Setting up conv2/norm2
I1206 00:28:01.936098  6164 net.cpp:157] Top shape: 16 192 56 56 (9633792)
I1206 00:28:01.936100  6164 net.cpp:165] Memory required for data: 279380224
I1206 00:28:01.936102  6164 layer_factory.hpp:77] Creating layer pool2/3x3_s2
I1206 00:28:01.936106  6164 net.cpp:100] Creating Layer pool2/3x3_s2
I1206 00:28:01.936110  6164 net.cpp:434] pool2/3x3_s2 <- conv2/norm2
I1206 00:28:01.936115  6164 net.cpp:408] pool2/3x3_s2 -> pool2/3x3_s2
I1206 00:28:01.936139  6164 net.cpp:150] Setting up pool2/3x3_s2
I1206 00:28:01.936146  6164 net.cpp:157] Top shape: 16 192 28 28 (2408448)
I1206 00:28:01.936147  6164 net.cpp:165] Memory required for data: 289014016
I1206 00:28:01.936149  6164 layer_factory.hpp:77] Creating layer pool2/3x3_s2_pool2/3x3_s2_0_split
I1206 00:28:01.936153  6164 net.cpp:100] Creating Layer pool2/3x3_s2_pool2/3x3_s2_0_split
I1206 00:28:01.936156  6164 net.cpp:434] pool2/3x3_s2_pool2/3x3_s2_0_split <- pool2/3x3_s2
I1206 00:28:01.936161  6164 net.cpp:408] pool2/3x3_s2_pool2/3x3_s2_0_split -> pool2/3x3_s2_pool2/3x3_s2_0_split_0
I1206 00:28:01.936164  6164 net.cpp:408] pool2/3x3_s2_pool2/3x3_s2_0_split -> pool2/3x3_s2_pool2/3x3_s2_0_split_1
I1206 00:28:01.936170  6164 net.cpp:408] pool2/3x3_s2_pool2/3x3_s2_0_split -> pool2/3x3_s2_pool2/3x3_s2_0_split_2
I1206 00:28:01.936177  6164 net.cpp:408] pool2/3x3_s2_pool2/3x3_s2_0_split -> pool2/3x3_s2_pool2/3x3_s2_0_split_3
I1206 00:28:01.936213  6164 net.cpp:150] Setting up pool2/3x3_s2_pool2/3x3_s2_0_split
I1206 00:28:01.936218  6164 net.cpp:157] Top shape: 16 192 28 28 (2408448)
I1206 00:28:01.936220  6164 net.cpp:157] Top shape: 16 192 28 28 (2408448)
I1206 00:28:01.936223  6164 net.cpp:157] Top shape: 16 192 28 28 (2408448)
I1206 00:28:01.936225  6164 net.cpp:157] Top shape: 16 192 28 28 (2408448)
I1206 00:28:01.936228  6164 net.cpp:165] Memory required for data: 327549184
I1206 00:28:01.936229  6164 layer_factory.hpp:77] Creating layer inception_3a/1x1
I1206 00:28:01.936235  6164 net.cpp:100] Creating Layer inception_3a/1x1
I1206 00:28:01.936238  6164 net.cpp:434] inception_3a/1x1 <- pool2/3x3_s2_pool2/3x3_s2_0_split_0
I1206 00:28:01.936242  6164 net.cpp:408] inception_3a/1x1 -> inception_3a/1x1
I1206 00:28:01.936873  6164 net.cpp:150] Setting up inception_3a/1x1
I1206 00:28:01.936883  6164 net.cpp:157] Top shape: 16 64 28 28 (802816)
I1206 00:28:01.936887  6164 net.cpp:165] Memory required for data: 330760448
I1206 00:28:01.936892  6164 layer_factory.hpp:77] Creating layer inception_3a/relu_1x1
I1206 00:28:01.936898  6164 net.cpp:100] Creating Layer inception_3a/relu_1x1
I1206 00:28:01.936902  6164 net.cpp:434] inception_3a/relu_1x1 <- inception_3a/1x1
I1206 00:28:01.936906  6164 net.cpp:395] inception_3a/relu_1x1 -> inception_3a/1x1 (in-place)
I1206 00:28:01.936913  6164 net.cpp:150] Setting up inception_3a/relu_1x1
I1206 00:28:01.936916  6164 net.cpp:157] Top shape: 16 64 28 28 (802816)
I1206 00:28:01.936918  6164 net.cpp:165] Memory required for data: 333971712
I1206 00:28:01.936920  6164 layer_factory.hpp:77] Creating layer inception_3a/3x3_reduce
I1206 00:28:01.936928  6164 net.cpp:100] Creating Layer inception_3a/3x3_reduce
I1206 00:28:01.936930  6164 net.cpp:434] inception_3a/3x3_reduce <- pool2/3x3_s2_pool2/3x3_s2_0_split_1
I1206 00:28:01.936946  6164 net.cpp:408] inception_3a/3x3_reduce -> inception_3a/3x3_reduce
I1206 00:28:01.937608  6164 net.cpp:150] Setting up inception_3a/3x3_reduce
I1206 00:28:01.937619  6164 net.cpp:157] Top shape: 16 96 28 28 (1204224)
I1206 00:28:01.937621  6164 net.cpp:165] Memory required for data: 338788608
I1206 00:28:01.937628  6164 layer_factory.hpp:77] Creating layer inception_3a/relu_3x3_reduce
I1206 00:28:01.937636  6164 net.cpp:100] Creating Layer inception_3a/relu_3x3_reduce
I1206 00:28:01.937638  6164 net.cpp:434] inception_3a/relu_3x3_reduce <- inception_3a/3x3_reduce
I1206 00:28:01.937643  6164 net.cpp:395] inception_3a/relu_3x3_reduce -> inception_3a/3x3_reduce (in-place)
I1206 00:28:01.937647  6164 net.cpp:150] Setting up inception_3a/relu_3x3_reduce
I1206 00:28:01.937650  6164 net.cpp:157] Top shape: 16 96 28 28 (1204224)
I1206 00:28:01.937654  6164 net.cpp:165] Memory required for data: 343605504
I1206 00:28:01.937656  6164 layer_factory.hpp:77] Creating layer inception_3a/3x3
I1206 00:28:01.937666  6164 net.cpp:100] Creating Layer inception_3a/3x3
I1206 00:28:01.937669  6164 net.cpp:434] inception_3a/3x3 <- inception_3a/3x3_reduce
I1206 00:28:01.937675  6164 net.cpp:408] inception_3a/3x3 -> inception_3a/3x3
I1206 00:28:01.938704  6164 net.cpp:150] Setting up inception_3a/3x3
I1206 00:28:01.938716  6164 net.cpp:157] Top shape: 16 128 28 28 (1605632)
I1206 00:28:01.938719  6164 net.cpp:165] Memory required for data: 350028032
I1206 00:28:01.938724  6164 layer_factory.hpp:77] Creating layer inception_3a/relu_3x3
I1206 00:28:01.938730  6164 net.cpp:100] Creating Layer inception_3a/relu_3x3
I1206 00:28:01.938735  6164 net.cpp:434] inception_3a/relu_3x3 <- inception_3a/3x3
I1206 00:28:01.938738  6164 net.cpp:395] inception_3a/relu_3x3 -> inception_3a/3x3 (in-place)
I1206 00:28:01.938745  6164 net.cpp:150] Setting up inception_3a/relu_3x3
I1206 00:28:01.938750  6164 net.cpp:157] Top shape: 16 128 28 28 (1605632)
I1206 00:28:01.938751  6164 net.cpp:165] Memory required for data: 356450560
I1206 00:28:01.938753  6164 layer_factory.hpp:77] Creating layer inception_3a/5x5_reduce
I1206 00:28:01.938761  6164 net.cpp:100] Creating Layer inception_3a/5x5_reduce
I1206 00:28:01.938765  6164 net.cpp:434] inception_3a/5x5_reduce <- pool2/3x3_s2_pool2/3x3_s2_0_split_2
I1206 00:28:01.938769  6164 net.cpp:408] inception_3a/5x5_reduce -> inception_3a/5x5_reduce
I1206 00:28:01.938941  6164 net.cpp:150] Setting up inception_3a/5x5_reduce
I1206 00:28:01.938947  6164 net.cpp:157] Top shape: 16 16 28 28 (200704)
I1206 00:28:01.938949  6164 net.cpp:165] Memory required for data: 357253376
I1206 00:28:01.938953  6164 layer_factory.hpp:77] Creating layer inception_3a/relu_5x5_reduce
I1206 00:28:01.938958  6164 net.cpp:100] Creating Layer inception_3a/relu_5x5_reduce
I1206 00:28:01.938962  6164 net.cpp:434] inception_3a/relu_5x5_reduce <- inception_3a/5x5_reduce
I1206 00:28:01.938966  6164 net.cpp:395] inception_3a/relu_5x5_reduce -> inception_3a/5x5_reduce (in-place)
I1206 00:28:01.938972  6164 net.cpp:150] Setting up inception_3a/relu_5x5_reduce
I1206 00:28:01.938977  6164 net.cpp:157] Top shape: 16 16 28 28 (200704)
I1206 00:28:01.938978  6164 net.cpp:165] Memory required for data: 358056192
I1206 00:28:01.938980  6164 layer_factory.hpp:77] Creating layer inception_3a/5x5
I1206 00:28:01.938987  6164 net.cpp:100] Creating Layer inception_3a/5x5
I1206 00:28:01.938992  6164 net.cpp:434] inception_3a/5x5 <- inception_3a/5x5_reduce
I1206 00:28:01.938997  6164 net.cpp:408] inception_3a/5x5 -> inception_3a/5x5
I1206 00:28:01.939204  6164 net.cpp:150] Setting up inception_3a/5x5
I1206 00:28:01.939213  6164 net.cpp:157] Top shape: 16 32 28 28 (401408)
I1206 00:28:01.939215  6164 net.cpp:165] Memory required for data: 359661824
I1206 00:28:01.939219  6164 layer_factory.hpp:77] Creating layer inception_3a/relu_5x5
I1206 00:28:01.939224  6164 net.cpp:100] Creating Layer inception_3a/relu_5x5
I1206 00:28:01.939225  6164 net.cpp:434] inception_3a/relu_5x5 <- inception_3a/5x5
I1206 00:28:01.939229  6164 net.cpp:395] inception_3a/relu_5x5 -> inception_3a/5x5 (in-place)
I1206 00:28:01.939249  6164 net.cpp:150] Setting up inception_3a/relu_5x5
I1206 00:28:01.939254  6164 net.cpp:157] Top shape: 16 32 28 28 (401408)
I1206 00:28:01.939255  6164 net.cpp:165] Memory required for data: 361267456
I1206 00:28:01.939257  6164 layer_factory.hpp:77] Creating layer inception_3a/pool
I1206 00:28:01.939262  6164 net.cpp:100] Creating Layer inception_3a/pool
I1206 00:28:01.939265  6164 net.cpp:434] inception_3a/pool <- pool2/3x3_s2_pool2/3x3_s2_0_split_3
I1206 00:28:01.939270  6164 net.cpp:408] inception_3a/pool -> inception_3a/pool
I1206 00:28:01.939303  6164 net.cpp:150] Setting up inception_3a/pool
I1206 00:28:01.939309  6164 net.cpp:157] Top shape: 16 192 28 28 (2408448)
I1206 00:28:01.939311  6164 net.cpp:165] Memory required for data: 370901248
I1206 00:28:01.939312  6164 layer_factory.hpp:77] Creating layer inception_3a/pool_proj
I1206 00:28:01.939319  6164 net.cpp:100] Creating Layer inception_3a/pool_proj
I1206 00:28:01.939321  6164 net.cpp:434] inception_3a/pool_proj <- inception_3a/pool
I1206 00:28:01.939326  6164 net.cpp:408] inception_3a/pool_proj -> inception_3a/pool_proj
I1206 00:28:01.939496  6164 net.cpp:150] Setting up inception_3a/pool_proj
I1206 00:28:01.939502  6164 net.cpp:157] Top shape: 16 32 28 28 (401408)
I1206 00:28:01.939503  6164 net.cpp:165] Memory required for data: 372506880
I1206 00:28:01.939512  6164 layer_factory.hpp:77] Creating layer inception_3a/relu_pool_proj
I1206 00:28:01.939515  6164 net.cpp:100] Creating Layer inception_3a/relu_pool_proj
I1206 00:28:01.939517  6164 net.cpp:434] inception_3a/relu_pool_proj <- inception_3a/pool_proj
I1206 00:28:01.939522  6164 net.cpp:395] inception_3a/relu_pool_proj -> inception_3a/pool_proj (in-place)
I1206 00:28:01.939525  6164 net.cpp:150] Setting up inception_3a/relu_pool_proj
I1206 00:28:01.939529  6164 net.cpp:157] Top shape: 16 32 28 28 (401408)
I1206 00:28:01.939532  6164 net.cpp:165] Memory required for data: 374112512
I1206 00:28:01.939534  6164 layer_factory.hpp:77] Creating layer inception_3a/output
I1206 00:28:01.939538  6164 net.cpp:100] Creating Layer inception_3a/output
I1206 00:28:01.939540  6164 net.cpp:434] inception_3a/output <- inception_3a/1x1
I1206 00:28:01.939544  6164 net.cpp:434] inception_3a/output <- inception_3a/3x3
I1206 00:28:01.939548  6164 net.cpp:434] inception_3a/output <- inception_3a/5x5
I1206 00:28:01.939550  6164 net.cpp:434] inception_3a/output <- inception_3a/pool_proj
I1206 00:28:01.939554  6164 net.cpp:408] inception_3a/output -> inception_3a/output
I1206 00:28:01.939577  6164 net.cpp:150] Setting up inception_3a/output
I1206 00:28:01.939582  6164 net.cpp:157] Top shape: 16 256 28 28 (3211264)
I1206 00:28:01.939584  6164 net.cpp:165] Memory required for data: 386957568
I1206 00:28:01.939586  6164 layer_factory.hpp:77] Creating layer inception_3a/output_inception_3a/output_0_split
I1206 00:28:01.939591  6164 net.cpp:100] Creating Layer inception_3a/output_inception_3a/output_0_split
I1206 00:28:01.939594  6164 net.cpp:434] inception_3a/output_inception_3a/output_0_split <- inception_3a/output
I1206 00:28:01.939597  6164 net.cpp:408] inception_3a/output_inception_3a/output_0_split -> inception_3a/output_inception_3a/output_0_split_0
I1206 00:28:01.939602  6164 net.cpp:408] inception_3a/output_inception_3a/output_0_split -> inception_3a/output_inception_3a/output_0_split_1
I1206 00:28:01.939607  6164 net.cpp:408] inception_3a/output_inception_3a/output_0_split -> inception_3a/output_inception_3a/output_0_split_2
I1206 00:28:01.939612  6164 net.cpp:408] inception_3a/output_inception_3a/output_0_split -> inception_3a/output_inception_3a/output_0_split_3
I1206 00:28:01.939652  6164 net.cpp:150] Setting up inception_3a/output_inception_3a/output_0_split
I1206 00:28:01.939658  6164 net.cpp:157] Top shape: 16 256 28 28 (3211264)
I1206 00:28:01.939661  6164 net.cpp:157] Top shape: 16 256 28 28 (3211264)
I1206 00:28:01.939663  6164 net.cpp:157] Top shape: 16 256 28 28 (3211264)
I1206 00:28:01.939666  6164 net.cpp:157] Top shape: 16 256 28 28 (3211264)
I1206 00:28:01.939676  6164 net.cpp:165] Memory required for data: 438337792
I1206 00:28:01.939677  6164 layer_factory.hpp:77] Creating layer inception_3b/1x1
I1206 00:28:01.939684  6164 net.cpp:100] Creating Layer inception_3b/1x1
I1206 00:28:01.939687  6164 net.cpp:434] inception_3b/1x1 <- inception_3a/output_inception_3a/output_0_split_0
I1206 00:28:01.939692  6164 net.cpp:408] inception_3b/1x1 -> inception_3b/1x1
I1206 00:28:01.939980  6164 net.cpp:150] Setting up inception_3b/1x1
I1206 00:28:01.939987  6164 net.cpp:157] Top shape: 16 128 28 28 (1605632)
I1206 00:28:01.939990  6164 net.cpp:165] Memory required for data: 444760320
I1206 00:28:01.939995  6164 layer_factory.hpp:77] Creating layer inception_3b/relu_1x1
I1206 00:28:01.939998  6164 net.cpp:100] Creating Layer inception_3b/relu_1x1
I1206 00:28:01.940001  6164 net.cpp:434] inception_3b/relu_1x1 <- inception_3b/1x1
I1206 00:28:01.940004  6164 net.cpp:395] inception_3b/relu_1x1 -> inception_3b/1x1 (in-place)
I1206 00:28:01.940008  6164 net.cpp:150] Setting up inception_3b/relu_1x1
I1206 00:28:01.940011  6164 net.cpp:157] Top shape: 16 128 28 28 (1605632)
I1206 00:28:01.940013  6164 net.cpp:165] Memory required for data: 451182848
I1206 00:28:01.940017  6164 layer_factory.hpp:77] Creating layer inception_3b/3x3_reduce
I1206 00:28:01.940023  6164 net.cpp:100] Creating Layer inception_3b/3x3_reduce
I1206 00:28:01.940026  6164 net.cpp:434] inception_3b/3x3_reduce <- inception_3a/output_inception_3a/output_0_split_1
I1206 00:28:01.940031  6164 net.cpp:408] inception_3b/3x3_reduce -> inception_3b/3x3_reduce
I1206 00:28:01.940320  6164 net.cpp:150] Setting up inception_3b/3x3_reduce
I1206 00:28:01.940326  6164 net.cpp:157] Top shape: 16 128 28 28 (1605632)
I1206 00:28:01.940328  6164 net.cpp:165] Memory required for data: 457605376
I1206 00:28:01.940332  6164 layer_factory.hpp:77] Creating layer inception_3b/relu_3x3_reduce
I1206 00:28:01.940337  6164 net.cpp:100] Creating Layer inception_3b/relu_3x3_reduce
I1206 00:28:01.940341  6164 net.cpp:434] inception_3b/relu_3x3_reduce <- inception_3b/3x3_reduce
I1206 00:28:01.940346  6164 net.cpp:395] inception_3b/relu_3x3_reduce -> inception_3b/3x3_reduce (in-place)
I1206 00:28:01.940351  6164 net.cpp:150] Setting up inception_3b/relu_3x3_reduce
I1206 00:28:01.940356  6164 net.cpp:157] Top shape: 16 128 28 28 (1605632)
I1206 00:28:01.940357  6164 net.cpp:165] Memory required for data: 464027904
I1206 00:28:01.940359  6164 layer_factory.hpp:77] Creating layer inception_3b/3x3
I1206 00:28:01.940372  6164 net.cpp:100] Creating Layer inception_3b/3x3
I1206 00:28:01.940376  6164 net.cpp:434] inception_3b/3x3 <- inception_3b/3x3_reduce
I1206 00:28:01.940381  6164 net.cpp:408] inception_3b/3x3 -> inception_3b/3x3
I1206 00:28:01.941929  6164 net.cpp:150] Setting up inception_3b/3x3
I1206 00:28:01.941942  6164 net.cpp:157] Top shape: 16 192 28 28 (2408448)
I1206 00:28:01.941944  6164 net.cpp:165] Memory required for data: 473661696
I1206 00:28:01.941949  6164 layer_factory.hpp:77] Creating layer inception_3b/relu_3x3
I1206 00:28:01.941954  6164 net.cpp:100] Creating Layer inception_3b/relu_3x3
I1206 00:28:01.941957  6164 net.cpp:434] inception_3b/relu_3x3 <- inception_3b/3x3
I1206 00:28:01.941962  6164 net.cpp:395] inception_3b/relu_3x3 -> inception_3b/3x3 (in-place)
I1206 00:28:01.941967  6164 net.cpp:150] Setting up inception_3b/relu_3x3
I1206 00:28:01.941969  6164 net.cpp:157] Top shape: 16 192 28 28 (2408448)
I1206 00:28:01.941972  6164 net.cpp:165] Memory required for data: 483295488
I1206 00:28:01.941973  6164 layer_factory.hpp:77] Creating layer inception_3b/5x5_reduce
I1206 00:28:01.941980  6164 net.cpp:100] Creating Layer inception_3b/5x5_reduce
I1206 00:28:01.941984  6164 net.cpp:434] inception_3b/5x5_reduce <- inception_3a/output_inception_3a/output_0_split_2
I1206 00:28:01.941990  6164 net.cpp:408] inception_3b/5x5_reduce -> inception_3b/5x5_reduce
I1206 00:28:01.942193  6164 net.cpp:150] Setting up inception_3b/5x5_reduce
I1206 00:28:01.942200  6164 net.cpp:157] Top shape: 16 32 28 28 (401408)
I1206 00:28:01.942215  6164 net.cpp:165] Memory required for data: 484901120
I1206 00:28:01.942221  6164 layer_factory.hpp:77] Creating layer inception_3b/relu_5x5_reduce
I1206 00:28:01.942227  6164 net.cpp:100] Creating Layer inception_3b/relu_5x5_reduce
I1206 00:28:01.942230  6164 net.cpp:434] inception_3b/relu_5x5_reduce <- inception_3b/5x5_reduce
I1206 00:28:01.942234  6164 net.cpp:395] inception_3b/relu_5x5_reduce -> inception_3b/5x5_reduce (in-place)
I1206 00:28:01.942239  6164 net.cpp:150] Setting up inception_3b/relu_5x5_reduce
I1206 00:28:01.942245  6164 net.cpp:157] Top shape: 16 32 28 28 (401408)
I1206 00:28:01.942247  6164 net.cpp:165] Memory required for data: 486506752
I1206 00:28:01.942250  6164 layer_factory.hpp:77] Creating layer inception_3b/5x5
I1206 00:28:01.942256  6164 net.cpp:100] Creating Layer inception_3b/5x5
I1206 00:28:01.942260  6164 net.cpp:434] inception_3b/5x5 <- inception_3b/5x5_reduce
I1206 00:28:01.942266  6164 net.cpp:408] inception_3b/5x5 -> inception_3b/5x5
I1206 00:28:01.942772  6164 net.cpp:150] Setting up inception_3b/5x5
I1206 00:28:01.942782  6164 net.cpp:157] Top shape: 16 96 28 28 (1204224)
I1206 00:28:01.942785  6164 net.cpp:165] Memory required for data: 491323648
I1206 00:28:01.942788  6164 layer_factory.hpp:77] Creating layer inception_3b/relu_5x5
I1206 00:28:01.942792  6164 net.cpp:100] Creating Layer inception_3b/relu_5x5
I1206 00:28:01.942795  6164 net.cpp:434] inception_3b/relu_5x5 <- inception_3b/5x5
I1206 00:28:01.942800  6164 net.cpp:395] inception_3b/relu_5x5 -> inception_3b/5x5 (in-place)
I1206 00:28:01.942806  6164 net.cpp:150] Setting up inception_3b/relu_5x5
I1206 00:28:01.942808  6164 net.cpp:157] Top shape: 16 96 28 28 (1204224)
I1206 00:28:01.942811  6164 net.cpp:165] Memory required for data: 496140544
I1206 00:28:01.942814  6164 layer_factory.hpp:77] Creating layer inception_3b/pool
I1206 00:28:01.942819  6164 net.cpp:100] Creating Layer inception_3b/pool
I1206 00:28:01.942821  6164 net.cpp:434] inception_3b/pool <- inception_3a/output_inception_3a/output_0_split_3
I1206 00:28:01.942826  6164 net.cpp:408] inception_3b/pool -> inception_3b/pool
I1206 00:28:01.942857  6164 net.cpp:150] Setting up inception_3b/pool
I1206 00:28:01.942863  6164 net.cpp:157] Top shape: 16 256 28 28 (3211264)
I1206 00:28:01.942867  6164 net.cpp:165] Memory required for data: 508985600
I1206 00:28:01.942868  6164 layer_factory.hpp:77] Creating layer inception_3b/pool_proj
I1206 00:28:01.942875  6164 net.cpp:100] Creating Layer inception_3b/pool_proj
I1206 00:28:01.942878  6164 net.cpp:434] inception_3b/pool_proj <- inception_3b/pool
I1206 00:28:01.942883  6164 net.cpp:408] inception_3b/pool_proj -> inception_3b/pool_proj
I1206 00:28:01.943112  6164 net.cpp:150] Setting up inception_3b/pool_proj
I1206 00:28:01.943120  6164 net.cpp:157] Top shape: 16 64 28 28 (802816)
I1206 00:28:01.943121  6164 net.cpp:165] Memory required for data: 512196864
I1206 00:28:01.943126  6164 layer_factory.hpp:77] Creating layer inception_3b/relu_pool_proj
I1206 00:28:01.943130  6164 net.cpp:100] Creating Layer inception_3b/relu_pool_proj
I1206 00:28:01.943132  6164 net.cpp:434] inception_3b/relu_pool_proj <- inception_3b/pool_proj
I1206 00:28:01.943135  6164 net.cpp:395] inception_3b/relu_pool_proj -> inception_3b/pool_proj (in-place)
I1206 00:28:01.943140  6164 net.cpp:150] Setting up inception_3b/relu_pool_proj
I1206 00:28:01.943145  6164 net.cpp:157] Top shape: 16 64 28 28 (802816)
I1206 00:28:01.943147  6164 net.cpp:165] Memory required for data: 515408128
I1206 00:28:01.943150  6164 layer_factory.hpp:77] Creating layer inception_3b/output
I1206 00:28:01.943155  6164 net.cpp:100] Creating Layer inception_3b/output
I1206 00:28:01.943157  6164 net.cpp:434] inception_3b/output <- inception_3b/1x1
I1206 00:28:01.943161  6164 net.cpp:434] inception_3b/output <- inception_3b/3x3
I1206 00:28:01.943163  6164 net.cpp:434] inception_3b/output <- inception_3b/5x5
I1206 00:28:01.943166  6164 net.cpp:434] inception_3b/output <- inception_3b/pool_proj
I1206 00:28:01.943168  6164 net.cpp:408] inception_3b/output -> inception_3b/output
I1206 00:28:01.943200  6164 net.cpp:150] Setting up inception_3b/output
I1206 00:28:01.943205  6164 net.cpp:157] Top shape: 16 480 28 28 (6021120)
I1206 00:28:01.943207  6164 net.cpp:165] Memory required for data: 539492608
I1206 00:28:01.943209  6164 layer_factory.hpp:77] Creating layer pool3/3x3_s2
I1206 00:28:01.943213  6164 net.cpp:100] Creating Layer pool3/3x3_s2
I1206 00:28:01.943215  6164 net.cpp:434] pool3/3x3_s2 <- inception_3b/output
I1206 00:28:01.943220  6164 net.cpp:408] pool3/3x3_s2 -> pool3/3x3_s2
I1206 00:28:01.943250  6164 net.cpp:150] Setting up pool3/3x3_s2
I1206 00:28:01.943255  6164 net.cpp:157] Top shape: 16 480 14 14 (1505280)
I1206 00:28:01.943258  6164 net.cpp:165] Memory required for data: 545513728
I1206 00:28:01.943259  6164 layer_factory.hpp:77] Creating layer pool3/3x3_s2_pool3/3x3_s2_0_split
I1206 00:28:01.943266  6164 net.cpp:100] Creating Layer pool3/3x3_s2_pool3/3x3_s2_0_split
I1206 00:28:01.943269  6164 net.cpp:434] pool3/3x3_s2_pool3/3x3_s2_0_split <- pool3/3x3_s2
I1206 00:28:01.943275  6164 net.cpp:408] pool3/3x3_s2_pool3/3x3_s2_0_split -> pool3/3x3_s2_pool3/3x3_s2_0_split_0
I1206 00:28:01.943281  6164 net.cpp:408] pool3/3x3_s2_pool3/3x3_s2_0_split -> pool3/3x3_s2_pool3/3x3_s2_0_split_1
I1206 00:28:01.943286  6164 net.cpp:408] pool3/3x3_s2_pool3/3x3_s2_0_split -> pool3/3x3_s2_pool3/3x3_s2_0_split_2
I1206 00:28:01.943292  6164 net.cpp:408] pool3/3x3_s2_pool3/3x3_s2_0_split -> pool3/3x3_s2_pool3/3x3_s2_0_split_3
I1206 00:28:01.943332  6164 net.cpp:150] Setting up pool3/3x3_s2_pool3/3x3_s2_0_split
I1206 00:28:01.943338  6164 net.cpp:157] Top shape: 16 480 14 14 (1505280)
I1206 00:28:01.943341  6164 net.cpp:157] Top shape: 16 480 14 14 (1505280)
I1206 00:28:01.943343  6164 net.cpp:157] Top shape: 16 480 14 14 (1505280)
I1206 00:28:01.943346  6164 net.cpp:157] Top shape: 16 480 14 14 (1505280)
I1206 00:28:01.943347  6164 net.cpp:165] Memory required for data: 569598208
I1206 00:28:01.943349  6164 layer_factory.hpp:77] Creating layer inception_4a/1x1
I1206 00:28:01.943356  6164 net.cpp:100] Creating Layer inception_4a/1x1
I1206 00:28:01.943359  6164 net.cpp:434] inception_4a/1x1 <- pool3/3x3_s2_pool3/3x3_s2_0_split_0
I1206 00:28:01.943366  6164 net.cpp:408] inception_4a/1x1 -> inception_4a/1x1
I1206 00:28:01.946504  6164 net.cpp:150] Setting up inception_4a/1x1
I1206 00:28:01.946516  6164 net.cpp:157] Top shape: 16 192 14 14 (602112)
I1206 00:28:01.946517  6164 net.cpp:165] Memory required for data: 572006656
I1206 00:28:01.946522  6164 layer_factory.hpp:77] Creating layer inception_4a/relu_1x1
I1206 00:28:01.946527  6164 net.cpp:100] Creating Layer inception_4a/relu_1x1
I1206 00:28:01.946530  6164 net.cpp:434] inception_4a/relu_1x1 <- inception_4a/1x1
I1206 00:28:01.946533  6164 net.cpp:395] inception_4a/relu_1x1 -> inception_4a/1x1 (in-place)
I1206 00:28:01.946538  6164 net.cpp:150] Setting up inception_4a/relu_1x1
I1206 00:28:01.946542  6164 net.cpp:157] Top shape: 16 192 14 14 (602112)
I1206 00:28:01.946544  6164 net.cpp:165] Memory required for data: 574415104
I1206 00:28:01.946547  6164 layer_factory.hpp:77] Creating layer inception_4a/3x3_reduce
I1206 00:28:01.946554  6164 net.cpp:100] Creating Layer inception_4a/3x3_reduce
I1206 00:28:01.946557  6164 net.cpp:434] inception_4a/3x3_reduce <- pool3/3x3_s2_pool3/3x3_s2_0_split_1
I1206 00:28:01.946565  6164 net.cpp:408] inception_4a/3x3_reduce -> inception_4a/3x3_reduce
I1206 00:28:01.946940  6164 net.cpp:150] Setting up inception_4a/3x3_reduce
I1206 00:28:01.946948  6164 net.cpp:157] Top shape: 16 96 14 14 (301056)
I1206 00:28:01.946949  6164 net.cpp:165] Memory required for data: 575619328
I1206 00:28:01.946959  6164 layer_factory.hpp:77] Creating layer inception_4a/relu_3x3_reduce
I1206 00:28:01.946964  6164 net.cpp:100] Creating Layer inception_4a/relu_3x3_reduce
I1206 00:28:01.946967  6164 net.cpp:434] inception_4a/relu_3x3_reduce <- inception_4a/3x3_reduce
I1206 00:28:01.946972  6164 net.cpp:395] inception_4a/relu_3x3_reduce -> inception_4a/3x3_reduce (in-place)
I1206 00:28:01.946979  6164 net.cpp:150] Setting up inception_4a/relu_3x3_reduce
I1206 00:28:01.946995  6164 net.cpp:157] Top shape: 16 96 14 14 (301056)
I1206 00:28:01.946997  6164 net.cpp:165] Memory required for data: 576823552
I1206 00:28:01.947000  6164 layer_factory.hpp:77] Creating layer inception_4a/3x3
I1206 00:28:01.947007  6164 net.cpp:100] Creating Layer inception_4a/3x3
I1206 00:28:01.947010  6164 net.cpp:434] inception_4a/3x3 <- inception_4a/3x3_reduce
I1206 00:28:01.947017  6164 net.cpp:408] inception_4a/3x3 -> inception_4a/3x3
I1206 00:28:01.954203  6164 net.cpp:150] Setting up inception_4a/3x3
I1206 00:28:01.954218  6164 net.cpp:157] Top shape: 16 208 14 14 (652288)
I1206 00:28:01.954221  6164 net.cpp:165] Memory required for data: 579432704
I1206 00:28:01.954226  6164 layer_factory.hpp:77] Creating layer inception_4a/relu_3x3
I1206 00:28:01.954234  6164 net.cpp:100] Creating Layer inception_4a/relu_3x3
I1206 00:28:01.954237  6164 net.cpp:434] inception_4a/relu_3x3 <- inception_4a/3x3
I1206 00:28:01.954241  6164 net.cpp:395] inception_4a/relu_3x3 -> inception_4a/3x3 (in-place)
I1206 00:28:01.954247  6164 net.cpp:150] Setting up inception_4a/relu_3x3
I1206 00:28:01.954252  6164 net.cpp:157] Top shape: 16 208 14 14 (652288)
I1206 00:28:01.954252  6164 net.cpp:165] Memory required for data: 582041856
I1206 00:28:01.954254  6164 layer_factory.hpp:77] Creating layer inception_4a/5x5_reduce
I1206 00:28:01.954263  6164 net.cpp:100] Creating Layer inception_4a/5x5_reduce
I1206 00:28:01.954267  6164 net.cpp:434] inception_4a/5x5_reduce <- pool3/3x3_s2_pool3/3x3_s2_0_split_2
I1206 00:28:01.954272  6164 net.cpp:408] inception_4a/5x5_reduce -> inception_4a/5x5_reduce
I1206 00:28:01.954483  6164 net.cpp:150] Setting up inception_4a/5x5_reduce
I1206 00:28:01.954490  6164 net.cpp:157] Top shape: 16 16 14 14 (50176)
I1206 00:28:01.954493  6164 net.cpp:165] Memory required for data: 582242560
I1206 00:28:01.954496  6164 layer_factory.hpp:77] Creating layer inception_4a/relu_5x5_reduce
I1206 00:28:01.954501  6164 net.cpp:100] Creating Layer inception_4a/relu_5x5_reduce
I1206 00:28:01.954504  6164 net.cpp:434] inception_4a/relu_5x5_reduce <- inception_4a/5x5_reduce
I1206 00:28:01.954507  6164 net.cpp:395] inception_4a/relu_5x5_reduce -> inception_4a/5x5_reduce (in-place)
I1206 00:28:01.954511  6164 net.cpp:150] Setting up inception_4a/relu_5x5_reduce
I1206 00:28:01.954515  6164 net.cpp:157] Top shape: 16 16 14 14 (50176)
I1206 00:28:01.954517  6164 net.cpp:165] Memory required for data: 582443264
I1206 00:28:01.954519  6164 layer_factory.hpp:77] Creating layer inception_4a/5x5
I1206 00:28:01.954525  6164 net.cpp:100] Creating Layer inception_4a/5x5
I1206 00:28:01.954527  6164 net.cpp:434] inception_4a/5x5 <- inception_4a/5x5_reduce
I1206 00:28:01.954532  6164 net.cpp:408] inception_4a/5x5 -> inception_4a/5x5
I1206 00:28:01.954783  6164 net.cpp:150] Setting up inception_4a/5x5
I1206 00:28:01.954790  6164 net.cpp:157] Top shape: 16 48 14 14 (150528)
I1206 00:28:01.954792  6164 net.cpp:165] Memory required for data: 583045376
I1206 00:28:01.954797  6164 layer_factory.hpp:77] Creating layer inception_4a/relu_5x5
I1206 00:28:01.954802  6164 net.cpp:100] Creating Layer inception_4a/relu_5x5
I1206 00:28:01.954805  6164 net.cpp:434] inception_4a/relu_5x5 <- inception_4a/5x5
I1206 00:28:01.954812  6164 net.cpp:395] inception_4a/relu_5x5 -> inception_4a/5x5 (in-place)
I1206 00:28:01.954816  6164 net.cpp:150] Setting up inception_4a/relu_5x5
I1206 00:28:01.954819  6164 net.cpp:157] Top shape: 16 48 14 14 (150528)
I1206 00:28:01.954821  6164 net.cpp:165] Memory required for data: 583647488
I1206 00:28:01.954823  6164 layer_factory.hpp:77] Creating layer inception_4a/pool
I1206 00:28:01.954828  6164 net.cpp:100] Creating Layer inception_4a/pool
I1206 00:28:01.954830  6164 net.cpp:434] inception_4a/pool <- pool3/3x3_s2_pool3/3x3_s2_0_split_3
I1206 00:28:01.954834  6164 net.cpp:408] inception_4a/pool -> inception_4a/pool
I1206 00:28:01.954864  6164 net.cpp:150] Setting up inception_4a/pool
I1206 00:28:01.954869  6164 net.cpp:157] Top shape: 16 480 14 14 (1505280)
I1206 00:28:01.954869  6164 net.cpp:165] Memory required for data: 589668608
I1206 00:28:01.954887  6164 layer_factory.hpp:77] Creating layer inception_4a/pool_proj
I1206 00:28:01.954896  6164 net.cpp:100] Creating Layer inception_4a/pool_proj
I1206 00:28:01.954900  6164 net.cpp:434] inception_4a/pool_proj <- inception_4a/pool
I1206 00:28:01.954905  6164 net.cpp:408] inception_4a/pool_proj -> inception_4a/pool_proj
I1206 00:28:01.955204  6164 net.cpp:150] Setting up inception_4a/pool_proj
I1206 00:28:01.955210  6164 net.cpp:157] Top shape: 16 64 14 14 (200704)
I1206 00:28:01.955212  6164 net.cpp:165] Memory required for data: 590471424
I1206 00:28:01.955217  6164 layer_factory.hpp:77] Creating layer inception_4a/relu_pool_proj
I1206 00:28:01.955222  6164 net.cpp:100] Creating Layer inception_4a/relu_pool_proj
I1206 00:28:01.955225  6164 net.cpp:434] inception_4a/relu_pool_proj <- inception_4a/pool_proj
I1206 00:28:01.955229  6164 net.cpp:395] inception_4a/relu_pool_proj -> inception_4a/pool_proj (in-place)
I1206 00:28:01.955235  6164 net.cpp:150] Setting up inception_4a/relu_pool_proj
I1206 00:28:01.955237  6164 net.cpp:157] Top shape: 16 64 14 14 (200704)
I1206 00:28:01.955240  6164 net.cpp:165] Memory required for data: 591274240
I1206 00:28:01.955242  6164 layer_factory.hpp:77] Creating layer inception_4a/output
I1206 00:28:01.955246  6164 net.cpp:100] Creating Layer inception_4a/output
I1206 00:28:01.955250  6164 net.cpp:434] inception_4a/output <- inception_4a/1x1
I1206 00:28:01.955252  6164 net.cpp:434] inception_4a/output <- inception_4a/3x3
I1206 00:28:01.955255  6164 net.cpp:434] inception_4a/output <- inception_4a/5x5
I1206 00:28:01.955258  6164 net.cpp:434] inception_4a/output <- inception_4a/pool_proj
I1206 00:28:01.955262  6164 net.cpp:408] inception_4a/output -> inception_4a/output
I1206 00:28:01.955282  6164 net.cpp:150] Setting up inception_4a/output
I1206 00:28:01.955286  6164 net.cpp:157] Top shape: 16 512 14 14 (1605632)
I1206 00:28:01.955288  6164 net.cpp:165] Memory required for data: 597696768
I1206 00:28:01.955291  6164 layer_factory.hpp:77] Creating layer inception_4a/output_inception_4a/output_0_split
I1206 00:28:01.955296  6164 net.cpp:100] Creating Layer inception_4a/output_inception_4a/output_0_split
I1206 00:28:01.955301  6164 net.cpp:434] inception_4a/output_inception_4a/output_0_split <- inception_4a/output
I1206 00:28:01.955304  6164 net.cpp:408] inception_4a/output_inception_4a/output_0_split -> inception_4a/output_inception_4a/output_0_split_0
I1206 00:28:01.955310  6164 net.cpp:408] inception_4a/output_inception_4a/output_0_split -> inception_4a/output_inception_4a/output_0_split_1
I1206 00:28:01.955315  6164 net.cpp:408] inception_4a/output_inception_4a/output_0_split -> inception_4a/output_inception_4a/output_0_split_2
I1206 00:28:01.955320  6164 net.cpp:408] inception_4a/output_inception_4a/output_0_split -> inception_4a/output_inception_4a/output_0_split_3
I1206 00:28:01.955325  6164 net.cpp:408] inception_4a/output_inception_4a/output_0_split -> inception_4a/output_inception_4a/output_0_split_4
I1206 00:28:01.955374  6164 net.cpp:150] Setting up inception_4a/output_inception_4a/output_0_split
I1206 00:28:01.955379  6164 net.cpp:157] Top shape: 16 512 14 14 (1605632)
I1206 00:28:01.955381  6164 net.cpp:157] Top shape: 16 512 14 14 (1605632)
I1206 00:28:01.955384  6164 net.cpp:157] Top shape: 16 512 14 14 (1605632)
I1206 00:28:01.955386  6164 net.cpp:157] Top shape: 16 512 14 14 (1605632)
I1206 00:28:01.955389  6164 net.cpp:157] Top shape: 16 512 14 14 (1605632)
I1206 00:28:01.955390  6164 net.cpp:165] Memory required for data: 629809408
I1206 00:28:01.955394  6164 layer_factory.hpp:77] Creating layer loss1/ave_pool
I1206 00:28:01.955397  6164 net.cpp:100] Creating Layer loss1/ave_pool
I1206 00:28:01.955400  6164 net.cpp:434] loss1/ave_pool <- inception_4a/output_inception_4a/output_0_split_0
I1206 00:28:01.955405  6164 net.cpp:408] loss1/ave_pool -> loss1/ave_pool
I1206 00:28:01.955420  6164 net.cpp:150] Setting up loss1/ave_pool
I1206 00:28:01.955426  6164 net.cpp:157] Top shape: 16 512 4 4 (131072)
I1206 00:28:01.955437  6164 net.cpp:165] Memory required for data: 630333696
I1206 00:28:01.955440  6164 layer_factory.hpp:77] Creating layer loss1/conv
I1206 00:28:01.955446  6164 net.cpp:100] Creating Layer loss1/conv
I1206 00:28:01.955448  6164 net.cpp:434] loss1/conv <- loss1/ave_pool
I1206 00:28:01.955454  6164 net.cpp:408] loss1/conv -> loss1/conv
I1206 00:28:01.955973  6164 net.cpp:150] Setting up loss1/conv
I1206 00:28:01.955983  6164 net.cpp:157] Top shape: 16 128 4 4 (32768)
I1206 00:28:01.955986  6164 net.cpp:165] Memory required for data: 630464768
I1206 00:28:01.955991  6164 layer_factory.hpp:77] Creating layer loss1/relu_conv
I1206 00:28:01.955996  6164 net.cpp:100] Creating Layer loss1/relu_conv
I1206 00:28:01.955998  6164 net.cpp:434] loss1/relu_conv <- loss1/conv
I1206 00:28:01.956002  6164 net.cpp:395] loss1/relu_conv -> loss1/conv (in-place)
I1206 00:28:01.956007  6164 net.cpp:150] Setting up loss1/relu_conv
I1206 00:28:01.956012  6164 net.cpp:157] Top shape: 16 128 4 4 (32768)
I1206 00:28:01.956013  6164 net.cpp:165] Memory required for data: 630595840
I1206 00:28:01.956015  6164 layer_factory.hpp:77] Creating layer loss1/fc
I1206 00:28:01.956022  6164 net.cpp:100] Creating Layer loss1/fc
I1206 00:28:01.956025  6164 net.cpp:434] loss1/fc <- loss1/conv
I1206 00:28:01.956029  6164 net.cpp:408] loss1/fc -> loss1/fc
I1206 00:28:01.971899  6164 net.cpp:150] Setting up loss1/fc
I1206 00:28:01.971930  6164 net.cpp:157] Top shape: 16 1024 (16384)
I1206 00:28:01.971931  6164 net.cpp:165] Memory required for data: 630661376
I1206 00:28:01.971941  6164 layer_factory.hpp:77] Creating layer loss1/relu_fc
I1206 00:28:01.971951  6164 net.cpp:100] Creating Layer loss1/relu_fc
I1206 00:28:01.971956  6164 net.cpp:434] loss1/relu_fc <- loss1/fc
I1206 00:28:01.971962  6164 net.cpp:395] loss1/relu_fc -> loss1/fc (in-place)
I1206 00:28:01.971972  6164 net.cpp:150] Setting up loss1/relu_fc
I1206 00:28:01.971976  6164 net.cpp:157] Top shape: 16 1024 (16384)
I1206 00:28:01.971978  6164 net.cpp:165] Memory required for data: 630726912
I1206 00:28:01.971981  6164 layer_factory.hpp:77] Creating layer loss1/drop_fc
I1206 00:28:01.972002  6164 net.cpp:100] Creating Layer loss1/drop_fc
I1206 00:28:01.972004  6164 net.cpp:434] loss1/drop_fc <- loss1/fc
I1206 00:28:01.972007  6164 net.cpp:395] loss1/drop_fc -> loss1/fc (in-place)
I1206 00:28:01.972031  6164 net.cpp:150] Setting up loss1/drop_fc
I1206 00:28:01.972036  6164 net.cpp:157] Top shape: 16 1024 (16384)
I1206 00:28:01.972038  6164 net.cpp:165] Memory required for data: 630792448
I1206 00:28:01.972041  6164 layer_factory.hpp:77] Creating layer loss1/classifier
I1206 00:28:01.972048  6164 net.cpp:100] Creating Layer loss1/classifier
I1206 00:28:01.972051  6164 net.cpp:434] loss1/classifier <- loss1/fc
I1206 00:28:01.972056  6164 net.cpp:408] loss1/classifier -> loss1/classifier
I1206 00:28:01.977855  6164 net.cpp:150] Setting up loss1/classifier
I1206 00:28:01.977882  6164 net.cpp:157] Top shape: 16 1000 (16000)
I1206 00:28:01.977885  6164 net.cpp:165] Memory required for data: 630856448
I1206 00:28:01.977893  6164 layer_factory.hpp:77] Creating layer loss1/loss
I1206 00:28:01.977905  6164 net.cpp:100] Creating Layer loss1/loss
I1206 00:28:01.977910  6164 net.cpp:434] loss1/loss <- loss1/classifier
I1206 00:28:01.977916  6164 net.cpp:434] loss1/loss <- label_data_1_split_0
I1206 00:28:01.977921  6164 net.cpp:408] loss1/loss -> loss1/loss1
I1206 00:28:01.977932  6164 layer_factory.hpp:77] Creating layer loss1/loss
I1206 00:28:01.978025  6164 net.cpp:150] Setting up loss1/loss
I1206 00:28:01.978031  6164 net.cpp:157] Top shape: (1)
I1206 00:28:01.978034  6164 net.cpp:160]     with loss weight 0.3
I1206 00:28:01.978057  6164 net.cpp:165] Memory required for data: 630856452
I1206 00:28:01.978060  6164 layer_factory.hpp:77] Creating layer inception_4b/1x1
I1206 00:28:01.978070  6164 net.cpp:100] Creating Layer inception_4b/1x1
I1206 00:28:01.978073  6164 net.cpp:434] inception_4b/1x1 <- inception_4a/output_inception_4a/output_0_split_1
I1206 00:28:01.978080  6164 net.cpp:408] inception_4b/1x1 -> inception_4b/1x1
I1206 00:28:01.978643  6164 net.cpp:150] Setting up inception_4b/1x1
I1206 00:28:01.978652  6164 net.cpp:157] Top shape: 16 160 14 14 (501760)
I1206 00:28:01.978654  6164 net.cpp:165] Memory required for data: 632863492
I1206 00:28:01.978658  6164 layer_factory.hpp:77] Creating layer inception_4b/relu_1x1
I1206 00:28:01.978663  6164 net.cpp:100] Creating Layer inception_4b/relu_1x1
I1206 00:28:01.978667  6164 net.cpp:434] inception_4b/relu_1x1 <- inception_4b/1x1
I1206 00:28:01.978672  6164 net.cpp:395] inception_4b/relu_1x1 -> inception_4b/1x1 (in-place)
I1206 00:28:01.978677  6164 net.cpp:150] Setting up inception_4b/relu_1x1
I1206 00:28:01.978679  6164 net.cpp:157] Top shape: 16 160 14 14 (501760)
I1206 00:28:01.978682  6164 net.cpp:165] Memory required for data: 634870532
I1206 00:28:01.978683  6164 layer_factory.hpp:77] Creating layer inception_4b/3x3_reduce
I1206 00:28:01.978691  6164 net.cpp:100] Creating Layer inception_4b/3x3_reduce
I1206 00:28:01.978694  6164 net.cpp:434] inception_4b/3x3_reduce <- inception_4a/output_inception_4a/output_0_split_2
I1206 00:28:01.978698  6164 net.cpp:408] inception_4b/3x3_reduce -> inception_4b/3x3_reduce
I1206 00:28:01.981510  6164 net.cpp:150] Setting up inception_4b/3x3_reduce
I1206 00:28:01.981523  6164 net.cpp:157] Top shape: 16 112 14 14 (351232)
I1206 00:28:01.981525  6164 net.cpp:165] Memory required for data: 636275460
I1206 00:28:01.981530  6164 layer_factory.hpp:77] Creating layer inception_4b/relu_3x3_reduce
I1206 00:28:01.981535  6164 net.cpp:100] Creating Layer inception_4b/relu_3x3_reduce
I1206 00:28:01.981539  6164 net.cpp:434] inception_4b/relu_3x3_reduce <- inception_4b/3x3_reduce
I1206 00:28:01.981542  6164 net.cpp:395] inception_4b/relu_3x3_reduce -> inception_4b/3x3_reduce (in-place)
I1206 00:28:01.981547  6164 net.cpp:150] Setting up inception_4b/relu_3x3_reduce
I1206 00:28:01.981552  6164 net.cpp:157] Top shape: 16 112 14 14 (351232)
I1206 00:28:01.981554  6164 net.cpp:165] Memory required for data: 637680388
I1206 00:28:01.981556  6164 layer_factory.hpp:77] Creating layer inception_4b/3x3
I1206 00:28:01.981564  6164 net.cpp:100] Creating Layer inception_4b/3x3
I1206 00:28:01.981569  6164 net.cpp:434] inception_4b/3x3 <- inception_4b/3x3_reduce
I1206 00:28:01.981572  6164 net.cpp:408] inception_4b/3x3 -> inception_4b/3x3
I1206 00:28:01.984377  6164 net.cpp:150] Setting up inception_4b/3x3
I1206 00:28:01.984386  6164 net.cpp:157] Top shape: 16 224 14 14 (702464)
I1206 00:28:01.984390  6164 net.cpp:165] Memory required for data: 640490244
I1206 00:28:01.984395  6164 layer_factory.hpp:77] Creating layer inception_4b/relu_3x3
I1206 00:28:01.984400  6164 net.cpp:100] Creating Layer inception_4b/relu_3x3
I1206 00:28:01.984402  6164 net.cpp:434] inception_4b/relu_3x3 <- inception_4b/3x3
I1206 00:28:01.984408  6164 net.cpp:395] inception_4b/relu_3x3 -> inception_4b/3x3 (in-place)
I1206 00:28:01.984416  6164 net.cpp:150] Setting up inception_4b/relu_3x3
I1206 00:28:01.984418  6164 net.cpp:157] Top shape: 16 224 14 14 (702464)
I1206 00:28:01.984421  6164 net.cpp:165] Memory required for data: 643300100
I1206 00:28:01.984423  6164 layer_factory.hpp:77] Creating layer inception_4b/5x5_reduce
I1206 00:28:01.984431  6164 net.cpp:100] Creating Layer inception_4b/5x5_reduce
I1206 00:28:01.984434  6164 net.cpp:434] inception_4b/5x5_reduce <- inception_4a/output_inception_4a/output_0_split_3
I1206 00:28:01.984438  6164 net.cpp:408] inception_4b/5x5_reduce -> inception_4b/5x5_reduce
I1206 00:28:01.984660  6164 net.cpp:150] Setting up inception_4b/5x5_reduce
I1206 00:28:01.984668  6164 net.cpp:157] Top shape: 16 24 14 14 (75264)
I1206 00:28:01.984669  6164 net.cpp:165] Memory required for data: 643601156
I1206 00:28:01.984674  6164 layer_factory.hpp:77] Creating layer inception_4b/relu_5x5_reduce
I1206 00:28:01.984679  6164 net.cpp:100] Creating Layer inception_4b/relu_5x5_reduce
I1206 00:28:01.984683  6164 net.cpp:434] inception_4b/relu_5x5_reduce <- inception_4b/5x5_reduce
I1206 00:28:01.984688  6164 net.cpp:395] inception_4b/relu_5x5_reduce -> inception_4b/5x5_reduce (in-place)
I1206 00:28:01.984701  6164 net.cpp:150] Setting up inception_4b/relu_5x5_reduce
I1206 00:28:01.984704  6164 net.cpp:157] Top shape: 16 24 14 14 (75264)
I1206 00:28:01.984706  6164 net.cpp:165] Memory required for data: 643902212
I1206 00:28:01.984709  6164 layer_factory.hpp:77] Creating layer inception_4b/5x5
I1206 00:28:01.984716  6164 net.cpp:100] Creating Layer inception_4b/5x5
I1206 00:28:01.984719  6164 net.cpp:434] inception_4b/5x5 <- inception_4b/5x5_reduce
I1206 00:28:01.984724  6164 net.cpp:408] inception_4b/5x5 -> inception_4b/5x5
I1206 00:28:01.985060  6164 net.cpp:150] Setting up inception_4b/5x5
I1206 00:28:01.985066  6164 net.cpp:157] Top shape: 16 64 14 14 (200704)
I1206 00:28:01.985069  6164 net.cpp:165] Memory required for data: 644705028
I1206 00:28:01.985074  6164 layer_factory.hpp:77] Creating layer inception_4b/relu_5x5
I1206 00:28:01.985080  6164 net.cpp:100] Creating Layer inception_4b/relu_5x5
I1206 00:28:01.985085  6164 net.cpp:434] inception_4b/relu_5x5 <- inception_4b/5x5
I1206 00:28:01.985087  6164 net.cpp:395] inception_4b/relu_5x5 -> inception_4b/5x5 (in-place)
I1206 00:28:01.985091  6164 net.cpp:150] Setting up inception_4b/relu_5x5
I1206 00:28:01.985093  6164 net.cpp:157] Top shape: 16 64 14 14 (200704)
I1206 00:28:01.985095  6164 net.cpp:165] Memory required for data: 645507844
I1206 00:28:01.985097  6164 layer_factory.hpp:77] Creating layer inception_4b/pool
I1206 00:28:01.985103  6164 net.cpp:100] Creating Layer inception_4b/pool
I1206 00:28:01.985106  6164 net.cpp:434] inception_4b/pool <- inception_4a/output_inception_4a/output_0_split_4
I1206 00:28:01.985110  6164 net.cpp:408] inception_4b/pool -> inception_4b/pool
I1206 00:28:01.985152  6164 net.cpp:150] Setting up inception_4b/pool
I1206 00:28:01.985158  6164 net.cpp:157] Top shape: 16 512 14 14 (1605632)
I1206 00:28:01.985160  6164 net.cpp:165] Memory required for data: 651930372
I1206 00:28:01.985162  6164 layer_factory.hpp:77] Creating layer inception_4b/pool_proj
I1206 00:28:01.985168  6164 net.cpp:100] Creating Layer inception_4b/pool_proj
I1206 00:28:01.985172  6164 net.cpp:434] inception_4b/pool_proj <- inception_4b/pool
I1206 00:28:01.985177  6164 net.cpp:408] inception_4b/pool_proj -> inception_4b/pool_proj
I1206 00:28:01.985497  6164 net.cpp:150] Setting up inception_4b/pool_proj
I1206 00:28:01.985504  6164 net.cpp:157] Top shape: 16 64 14 14 (200704)
I1206 00:28:01.985507  6164 net.cpp:165] Memory required for data: 652733188
I1206 00:28:01.985510  6164 layer_factory.hpp:77] Creating layer inception_4b/relu_pool_proj
I1206 00:28:01.985514  6164 net.cpp:100] Creating Layer inception_4b/relu_pool_proj
I1206 00:28:01.985517  6164 net.cpp:434] inception_4b/relu_pool_proj <- inception_4b/pool_proj
I1206 00:28:01.985522  6164 net.cpp:395] inception_4b/relu_pool_proj -> inception_4b/pool_proj (in-place)
I1206 00:28:01.985525  6164 net.cpp:150] Setting up inception_4b/relu_pool_proj
I1206 00:28:01.985528  6164 net.cpp:157] Top shape: 16 64 14 14 (200704)
I1206 00:28:01.985529  6164 net.cpp:165] Memory required for data: 653536004
I1206 00:28:01.985532  6164 layer_factory.hpp:77] Creating layer inception_4b/output
I1206 00:28:01.985537  6164 net.cpp:100] Creating Layer inception_4b/output
I1206 00:28:01.985538  6164 net.cpp:434] inception_4b/output <- inception_4b/1x1
I1206 00:28:01.985540  6164 net.cpp:434] inception_4b/output <- inception_4b/3x3
I1206 00:28:01.985543  6164 net.cpp:434] inception_4b/output <- inception_4b/5x5
I1206 00:28:01.985545  6164 net.cpp:434] inception_4b/output <- inception_4b/pool_proj
I1206 00:28:01.985550  6164 net.cpp:408] inception_4b/output -> inception_4b/output
I1206 00:28:01.985569  6164 net.cpp:150] Setting up inception_4b/output
I1206 00:28:01.985574  6164 net.cpp:157] Top shape: 16 512 14 14 (1605632)
I1206 00:28:01.985575  6164 net.cpp:165] Memory required for data: 659958532
I1206 00:28:01.985579  6164 layer_factory.hpp:77] Creating layer inception_4b/output_inception_4b/output_0_split
I1206 00:28:01.985584  6164 net.cpp:100] Creating Layer inception_4b/output_inception_4b/output_0_split
I1206 00:28:01.985594  6164 net.cpp:434] inception_4b/output_inception_4b/output_0_split <- inception_4b/output
I1206 00:28:01.985600  6164 net.cpp:408] inception_4b/output_inception_4b/output_0_split -> inception_4b/output_inception_4b/output_0_split_0
I1206 00:28:01.985605  6164 net.cpp:408] inception_4b/output_inception_4b/output_0_split -> inception_4b/output_inception_4b/output_0_split_1
I1206 00:28:01.985610  6164 net.cpp:408] inception_4b/output_inception_4b/output_0_split -> inception_4b/output_inception_4b/output_0_split_2
I1206 00:28:01.985613  6164 net.cpp:408] inception_4b/output_inception_4b/output_0_split -> inception_4b/output_inception_4b/output_0_split_3
I1206 00:28:01.985657  6164 net.cpp:150] Setting up inception_4b/output_inception_4b/output_0_split
I1206 00:28:01.985662  6164 net.cpp:157] Top shape: 16 512 14 14 (1605632)
I1206 00:28:01.985664  6164 net.cpp:157] Top shape: 16 512 14 14 (1605632)
I1206 00:28:01.985667  6164 net.cpp:157] Top shape: 16 512 14 14 (1605632)
I1206 00:28:01.985669  6164 net.cpp:157] Top shape: 16 512 14 14 (1605632)
I1206 00:28:01.985671  6164 net.cpp:165] Memory required for data: 685648644
I1206 00:28:01.985673  6164 layer_factory.hpp:77] Creating layer inception_4c/1x1
I1206 00:28:01.985680  6164 net.cpp:100] Creating Layer inception_4c/1x1
I1206 00:28:01.985683  6164 net.cpp:434] inception_4c/1x1 <- inception_4b/output_inception_4b/output_0_split_0
I1206 00:28:01.985688  6164 net.cpp:408] inception_4c/1x1 -> inception_4c/1x1
I1206 00:28:01.986120  6164 net.cpp:150] Setting up inception_4c/1x1
I1206 00:28:01.986126  6164 net.cpp:157] Top shape: 16 128 14 14 (401408)
I1206 00:28:01.986129  6164 net.cpp:165] Memory required for data: 687254276
I1206 00:28:01.986135  6164 layer_factory.hpp:77] Creating layer inception_4c/relu_1x1
I1206 00:28:01.986138  6164 net.cpp:100] Creating Layer inception_4c/relu_1x1
I1206 00:28:01.986141  6164 net.cpp:434] inception_4c/relu_1x1 <- inception_4c/1x1
I1206 00:28:01.986146  6164 net.cpp:395] inception_4c/relu_1x1 -> inception_4c/1x1 (in-place)
I1206 00:28:01.986150  6164 net.cpp:150] Setting up inception_4c/relu_1x1
I1206 00:28:01.986155  6164 net.cpp:157] Top shape: 16 128 14 14 (401408)
I1206 00:28:01.986156  6164 net.cpp:165] Memory required for data: 688859908
I1206 00:28:01.986160  6164 layer_factory.hpp:77] Creating layer inception_4c/3x3_reduce
I1206 00:28:01.986166  6164 net.cpp:100] Creating Layer inception_4c/3x3_reduce
I1206 00:28:01.986169  6164 net.cpp:434] inception_4c/3x3_reduce <- inception_4b/output_inception_4b/output_0_split_1
I1206 00:28:01.986173  6164 net.cpp:408] inception_4c/3x3_reduce -> inception_4c/3x3_reduce
I1206 00:28:01.986613  6164 net.cpp:150] Setting up inception_4c/3x3_reduce
I1206 00:28:01.986618  6164 net.cpp:157] Top shape: 16 128 14 14 (401408)
I1206 00:28:01.986620  6164 net.cpp:165] Memory required for data: 690465540
I1206 00:28:01.986624  6164 layer_factory.hpp:77] Creating layer inception_4c/relu_3x3_reduce
I1206 00:28:01.986629  6164 net.cpp:100] Creating Layer inception_4c/relu_3x3_reduce
I1206 00:28:01.986630  6164 net.cpp:434] inception_4c/relu_3x3_reduce <- inception_4c/3x3_reduce
I1206 00:28:01.986635  6164 net.cpp:395] inception_4c/relu_3x3_reduce -> inception_4c/3x3_reduce (in-place)
I1206 00:28:01.986639  6164 net.cpp:150] Setting up inception_4c/relu_3x3_reduce
I1206 00:28:01.986641  6164 net.cpp:157] Top shape: 16 128 14 14 (401408)
I1206 00:28:01.986644  6164 net.cpp:165] Memory required for data: 692071172
I1206 00:28:01.986645  6164 layer_factory.hpp:77] Creating layer inception_4c/3x3
I1206 00:28:01.986654  6164 net.cpp:100] Creating Layer inception_4c/3x3
I1206 00:28:01.986656  6164 net.cpp:434] inception_4c/3x3 <- inception_4c/3x3_reduce
I1206 00:28:01.986660  6164 net.cpp:408] inception_4c/3x3 -> inception_4c/3x3
I1206 00:28:01.988490  6164 net.cpp:150] Setting up inception_4c/3x3
I1206 00:28:01.988502  6164 net.cpp:157] Top shape: 16 256 14 14 (802816)
I1206 00:28:01.988503  6164 net.cpp:165] Memory required for data: 695282436
I1206 00:28:01.988517  6164 layer_factory.hpp:77] Creating layer inception_4c/relu_3x3
I1206 00:28:01.988531  6164 net.cpp:100] Creating Layer inception_4c/relu_3x3
I1206 00:28:01.988534  6164 net.cpp:434] inception_4c/relu_3x3 <- inception_4c/3x3
I1206 00:28:01.988538  6164 net.cpp:395] inception_4c/relu_3x3 -> inception_4c/3x3 (in-place)
I1206 00:28:01.988543  6164 net.cpp:150] Setting up inception_4c/relu_3x3
I1206 00:28:01.988545  6164 net.cpp:157] Top shape: 16 256 14 14 (802816)
I1206 00:28:01.988548  6164 net.cpp:165] Memory required for data: 698493700
I1206 00:28:01.988549  6164 layer_factory.hpp:77] Creating layer inception_4c/5x5_reduce
I1206 00:28:01.988556  6164 net.cpp:100] Creating Layer inception_4c/5x5_reduce
I1206 00:28:01.988559  6164 net.cpp:434] inception_4c/5x5_reduce <- inception_4b/output_inception_4b/output_0_split_2
I1206 00:28:01.988564  6164 net.cpp:408] inception_4c/5x5_reduce -> inception_4c/5x5_reduce
I1206 00:28:01.988786  6164 net.cpp:150] Setting up inception_4c/5x5_reduce
I1206 00:28:01.988793  6164 net.cpp:157] Top shape: 16 24 14 14 (75264)
I1206 00:28:01.988795  6164 net.cpp:165] Memory required for data: 698794756
I1206 00:28:01.988800  6164 layer_factory.hpp:77] Creating layer inception_4c/relu_5x5_reduce
I1206 00:28:01.988803  6164 net.cpp:100] Creating Layer inception_4c/relu_5x5_reduce
I1206 00:28:01.988806  6164 net.cpp:434] inception_4c/relu_5x5_reduce <- inception_4c/5x5_reduce
I1206 00:28:01.988809  6164 net.cpp:395] inception_4c/relu_5x5_reduce -> inception_4c/5x5_reduce (in-place)
I1206 00:28:01.988813  6164 net.cpp:150] Setting up inception_4c/relu_5x5_reduce
I1206 00:28:01.988816  6164 net.cpp:157] Top shape: 16 24 14 14 (75264)
I1206 00:28:01.988818  6164 net.cpp:165] Memory required for data: 699095812
I1206 00:28:01.988821  6164 layer_factory.hpp:77] Creating layer inception_4c/5x5
I1206 00:28:01.988824  6164 net.cpp:100] Creating Layer inception_4c/5x5
I1206 00:28:01.988826  6164 net.cpp:434] inception_4c/5x5 <- inception_4c/5x5_reduce
I1206 00:28:01.988831  6164 net.cpp:408] inception_4c/5x5 -> inception_4c/5x5
I1206 00:28:01.989609  6164 net.cpp:150] Setting up inception_4c/5x5
I1206 00:28:01.989620  6164 net.cpp:157] Top shape: 16 64 14 14 (200704)
I1206 00:28:01.989622  6164 net.cpp:165] Memory required for data: 699898628
I1206 00:28:01.989627  6164 layer_factory.hpp:77] Creating layer inception_4c/relu_5x5
I1206 00:28:01.989632  6164 net.cpp:100] Creating Layer inception_4c/relu_5x5
I1206 00:28:01.989635  6164 net.cpp:434] inception_4c/relu_5x5 <- inception_4c/5x5
I1206 00:28:01.989639  6164 net.cpp:395] inception_4c/relu_5x5 -> inception_4c/5x5 (in-place)
I1206 00:28:01.989645  6164 net.cpp:150] Setting up inception_4c/relu_5x5
I1206 00:28:01.989647  6164 net.cpp:157] Top shape: 16 64 14 14 (200704)
I1206 00:28:01.989650  6164 net.cpp:165] Memory required for data: 700701444
I1206 00:28:01.989651  6164 layer_factory.hpp:77] Creating layer inception_4c/pool
I1206 00:28:01.989655  6164 net.cpp:100] Creating Layer inception_4c/pool
I1206 00:28:01.989657  6164 net.cpp:434] inception_4c/pool <- inception_4b/output_inception_4b/output_0_split_3
I1206 00:28:01.989661  6164 net.cpp:408] inception_4c/pool -> inception_4c/pool
I1206 00:28:01.989696  6164 net.cpp:150] Setting up inception_4c/pool
I1206 00:28:01.989701  6164 net.cpp:157] Top shape: 16 512 14 14 (1605632)
I1206 00:28:01.989702  6164 net.cpp:165] Memory required for data: 707123972
I1206 00:28:01.989704  6164 layer_factory.hpp:77] Creating layer inception_4c/pool_proj
I1206 00:28:01.989711  6164 net.cpp:100] Creating Layer inception_4c/pool_proj
I1206 00:28:01.989713  6164 net.cpp:434] inception_4c/pool_proj <- inception_4c/pool
I1206 00:28:01.989718  6164 net.cpp:408] inception_4c/pool_proj -> inception_4c/pool_proj
I1206 00:28:01.990023  6164 net.cpp:150] Setting up inception_4c/pool_proj
I1206 00:28:01.990030  6164 net.cpp:157] Top shape: 16 64 14 14 (200704)
I1206 00:28:01.990031  6164 net.cpp:165] Memory required for data: 707926788
I1206 00:28:01.990036  6164 layer_factory.hpp:77] Creating layer inception_4c/relu_pool_proj
I1206 00:28:01.990047  6164 net.cpp:100] Creating Layer inception_4c/relu_pool_proj
I1206 00:28:01.990051  6164 net.cpp:434] inception_4c/relu_pool_proj <- inception_4c/pool_proj
I1206 00:28:01.990056  6164 net.cpp:395] inception_4c/relu_pool_proj -> inception_4c/pool_proj (in-place)
I1206 00:28:01.990059  6164 net.cpp:150] Setting up inception_4c/relu_pool_proj
I1206 00:28:01.990062  6164 net.cpp:157] Top shape: 16 64 14 14 (200704)
I1206 00:28:01.990066  6164 net.cpp:165] Memory required for data: 708729604
I1206 00:28:01.990067  6164 layer_factory.hpp:77] Creating layer inception_4c/output
I1206 00:28:01.990072  6164 net.cpp:100] Creating Layer inception_4c/output
I1206 00:28:01.990073  6164 net.cpp:434] inception_4c/output <- inception_4c/1x1
I1206 00:28:01.990077  6164 net.cpp:434] inception_4c/output <- inception_4c/3x3
I1206 00:28:01.990078  6164 net.cpp:434] inception_4c/output <- inception_4c/5x5
I1206 00:28:01.990080  6164 net.cpp:434] inception_4c/output <- inception_4c/pool_proj
I1206 00:28:01.990083  6164 net.cpp:408] inception_4c/output -> inception_4c/output
I1206 00:28:01.990108  6164 net.cpp:150] Setting up inception_4c/output
I1206 00:28:01.990113  6164 net.cpp:157] Top shape: 16 512 14 14 (1605632)
I1206 00:28:01.990114  6164 net.cpp:165] Memory required for data: 715152132
I1206 00:28:01.990118  6164 layer_factory.hpp:77] Creating layer inception_4c/output_inception_4c/output_0_split
I1206 00:28:01.990124  6164 net.cpp:100] Creating Layer inception_4c/output_inception_4c/output_0_split
I1206 00:28:01.990128  6164 net.cpp:434] inception_4c/output_inception_4c/output_0_split <- inception_4c/output
I1206 00:28:01.990133  6164 net.cpp:408] inception_4c/output_inception_4c/output_0_split -> inception_4c/output_inception_4c/output_0_split_0
I1206 00:28:01.990139  6164 net.cpp:408] inception_4c/output_inception_4c/output_0_split -> inception_4c/output_inception_4c/output_0_split_1
I1206 00:28:01.990145  6164 net.cpp:408] inception_4c/output_inception_4c/output_0_split -> inception_4c/output_inception_4c/output_0_split_2
I1206 00:28:01.990151  6164 net.cpp:408] inception_4c/output_inception_4c/output_0_split -> inception_4c/output_inception_4c/output_0_split_3
I1206 00:28:01.990196  6164 net.cpp:150] Setting up inception_4c/output_inception_4c/output_0_split
I1206 00:28:01.990201  6164 net.cpp:157] Top shape: 16 512 14 14 (1605632)
I1206 00:28:01.990205  6164 net.cpp:157] Top shape: 16 512 14 14 (1605632)
I1206 00:28:01.990207  6164 net.cpp:157] Top shape: 16 512 14 14 (1605632)
I1206 00:28:01.990211  6164 net.cpp:157] Top shape: 16 512 14 14 (1605632)
I1206 00:28:01.990214  6164 net.cpp:165] Memory required for data: 740842244
I1206 00:28:01.990217  6164 layer_factory.hpp:77] Creating layer inception_4d/1x1
I1206 00:28:01.990227  6164 net.cpp:100] Creating Layer inception_4d/1x1
I1206 00:28:01.990231  6164 net.cpp:434] inception_4d/1x1 <- inception_4c/output_inception_4c/output_0_split_0
I1206 00:28:01.990236  6164 net.cpp:408] inception_4d/1x1 -> inception_4d/1x1
I1206 00:28:01.990648  6164 net.cpp:150] Setting up inception_4d/1x1
I1206 00:28:01.990656  6164 net.cpp:157] Top shape: 16 112 14 14 (351232)
I1206 00:28:01.990658  6164 net.cpp:165] Memory required for data: 742247172
I1206 00:28:01.990664  6164 layer_factory.hpp:77] Creating layer inception_4d/relu_1x1
I1206 00:28:01.990671  6164 net.cpp:100] Creating Layer inception_4d/relu_1x1
I1206 00:28:01.990674  6164 net.cpp:434] inception_4d/relu_1x1 <- inception_4d/1x1
I1206 00:28:01.990679  6164 net.cpp:395] inception_4d/relu_1x1 -> inception_4d/1x1 (in-place)
I1206 00:28:01.990685  6164 net.cpp:150] Setting up inception_4d/relu_1x1
I1206 00:28:01.990689  6164 net.cpp:157] Top shape: 16 112 14 14 (351232)
I1206 00:28:01.990690  6164 net.cpp:165] Memory required for data: 743652100
I1206 00:28:01.990694  6164 layer_factory.hpp:77] Creating layer inception_4d/3x3_reduce
I1206 00:28:01.990702  6164 net.cpp:100] Creating Layer inception_4d/3x3_reduce
I1206 00:28:01.990705  6164 net.cpp:434] inception_4d/3x3_reduce <- inception_4c/output_inception_4c/output_0_split_1
I1206 00:28:01.990722  6164 net.cpp:408] inception_4d/3x3_reduce -> inception_4d/3x3_reduce
I1206 00:28:01.991221  6164 net.cpp:150] Setting up inception_4d/3x3_reduce
I1206 00:28:01.991228  6164 net.cpp:157] Top shape: 16 144 14 14 (451584)
I1206 00:28:01.991230  6164 net.cpp:165] Memory required for data: 745458436
I1206 00:28:01.991236  6164 layer_factory.hpp:77] Creating layer inception_4d/relu_3x3_reduce
I1206 00:28:01.991243  6164 net.cpp:100] Creating Layer inception_4d/relu_3x3_reduce
I1206 00:28:01.991246  6164 net.cpp:434] inception_4d/relu_3x3_reduce <- inception_4d/3x3_reduce
I1206 00:28:01.991251  6164 net.cpp:395] inception_4d/relu_3x3_reduce -> inception_4d/3x3_reduce (in-place)
I1206 00:28:01.991257  6164 net.cpp:150] Setting up inception_4d/relu_3x3_reduce
I1206 00:28:01.991261  6164 net.cpp:157] Top shape: 16 144 14 14 (451584)
I1206 00:28:01.991263  6164 net.cpp:165] Memory required for data: 747264772
I1206 00:28:01.991266  6164 layer_factory.hpp:77] Creating layer inception_4d/3x3
I1206 00:28:01.991272  6164 net.cpp:100] Creating Layer inception_4d/3x3
I1206 00:28:01.991276  6164 net.cpp:434] inception_4d/3x3 <- inception_4d/3x3_reduce
I1206 00:28:01.991281  6164 net.cpp:408] inception_4d/3x3 -> inception_4d/3x3
I1206 00:28:01.993583  6164 net.cpp:150] Setting up inception_4d/3x3
I1206 00:28:01.993593  6164 net.cpp:157] Top shape: 16 288 14 14 (903168)
I1206 00:28:01.993595  6164 net.cpp:165] Memory required for data: 750877444
I1206 00:28:01.993602  6164 layer_factory.hpp:77] Creating layer inception_4d/relu_3x3
I1206 00:28:01.993609  6164 net.cpp:100] Creating Layer inception_4d/relu_3x3
I1206 00:28:01.993613  6164 net.cpp:434] inception_4d/relu_3x3 <- inception_4d/3x3
I1206 00:28:01.993620  6164 net.cpp:395] inception_4d/relu_3x3 -> inception_4d/3x3 (in-place)
I1206 00:28:01.993628  6164 net.cpp:150] Setting up inception_4d/relu_3x3
I1206 00:28:01.993630  6164 net.cpp:157] Top shape: 16 288 14 14 (903168)
I1206 00:28:01.993633  6164 net.cpp:165] Memory required for data: 754490116
I1206 00:28:01.993636  6164 layer_factory.hpp:77] Creating layer inception_4d/5x5_reduce
I1206 00:28:01.993643  6164 net.cpp:100] Creating Layer inception_4d/5x5_reduce
I1206 00:28:01.993647  6164 net.cpp:434] inception_4d/5x5_reduce <- inception_4c/output_inception_4c/output_0_split_2
I1206 00:28:01.993655  6164 net.cpp:408] inception_4d/5x5_reduce -> inception_4d/5x5_reduce
I1206 00:28:01.993909  6164 net.cpp:150] Setting up inception_4d/5x5_reduce
I1206 00:28:01.993916  6164 net.cpp:157] Top shape: 16 32 14 14 (100352)
I1206 00:28:01.993918  6164 net.cpp:165] Memory required for data: 754891524
I1206 00:28:01.993922  6164 layer_factory.hpp:77] Creating layer inception_4d/relu_5x5_reduce
I1206 00:28:01.993927  6164 net.cpp:100] Creating Layer inception_4d/relu_5x5_reduce
I1206 00:28:01.993929  6164 net.cpp:434] inception_4d/relu_5x5_reduce <- inception_4d/5x5_reduce
I1206 00:28:01.993933  6164 net.cpp:395] inception_4d/relu_5x5_reduce -> inception_4d/5x5_reduce (in-place)
I1206 00:28:01.993939  6164 net.cpp:150] Setting up inception_4d/relu_5x5_reduce
I1206 00:28:01.993943  6164 net.cpp:157] Top shape: 16 32 14 14 (100352)
I1206 00:28:01.993945  6164 net.cpp:165] Memory required for data: 755292932
I1206 00:28:01.993947  6164 layer_factory.hpp:77] Creating layer inception_4d/5x5
I1206 00:28:01.993955  6164 net.cpp:100] Creating Layer inception_4d/5x5
I1206 00:28:01.993959  6164 net.cpp:434] inception_4d/5x5 <- inception_4d/5x5_reduce
I1206 00:28:01.993964  6164 net.cpp:408] inception_4d/5x5 -> inception_4d/5x5
I1206 00:28:01.994359  6164 net.cpp:150] Setting up inception_4d/5x5
I1206 00:28:01.994367  6164 net.cpp:157] Top shape: 16 64 14 14 (200704)
I1206 00:28:01.994369  6164 net.cpp:165] Memory required for data: 756095748
I1206 00:28:01.994374  6164 layer_factory.hpp:77] Creating layer inception_4d/relu_5x5
I1206 00:28:01.994377  6164 net.cpp:100] Creating Layer inception_4d/relu_5x5
I1206 00:28:01.994379  6164 net.cpp:434] inception_4d/relu_5x5 <- inception_4d/5x5
I1206 00:28:01.994382  6164 net.cpp:395] inception_4d/relu_5x5 -> inception_4d/5x5 (in-place)
I1206 00:28:01.994400  6164 net.cpp:150] Setting up inception_4d/relu_5x5
I1206 00:28:01.994403  6164 net.cpp:157] Top shape: 16 64 14 14 (200704)
I1206 00:28:01.994405  6164 net.cpp:165] Memory required for data: 756898564
I1206 00:28:01.994407  6164 layer_factory.hpp:77] Creating layer inception_4d/pool
I1206 00:28:01.994413  6164 net.cpp:100] Creating Layer inception_4d/pool
I1206 00:28:01.994417  6164 net.cpp:434] inception_4d/pool <- inception_4c/output_inception_4c/output_0_split_3
I1206 00:28:01.994421  6164 net.cpp:408] inception_4d/pool -> inception_4d/pool
I1206 00:28:01.994457  6164 net.cpp:150] Setting up inception_4d/pool
I1206 00:28:01.994462  6164 net.cpp:157] Top shape: 16 512 14 14 (1605632)
I1206 00:28:01.994464  6164 net.cpp:165] Memory required for data: 763321092
I1206 00:28:01.994467  6164 layer_factory.hpp:77] Creating layer inception_4d/pool_proj
I1206 00:28:01.994478  6164 net.cpp:100] Creating Layer inception_4d/pool_proj
I1206 00:28:01.994482  6164 net.cpp:434] inception_4d/pool_proj <- inception_4d/pool
I1206 00:28:01.994488  6164 net.cpp:408] inception_4d/pool_proj -> inception_4d/pool_proj
I1206 00:28:01.994799  6164 net.cpp:150] Setting up inception_4d/pool_proj
I1206 00:28:01.994807  6164 net.cpp:157] Top shape: 16 64 14 14 (200704)
I1206 00:28:01.994809  6164 net.cpp:165] Memory required for data: 764123908
I1206 00:28:01.994817  6164 layer_factory.hpp:77] Creating layer inception_4d/relu_pool_proj
I1206 00:28:01.994822  6164 net.cpp:100] Creating Layer inception_4d/relu_pool_proj
I1206 00:28:01.994825  6164 net.cpp:434] inception_4d/relu_pool_proj <- inception_4d/pool_proj
I1206 00:28:01.994829  6164 net.cpp:395] inception_4d/relu_pool_proj -> inception_4d/pool_proj (in-place)
I1206 00:28:01.994834  6164 net.cpp:150] Setting up inception_4d/relu_pool_proj
I1206 00:28:01.994837  6164 net.cpp:157] Top shape: 16 64 14 14 (200704)
I1206 00:28:01.994839  6164 net.cpp:165] Memory required for data: 764926724
I1206 00:28:01.994841  6164 layer_factory.hpp:77] Creating layer inception_4d/output
I1206 00:28:01.994846  6164 net.cpp:100] Creating Layer inception_4d/output
I1206 00:28:01.994848  6164 net.cpp:434] inception_4d/output <- inception_4d/1x1
I1206 00:28:01.994851  6164 net.cpp:434] inception_4d/output <- inception_4d/3x3
I1206 00:28:01.994855  6164 net.cpp:434] inception_4d/output <- inception_4d/5x5
I1206 00:28:01.994858  6164 net.cpp:434] inception_4d/output <- inception_4d/pool_proj
I1206 00:28:01.994863  6164 net.cpp:408] inception_4d/output -> inception_4d/output
I1206 00:28:01.994886  6164 net.cpp:150] Setting up inception_4d/output
I1206 00:28:01.994891  6164 net.cpp:157] Top shape: 16 528 14 14 (1655808)
I1206 00:28:01.994894  6164 net.cpp:165] Memory required for data: 771549956
I1206 00:28:01.994895  6164 layer_factory.hpp:77] Creating layer inception_4d/output_inception_4d/output_0_split
I1206 00:28:01.994900  6164 net.cpp:100] Creating Layer inception_4d/output_inception_4d/output_0_split
I1206 00:28:01.994902  6164 net.cpp:434] inception_4d/output_inception_4d/output_0_split <- inception_4d/output
I1206 00:28:01.994909  6164 net.cpp:408] inception_4d/output_inception_4d/output_0_split -> inception_4d/output_inception_4d/output_0_split_0
I1206 00:28:01.994913  6164 net.cpp:408] inception_4d/output_inception_4d/output_0_split -> inception_4d/output_inception_4d/output_0_split_1
I1206 00:28:01.994918  6164 net.cpp:408] inception_4d/output_inception_4d/output_0_split -> inception_4d/output_inception_4d/output_0_split_2
I1206 00:28:01.994923  6164 net.cpp:408] inception_4d/output_inception_4d/output_0_split -> inception_4d/output_inception_4d/output_0_split_3
I1206 00:28:01.994930  6164 net.cpp:408] inception_4d/output_inception_4d/output_0_split -> inception_4d/output_inception_4d/output_0_split_4
I1206 00:28:01.994985  6164 net.cpp:150] Setting up inception_4d/output_inception_4d/output_0_split
I1206 00:28:01.994990  6164 net.cpp:157] Top shape: 16 528 14 14 (1655808)
I1206 00:28:01.994992  6164 net.cpp:157] Top shape: 16 528 14 14 (1655808)
I1206 00:28:01.995005  6164 net.cpp:157] Top shape: 16 528 14 14 (1655808)
I1206 00:28:01.995008  6164 net.cpp:157] Top shape: 16 528 14 14 (1655808)
I1206 00:28:01.995010  6164 net.cpp:157] Top shape: 16 528 14 14 (1655808)
I1206 00:28:01.995013  6164 net.cpp:165] Memory required for data: 804666116
I1206 00:28:01.995017  6164 layer_factory.hpp:77] Creating layer loss2/ave_pool
I1206 00:28:01.995023  6164 net.cpp:100] Creating Layer loss2/ave_pool
I1206 00:28:01.995028  6164 net.cpp:434] loss2/ave_pool <- inception_4d/output_inception_4d/output_0_split_0
I1206 00:28:01.995031  6164 net.cpp:408] loss2/ave_pool -> loss2/ave_pool
I1206 00:28:01.995051  6164 net.cpp:150] Setting up loss2/ave_pool
I1206 00:28:01.995056  6164 net.cpp:157] Top shape: 16 528 4 4 (135168)
I1206 00:28:01.995059  6164 net.cpp:165] Memory required for data: 805206788
I1206 00:28:01.995060  6164 layer_factory.hpp:77] Creating layer loss2/conv
I1206 00:28:01.995067  6164 net.cpp:100] Creating Layer loss2/conv
I1206 00:28:01.995070  6164 net.cpp:434] loss2/conv <- loss2/ave_pool
I1206 00:28:01.995075  6164 net.cpp:408] loss2/conv -> loss2/conv
I1206 00:28:01.995533  6164 net.cpp:150] Setting up loss2/conv
I1206 00:28:01.995540  6164 net.cpp:157] Top shape: 16 128 4 4 (32768)
I1206 00:28:01.995543  6164 net.cpp:165] Memory required for data: 805337860
I1206 00:28:01.995546  6164 layer_factory.hpp:77] Creating layer loss2/relu_conv
I1206 00:28:01.995553  6164 net.cpp:100] Creating Layer loss2/relu_conv
I1206 00:28:01.995556  6164 net.cpp:434] loss2/relu_conv <- loss2/conv
I1206 00:28:01.995559  6164 net.cpp:395] loss2/relu_conv -> loss2/conv (in-place)
I1206 00:28:01.995563  6164 net.cpp:150] Setting up loss2/relu_conv
I1206 00:28:01.995565  6164 net.cpp:157] Top shape: 16 128 4 4 (32768)
I1206 00:28:01.995568  6164 net.cpp:165] Memory required for data: 805468932
I1206 00:28:01.995571  6164 layer_factory.hpp:77] Creating layer loss2/fc
I1206 00:28:01.995579  6164 net.cpp:100] Creating Layer loss2/fc
I1206 00:28:01.995581  6164 net.cpp:434] loss2/fc <- loss2/conv
I1206 00:28:01.995586  6164 net.cpp:408] loss2/fc -> loss2/fc
I1206 00:28:02.009719  6164 net.cpp:150] Setting up loss2/fc
I1206 00:28:02.009752  6164 net.cpp:157] Top shape: 16 1024 (16384)
I1206 00:28:02.009755  6164 net.cpp:165] Memory required for data: 805534468
I1206 00:28:02.009768  6164 layer_factory.hpp:77] Creating layer loss2/relu_fc
I1206 00:28:02.009779  6164 net.cpp:100] Creating Layer loss2/relu_fc
I1206 00:28:02.009784  6164 net.cpp:434] loss2/relu_fc <- loss2/fc
I1206 00:28:02.009794  6164 net.cpp:395] loss2/relu_fc -> loss2/fc (in-place)
I1206 00:28:02.009804  6164 net.cpp:150] Setting up loss2/relu_fc
I1206 00:28:02.009811  6164 net.cpp:157] Top shape: 16 1024 (16384)
I1206 00:28:02.009814  6164 net.cpp:165] Memory required for data: 805600004
I1206 00:28:02.009817  6164 layer_factory.hpp:77] Creating layer loss2/drop_fc
I1206 00:28:02.009824  6164 net.cpp:100] Creating Layer loss2/drop_fc
I1206 00:28:02.009829  6164 net.cpp:434] loss2/drop_fc <- loss2/fc
I1206 00:28:02.009834  6164 net.cpp:395] loss2/drop_fc -> loss2/fc (in-place)
I1206 00:28:02.009865  6164 net.cpp:150] Setting up loss2/drop_fc
I1206 00:28:02.009873  6164 net.cpp:157] Top shape: 16 1024 (16384)
I1206 00:28:02.009876  6164 net.cpp:165] Memory required for data: 805665540
I1206 00:28:02.009879  6164 layer_factory.hpp:77] Creating layer loss2/classifier
I1206 00:28:02.009889  6164 net.cpp:100] Creating Layer loss2/classifier
I1206 00:28:02.009893  6164 net.cpp:434] loss2/classifier <- loss2/fc
I1206 00:28:02.009901  6164 net.cpp:408] loss2/classifier -> loss2/classifier
I1206 00:28:02.017979  6164 net.cpp:150] Setting up loss2/classifier
I1206 00:28:02.017997  6164 net.cpp:157] Top shape: 16 1000 (16000)
I1206 00:28:02.017999  6164 net.cpp:165] Memory required for data: 805729540
I1206 00:28:02.018005  6164 layer_factory.hpp:77] Creating layer loss2/loss
I1206 00:28:02.018013  6164 net.cpp:100] Creating Layer loss2/loss
I1206 00:28:02.018016  6164 net.cpp:434] loss2/loss <- loss2/classifier
I1206 00:28:02.018041  6164 net.cpp:434] loss2/loss <- label_data_1_split_1
I1206 00:28:02.018045  6164 net.cpp:408] loss2/loss -> loss2/loss1
I1206 00:28:02.018054  6164 layer_factory.hpp:77] Creating layer loss2/loss
I1206 00:28:02.018146  6164 net.cpp:150] Setting up loss2/loss
I1206 00:28:02.018151  6164 net.cpp:157] Top shape: (1)
I1206 00:28:02.018153  6164 net.cpp:160]     with loss weight 0.3
I1206 00:28:02.018162  6164 net.cpp:165] Memory required for data: 805729544
I1206 00:28:02.018164  6164 layer_factory.hpp:77] Creating layer inception_4e/1x1
I1206 00:28:02.018172  6164 net.cpp:100] Creating Layer inception_4e/1x1
I1206 00:28:02.018175  6164 net.cpp:434] inception_4e/1x1 <- inception_4d/output_inception_4d/output_0_split_1
I1206 00:28:02.018182  6164 net.cpp:408] inception_4e/1x1 -> inception_4e/1x1
I1206 00:28:02.019377  6164 net.cpp:150] Setting up inception_4e/1x1
I1206 00:28:02.019387  6164 net.cpp:157] Top shape: 16 256 14 14 (802816)
I1206 00:28:02.019389  6164 net.cpp:165] Memory required for data: 808940808
I1206 00:28:02.019394  6164 layer_factory.hpp:77] Creating layer inception_4e/relu_1x1
I1206 00:28:02.019400  6164 net.cpp:100] Creating Layer inception_4e/relu_1x1
I1206 00:28:02.019403  6164 net.cpp:434] inception_4e/relu_1x1 <- inception_4e/1x1
I1206 00:28:02.019407  6164 net.cpp:395] inception_4e/relu_1x1 -> inception_4e/1x1 (in-place)
I1206 00:28:02.019412  6164 net.cpp:150] Setting up inception_4e/relu_1x1
I1206 00:28:02.019414  6164 net.cpp:157] Top shape: 16 256 14 14 (802816)
I1206 00:28:02.019417  6164 net.cpp:165] Memory required for data: 812152072
I1206 00:28:02.019418  6164 layer_factory.hpp:77] Creating layer inception_4e/3x3_reduce
I1206 00:28:02.019425  6164 net.cpp:100] Creating Layer inception_4e/3x3_reduce
I1206 00:28:02.019428  6164 net.cpp:434] inception_4e/3x3_reduce <- inception_4d/output_inception_4d/output_0_split_2
I1206 00:28:02.019433  6164 net.cpp:408] inception_4e/3x3_reduce -> inception_4e/3x3_reduce
I1206 00:28:02.019971  6164 net.cpp:150] Setting up inception_4e/3x3_reduce
I1206 00:28:02.019978  6164 net.cpp:157] Top shape: 16 160 14 14 (501760)
I1206 00:28:02.019979  6164 net.cpp:165] Memory required for data: 814159112
I1206 00:28:02.019984  6164 layer_factory.hpp:77] Creating layer inception_4e/relu_3x3_reduce
I1206 00:28:02.019987  6164 net.cpp:100] Creating Layer inception_4e/relu_3x3_reduce
I1206 00:28:02.019990  6164 net.cpp:434] inception_4e/relu_3x3_reduce <- inception_4e/3x3_reduce
I1206 00:28:02.019994  6164 net.cpp:395] inception_4e/relu_3x3_reduce -> inception_4e/3x3_reduce (in-place)
I1206 00:28:02.019999  6164 net.cpp:150] Setting up inception_4e/relu_3x3_reduce
I1206 00:28:02.020001  6164 net.cpp:157] Top shape: 16 160 14 14 (501760)
I1206 00:28:02.020002  6164 net.cpp:165] Memory required for data: 816166152
I1206 00:28:02.020004  6164 layer_factory.hpp:77] Creating layer inception_4e/3x3
I1206 00:28:02.020011  6164 net.cpp:100] Creating Layer inception_4e/3x3
I1206 00:28:02.020014  6164 net.cpp:434] inception_4e/3x3 <- inception_4e/3x3_reduce
I1206 00:28:02.020020  6164 net.cpp:408] inception_4e/3x3 -> inception_4e/3x3
I1206 00:28:02.022809  6164 net.cpp:150] Setting up inception_4e/3x3
I1206 00:28:02.022820  6164 net.cpp:157] Top shape: 16 320 14 14 (1003520)
I1206 00:28:02.022822  6164 net.cpp:165] Memory required for data: 820180232
I1206 00:28:02.022827  6164 layer_factory.hpp:77] Creating layer inception_4e/relu_3x3
I1206 00:28:02.022832  6164 net.cpp:100] Creating Layer inception_4e/relu_3x3
I1206 00:28:02.022835  6164 net.cpp:434] inception_4e/relu_3x3 <- inception_4e/3x3
I1206 00:28:02.022840  6164 net.cpp:395] inception_4e/relu_3x3 -> inception_4e/3x3 (in-place)
I1206 00:28:02.022845  6164 net.cpp:150] Setting up inception_4e/relu_3x3
I1206 00:28:02.022848  6164 net.cpp:157] Top shape: 16 320 14 14 (1003520)
I1206 00:28:02.022850  6164 net.cpp:165] Memory required for data: 824194312
I1206 00:28:02.022852  6164 layer_factory.hpp:77] Creating layer inception_4e/5x5_reduce
I1206 00:28:02.022861  6164 net.cpp:100] Creating Layer inception_4e/5x5_reduce
I1206 00:28:02.022874  6164 net.cpp:434] inception_4e/5x5_reduce <- inception_4d/output_inception_4d/output_0_split_3
I1206 00:28:02.022879  6164 net.cpp:408] inception_4e/5x5_reduce -> inception_4e/5x5_reduce
I1206 00:28:02.023133  6164 net.cpp:150] Setting up inception_4e/5x5_reduce
I1206 00:28:02.023139  6164 net.cpp:157] Top shape: 16 32 14 14 (100352)
I1206 00:28:02.023141  6164 net.cpp:165] Memory required for data: 824595720
I1206 00:28:02.023146  6164 layer_factory.hpp:77] Creating layer inception_4e/relu_5x5_reduce
I1206 00:28:02.023150  6164 net.cpp:100] Creating Layer inception_4e/relu_5x5_reduce
I1206 00:28:02.023157  6164 net.cpp:434] inception_4e/relu_5x5_reduce <- inception_4e/5x5_reduce
I1206 00:28:02.023161  6164 net.cpp:395] inception_4e/relu_5x5_reduce -> inception_4e/5x5_reduce (in-place)
I1206 00:28:02.023165  6164 net.cpp:150] Setting up inception_4e/relu_5x5_reduce
I1206 00:28:02.023169  6164 net.cpp:157] Top shape: 16 32 14 14 (100352)
I1206 00:28:02.023170  6164 net.cpp:165] Memory required for data: 824997128
I1206 00:28:02.023172  6164 layer_factory.hpp:77] Creating layer inception_4e/5x5
I1206 00:28:02.023203  6164 net.cpp:100] Creating Layer inception_4e/5x5
I1206 00:28:02.023207  6164 net.cpp:434] inception_4e/5x5 <- inception_4e/5x5_reduce
I1206 00:28:02.023211  6164 net.cpp:408] inception_4e/5x5 -> inception_4e/5x5
I1206 00:28:02.024233  6164 net.cpp:150] Setting up inception_4e/5x5
I1206 00:28:02.024243  6164 net.cpp:157] Top shape: 16 128 14 14 (401408)
I1206 00:28:02.024245  6164 net.cpp:165] Memory required for data: 826602760
I1206 00:28:02.024250  6164 layer_factory.hpp:77] Creating layer inception_4e/relu_5x5
I1206 00:28:02.024256  6164 net.cpp:100] Creating Layer inception_4e/relu_5x5
I1206 00:28:02.024260  6164 net.cpp:434] inception_4e/relu_5x5 <- inception_4e/5x5
I1206 00:28:02.024262  6164 net.cpp:395] inception_4e/relu_5x5 -> inception_4e/5x5 (in-place)
I1206 00:28:02.024267  6164 net.cpp:150] Setting up inception_4e/relu_5x5
I1206 00:28:02.024269  6164 net.cpp:157] Top shape: 16 128 14 14 (401408)
I1206 00:28:02.024271  6164 net.cpp:165] Memory required for data: 828208392
I1206 00:28:02.024273  6164 layer_factory.hpp:77] Creating layer inception_4e/pool
I1206 00:28:02.024278  6164 net.cpp:100] Creating Layer inception_4e/pool
I1206 00:28:02.024281  6164 net.cpp:434] inception_4e/pool <- inception_4d/output_inception_4d/output_0_split_4
I1206 00:28:02.024284  6164 net.cpp:408] inception_4e/pool -> inception_4e/pool
I1206 00:28:02.024317  6164 net.cpp:150] Setting up inception_4e/pool
I1206 00:28:02.024322  6164 net.cpp:157] Top shape: 16 528 14 14 (1655808)
I1206 00:28:02.024323  6164 net.cpp:165] Memory required for data: 834831624
I1206 00:28:02.024325  6164 layer_factory.hpp:77] Creating layer inception_4e/pool_proj
I1206 00:28:02.024333  6164 net.cpp:100] Creating Layer inception_4e/pool_proj
I1206 00:28:02.024334  6164 net.cpp:434] inception_4e/pool_proj <- inception_4e/pool
I1206 00:28:02.024339  6164 net.cpp:408] inception_4e/pool_proj -> inception_4e/pool_proj
I1206 00:28:02.024792  6164 net.cpp:150] Setting up inception_4e/pool_proj
I1206 00:28:02.024799  6164 net.cpp:157] Top shape: 16 128 14 14 (401408)
I1206 00:28:02.024801  6164 net.cpp:165] Memory required for data: 836437256
I1206 00:28:02.024806  6164 layer_factory.hpp:77] Creating layer inception_4e/relu_pool_proj
I1206 00:28:02.024809  6164 net.cpp:100] Creating Layer inception_4e/relu_pool_proj
I1206 00:28:02.024812  6164 net.cpp:434] inception_4e/relu_pool_proj <- inception_4e/pool_proj
I1206 00:28:02.024816  6164 net.cpp:395] inception_4e/relu_pool_proj -> inception_4e/pool_proj (in-place)
I1206 00:28:02.024821  6164 net.cpp:150] Setting up inception_4e/relu_pool_proj
I1206 00:28:02.024823  6164 net.cpp:157] Top shape: 16 128 14 14 (401408)
I1206 00:28:02.024826  6164 net.cpp:165] Memory required for data: 838042888
I1206 00:28:02.024827  6164 layer_factory.hpp:77] Creating layer inception_4e/output
I1206 00:28:02.024832  6164 net.cpp:100] Creating Layer inception_4e/output
I1206 00:28:02.024833  6164 net.cpp:434] inception_4e/output <- inception_4e/1x1
I1206 00:28:02.024844  6164 net.cpp:434] inception_4e/output <- inception_4e/3x3
I1206 00:28:02.024847  6164 net.cpp:434] inception_4e/output <- inception_4e/5x5
I1206 00:28:02.024849  6164 net.cpp:434] inception_4e/output <- inception_4e/pool_proj
I1206 00:28:02.024855  6164 net.cpp:408] inception_4e/output -> inception_4e/output
I1206 00:28:02.024876  6164 net.cpp:150] Setting up inception_4e/output
I1206 00:28:02.024881  6164 net.cpp:157] Top shape: 16 832 14 14 (2609152)
I1206 00:28:02.024883  6164 net.cpp:165] Memory required for data: 848479496
I1206 00:28:02.024885  6164 layer_factory.hpp:77] Creating layer pool4/3x3_s2
I1206 00:28:02.024890  6164 net.cpp:100] Creating Layer pool4/3x3_s2
I1206 00:28:02.024893  6164 net.cpp:434] pool4/3x3_s2 <- inception_4e/output
I1206 00:28:02.024896  6164 net.cpp:408] pool4/3x3_s2 -> pool4/3x3_s2
I1206 00:28:02.024924  6164 net.cpp:150] Setting up pool4/3x3_s2
I1206 00:28:02.024927  6164 net.cpp:157] Top shape: 16 832 7 7 (652288)
I1206 00:28:02.024930  6164 net.cpp:165] Memory required for data: 851088648
I1206 00:28:02.024931  6164 layer_factory.hpp:77] Creating layer pool4/3x3_s2_pool4/3x3_s2_0_split
I1206 00:28:02.024936  6164 net.cpp:100] Creating Layer pool4/3x3_s2_pool4/3x3_s2_0_split
I1206 00:28:02.024940  6164 net.cpp:434] pool4/3x3_s2_pool4/3x3_s2_0_split <- pool4/3x3_s2
I1206 00:28:02.024942  6164 net.cpp:408] pool4/3x3_s2_pool4/3x3_s2_0_split -> pool4/3x3_s2_pool4/3x3_s2_0_split_0
I1206 00:28:02.024947  6164 net.cpp:408] pool4/3x3_s2_pool4/3x3_s2_0_split -> pool4/3x3_s2_pool4/3x3_s2_0_split_1
I1206 00:28:02.024955  6164 net.cpp:408] pool4/3x3_s2_pool4/3x3_s2_0_split -> pool4/3x3_s2_pool4/3x3_s2_0_split_2
I1206 00:28:02.024960  6164 net.cpp:408] pool4/3x3_s2_pool4/3x3_s2_0_split -> pool4/3x3_s2_pool4/3x3_s2_0_split_3
I1206 00:28:02.025001  6164 net.cpp:150] Setting up pool4/3x3_s2_pool4/3x3_s2_0_split
I1206 00:28:02.025005  6164 net.cpp:157] Top shape: 16 832 7 7 (652288)
I1206 00:28:02.025007  6164 net.cpp:157] Top shape: 16 832 7 7 (652288)
I1206 00:28:02.025010  6164 net.cpp:157] Top shape: 16 832 7 7 (652288)
I1206 00:28:02.025012  6164 net.cpp:157] Top shape: 16 832 7 7 (652288)
I1206 00:28:02.025014  6164 net.cpp:165] Memory required for data: 861525256
I1206 00:28:02.025017  6164 layer_factory.hpp:77] Creating layer inception_5a/1x1
I1206 00:28:02.025024  6164 net.cpp:100] Creating Layer inception_5a/1x1
I1206 00:28:02.025027  6164 net.cpp:434] inception_5a/1x1 <- pool4/3x3_s2_pool4/3x3_s2_0_split_0
I1206 00:28:02.025032  6164 net.cpp:408] inception_5a/1x1 -> inception_5a/1x1
I1206 00:28:02.026535  6164 net.cpp:150] Setting up inception_5a/1x1
I1206 00:28:02.026546  6164 net.cpp:157] Top shape: 16 256 7 7 (200704)
I1206 00:28:02.026547  6164 net.cpp:165] Memory required for data: 862328072
I1206 00:28:02.026551  6164 layer_factory.hpp:77] Creating layer inception_5a/relu_1x1
I1206 00:28:02.026556  6164 net.cpp:100] Creating Layer inception_5a/relu_1x1
I1206 00:28:02.026558  6164 net.cpp:434] inception_5a/relu_1x1 <- inception_5a/1x1
I1206 00:28:02.026562  6164 net.cpp:395] inception_5a/relu_1x1 -> inception_5a/1x1 (in-place)
I1206 00:28:02.026566  6164 net.cpp:150] Setting up inception_5a/relu_1x1
I1206 00:28:02.026569  6164 net.cpp:157] Top shape: 16 256 7 7 (200704)
I1206 00:28:02.026571  6164 net.cpp:165] Memory required for data: 863130888
I1206 00:28:02.026573  6164 layer_factory.hpp:77] Creating layer inception_5a/3x3_reduce
I1206 00:28:02.026581  6164 net.cpp:100] Creating Layer inception_5a/3x3_reduce
I1206 00:28:02.026584  6164 net.cpp:434] inception_5a/3x3_reduce <- pool4/3x3_s2_pool4/3x3_s2_0_split_1
I1206 00:28:02.026588  6164 net.cpp:408] inception_5a/3x3_reduce -> inception_5a/3x3_reduce
I1206 00:28:02.027801  6164 net.cpp:150] Setting up inception_5a/3x3_reduce
I1206 00:28:02.027811  6164 net.cpp:157] Top shape: 16 160 7 7 (125440)
I1206 00:28:02.027812  6164 net.cpp:165] Memory required for data: 863632648
I1206 00:28:02.027817  6164 layer_factory.hpp:77] Creating layer inception_5a/relu_3x3_reduce
I1206 00:28:02.027832  6164 net.cpp:100] Creating Layer inception_5a/relu_3x3_reduce
I1206 00:28:02.027834  6164 net.cpp:434] inception_5a/relu_3x3_reduce <- inception_5a/3x3_reduce
I1206 00:28:02.027839  6164 net.cpp:395] inception_5a/relu_3x3_reduce -> inception_5a/3x3_reduce (in-place)
I1206 00:28:02.027844  6164 net.cpp:150] Setting up inception_5a/relu_3x3_reduce
I1206 00:28:02.027848  6164 net.cpp:157] Top shape: 16 160 7 7 (125440)
I1206 00:28:02.027849  6164 net.cpp:165] Memory required for data: 864134408
I1206 00:28:02.027851  6164 layer_factory.hpp:77] Creating layer inception_5a/3x3
I1206 00:28:02.027858  6164 net.cpp:100] Creating Layer inception_5a/3x3
I1206 00:28:02.027860  6164 net.cpp:434] inception_5a/3x3 <- inception_5a/3x3_reduce
I1206 00:28:02.027864  6164 net.cpp:408] inception_5a/3x3 -> inception_5a/3x3
I1206 00:28:02.030663  6164 net.cpp:150] Setting up inception_5a/3x3
I1206 00:28:02.030673  6164 net.cpp:157] Top shape: 16 320 7 7 (250880)
I1206 00:28:02.030675  6164 net.cpp:165] Memory required for data: 865137928
I1206 00:28:02.030679  6164 layer_factory.hpp:77] Creating layer inception_5a/relu_3x3
I1206 00:28:02.030686  6164 net.cpp:100] Creating Layer inception_5a/relu_3x3
I1206 00:28:02.030689  6164 net.cpp:434] inception_5a/relu_3x3 <- inception_5a/3x3
I1206 00:28:02.030692  6164 net.cpp:395] inception_5a/relu_3x3 -> inception_5a/3x3 (in-place)
I1206 00:28:02.030697  6164 net.cpp:150] Setting up inception_5a/relu_3x3
I1206 00:28:02.030700  6164 net.cpp:157] Top shape: 16 320 7 7 (250880)
I1206 00:28:02.030702  6164 net.cpp:165] Memory required for data: 866141448
I1206 00:28:02.030704  6164 layer_factory.hpp:77] Creating layer inception_5a/5x5_reduce
I1206 00:28:02.030711  6164 net.cpp:100] Creating Layer inception_5a/5x5_reduce
I1206 00:28:02.030714  6164 net.cpp:434] inception_5a/5x5_reduce <- pool4/3x3_s2_pool4/3x3_s2_0_split_2
I1206 00:28:02.030719  6164 net.cpp:408] inception_5a/5x5_reduce -> inception_5a/5x5_reduce
I1206 00:28:02.031020  6164 net.cpp:150] Setting up inception_5a/5x5_reduce
I1206 00:28:02.031028  6164 net.cpp:157] Top shape: 16 32 7 7 (25088)
I1206 00:28:02.031029  6164 net.cpp:165] Memory required for data: 866241800
I1206 00:28:02.031033  6164 layer_factory.hpp:77] Creating layer inception_5a/relu_5x5_reduce
I1206 00:28:02.031038  6164 net.cpp:100] Creating Layer inception_5a/relu_5x5_reduce
I1206 00:28:02.031040  6164 net.cpp:434] inception_5a/relu_5x5_reduce <- inception_5a/5x5_reduce
I1206 00:28:02.031044  6164 net.cpp:395] inception_5a/relu_5x5_reduce -> inception_5a/5x5_reduce (in-place)
I1206 00:28:02.031047  6164 net.cpp:150] Setting up inception_5a/relu_5x5_reduce
I1206 00:28:02.031050  6164 net.cpp:157] Top shape: 16 32 7 7 (25088)
I1206 00:28:02.031051  6164 net.cpp:165] Memory required for data: 866342152
I1206 00:28:02.031054  6164 layer_factory.hpp:77] Creating layer inception_5a/5x5
I1206 00:28:02.031060  6164 net.cpp:100] Creating Layer inception_5a/5x5
I1206 00:28:02.031064  6164 net.cpp:434] inception_5a/5x5 <- inception_5a/5x5_reduce
I1206 00:28:02.031067  6164 net.cpp:408] inception_5a/5x5 -> inception_5a/5x5
I1206 00:28:02.031677  6164 net.cpp:150] Setting up inception_5a/5x5
I1206 00:28:02.031683  6164 net.cpp:157] Top shape: 16 128 7 7 (100352)
I1206 00:28:02.031685  6164 net.cpp:165] Memory required for data: 866743560
I1206 00:28:02.031689  6164 layer_factory.hpp:77] Creating layer inception_5a/relu_5x5
I1206 00:28:02.031694  6164 net.cpp:100] Creating Layer inception_5a/relu_5x5
I1206 00:28:02.031697  6164 net.cpp:434] inception_5a/relu_5x5 <- inception_5a/5x5
I1206 00:28:02.031700  6164 net.cpp:395] inception_5a/relu_5x5 -> inception_5a/5x5 (in-place)
I1206 00:28:02.031704  6164 net.cpp:150] Setting up inception_5a/relu_5x5
I1206 00:28:02.031707  6164 net.cpp:157] Top shape: 16 128 7 7 (100352)
I1206 00:28:02.031708  6164 net.cpp:165] Memory required for data: 867144968
I1206 00:28:02.031710  6164 layer_factory.hpp:77] Creating layer inception_5a/pool
I1206 00:28:02.031715  6164 net.cpp:100] Creating Layer inception_5a/pool
I1206 00:28:02.031728  6164 net.cpp:434] inception_5a/pool <- pool4/3x3_s2_pool4/3x3_s2_0_split_3
I1206 00:28:02.031733  6164 net.cpp:408] inception_5a/pool -> inception_5a/pool
I1206 00:28:02.031764  6164 net.cpp:150] Setting up inception_5a/pool
I1206 00:28:02.031769  6164 net.cpp:157] Top shape: 16 832 7 7 (652288)
I1206 00:28:02.031771  6164 net.cpp:165] Memory required for data: 869754120
I1206 00:28:02.031774  6164 layer_factory.hpp:77] Creating layer inception_5a/pool_proj
I1206 00:28:02.031780  6164 net.cpp:100] Creating Layer inception_5a/pool_proj
I1206 00:28:02.031783  6164 net.cpp:434] inception_5a/pool_proj <- inception_5a/pool
I1206 00:28:02.031788  6164 net.cpp:408] inception_5a/pool_proj -> inception_5a/pool_proj
I1206 00:28:02.032816  6164 net.cpp:150] Setting up inception_5a/pool_proj
I1206 00:28:02.032827  6164 net.cpp:157] Top shape: 16 128 7 7 (100352)
I1206 00:28:02.032829  6164 net.cpp:165] Memory required for data: 870155528
I1206 00:28:02.032835  6164 layer_factory.hpp:77] Creating layer inception_5a/relu_pool_proj
I1206 00:28:02.032840  6164 net.cpp:100] Creating Layer inception_5a/relu_pool_proj
I1206 00:28:02.032842  6164 net.cpp:434] inception_5a/relu_pool_proj <- inception_5a/pool_proj
I1206 00:28:02.032846  6164 net.cpp:395] inception_5a/relu_pool_proj -> inception_5a/pool_proj (in-place)
I1206 00:28:02.032851  6164 net.cpp:150] Setting up inception_5a/relu_pool_proj
I1206 00:28:02.032855  6164 net.cpp:157] Top shape: 16 128 7 7 (100352)
I1206 00:28:02.032856  6164 net.cpp:165] Memory required for data: 870556936
I1206 00:28:02.032857  6164 layer_factory.hpp:77] Creating layer inception_5a/output
I1206 00:28:02.032862  6164 net.cpp:100] Creating Layer inception_5a/output
I1206 00:28:02.032865  6164 net.cpp:434] inception_5a/output <- inception_5a/1x1
I1206 00:28:02.032868  6164 net.cpp:434] inception_5a/output <- inception_5a/3x3
I1206 00:28:02.032871  6164 net.cpp:434] inception_5a/output <- inception_5a/5x5
I1206 00:28:02.032873  6164 net.cpp:434] inception_5a/output <- inception_5a/pool_proj
I1206 00:28:02.032876  6164 net.cpp:408] inception_5a/output -> inception_5a/output
I1206 00:28:02.032898  6164 net.cpp:150] Setting up inception_5a/output
I1206 00:28:02.032902  6164 net.cpp:157] Top shape: 16 832 7 7 (652288)
I1206 00:28:02.032904  6164 net.cpp:165] Memory required for data: 873166088
I1206 00:28:02.032907  6164 layer_factory.hpp:77] Creating layer inception_5a/output_inception_5a/output_0_split
I1206 00:28:02.032912  6164 net.cpp:100] Creating Layer inception_5a/output_inception_5a/output_0_split
I1206 00:28:02.032913  6164 net.cpp:434] inception_5a/output_inception_5a/output_0_split <- inception_5a/output
I1206 00:28:02.032918  6164 net.cpp:408] inception_5a/output_inception_5a/output_0_split -> inception_5a/output_inception_5a/output_0_split_0
I1206 00:28:02.032923  6164 net.cpp:408] inception_5a/output_inception_5a/output_0_split -> inception_5a/output_inception_5a/output_0_split_1
I1206 00:28:02.032928  6164 net.cpp:408] inception_5a/output_inception_5a/output_0_split -> inception_5a/output_inception_5a/output_0_split_2
I1206 00:28:02.032932  6164 net.cpp:408] inception_5a/output_inception_5a/output_0_split -> inception_5a/output_inception_5a/output_0_split_3
I1206 00:28:02.032976  6164 net.cpp:150] Setting up inception_5a/output_inception_5a/output_0_split
I1206 00:28:02.032981  6164 net.cpp:157] Top shape: 16 832 7 7 (652288)
I1206 00:28:02.032984  6164 net.cpp:157] Top shape: 16 832 7 7 (652288)
I1206 00:28:02.032986  6164 net.cpp:157] Top shape: 16 832 7 7 (652288)
I1206 00:28:02.032989  6164 net.cpp:157] Top shape: 16 832 7 7 (652288)
I1206 00:28:02.032990  6164 net.cpp:165] Memory required for data: 883602696
I1206 00:28:02.032992  6164 layer_factory.hpp:77] Creating layer inception_5b/1x1
I1206 00:28:02.032999  6164 net.cpp:100] Creating Layer inception_5b/1x1
I1206 00:28:02.033001  6164 net.cpp:434] inception_5b/1x1 <- inception_5a/output_inception_5a/output_0_split_0
I1206 00:28:02.033006  6164 net.cpp:408] inception_5b/1x1 -> inception_5b/1x1
I1206 00:28:02.034962  6164 net.cpp:150] Setting up inception_5b/1x1
I1206 00:28:02.034981  6164 net.cpp:157] Top shape: 16 384 7 7 (301056)
I1206 00:28:02.034983  6164 net.cpp:165] Memory required for data: 884806920
I1206 00:28:02.034988  6164 layer_factory.hpp:77] Creating layer inception_5b/relu_1x1
I1206 00:28:02.034993  6164 net.cpp:100] Creating Layer inception_5b/relu_1x1
I1206 00:28:02.034996  6164 net.cpp:434] inception_5b/relu_1x1 <- inception_5b/1x1
I1206 00:28:02.035001  6164 net.cpp:395] inception_5b/relu_1x1 -> inception_5b/1x1 (in-place)
I1206 00:28:02.035006  6164 net.cpp:150] Setting up inception_5b/relu_1x1
I1206 00:28:02.035008  6164 net.cpp:157] Top shape: 16 384 7 7 (301056)
I1206 00:28:02.035010  6164 net.cpp:165] Memory required for data: 886011144
I1206 00:28:02.035012  6164 layer_factory.hpp:77] Creating layer inception_5b/3x3_reduce
I1206 00:28:02.035022  6164 net.cpp:100] Creating Layer inception_5b/3x3_reduce
I1206 00:28:02.035023  6164 net.cpp:434] inception_5b/3x3_reduce <- inception_5a/output_inception_5a/output_0_split_1
I1206 00:28:02.035028  6164 net.cpp:408] inception_5b/3x3_reduce -> inception_5b/3x3_reduce
I1206 00:28:02.036286  6164 net.cpp:150] Setting up inception_5b/3x3_reduce
I1206 00:28:02.036298  6164 net.cpp:157] Top shape: 16 192 7 7 (150528)
I1206 00:28:02.036299  6164 net.cpp:165] Memory required for data: 886613256
I1206 00:28:02.036303  6164 layer_factory.hpp:77] Creating layer inception_5b/relu_3x3_reduce
I1206 00:28:02.036309  6164 net.cpp:100] Creating Layer inception_5b/relu_3x3_reduce
I1206 00:28:02.036311  6164 net.cpp:434] inception_5b/relu_3x3_reduce <- inception_5b/3x3_reduce
I1206 00:28:02.036315  6164 net.cpp:395] inception_5b/relu_3x3_reduce -> inception_5b/3x3_reduce (in-place)
I1206 00:28:02.036320  6164 net.cpp:150] Setting up inception_5b/relu_3x3_reduce
I1206 00:28:02.036322  6164 net.cpp:157] Top shape: 16 192 7 7 (150528)
I1206 00:28:02.036324  6164 net.cpp:165] Memory required for data: 887215368
I1206 00:28:02.036326  6164 layer_factory.hpp:77] Creating layer inception_5b/3x3
I1206 00:28:02.036334  6164 net.cpp:100] Creating Layer inception_5b/3x3
I1206 00:28:02.036335  6164 net.cpp:434] inception_5b/3x3 <- inception_5b/3x3_reduce
I1206 00:28:02.036340  6164 net.cpp:408] inception_5b/3x3 -> inception_5b/3x3
I1206 00:28:02.040735  6164 net.cpp:150] Setting up inception_5b/3x3
I1206 00:28:02.040755  6164 net.cpp:157] Top shape: 16 384 7 7 (301056)
I1206 00:28:02.040760  6164 net.cpp:165] Memory required for data: 888419592
I1206 00:28:02.040767  6164 layer_factory.hpp:77] Creating layer inception_5b/relu_3x3
I1206 00:28:02.040776  6164 net.cpp:100] Creating Layer inception_5b/relu_3x3
I1206 00:28:02.040781  6164 net.cpp:434] inception_5b/relu_3x3 <- inception_5b/3x3
I1206 00:28:02.040787  6164 net.cpp:395] inception_5b/relu_3x3 -> inception_5b/3x3 (in-place)
I1206 00:28:02.040799  6164 net.cpp:150] Setting up inception_5b/relu_3x3
I1206 00:28:02.040807  6164 net.cpp:157] Top shape: 16 384 7 7 (301056)
I1206 00:28:02.040809  6164 net.cpp:165] Memory required for data: 889623816
I1206 00:28:02.040813  6164 layer_factory.hpp:77] Creating layer inception_5b/5x5_reduce
I1206 00:28:02.040825  6164 net.cpp:100] Creating Layer inception_5b/5x5_reduce
I1206 00:28:02.040833  6164 net.cpp:434] inception_5b/5x5_reduce <- inception_5a/output_inception_5a/output_0_split_2
I1206 00:28:02.040841  6164 net.cpp:408] inception_5b/5x5_reduce -> inception_5b/5x5_reduce
I1206 00:28:02.041981  6164 net.cpp:150] Setting up inception_5b/5x5_reduce
I1206 00:28:02.041996  6164 net.cpp:157] Top shape: 16 48 7 7 (37632)
I1206 00:28:02.042001  6164 net.cpp:165] Memory required for data: 889774344
I1206 00:28:02.042008  6164 layer_factory.hpp:77] Creating layer inception_5b/relu_5x5_reduce
I1206 00:28:02.042016  6164 net.cpp:100] Creating Layer inception_5b/relu_5x5_reduce
I1206 00:28:02.042026  6164 net.cpp:434] inception_5b/relu_5x5_reduce <- inception_5b/5x5_reduce
I1206 00:28:02.042032  6164 net.cpp:395] inception_5b/relu_5x5_reduce -> inception_5b/5x5_reduce (in-place)
I1206 00:28:02.042040  6164 net.cpp:150] Setting up inception_5b/relu_5x5_reduce
I1206 00:28:02.042060  6164 net.cpp:157] Top shape: 16 48 7 7 (37632)
I1206 00:28:02.042064  6164 net.cpp:165] Memory required for data: 889924872
I1206 00:28:02.042068  6164 layer_factory.hpp:77] Creating layer inception_5b/5x5
I1206 00:28:02.042080  6164 net.cpp:100] Creating Layer inception_5b/5x5
I1206 00:28:02.042085  6164 net.cpp:434] inception_5b/5x5 <- inception_5b/5x5_reduce
I1206 00:28:02.042094  6164 net.cpp:408] inception_5b/5x5 -> inception_5b/5x5
I1206 00:28:02.043598  6164 net.cpp:150] Setting up inception_5b/5x5
I1206 00:28:02.043612  6164 net.cpp:157] Top shape: 16 128 7 7 (100352)
I1206 00:28:02.043617  6164 net.cpp:165] Memory required for data: 890326280
I1206 00:28:02.043623  6164 layer_factory.hpp:77] Creating layer inception_5b/relu_5x5
I1206 00:28:02.043630  6164 net.cpp:100] Creating Layer inception_5b/relu_5x5
I1206 00:28:02.043634  6164 net.cpp:434] inception_5b/relu_5x5 <- inception_5b/5x5
I1206 00:28:02.043642  6164 net.cpp:395] inception_5b/relu_5x5 -> inception_5b/5x5 (in-place)
I1206 00:28:02.043650  6164 net.cpp:150] Setting up inception_5b/relu_5x5
I1206 00:28:02.043655  6164 net.cpp:157] Top shape: 16 128 7 7 (100352)
I1206 00:28:02.043658  6164 net.cpp:165] Memory required for data: 890727688
I1206 00:28:02.043663  6164 layer_factory.hpp:77] Creating layer inception_5b/pool
I1206 00:28:02.043669  6164 net.cpp:100] Creating Layer inception_5b/pool
I1206 00:28:02.043673  6164 net.cpp:434] inception_5b/pool <- inception_5a/output_inception_5a/output_0_split_3
I1206 00:28:02.043681  6164 net.cpp:408] inception_5b/pool -> inception_5b/pool
I1206 00:28:02.043735  6164 net.cpp:150] Setting up inception_5b/pool
I1206 00:28:02.043748  6164 net.cpp:157] Top shape: 16 832 7 7 (652288)
I1206 00:28:02.043753  6164 net.cpp:165] Memory required for data: 893336840
I1206 00:28:02.043756  6164 layer_factory.hpp:77] Creating layer inception_5b/pool_proj
I1206 00:28:02.043766  6164 net.cpp:100] Creating Layer inception_5b/pool_proj
I1206 00:28:02.043771  6164 net.cpp:434] inception_5b/pool_proj <- inception_5b/pool
I1206 00:28:02.043779  6164 net.cpp:408] inception_5b/pool_proj -> inception_5b/pool_proj
I1206 00:28:02.045431  6164 net.cpp:150] Setting up inception_5b/pool_proj
I1206 00:28:02.045447  6164 net.cpp:157] Top shape: 16 128 7 7 (100352)
I1206 00:28:02.045454  6164 net.cpp:165] Memory required for data: 893738248
I1206 00:28:02.045461  6164 layer_factory.hpp:77] Creating layer inception_5b/relu_pool_proj
I1206 00:28:02.045469  6164 net.cpp:100] Creating Layer inception_5b/relu_pool_proj
I1206 00:28:02.045473  6164 net.cpp:434] inception_5b/relu_pool_proj <- inception_5b/pool_proj
I1206 00:28:02.045482  6164 net.cpp:395] inception_5b/relu_pool_proj -> inception_5b/pool_proj (in-place)
I1206 00:28:02.045491  6164 net.cpp:150] Setting up inception_5b/relu_pool_proj
I1206 00:28:02.045503  6164 net.cpp:157] Top shape: 16 128 7 7 (100352)
I1206 00:28:02.045506  6164 net.cpp:165] Memory required for data: 894139656
I1206 00:28:02.045511  6164 layer_factory.hpp:77] Creating layer inception_5b/output
I1206 00:28:02.045516  6164 net.cpp:100] Creating Layer inception_5b/output
I1206 00:28:02.045521  6164 net.cpp:434] inception_5b/output <- inception_5b/1x1
I1206 00:28:02.045526  6164 net.cpp:434] inception_5b/output <- inception_5b/3x3
I1206 00:28:02.045531  6164 net.cpp:434] inception_5b/output <- inception_5b/5x5
I1206 00:28:02.045534  6164 net.cpp:434] inception_5b/output <- inception_5b/pool_proj
I1206 00:28:02.045542  6164 net.cpp:408] inception_5b/output -> inception_5b/output
I1206 00:28:02.045577  6164 net.cpp:150] Setting up inception_5b/output
I1206 00:28:02.045588  6164 net.cpp:157] Top shape: 16 1024 7 7 (802816)
I1206 00:28:02.045594  6164 net.cpp:165] Memory required for data: 897350920
I1206 00:28:02.045598  6164 layer_factory.hpp:77] Creating layer pool5/7x7_s1
I1206 00:28:02.045605  6164 net.cpp:100] Creating Layer pool5/7x7_s1
I1206 00:28:02.045609  6164 net.cpp:434] pool5/7x7_s1 <- inception_5b/output
I1206 00:28:02.045615  6164 net.cpp:408] pool5/7x7_s1 -> pool5/7x7_s1
I1206 00:28:02.045665  6164 net.cpp:150] Setting up pool5/7x7_s1
I1206 00:28:02.045675  6164 net.cpp:157] Top shape: 16 1024 1 1 (16384)
I1206 00:28:02.045680  6164 net.cpp:165] Memory required for data: 897416456
I1206 00:28:02.045683  6164 layer_factory.hpp:77] Creating layer pool5/drop_7x7_s1
I1206 00:28:02.045691  6164 net.cpp:100] Creating Layer pool5/drop_7x7_s1
I1206 00:28:02.045696  6164 net.cpp:434] pool5/drop_7x7_s1 <- pool5/7x7_s1
I1206 00:28:02.045702  6164 net.cpp:395] pool5/drop_7x7_s1 -> pool5/7x7_s1 (in-place)
I1206 00:28:02.045734  6164 net.cpp:150] Setting up pool5/drop_7x7_s1
I1206 00:28:02.045744  6164 net.cpp:157] Top shape: 16 1024 1 1 (16384)
I1206 00:28:02.045747  6164 net.cpp:165] Memory required for data: 897481992
I1206 00:28:02.045752  6164 layer_factory.hpp:77] Creating layer loss3/classifier
I1206 00:28:02.045763  6164 net.cpp:100] Creating Layer loss3/classifier
I1206 00:28:02.045768  6164 net.cpp:434] loss3/classifier <- pool5/7x7_s1
I1206 00:28:02.045776  6164 net.cpp:408] loss3/classifier -> loss3/classifier
I1206 00:28:02.046015  6164 net.cpp:150] Setting up loss3/classifier
I1206 00:28:02.046027  6164 net.cpp:157] Top shape: 16 10 (160)
I1206 00:28:02.046033  6164 net.cpp:165] Memory required for data: 897482632
I1206 00:28:02.046041  6164 layer_factory.hpp:77] Creating layer loss3/loss3
I1206 00:28:02.046048  6164 net.cpp:100] Creating Layer loss3/loss3
I1206 00:28:02.046053  6164 net.cpp:434] loss3/loss3 <- loss3/classifier
I1206 00:28:02.046058  6164 net.cpp:434] loss3/loss3 <- label_data_1_split_2
I1206 00:28:02.046064  6164 net.cpp:408] loss3/loss3 -> loss3/loss3
…
I1206 00:28:02.049422  6164 net.cpp:322] The NetState phase (1) differed from the phase (0) specified by a rule in layer data
I1206 00:28:02.050750  6164 net.cpp:58] Initializing net from parameters: 
name: "GoogleNet"
state {
  phase: TEST
}
layer {
  name: "data"
  type: "Data"
  top: "data"
  top: "label"
  include {
    phase: TEST
  }
  transform_param {
    mirror: false
    crop_size: 224
    mean_file: "/home/juran/distracteddriver/input/mean.binaryproto"
  }
  data_param {
    source: "/home/juran/distracteddriver/input/validation_lmdb"
    batch_size: 50
    backend: LMDB
  }
}
layer {
  name: "conv1/7x7_s2"
  type: "Convolution"
  bottom: "data"
  top: "conv1/7x7_s2"
  param {
    lr_mult: 1
    decay_mult: 1
  }
  param {
    lr_mult: 2
    decay_mult: 0
  }
  convolution_param {
    num_output: 64
    pad: 3
    kernel_size: 7
    stride: 2
    weight_filler {
      type: "xavier"
    }
    bias_filler {
      type: "constant"
      value: 0.2
    }
  }
}
layer {
  name: "conv1/relu_7x7"
  type: "ReLU"
  bottom: "conv1/7x7_s2"
  top: "conv1/7x7_s2"
}
layer {
  name: "pool1/3x3_s2"
  type: "Pooling"
  bottom: "conv1/7x7_s2"
  top: "pool1/3x3_s2"
  pooling_param {
    pool: MAX
    kernel_size: 3
    stride: 2
  }
}
layer {
  name: "pool1/norm1"
  type: "LRN"
  bottom: "pool1/3x3_s2"
  top: "pool1/norm1"
  lrn_param {
    local_size: 5
    alpha: 0.0001
    beta: 0.75
  }
}
layer {
  name: "conv2/3x3_reduce"
  type: "Convolution"
  bottom: "pool1/norm1"
  top: "conv2/3x3_reduce"
  param {
    lr_mult: 1
    decay_mult: 1
  }
  param {
    lr_mult: 2
    decay_mult: 0
  }
  convolution_param {
    num_output: 64
    kernel_size: 1
    weight_filler {
      type: "xavier"
    }
    bias_filler {
      type: "constant"
      value: 0.2
    }
  }
}
layer {
  name: "conv2/relu_3x3_reduce"
  type: "ReLU"
  bottom: "conv2/3x3_reduce"
  top: "conv2/3x3_reduce"
}
layer {
  name: "conv2/3x3"
  type: "Convolution"
  bottom: "conv2/3x3_reduce"
  top: "conv2/3x3"
  param {
    lr_mult: 1
    decay_mult: 1
  }
  param {
    lr_mult: 2
    decay_mult: 0
  }
  convolution_param {
    num_output: 192
    pad: 1
    kernel_size: 3
    weight_filler {
      type: "xavier"
    }
    bias_filler {
      type: "constant"
      value: 0.2
    }
  }
}
layer {
  name: "conv2/relu_3x3"
  type: "ReLU"
  bottom: "conv2/3x3"
  top: "conv2/3x3"
}
layer {
  name: "conv2/norm2"
  type: "LRN"
  bottom: "conv2/3x3"
  top: "conv2/norm2"
  lrn_param {
    local_size: 5
    alpha: 0.0001
    beta: 0.75
  }
}
layer {
  name: "pool2/3x3_s2"
  type: "Pooling"
  bottom: "conv2/norm2"
  top: "pool2/3x3_s2"
  pooling_param {
    pool: MAX
    kernel_size: 3
    stride: 2
  }
}
layer {
  name: "inception_3a/1x1"
  type: "Convolution"
  bottom: "pool2/3x3_s2"
  top: "inception_3a/1x1"
  param {
    lr_mult: 1
    decay_mult: 1
  }
  param {
    lr_mult: 2
    decay_mult: 0
  }
  convolution_param {
    num_output: 64
    kernel_size: 1
    weight_filler {
      type: "xavier"
    }
    bias_filler {
      type: "constant"
      value: 0.2
    }
  }
}
layer {
  name: "inception_3a/relu_1x1"
  type: "ReLU"
  bottom: "inception_3a/1x1"
  top: "inception_3a/1x1"
}
layer {
  name: "inception_3a/3x3_reduce"
  type: "Convolution"
  bottom: "pool2/3x3_s2"
  top: "inception_3a/3x3_reduce"
  param {
    lr_mult: 1
    decay_mult: 1
  }
  param {
    lr_mult: 2
    decay_mult: 0
  }
  convolution_param {
    num_output: 96
    kernel_size: 1
    weight_filler {
      type: "xavier"
    }
    bias_filler {
      type: "constant"
      value: 0.2
    }
  }
}
layer {
  name: "inception_3a/relu_3x3_reduce"
  type: "ReLU"
  bottom: "inception_3a/3x3_reduce"
  top: "inception_3a/3x3_reduce"
}
layer {
  name: "inception_3a/3x3"
  type: "Convolution"
  bottom: "inception_3a/3x3_reduce"
  top: "inception_3a/3x3"
  param {
    lr_mult: 1
    decay_mult: 1
  }
  param {
    lr_mult: 2
    decay_mult: 0
  }
  convolution_param {
    num_output: 128
    pad: 1
    kernel_size: 3
    weight_filler {
      type: "xavier"
    }
    bias_filler {
      type: "constant"
      value: 0.2
    }
  }
}
layer {
  name: "inception_3a/relu_3x3"
  type: "ReLU"
  bottom: "inception_3a/3x3"
  top: "inception_3a/3x3"
}
layer {
  name: "inception_3a/5x5_reduce"
  type: "Convolution"
  bottom: "pool2/3x3_s2"
  top: "inception_3a/5x5_reduce"
  param {
    lr_mult: 1
    decay_mult: 1
  }
  param {
    lr_mult: 2
    decay_mult: 0
  }
  convolution_param {
    num_output: 16
    kernel_size: 1
    weight_filler {
      type: "xavier"
    }
    bias_filler {
      type: "constant"
      value: 0.2
    }
  }
}
layer {
  name: "inception_3a/relu_5x5_reduce"
  type: "ReLU"
  bottom: "inception_3a/5x5_reduce"
  top: "inception_3a/5x5_reduce"
}
layer {
  name: "inception_3a/5x5"
  type: "Convolution"
  bottom: "inception_3a/5x5_reduce"
  top: "inception_3a/5x5"
  param {
    lr_mult: 1
    decay_mult: 1
  }
  param {
    lr_mult: 2
    decay_mult: 0
  }
  convolution_param {
    num_output: 32
    pad: 2
    kernel_size: 5
    weight_filler {
      type: "xavier"
    }
    bias_filler {
      type: "constant"
      value: 0.2
    }
  }
}
layer {
  name: "inception_3a/relu_5x5"
  type: "ReLU"
  bottom: "inception_3a/5x5"
  top: "inception_3a/5x5"
}
layer {
  name: "inception_3a/pool"
  type: "Pooling"
  bottom: "pool2/3x3_s2"
  top: "inception_3a/pool"
  pooling_param {
    pool: MAX
    kernel_size: 3
    stride: 1
    pad: 1
  }
}
layer {
  name: "inception_3a/pool_proj"
  type: "Convolution"
  bottom: "inception_3a/pool"
  top: "inception_3a/pool_proj"
  param {
    lr_mult: 1
    decay_mult: 1
  }
  param {
    lr_mult: 2
    decay_mult: 0
  }
  convolution_param {
    num_output: 32
    kernel_size: 1
    weight_filler {
      type: "xavier"
    }
    bias_filler {
      type: "constant"
      value: 0.2
    }
  }
}
layer {
  name: "inception_3a/relu_pool_proj"
  type: "ReLU"
  bottom: "inception_3a/pool_proj"
  top: "inception_3a/pool_proj"
}
layer {
  name: "inception_3a/output"
  type: "Concat"
  bottom: "inception_3a/1x1"
  bottom: "inception_3a/3x3"
  bottom: "inception_3a/5x5"
  bottom: "inception_3a/pool_proj"
  top: "inception_3a/output"
}
layer {
  name: "inception_3b/1x1"
  type: "Convolution"
  bottom: "inception_3a/output"
  top: "inception_3b/1x1"
  param {
    lr_mult: 1
    decay_mult: 1
  }
  param {
    lr_mult: 2
    decay_mult: 0
  }
  convolution_param {
    num_output: 128
    kernel_size: 1
    weight_filler {
      type: "xavier"
    }
    bias_filler {
      type: "constant"
      value: 0.2
    }
  }
}
layer {
  name: "inception_3b/relu_1x1"
  type: "ReLU"
  bottom: "inception_3b/1x1"
  top: "inception_3b/1x1"
}
layer {
  name: "inception_3b/3x3_reduce"
  type: "Convolution"
  bottom: "inception_3a/output"
  top: "inception_3b/3x3_reduce"
  param {
    lr_mult: 1
    decay_mult: 1
  }
  param {
    lr_mult: 2
    decay_mult: 0
  }
  convolution_param {
    num_output: 128
    kernel_size: 1
    weight_filler {
      type: "xavier"
    }
    bias_filler {
      type: "constant"
      value: 0.2
    }
  }
}
layer {
  name: "inception_3b/relu_3x3_reduce"
  type: "ReLU"
  bottom: "inception_3b/3x3_reduce"
  top: "inception_3b/3x3_reduce"
}
layer {
  name: "inception_3b/3x3"
  type: "Convolution"
  bottom: "inception_3b/3x3_reduce"
  top: "inception_3b/3x3"
  param {
    lr_mult: 1
    decay_mult: 1
  }
  param {
    lr_mult: 2
    decay_mult: 0
  }
  convolution_param {
    num_output: 192
    pad: 1
    kernel_size: 3
    weight_filler {
      type: "xavier"
    }
    bias_filler {
      type: "constant"
      value: 0.2
    }
  }
}
layer {
  name: "inception_3b/relu_3x3"
  type: "ReLU"
  bottom: "inception_3b/3x3"
  top: "inception_3b/3x3"
}
layer {
  name: "inception_3b/5x5_reduce"
  type: "Convolution"
  bottom: "inception_3a/output"
  top: "inception_3b/5x5_reduce"
  param {
    lr_mult: 1
    decay_mult: 1
  }
  param {
    lr_mult: 2
    decay_mult: 0
  }
  convolution_param {
    num_output: 32
    kernel_size: 1
    weight_filler {
      type: "xavier"
    }
    bias_filler {
      type: "constant"
      value: 0.2
    }
  }
}
layer {
  name: "inception_3b/relu_5x5_reduce"
  type: "ReLU"
  bottom: "inception_3b/5x5_reduce"
  top: "inception_3b/5x5_reduce"
}
layer {
  name: "inception_3b/5x5"
  type: "Convolution"
  bottom: "inception_3b/5x5_reduce"
  top: "inception_3b/5x5"
  param {
    lr_mult: 1
    decay_mult: 1
  }
  param {
    lr_mult: 2
    decay_mult: 0
  }
  convolution_param {
    num_output: 96
    pad: 2
    kernel_size: 5
    weight_filler {
      type: "xavier"
    }
    bias_filler {
      type: "constant"
      value: 0.2
    }
  }
}
layer {
  name: "inception_3b/relu_5x5"
  type: "ReLU"
  bottom: "inception_3b/5x5"
  top: "inception_3b/5x5"
}
layer {
  name: "inception_3b/pool"
  type: "Pooling"
  bottom: "inception_3a/output"
  top: "inception_3b/pool"
  pooling_param {
    pool: MAX
    kernel_size: 3
    stride: 1
    pad: 1
  }
}
layer {
  name: "inception_3b/pool_proj"
  type: "Convolution"
  bottom: "inception_3b/pool"
  top: "inception_3b/pool_proj"
  param {
    lr_mult: 1
    decay_mult: 1
  }
  param {
    lr_mult: 2
    decay_mult: 0
  }
  convolution_param {
    num_output: 64
    kernel_size: 1
    weight_filler {
      type: "xavier"
    }
    bias_filler {
      type: "constant"
      value: 0.2
    }
  }
}
layer {
  name: "inception_3b/relu_pool_proj"
  type: "ReLU"
  bottom: "inception_3b/pool_proj"
  top: "inception_3b/pool_proj"
}
layer {
  name: "inception_3b/output"
  type: "Concat"
  bottom: "inception_3b/1x1"
  bottom: "inception_3b/3x3"
  bottom: "inception_3b/5x5"
  bottom: "inception_3b/pool_proj"
  top: "inception_3b/output"
}
layer {
  name: "pool3/3x3_s2"
  type: "Pooling"
  bottom: "inception_3b/output"
  top: "pool3/3x3_s2"
  pooling_param {
    pool: MAX
    kernel_size: 3
    stride: 2
  }
}
layer {
  name: "inception_4a/1x1"
  type: "Convolution"
  bottom: "pool3/3x3_s2"
  top: "inception_4a/1x1"
  param {
    lr_mult: 1
    decay_mult: 1
  }
  param {
    lr_mult: 2
    decay_mult: 0
  }
  convolution_param {
    num_output: 192
    kernel_size: 1
    weight_filler {
      type: "xavier"
    }
    bias_filler {
      type: "constant"
      value: 0.2
    }
  }
}
layer {
  name: "inception_4a/relu_1x1"
  type: "ReLU"
  bottom: "inception_4a/1x1"
  top: "inception_4a/1x1"
}
layer {
  name: "inception_4a/3x3_reduce"
  type: "Convolution"
  bottom: "pool3/3x3_s2"
  top: "inception_4a/3x3_reduce"
  param {
    lr_mult: 1
    decay_mult: 1
  }
  param {
    lr_mult: 2
    decay_mult: 0
  }
  convolution_param {
    num_output: 96
    kernel_size: 1
    weight_filler {
      type: "xavier"
    }
    bias_filler {
      type: "constant"
      value: 0.2
    }
  }
}
layer {
  name: "inception_4a/relu_3x3_reduce"
  type: "ReLU"
  bottom: "inception_4a/3x3_reduce"
  top: "inception_4a/3x3_reduce"
}
layer {
  name: "inception_4a/3x3"
  type: "Convolution"
  bottom: "inception_4a/3x3_reduce"
  top: "inception_4a/3x3"
  param {
    lr_mult: 1
    decay_mult: 1
  }
  param {
    lr_mult: 2
    decay_mult: 0
  }
  convolution_param {
    num_output: 208
    pad: 1
    kernel_size: 3
    weight_filler {
      type: "xavier"
    }
    bias_filler {
      type: "constant"
      value: 0.2
    }
  }
}
layer {
  name: "inception_4a/relu_3x3"
  type: "ReLU"
  bottom: "inception_4a/3x3"
  top: "inception_4a/3x3"
}
layer {
  name: "inception_4a/5x5_reduce"
  type: "Convolution"
  bottom: "pool3/3x3_s2"
  top: "inception_4a/5x5_reduce"
  param {
    lr_mult: 1
    decay_mult: 1
  }
  param {
    lr_mult: 2
    decay_mult: 0
  }
  convolution_param {
    num_output: 16
    kernel_size: 1
    weight_filler {
      type: "xavier"
    }
    bias_filler {
      type: "constant"
      value: 0.2
    }
  }
}
layer {
  name: "inception_4a/relu_5x5_reduce"
  type: "ReLU"
  bottom: "inception_4a/5x5_reduce"
  top: "inception_4a/5x5_reduce"
}
layer {
  name: "inception_4a/5x5"
  type: "Convolution"
  bottom: "inception_4a/5x5_reduce"
  top: "inception_4a/5x5"
  param {
    lr_mult: 1
    decay_mult: 1
  }
  param {
    lr_mult: 2
    decay_mult: 0
  }
  convolution_param {
    num_output: 48
    pad: 2
    kernel_size: 5
    weight_filler {
      type: "xavier"
    }
    bias_filler {
      type: "constant"
      value: 0.2
    }
  }
}
layer {
  name: "inception_4a/relu_5x5"
  type: "ReLU"
  bottom: "inception_4a/5x5"
  top: "inception_4a/5x5"
}
layer {
  name: "inception_4a/pool"
  type: "Pooling"
  bottom: "pool3/3x3_s2"
  top: "inception_4a/pool"
  pooling_param {
    pool: MAX
    kernel_size: 3
    stride: 1
    pad: 1
  }
}
layer {
  name: "inception_4a/pool_proj"
  type: "Convolution"
  bottom: "inception_4a/pool"
  top: "inception_4a/pool_proj"
  param {
    lr_mult: 1
    decay_mult: 1
  }
  param {
    lr_mult: 2
    decay_mult: 0
  }
  convolution_param {
    num_output: 64
    kernel_size: 1
    weight_filler {
      type: "xavier"
    }
    bias_filler {
      type: "constant"
      value: 0.2
    }
  }
}
layer {
  name: "inception_4a/relu_pool_proj"
  type: "ReLU"
  bottom: "inception_4a/pool_proj"
  top: "inception_4a/pool_proj"
}
layer {
  name: "inception_4a/output"
  type: "Concat"
  bottom: "inception_4a/1x1"
  bottom: "inception_4a/3x3"
  bottom: "inception_4a/5x5"
  bottom: "inception_4a/pool_proj"
  top: "inception_4a/output"
}
layer {
  name: "loss1/ave_pool"
  type: "Pooling"
  bottom: "inception_4a/output"
  top: "loss1/ave_pool"
  pooling_param {
    pool: AVE
    kernel_size: 5
    stride: 3
  }
}
layer {
  name: "loss1/conv"
  type: "Convolution"
  bottom: "loss1/ave_pool"
  top: "loss1/conv"
  param {
    lr_mult: 1
    decay_mult: 1
  }
  param {
    lr_mult: 2
    decay_mult: 0
  }
  convolution_param {
    num_output: 128
    kernel_size: 1
    weight_filler {
      type: "xavier"
    }
    bias_filler {
      type: "constant"
      value: 0.2
    }
  }
}
layer {
  name: "loss1/relu_conv"
  type: "ReLU"
  bottom: "loss1/conv"
  top: "loss1/conv"
}
layer {
  name: "loss1/fc"
  type: "InnerProduct"
  bottom: "loss1/conv"
  top: "loss1/fc"
  param {
    lr_mult: 1
    decay_mult: 1
  }
  param {
    lr_mult: 2
    decay_mult: 0
  }
  inner_product_param {
    num_output: 1024
    weight_filler {
      type: "xavier"
    }
    bias_filler {
      type: "constant"
      value: 0.2
    }
  }
}
layer {
  name: "loss1/relu_fc"
  type: "ReLU"
  bottom: "loss1/fc"
  top: "loss1/fc"
}
layer {
  name: "loss1/drop_fc"
  type: "Dropout"
  bottom: "loss1/fc"
  top: "loss1/fc"
  dropout_param {
    dropout_ratio: 0.7
  }
}
layer {
  name: "loss1/classifier"
  type: "InnerProduct"
  bottom: "loss1/fc"
  top: "loss1/classifier"
…
I1206 00:28:02.228359  6164 net.cpp:165] Memory required for data: 2190293212
I1206 00:28:02.228361  6164 layer_factory.hpp:77] Creating layer inception_4c/pool
I1206 00:28:02.228365  6164 net.cpp:100] Creating Layer inception_4c/pool
I1206 00:28:02.228368  6164 net.cpp:434] inception_4c/pool <- inception_4b/output_inception_4b/output_0_split_3
I1206 00:28:02.228371  6164 net.cpp:408] inception_4c/pool -> inception_4c/pool
I1206 00:28:02.228404  6164 net.cpp:150] Setting up inception_4c/pool
I1206 00:28:02.228409  6164 net.cpp:157] Top shape: 50 512 14 14 (5017600)
I1206 00:28:02.228410  6164 net.cpp:165] Memory required for data: 2210363612
I1206 00:28:02.228412  6164 layer_factory.hpp:77] Creating layer inception_4c/pool_proj
I1206 00:28:02.228418  6164 net.cpp:100] Creating Layer inception_4c/pool_proj
I1206 00:28:02.228420  6164 net.cpp:434] inception_4c/pool_proj <- inception_4c/pool
I1206 00:28:02.228425  6164 net.cpp:408] inception_4c/pool_proj -> inception_4c/pool_proj
I1206 00:28:02.228755  6164 net.cpp:150] Setting up inception_4c/pool_proj
I1206 00:28:02.228762  6164 net.cpp:157] Top shape: 50 64 14 14 (627200)
I1206 00:28:02.228765  6164 net.cpp:165] Memory required for data: 2212872412
I1206 00:28:02.228768  6164 layer_factory.hpp:77] Creating layer inception_4c/relu_pool_proj
I1206 00:28:02.228772  6164 net.cpp:100] Creating Layer inception_4c/relu_pool_proj
I1206 00:28:02.228775  6164 net.cpp:434] inception_4c/relu_pool_proj <- inception_4c/pool_proj
I1206 00:28:02.228778  6164 net.cpp:395] inception_4c/relu_pool_proj -> inception_4c/pool_proj (in-place)
I1206 00:28:02.228782  6164 net.cpp:150] Setting up inception_4c/relu_pool_proj
I1206 00:28:02.228785  6164 net.cpp:157] Top shape: 50 64 14 14 (627200)
I1206 00:28:02.228786  6164 net.cpp:165] Memory required for data: 2215381212
I1206 00:28:02.228788  6164 layer_factory.hpp:77] Creating layer inception_4c/output
I1206 00:28:02.228792  6164 net.cpp:100] Creating Layer inception_4c/output
I1206 00:28:02.228795  6164 net.cpp:434] inception_4c/output <- inception_4c/1x1
I1206 00:28:02.228797  6164 net.cpp:434] inception_4c/output <- inception_4c/3x3
I1206 00:28:02.228799  6164 net.cpp:434] inception_4c/output <- inception_4c/5x5
I1206 00:28:02.228811  6164 net.cpp:434] inception_4c/output <- inception_4c/pool_proj
I1206 00:28:02.228813  6164 net.cpp:408] inception_4c/output -> inception_4c/output
I1206 00:28:02.228838  6164 net.cpp:150] Setting up inception_4c/output
I1206 00:28:02.228842  6164 net.cpp:157] Top shape: 50 512 14 14 (5017600)
I1206 00:28:02.228843  6164 net.cpp:165] Memory required for data: 2235451612
I1206 00:28:02.228845  6164 layer_factory.hpp:77] Creating layer inception_4c/output_inception_4c/output_0_split
I1206 00:28:02.228850  6164 net.cpp:100] Creating Layer inception_4c/output_inception_4c/output_0_split
I1206 00:28:02.228852  6164 net.cpp:434] inception_4c/output_inception_4c/output_0_split <- inception_4c/output
I1206 00:28:02.228857  6164 net.cpp:408] inception_4c/output_inception_4c/output_0_split -> inception_4c/output_inception_4c/output_0_split_0
I1206 00:28:02.228860  6164 net.cpp:408] inception_4c/output_inception_4c/output_0_split -> inception_4c/output_inception_4c/output_0_split_1
I1206 00:28:02.228864  6164 net.cpp:408] inception_4c/output_inception_4c/output_0_split -> inception_4c/output_inception_4c/output_0_split_2
I1206 00:28:02.228868  6164 net.cpp:408] inception_4c/output_inception_4c/output_0_split -> inception_4c/output_inception_4c/output_0_split_3
I1206 00:28:02.228915  6164 net.cpp:150] Setting up inception_4c/output_inception_4c/output_0_split
I1206 00:28:02.228921  6164 net.cpp:157] Top shape: 50 512 14 14 (5017600)
I1206 00:28:02.228924  6164 net.cpp:157] Top shape: 50 512 14 14 (5017600)
I1206 00:28:02.228926  6164 net.cpp:157] Top shape: 50 512 14 14 (5017600)
I1206 00:28:02.228929  6164 net.cpp:157] Top shape: 50 512 14 14 (5017600)
I1206 00:28:02.228930  6164 net.cpp:165] Memory required for data: 2315733212
I1206 00:28:02.228934  6164 layer_factory.hpp:77] Creating layer inception_4d/1x1
I1206 00:28:02.228938  6164 net.cpp:100] Creating Layer inception_4d/1x1
I1206 00:28:02.228941  6164 net.cpp:434] inception_4d/1x1 <- inception_4c/output_inception_4c/output_0_split_0
I1206 00:28:02.228945  6164 net.cpp:408] inception_4d/1x1 -> inception_4d/1x1
I1206 00:28:02.229466  6164 net.cpp:150] Setting up inception_4d/1x1
I1206 00:28:02.229475  6164 net.cpp:157] Top shape: 50 112 14 14 (1097600)
I1206 00:28:02.229476  6164 net.cpp:165] Memory required for data: 2320123612
I1206 00:28:02.229481  6164 layer_factory.hpp:77] Creating layer inception_4d/relu_1x1
I1206 00:28:02.229485  6164 net.cpp:100] Creating Layer inception_4d/relu_1x1
I1206 00:28:02.229488  6164 net.cpp:434] inception_4d/relu_1x1 <- inception_4d/1x1
I1206 00:28:02.229491  6164 net.cpp:395] inception_4d/relu_1x1 -> inception_4d/1x1 (in-place)
I1206 00:28:02.229496  6164 net.cpp:150] Setting up inception_4d/relu_1x1
I1206 00:28:02.229498  6164 net.cpp:157] Top shape: 50 112 14 14 (1097600)
I1206 00:28:02.229502  6164 net.cpp:165] Memory required for data: 2324514012
I1206 00:28:02.229503  6164 layer_factory.hpp:77] Creating layer inception_4d/3x3_reduce
I1206 00:28:02.229509  6164 net.cpp:100] Creating Layer inception_4d/3x3_reduce
I1206 00:28:02.229511  6164 net.cpp:434] inception_4d/3x3_reduce <- inception_4c/output_inception_4c/output_0_split_1
I1206 00:28:02.229516  6164 net.cpp:408] inception_4d/3x3_reduce -> inception_4d/3x3_reduce
I1206 00:28:02.230034  6164 net.cpp:150] Setting up inception_4d/3x3_reduce
I1206 00:28:02.230041  6164 net.cpp:157] Top shape: 50 144 14 14 (1411200)
I1206 00:28:02.230042  6164 net.cpp:165] Memory required for data: 2330158812
I1206 00:28:02.230046  6164 layer_factory.hpp:77] Creating layer inception_4d/relu_3x3_reduce
I1206 00:28:02.230051  6164 net.cpp:100] Creating Layer inception_4d/relu_3x3_reduce
I1206 00:28:02.230052  6164 net.cpp:434] inception_4d/relu_3x3_reduce <- inception_4d/3x3_reduce
I1206 00:28:02.230057  6164 net.cpp:395] inception_4d/relu_3x3_reduce -> inception_4d/3x3_reduce (in-place)
I1206 00:28:02.230060  6164 net.cpp:150] Setting up inception_4d/relu_3x3_reduce
I1206 00:28:02.230063  6164 net.cpp:157] Top shape: 50 144 14 14 (1411200)
I1206 00:28:02.230064  6164 net.cpp:165] Memory required for data: 2335803612
I1206 00:28:02.230074  6164 layer_factory.hpp:77] Creating layer inception_4d/3x3
I1206 00:28:02.230082  6164 net.cpp:100] Creating Layer inception_4d/3x3
I1206 00:28:02.230083  6164 net.cpp:434] inception_4d/3x3 <- inception_4d/3x3_reduce
I1206 00:28:02.230087  6164 net.cpp:408] inception_4d/3x3 -> inception_4d/3x3
I1206 00:28:02.235365  6164 net.cpp:150] Setting up inception_4d/3x3
I1206 00:28:02.235378  6164 net.cpp:157] Top shape: 50 288 14 14 (2822400)
I1206 00:28:02.235379  6164 net.cpp:165] Memory required for data: 2347093212
I1206 00:28:02.235383  6164 layer_factory.hpp:77] Creating layer inception_4d/relu_3x3
I1206 00:28:02.235389  6164 net.cpp:100] Creating Layer inception_4d/relu_3x3
I1206 00:28:02.235391  6164 net.cpp:434] inception_4d/relu_3x3 <- inception_4d/3x3
I1206 00:28:02.235395  6164 net.cpp:395] inception_4d/relu_3x3 -> inception_4d/3x3 (in-place)
I1206 00:28:02.235400  6164 net.cpp:150] Setting up inception_4d/relu_3x3
I1206 00:28:02.235404  6164 net.cpp:157] Top shape: 50 288 14 14 (2822400)
I1206 00:28:02.235406  6164 net.cpp:165] Memory required for data: 2358382812
I1206 00:28:02.235409  6164 layer_factory.hpp:77] Creating layer inception_4d/5x5_reduce
I1206 00:28:02.235414  6164 net.cpp:100] Creating Layer inception_4d/5x5_reduce
I1206 00:28:02.235416  6164 net.cpp:434] inception_4d/5x5_reduce <- inception_4c/output_inception_4c/output_0_split_2
I1206 00:28:02.235420  6164 net.cpp:408] inception_4d/5x5_reduce -> inception_4d/5x5_reduce
I1206 00:28:02.235698  6164 net.cpp:150] Setting up inception_4d/5x5_reduce
I1206 00:28:02.235704  6164 net.cpp:157] Top shape: 50 32 14 14 (313600)
I1206 00:28:02.235707  6164 net.cpp:165] Memory required for data: 2359637212
I1206 00:28:02.235710  6164 layer_factory.hpp:77] Creating layer inception_4d/relu_5x5_reduce
I1206 00:28:02.235714  6164 net.cpp:100] Creating Layer inception_4d/relu_5x5_reduce
I1206 00:28:02.235716  6164 net.cpp:434] inception_4d/relu_5x5_reduce <- inception_4d/5x5_reduce
I1206 00:28:02.235721  6164 net.cpp:395] inception_4d/relu_5x5_reduce -> inception_4d/5x5_reduce (in-place)
I1206 00:28:02.235725  6164 net.cpp:150] Setting up inception_4d/relu_5x5_reduce
I1206 00:28:02.235728  6164 net.cpp:157] Top shape: 50 32 14 14 (313600)
I1206 00:28:02.235729  6164 net.cpp:165] Memory required for data: 2360891612
I1206 00:28:02.235731  6164 layer_factory.hpp:77] Creating layer inception_4d/5x5
I1206 00:28:02.235736  6164 net.cpp:100] Creating Layer inception_4d/5x5
I1206 00:28:02.235738  6164 net.cpp:434] inception_4d/5x5 <- inception_4d/5x5_reduce
I1206 00:28:02.235743  6164 net.cpp:408] inception_4d/5x5 -> inception_4d/5x5
I1206 00:28:02.239291  6164 net.cpp:150] Setting up inception_4d/5x5
I1206 00:28:02.239301  6164 net.cpp:157] Top shape: 50 64 14 14 (627200)
I1206 00:28:02.239303  6164 net.cpp:165] Memory required for data: 2363400412
I1206 00:28:02.239308  6164 layer_factory.hpp:77] Creating layer inception_4d/relu_5x5
I1206 00:28:02.239313  6164 net.cpp:100] Creating Layer inception_4d/relu_5x5
I1206 00:28:02.239316  6164 net.cpp:434] inception_4d/relu_5x5 <- inception_4d/5x5
I1206 00:28:02.239320  6164 net.cpp:395] inception_4d/relu_5x5 -> inception_4d/5x5 (in-place)
I1206 00:28:02.239326  6164 net.cpp:150] Setting up inception_4d/relu_5x5
I1206 00:28:02.239328  6164 net.cpp:157] Top shape: 50 64 14 14 (627200)
I1206 00:28:02.239329  6164 net.cpp:165] Memory required for data: 2365909212
I1206 00:28:02.239331  6164 layer_factory.hpp:77] Creating layer inception_4d/pool
I1206 00:28:02.239336  6164 net.cpp:100] Creating Layer inception_4d/pool
I1206 00:28:02.239339  6164 net.cpp:434] inception_4d/pool <- inception_4c/output_inception_4c/output_0_split_3
I1206 00:28:02.239342  6164 net.cpp:408] inception_4d/pool -> inception_4d/pool
I1206 00:28:02.239382  6164 net.cpp:150] Setting up inception_4d/pool
I1206 00:28:02.239387  6164 net.cpp:157] Top shape: 50 512 14 14 (5017600)
I1206 00:28:02.239388  6164 net.cpp:165] Memory required for data: 2385979612
I1206 00:28:02.239390  6164 layer_factory.hpp:77] Creating layer inception_4d/pool_proj
I1206 00:28:02.239406  6164 net.cpp:100] Creating Layer inception_4d/pool_proj
I1206 00:28:02.239409  6164 net.cpp:434] inception_4d/pool_proj <- inception_4d/pool
I1206 00:28:02.239414  6164 net.cpp:408] inception_4d/pool_proj -> inception_4d/pool_proj
I1206 00:28:02.239753  6164 net.cpp:150] Setting up inception_4d/pool_proj
I1206 00:28:02.239759  6164 net.cpp:157] Top shape: 50 64 14 14 (627200)
I1206 00:28:02.239761  6164 net.cpp:165] Memory required for data: 2388488412
I1206 00:28:02.239765  6164 layer_factory.hpp:77] Creating layer inception_4d/relu_pool_proj
I1206 00:28:02.239770  6164 net.cpp:100] Creating Layer inception_4d/relu_pool_proj
I1206 00:28:02.239773  6164 net.cpp:434] inception_4d/relu_pool_proj <- inception_4d/pool_proj
I1206 00:28:02.239776  6164 net.cpp:395] inception_4d/relu_pool_proj -> inception_4d/pool_proj (in-place)
I1206 00:28:02.239780  6164 net.cpp:150] Setting up inception_4d/relu_pool_proj
I1206 00:28:02.239784  6164 net.cpp:157] Top shape: 50 64 14 14 (627200)
I1206 00:28:02.239785  6164 net.cpp:165] Memory required for data: 2390997212
I1206 00:28:02.239786  6164 layer_factory.hpp:77] Creating layer inception_4d/output
I1206 00:28:02.239791  6164 net.cpp:100] Creating Layer inception_4d/output
I1206 00:28:02.239794  6164 net.cpp:434] inception_4d/output <- inception_4d/1x1
I1206 00:28:02.239796  6164 net.cpp:434] inception_4d/output <- inception_4d/3x3
I1206 00:28:02.239799  6164 net.cpp:434] inception_4d/output <- inception_4d/5x5
I1206 00:28:02.239801  6164 net.cpp:434] inception_4d/output <- inception_4d/pool_proj
I1206 00:28:02.239804  6164 net.cpp:408] inception_4d/output -> inception_4d/output
I1206 00:28:02.239826  6164 net.cpp:150] Setting up inception_4d/output
I1206 00:28:02.239830  6164 net.cpp:157] Top shape: 50 528 14 14 (5174400)
I1206 00:28:02.239831  6164 net.cpp:165] Memory required for data: 2411694812
I1206 00:28:02.239833  6164 layer_factory.hpp:77] Creating layer inception_4d/output_inception_4d/output_0_split
I1206 00:28:02.239838  6164 net.cpp:100] Creating Layer inception_4d/output_inception_4d/output_0_split
I1206 00:28:02.239841  6164 net.cpp:434] inception_4d/output_inception_4d/output_0_split <- inception_4d/output
I1206 00:28:02.239845  6164 net.cpp:408] inception_4d/output_inception_4d/output_0_split -> inception_4d/output_inception_4d/output_0_split_0
I1206 00:28:02.239850  6164 net.cpp:408] inception_4d/output_inception_4d/output_0_split -> inception_4d/output_inception_4d/output_0_split_1
I1206 00:28:02.239855  6164 net.cpp:408] inception_4d/output_inception_4d/output_0_split -> inception_4d/output_inception_4d/output_0_split_2
I1206 00:28:02.239859  6164 net.cpp:408] inception_4d/output_inception_4d/output_0_split -> inception_4d/output_inception_4d/output_0_split_3
I1206 00:28:02.239862  6164 net.cpp:408] inception_4d/output_inception_4d/output_0_split -> inception_4d/output_inception_4d/output_0_split_4
I1206 00:28:02.239919  6164 net.cpp:150] Setting up inception_4d/output_inception_4d/output_0_split
I1206 00:28:02.239925  6164 net.cpp:157] Top shape: 50 528 14 14 (5174400)
I1206 00:28:02.239928  6164 net.cpp:157] Top shape: 50 528 14 14 (5174400)
I1206 00:28:02.239931  6164 net.cpp:157] Top shape: 50 528 14 14 (5174400)
I1206 00:28:02.239933  6164 net.cpp:157] Top shape: 50 528 14 14 (5174400)
I1206 00:28:02.239935  6164 net.cpp:157] Top shape: 50 528 14 14 (5174400)
I1206 00:28:02.239938  6164 net.cpp:165] Memory required for data: 2515182812
I1206 00:28:02.239939  6164 layer_factory.hpp:77] Creating layer loss2/ave_pool
I1206 00:28:02.239943  6164 net.cpp:100] Creating Layer loss2/ave_pool
I1206 00:28:02.239946  6164 net.cpp:434] loss2/ave_pool <- inception_4d/output_inception_4d/output_0_split_0
I1206 00:28:02.239950  6164 net.cpp:408] loss2/ave_pool -> loss2/ave_pool
I1206 00:28:02.239969  6164 net.cpp:150] Setting up loss2/ave_pool
I1206 00:28:02.239974  6164 net.cpp:157] Top shape: 50 528 4 4 (422400)
I1206 00:28:02.239975  6164 net.cpp:165] Memory required for data: 2516872412
I1206 00:28:02.239984  6164 layer_factory.hpp:77] Creating layer loss2/conv
I1206 00:28:02.239991  6164 net.cpp:100] Creating Layer loss2/conv
I1206 00:28:02.239994  6164 net.cpp:434] loss2/conv <- loss2/ave_pool
I1206 00:28:02.239998  6164 net.cpp:408] loss2/conv -> loss2/conv
I1206 00:28:02.243602  6164 net.cpp:150] Setting up loss2/conv
I1206 00:28:02.243612  6164 net.cpp:157] Top shape: 50 128 4 4 (102400)
I1206 00:28:02.243613  6164 net.cpp:165] Memory required for data: 2517282012
I1206 00:28:02.243618  6164 layer_factory.hpp:77] Creating layer loss2/relu_conv
I1206 00:28:02.243623  6164 net.cpp:100] Creating Layer loss2/relu_conv
I1206 00:28:02.243626  6164 net.cpp:434] loss2/relu_conv <- loss2/conv
I1206 00:28:02.243629  6164 net.cpp:395] loss2/relu_conv -> loss2/conv (in-place)
I1206 00:28:02.243634  6164 net.cpp:150] Setting up loss2/relu_conv
I1206 00:28:02.243636  6164 net.cpp:157] Top shape: 50 128 4 4 (102400)
I1206 00:28:02.243638  6164 net.cpp:165] Memory required for data: 2517691612
I1206 00:28:02.243640  6164 layer_factory.hpp:77] Creating layer loss2/fc
I1206 00:28:02.243646  6164 net.cpp:100] Creating Layer loss2/fc
I1206 00:28:02.243649  6164 net.cpp:434] loss2/fc <- loss2/conv
I1206 00:28:02.243652  6164 net.cpp:408] loss2/fc -> loss2/fc
I1206 00:28:02.267823  6164 net.cpp:150] Setting up loss2/fc
I1206 00:28:02.267851  6164 net.cpp:157] Top shape: 50 1024 (51200)
I1206 00:28:02.267853  6164 net.cpp:165] Memory required for data: 2517896412
I1206 00:28:02.267863  6164 layer_factory.hpp:77] Creating layer loss2/relu_fc
I1206 00:28:02.267871  6164 net.cpp:100] Creating Layer loss2/relu_fc
I1206 00:28:02.267876  6164 net.cpp:434] loss2/relu_fc <- loss2/fc
I1206 00:28:02.267882  6164 net.cpp:395] loss2/relu_fc -> loss2/fc (in-place)
I1206 00:28:02.267889  6164 net.cpp:150] Setting up loss2/relu_fc
I1206 00:28:02.267892  6164 net.cpp:157] Top shape: 50 1024 (51200)
I1206 00:28:02.267894  6164 net.cpp:165] Memory required for data: 2518101212
I1206 00:28:02.267896  6164 layer_factory.hpp:77] Creating layer loss2/drop_fc
I1206 00:28:02.267901  6164 net.cpp:100] Creating Layer loss2/drop_fc
I1206 00:28:02.267904  6164 net.cpp:434] loss2/drop_fc <- loss2/fc
I1206 00:28:02.267906  6164 net.cpp:395] loss2/drop_fc -> loss2/fc (in-place)
I1206 00:28:02.267935  6164 net.cpp:150] Setting up loss2/drop_fc
I1206 00:28:02.267938  6164 net.cpp:157] Top shape: 50 1024 (51200)
I1206 00:28:02.267940  6164 net.cpp:165] Memory required for data: 2518306012
I1206 00:28:02.267941  6164 layer_factory.hpp:77] Creating layer loss2/classifier
I1206 00:28:02.267948  6164 net.cpp:100] Creating Layer loss2/classifier
I1206 00:28:02.267951  6164 net.cpp:434] loss2/classifier <- loss2/fc
I1206 00:28:02.267954  6164 net.cpp:408] loss2/classifier -> loss2/classifier
I1206 00:28:02.273954  6164 net.cpp:150] Setting up loss2/classifier
I1206 00:28:02.273982  6164 net.cpp:157] Top shape: 50 1000 (50000)
I1206 00:28:02.273984  6164 net.cpp:165] Memory required for data: 2518506012
I1206 00:28:02.273993  6164 layer_factory.hpp:77] Creating layer loss2/classifier_loss2/classifier_0_split
I1206 00:28:02.274003  6164 net.cpp:100] Creating Layer loss2/classifier_loss2/classifier_0_split
I1206 00:28:02.274008  6164 net.cpp:434] loss2/classifier_loss2/classifier_0_split <- loss2/classifier
I1206 00:28:02.274015  6164 net.cpp:408] loss2/classifier_loss2/classifier_0_split -> loss2/classifier_loss2/classifier_0_split_0
I1206 00:28:02.274022  6164 net.cpp:408] loss2/classifier_loss2/classifier_0_split -> loss2/classifier_loss2/classifier_0_split_1
I1206 00:28:02.274027  6164 net.cpp:408] loss2/classifier_loss2/classifier_0_split -> loss2/classifier_loss2/classifier_0_split_2
I1206 00:28:02.274080  6164 net.cpp:150] Setting up loss2/classifier_loss2/classifier_0_split
I1206 00:28:02.274086  6164 net.cpp:157] Top shape: 50 1000 (50000)
I1206 00:28:02.274088  6164 net.cpp:157] Top shape: 50 1000 (50000)
I1206 00:28:02.274091  6164 net.cpp:157] Top shape: 50 1000 (50000)
I1206 00:28:02.274092  6164 net.cpp:165] Memory required for data: 2519106012
I1206 00:28:02.274094  6164 layer_factory.hpp:77] Creating layer loss2/loss
I1206 00:28:02.274116  6164 net.cpp:100] Creating Layer loss2/loss
I1206 00:28:02.274118  6164 net.cpp:434] loss2/loss <- loss2/classifier_loss2/classifier_0_split_0
I1206 00:28:02.274123  6164 net.cpp:434] loss2/loss <- label_data_1_split_3
…
I1206 00:28:02.274332  6164 net.cpp:150] Setting up loss2/top-5
I1206 00:28:02.274333  6164 net.cpp:157] Top shape: (1)
I1206 00:28:02.274335  6164 net.cpp:165] Memory required for data: 2519106024
I1206 00:28:02.274338  6164 layer_factory.hpp:77] Creating layer inception_4e/1x1
I1206 00:28:02.274345  6164 net.cpp:100] Creating Layer inception_4e/1x1
I1206 00:28:02.274348  6164 net.cpp:434] inception_4e/1x1 <- inception_4d/output_inception_4d/output_0_split_1
I1206 00:28:02.274353  6164 net.cpp:408] inception_4e/1x1 -> inception_4e/1x1
I1206 00:28:02.275166  6164 net.cpp:150] Setting up inception_4e/1x1
I1206 00:28:02.275174  6164 net.cpp:157] Top shape: 50 256 14 14 (2508800)
I1206 00:28:02.275177  6164 net.cpp:165] Memory required for data: 2529141224
I1206 00:28:02.275182  6164 layer_factory.hpp:77] Creating layer inception_4e/relu_1x1
I1206 00:28:02.275187  6164 net.cpp:100] Creating Layer inception_4e/relu_1x1
I1206 00:28:02.275189  6164 net.cpp:434] inception_4e/relu_1x1 <- inception_4e/1x1
I1206 00:28:02.275193  6164 net.cpp:395] inception_4e/relu_1x1 -> inception_4e/1x1 (in-place)
I1206 00:28:02.275197  6164 net.cpp:150] Setting up inception_4e/relu_1x1
I1206 00:28:02.275200  6164 net.cpp:157] Top shape: 50 256 14 14 (2508800)
I1206 00:28:02.275203  6164 net.cpp:165] Memory required for data: 2539176424
I1206 00:28:02.275204  6164 layer_factory.hpp:77] Creating layer inception_4e/3x3_reduce
I1206 00:28:02.275234  6164 net.cpp:100] Creating Layer inception_4e/3x3_reduce
I1206 00:28:02.275238  6164 net.cpp:434] inception_4e/3x3_reduce <- inception_4d/output_inception_4d/output_0_split_2
I1206 00:28:02.275243  6164 net.cpp:408] inception_4e/3x3_reduce -> inception_4e/3x3_reduce
I1206 00:28:02.276365  6164 net.cpp:150] Setting up inception_4e/3x3_reduce
I1206 00:28:02.276381  6164 net.cpp:157] Top shape: 50 160 14 14 (1568000)
I1206 00:28:02.276382  6164 net.cpp:165] Memory required for data: 2545448424
I1206 00:28:02.276388  6164 layer_factory.hpp:77] Creating layer inception_4e/relu_3x3_reduce
I1206 00:28:02.276396  6164 net.cpp:100] Creating Layer inception_4e/relu_3x3_reduce
I1206 00:28:02.276398  6164 net.cpp:434] inception_4e/relu_3x3_reduce <- inception_4e/3x3_reduce
I1206 00:28:02.276402  6164 net.cpp:395] inception_4e/relu_3x3_reduce -> inception_4e/3x3_reduce (in-place)
I1206 00:28:02.276407  6164 net.cpp:150] Setting up inception_4e/relu_3x3_reduce
I1206 00:28:02.276427  6164 net.cpp:157] Top shape: 50 160 14 14 (1568000)
I1206 00:28:02.276428  6164 net.cpp:165] Memory required for data: 2551720424
I1206 00:28:02.276430  6164 layer_factory.hpp:77] Creating layer inception_4e/3x3
I1206 00:28:02.276438  6164 net.cpp:100] Creating Layer inception_4e/3x3
I1206 00:28:02.276442  6164 net.cpp:434] inception_4e/3x3 <- inception_4e/3x3_reduce
I1206 00:28:02.276445  6164 net.cpp:408] inception_4e/3x3 -> inception_4e/3x3
I1206 00:28:02.282560  6164 net.cpp:150] Setting up inception_4e/3x3
I1206 00:28:02.282575  6164 net.cpp:157] Top shape: 50 320 14 14 (3136000)
I1206 00:28:02.282577  6164 net.cpp:165] Memory required for data: 2564264424
I1206 00:28:02.282582  6164 layer_factory.hpp:77] Creating layer inception_4e/relu_3x3
I1206 00:28:02.282588  6164 net.cpp:100] Creating Layer inception_4e/relu_3x3
I1206 00:28:02.282590  6164 net.cpp:434] inception_4e/relu_3x3 <- inception_4e/3x3
I1206 00:28:02.282595  6164 net.cpp:395] inception_4e/relu_3x3 -> inception_4e/3x3 (in-place)
I1206 00:28:02.282600  6164 net.cpp:150] Setting up inception_4e/relu_3x3
I1206 00:28:02.282603  6164 net.cpp:157] Top shape: 50 320 14 14 (3136000)
I1206 00:28:02.282605  6164 net.cpp:165] Memory required for data: 2576808424
I1206 00:28:02.282608  6164 layer_factory.hpp:77] Creating layer inception_4e/5x5_reduce
I1206 00:28:02.282615  6164 net.cpp:100] Creating Layer inception_4e/5x5_reduce
I1206 00:28:02.282618  6164 net.cpp:434] inception_4e/5x5_reduce <- inception_4d/output_inception_4d/output_0_split_3
I1206 00:28:02.282621  6164 net.cpp:408] inception_4e/5x5_reduce -> inception_4e/5x5_reduce
I1206 00:28:02.282894  6164 net.cpp:150] Setting up inception_4e/5x5_reduce
I1206 00:28:02.282902  6164 net.cpp:157] Top shape: 50 32 14 14 (313600)
I1206 00:28:02.282903  6164 net.cpp:165] Memory required for data: 2578062824
I1206 00:28:02.282907  6164 layer_factory.hpp:77] Creating layer inception_4e/relu_5x5_reduce
I1206 00:28:02.282912  6164 net.cpp:100] Creating Layer inception_4e/relu_5x5_reduce
I1206 00:28:02.282913  6164 net.cpp:434] inception_4e/relu_5x5_reduce <- inception_4e/5x5_reduce
I1206 00:28:02.282917  6164 net.cpp:395] inception_4e/relu_5x5_reduce -> inception_4e/5x5_reduce (in-place)
I1206 00:28:02.282920  6164 net.cpp:150] Setting up inception_4e/relu_5x5_reduce
I1206 00:28:02.282923  6164 net.cpp:157] Top shape: 50 32 14 14 (313600)
I1206 00:28:02.282925  6164 net.cpp:165] Memory required for data: 2579317224
I1206 00:28:02.282927  6164 layer_factory.hpp:77] Creating layer inception_4e/5x5
I1206 00:28:02.282933  6164 net.cpp:100] Creating Layer inception_4e/5x5
I1206 00:28:02.282935  6164 net.cpp:434] inception_4e/5x5 <- inception_4e/5x5_reduce
I1206 00:28:02.282939  6164 net.cpp:408] inception_4e/5x5 -> inception_4e/5x5
I1206 00:28:02.283551  6164 net.cpp:150] Setting up inception_4e/5x5
I1206 00:28:02.283558  6164 net.cpp:157] Top shape: 50 128 14 14 (1254400)
I1206 00:28:02.283560  6164 net.cpp:165] Memory required for data: 2584334824
I1206 00:28:02.283565  6164 layer_factory.hpp:77] Creating layer inception_4e/relu_5x5
I1206 00:28:02.283570  6164 net.cpp:100] Creating Layer inception_4e/relu_5x5
I1206 00:28:02.283572  6164 net.cpp:434] inception_4e/relu_5x5 <- inception_4e/5x5
I1206 00:28:02.283576  6164 net.cpp:395] inception_4e/relu_5x5 -> inception_4e/5x5 (in-place)
I1206 00:28:02.283578  6164 net.cpp:150] Setting up inception_4e/relu_5x5
I1206 00:28:02.283581  6164 net.cpp:157] Top shape: 50 128 14 14 (1254400)
I1206 00:28:02.283583  6164 net.cpp:165] Memory required for data: 2589352424
I1206 00:28:02.283586  6164 layer_factory.hpp:77] Creating layer inception_4e/pool
I1206 00:28:02.283591  6164 net.cpp:100] Creating Layer inception_4e/pool
I1206 00:28:02.283593  6164 net.cpp:434] inception_4e/pool <- inception_4d/output_inception_4d/output_0_split_4
I1206 00:28:02.283597  6164 net.cpp:408] inception_4e/pool -> inception_4e/pool
I1206 00:28:02.283627  6164 net.cpp:150] Setting up inception_4e/pool
I1206 00:28:02.283632  6164 net.cpp:157] Top shape: 50 528 14 14 (5174400)
I1206 00:28:02.283645  6164 net.cpp:165] Memory required for data: 2610050024
I1206 00:28:02.283648  6164 layer_factory.hpp:77] Creating layer inception_4e/pool_proj
I1206 00:28:02.283655  6164 net.cpp:100] Creating Layer inception_4e/pool_proj
I1206 00:28:02.283658  6164 net.cpp:434] inception_4e/pool_proj <- inception_4e/pool
I1206 00:28:02.283663  6164 net.cpp:408] inception_4e/pool_proj -> inception_4e/pool_proj
I1206 00:28:02.284124  6164 net.cpp:150] Setting up inception_4e/pool_proj
I1206 00:28:02.284131  6164 net.cpp:157] Top shape: 50 128 14 14 (1254400)
I1206 00:28:02.284132  6164 net.cpp:165] Memory required for data: 2615067624
I1206 00:28:02.284137  6164 layer_factory.hpp:77] Creating layer inception_4e/relu_pool_proj
I1206 00:28:02.284142  6164 net.cpp:100] Creating Layer inception_4e/relu_pool_proj
I1206 00:28:02.284144  6164 net.cpp:434] inception_4e/relu_pool_proj <- inception_4e/pool_proj
I1206 00:28:02.284147  6164 net.cpp:395] inception_4e/relu_pool_proj -> inception_4e/pool_proj (in-place)
I1206 00:28:02.284152  6164 net.cpp:150] Setting up inception_4e/relu_pool_proj
I1206 00:28:02.284153  6164 net.cpp:157] Top shape: 50 128 14 14 (1254400)
I1206 00:28:02.284155  6164 net.cpp:165] Memory required for data: 2620085224
I1206 00:28:02.284157  6164 layer_factory.hpp:77] Creating layer inception_4e/output
I1206 00:28:02.284162  6164 net.cpp:100] Creating Layer inception_4e/output
I1206 00:28:02.284163  6164 net.cpp:434] inception_4e/output <- inception_4e/1x1
I1206 00:28:02.284165  6164 net.cpp:434] inception_4e/output <- inception_4e/3x3
I1206 00:28:02.284168  6164 net.cpp:434] inception_4e/output <- inception_4e/5x5
I1206 00:28:02.284170  6164 net.cpp:434] inception_4e/output <- inception_4e/pool_proj
I1206 00:28:02.284175  6164 net.cpp:408] inception_4e/output -> inception_4e/output
I1206 00:28:02.284194  6164 net.cpp:150] Setting up inception_4e/output
I1206 00:28:02.284199  6164 net.cpp:157] Top shape: 50 832 14 14 (8153600)
I1206 00:28:02.284201  6164 net.cpp:165] Memory required for data: 2652699624
I1206 00:28:02.284204  6164 layer_factory.hpp:77] Creating layer pool4/3x3_s2
I1206 00:28:02.284207  6164 net.cpp:100] Creating Layer pool4/3x3_s2
I1206 00:28:02.284209  6164 net.cpp:434] pool4/3x3_s2 <- inception_4e/output
I1206 00:28:02.284214  6164 net.cpp:408] pool4/3x3_s2 -> pool4/3x3_s2
I1206 00:28:02.284240  6164 net.cpp:150] Setting up pool4/3x3_s2
I1206 00:28:02.284243  6164 net.cpp:157] Top shape: 50 832 7 7 (2038400)
I1206 00:28:02.284246  6164 net.cpp:165] Memory required for data: 2660853224
I1206 00:28:02.284247  6164 layer_factory.hpp:77] Creating layer pool4/3x3_s2_pool4/3x3_s2_0_split
I1206 00:28:02.284253  6164 net.cpp:100] Creating Layer pool4/3x3_s2_pool4/3x3_s2_0_split
I1206 00:28:02.284255  6164 net.cpp:434] pool4/3x3_s2_pool4/3x3_s2_0_split <- pool4/3x3_s2
I1206 00:28:02.284258  6164 net.cpp:408] pool4/3x3_s2_pool4/3x3_s2_0_split -> pool4/3x3_s2_pool4/3x3_s2_0_split_0
I1206 00:28:02.284265  6164 net.cpp:408] pool4/3x3_s2_pool4/3x3_s2_0_split -> pool4/3x3_s2_pool4/3x3_s2_0_split_1
I1206 00:28:02.284268  6164 net.cpp:408] pool4/3x3_s2_pool4/3x3_s2_0_split -> pool4/3x3_s2_pool4/3x3_s2_0_split_2
I1206 00:28:02.284296  6164 net.cpp:408] pool4/3x3_s2_pool4/3x3_s2_0_split -> pool4/3x3_s2_pool4/3x3_s2_0_split_3
I1206 00:28:02.284335  6164 net.cpp:150] Setting up pool4/3x3_s2_pool4/3x3_s2_0_split
I1206 00:28:02.284340  6164 net.cpp:157] Top shape: 50 832 7 7 (2038400)
I1206 00:28:02.284343  6164 net.cpp:157] Top shape: 50 832 7 7 (2038400)
I1206 00:28:02.284348  6164 net.cpp:157] Top shape: 50 832 7 7 (2038400)
I1206 00:28:02.284350  6164 net.cpp:157] Top shape: 50 832 7 7 (2038400)
I1206 00:28:02.284353  6164 net.cpp:165] Memory required for data: 2693467624
I1206 00:28:02.284354  6164 layer_factory.hpp:77] Creating layer inception_5a/1x1
I1206 00:28:02.284359  6164 net.cpp:100] Creating Layer inception_5a/1x1
I1206 00:28:02.284363  6164 net.cpp:434] inception_5a/1x1 <- pool4/3x3_s2_pool4/3x3_s2_0_split_0
I1206 00:28:02.284366  6164 net.cpp:408] inception_5a/1x1 -> inception_5a/1x1
I1206 00:28:02.288820  6164 net.cpp:150] Setting up inception_5a/1x1
I1206 00:28:02.288841  6164 net.cpp:157] Top shape: 50 256 7 7 (627200)
I1206 00:28:02.288843  6164 net.cpp:165] Memory required for data: 2695976424
I1206 00:28:02.288848  6164 layer_factory.hpp:77] Creating layer inception_5a/relu_1x1
I1206 00:28:02.288852  6164 net.cpp:100] Creating Layer inception_5a/relu_1x1
I1206 00:28:02.288856  6164 net.cpp:434] inception_5a/relu_1x1 <- inception_5a/1x1
I1206 00:28:02.288859  6164 net.cpp:395] inception_5a/relu_1x1 -> inception_5a/1x1 (in-place)
I1206 00:28:02.288864  6164 net.cpp:150] Setting up inception_5a/relu_1x1
I1206 00:28:02.288866  6164 net.cpp:157] Top shape: 50 256 7 7 (627200)
I1206 00:28:02.288868  6164 net.cpp:165] Memory required for data: 2698485224
I1206 00:28:02.288871  6164 layer_factory.hpp:77] Creating layer inception_5a/3x3_reduce
I1206 00:28:02.288877  6164 net.cpp:100] Creating Layer inception_5a/3x3_reduce
I1206 00:28:02.288880  6164 net.cpp:434] inception_5a/3x3_reduce <- pool4/3x3_s2_pool4/3x3_s2_0_split_1
I1206 00:28:02.288885  6164 net.cpp:408] inception_5a/3x3_reduce -> inception_5a/3x3_reduce
I1206 00:28:02.292745  6164 net.cpp:150] Setting up inception_5a/3x3_reduce
I1206 00:28:02.292757  6164 net.cpp:157] Top shape: 50 160 7 7 (392000)
I1206 00:28:02.292758  6164 net.cpp:165] Memory required for data: 2700053224
I1206 00:28:02.292763  6164 layer_factory.hpp:77] Creating layer inception_5a/relu_3x3_reduce
I1206 00:28:02.292768  6164 net.cpp:100] Creating Layer inception_5a/relu_3x3_reduce
I1206 00:28:02.292771  6164 net.cpp:434] inception_5a/relu_3x3_reduce <- inception_5a/3x3_reduce
I1206 00:28:02.292774  6164 net.cpp:395] inception_5a/relu_3x3_reduce -> inception_5a/3x3_reduce (in-place)
I1206 00:28:02.292779  6164 net.cpp:150] Setting up inception_5a/relu_3x3_reduce
I1206 00:28:02.292783  6164 net.cpp:157] Top shape: 50 160 7 7 (392000)
I1206 00:28:02.292784  6164 net.cpp:165] Memory required for data: 2701621224
I1206 00:28:02.292786  6164 layer_factory.hpp:77] Creating layer inception_5a/3x3
I1206 00:28:02.292793  6164 net.cpp:100] Creating Layer inception_5a/3x3
I1206 00:28:02.292795  6164 net.cpp:434] inception_5a/3x3 <- inception_5a/3x3_reduce
I1206 00:28:02.292800  6164 net.cpp:408] inception_5a/3x3 -> inception_5a/3x3
I1206 00:28:02.298415  6164 net.cpp:150] Setting up inception_5a/3x3
I1206 00:28:02.298429  6164 net.cpp:157] Top shape: 50 320 7 7 (784000)
I1206 00:28:02.298430  6164 net.cpp:165] Memory required for data: 2704757224
I1206 00:28:02.298435  6164 layer_factory.hpp:77] Creating layer inception_5a/relu_3x3
I1206 00:28:02.298440  6164 net.cpp:100] Creating Layer inception_5a/relu_3x3
I1206 00:28:02.298444  6164 net.cpp:434] inception_5a/relu_3x3 <- inception_5a/3x3
I1206 00:28:02.298449  6164 net.cpp:395] inception_5a/relu_3x3 -> inception_5a/3x3 (in-place)
I1206 00:28:02.298454  6164 net.cpp:150] Setting up inception_5a/relu_3x3
I1206 00:28:02.298456  6164 net.cpp:157] Top shape: 50 320 7 7 (784000)
I1206 00:28:02.298458  6164 net.cpp:165] Memory required for data: 2707893224
I1206 00:28:02.298460  6164 layer_factory.hpp:77] Creating layer inception_5a/5x5_reduce
I1206 00:28:02.298467  6164 net.cpp:100] Creating Layer inception_5a/5x5_reduce
I1206 00:28:02.298470  6164 net.cpp:434] inception_5a/5x5_reduce <- pool4/3x3_s2_pool4/3x3_s2_0_split_2
I1206 00:28:02.298475  6164 net.cpp:408] inception_5a/5x5_reduce -> inception_5a/5x5_reduce
I1206 00:28:02.298773  6164 net.cpp:150] Setting up inception_5a/5x5_reduce
I1206 00:28:02.298779  6164 net.cpp:157] Top shape: 50 32 7 7 (78400)
I1206 00:28:02.298781  6164 net.cpp:165] Memory required for data: 2708206824
I1206 00:28:02.298785  6164 layer_factory.hpp:77] Creating layer inception_5a/relu_5x5_reduce
I1206 00:28:02.298790  6164 net.cpp:100] Creating Layer inception_5a/relu_5x5_reduce
I1206 00:28:02.298794  6164 net.cpp:434] inception_5a/relu_5x5_reduce <- inception_5a/5x5_reduce
I1206 00:28:02.298796  6164 net.cpp:395] inception_5a/relu_5x5_reduce -> inception_5a/5x5_reduce (in-place)
I1206 00:28:02.298800  6164 net.cpp:150] Setting up inception_5a/relu_5x5_reduce
I1206 00:28:02.298815  6164 net.cpp:157] Top shape: 50 32 7 7 (78400)
I1206 00:28:02.298816  6164 net.cpp:165] Memory required for data: 2708520424
I1206 00:28:02.298818  6164 layer_factory.hpp:77] Creating layer inception_5a/5x5
I1206 00:28:02.298825  6164 net.cpp:100] Creating Layer inception_5a/5x5
I1206 00:28:02.298827  6164 net.cpp:434] inception_5a/5x5 <- inception_5a/5x5_reduce
I1206 00:28:02.298832  6164 net.cpp:408] inception_5a/5x5 -> inception_5a/5x5
I1206 00:28:02.299444  6164 net.cpp:150] Setting up inception_5a/5x5
I1206 00:28:02.299451  6164 net.cpp:157] Top shape: 50 128 7 7 (313600)
I1206 00:28:02.299453  6164 net.cpp:165] Memory required for data: 2709774824
I1206 00:28:02.299458  6164 layer_factory.hpp:77] Creating layer inception_5a/relu_5x5
I1206 00:28:02.299461  6164 net.cpp:100] Creating Layer inception_5a/relu_5x5
I1206 00:28:02.299463  6164 net.cpp:434] inception_5a/relu_5x5 <- inception_5a/5x5
I1206 00:28:02.299468  6164 net.cpp:395] inception_5a/relu_5x5 -> inception_5a/5x5 (in-place)
I1206 00:28:02.299471  6164 net.cpp:150] Setting up inception_5a/relu_5x5
I1206 00:28:02.299474  6164 net.cpp:157] Top shape: 50 128 7 7 (313600)
I1206 00:28:02.299476  6164 net.cpp:165] Memory required for data: 2711029224
I1206 00:28:02.299479  6164 layer_factory.hpp:77] Creating layer inception_5a/pool
I1206 00:28:02.299484  6164 net.cpp:100] Creating Layer inception_5a/pool
I1206 00:28:02.299487  6164 net.cpp:434] inception_5a/pool <- pool4/3x3_s2_pool4/3x3_s2_0_split_3
I1206 00:28:02.299490  6164 net.cpp:408] inception_5a/pool -> inception_5a/pool
I1206 00:28:02.299520  6164 net.cpp:150] Setting up inception_5a/pool
I1206 00:28:02.299525  6164 net.cpp:157] Top shape: 50 832 7 7 (2038400)
I1206 00:28:02.299526  6164 net.cpp:165] Memory required for data: 2719182824
I1206 00:28:02.299528  6164 layer_factory.hpp:77] Creating layer inception_5a/pool_proj
I1206 00:28:02.299535  6164 net.cpp:100] Creating Layer inception_5a/pool_proj
I1206 00:28:02.299537  6164 net.cpp:434] inception_5a/pool_proj <- inception_5a/pool
I1206 00:28:02.299541  6164 net.cpp:408] inception_5a/pool_proj -> inception_5a/pool_proj
I1206 00:28:02.300593  6164 net.cpp:150] Setting up inception_5a/pool_proj
I1206 00:28:02.300603  6164 net.cpp:157] Top shape: 50 128 7 7 (313600)
I1206 00:28:02.300606  6164 net.cpp:165] Memory required for data: 2720437224
I1206 00:28:02.300609  6164 layer_factory.hpp:77] Creating layer inception_5a/relu_pool_proj
I1206 00:28:02.300614  6164 net.cpp:100] Creating Layer inception_5a/relu_pool_proj
I1206 00:28:02.300617  6164 net.cpp:434] inception_5a/relu_pool_proj <- inception_5a/pool_proj
I1206 00:28:02.300621  6164 net.cpp:395] inception_5a/relu_pool_proj -> inception_5a/pool_proj (in-place)
I1206 00:28:02.300626  6164 net.cpp:150] Setting up inception_5a/relu_pool_proj
I1206 00:28:02.300631  6164 net.cpp:157] Top shape: 50 128 7 7 (313600)
I1206 00:28:02.300632  6164 net.cpp:165] Memory required for data: 2721691624
I1206 00:28:02.300634  6164 layer_factory.hpp:77] Creating layer inception_5a/output
I1206 00:28:02.300638  6164 net.cpp:100] Creating Layer inception_5a/output
I1206 00:28:02.300640  6164 net.cpp:434] inception_5a/output <- inception_5a/1x1
I1206 00:28:02.300643  6164 net.cpp:434] inception_5a/output <- inception_5a/3x3
I1206 00:28:02.300647  6164 net.cpp:434] inception_5a/output <- inception_5a/5x5
I1206 00:28:02.300648  6164 net.cpp:434] inception_5a/output <- inception_5a/pool_proj
I1206 00:28:02.300652  6164 net.cpp:408] inception_5a/output -> inception_5a/output
I1206 00:28:02.300673  6164 net.cpp:150] Setting up inception_5a/output
I1206 00:28:02.300678  6164 net.cpp:157] Top shape: 50 832 7 7 (2038400)
I1206 00:28:02.300679  6164 net.cpp:165] Memory required for data: 2729845224
I1206 00:28:02.300681  6164 layer_factory.hpp:77] Creating layer inception_5a/output_inception_5a/output_0_split
I1206 00:28:02.300685  6164 net.cpp:100] Creating Layer inception_5a/output_inception_5a/output_0_split
I1206 00:28:02.300688  6164 net.cpp:434] inception_5a/output_inception_5a/output_0_split <- inception_5a/output
I1206 00:28:02.300700  6164 net.cpp:408] inception_5a/output_inception_5a/output_0_split -> inception_5a/output_inception_5a/output_0_split_0
I1206 00:28:02.300706  6164 net.cpp:408] inception_5a/output_inception_5a/output_0_split -> inception_5a/output_inception_5a/output_0_split_1
I1206 00:28:02.300710  6164 net.cpp:408] inception_5a/output_inception_5a/output_0_split -> inception_5a/output_inception_5a/output_0_split_2
I1206 00:28:02.300714  6164 net.cpp:408] inception_5a/output_inception_5a/output_0_split -> inception_5a/output_inception_5a/output_0_split_3
I1206 00:28:02.300760  6164 net.cpp:150] Setting up inception_5a/output_inception_5a/output_0_split
I1206 00:28:02.300763  6164 net.cpp:157] Top shape: 50 832 7 7 (2038400)
I1206 00:28:02.300765  6164 net.cpp:157] Top shape: 50 832 7 7 (2038400)
I1206 00:28:02.300768  6164 net.cpp:157] Top shape: 50 832 7 7 (2038400)
I1206 00:28:02.300770  6164 net.cpp:157] Top shape: 50 832 7 7 (2038400)
I1206 00:28:02.300772  6164 net.cpp:165] Memory required for data: 2762459624
I1206 00:28:02.300776  6164 layer_factory.hpp:77] Creating layer inception_5b/1x1
I1206 00:28:02.300783  6164 net.cpp:100] Creating Layer inception_5b/1x1
I1206 00:28:02.300786  6164 net.cpp:434] inception_5b/1x1 <- inception_5a/output_inception_5a/output_0_split_0
I1206 00:28:02.300792  6164 net.cpp:408] inception_5b/1x1 -> inception_5b/1x1
I1206 00:28:02.302793  6164 net.cpp:150] Setting up inception_5b/1x1
I1206 00:28:02.302803  6164 net.cpp:157] Top shape: 50 384 7 7 (940800)
I1206 00:28:02.302805  6164 net.cpp:165] Memory required for data: 2766222824
I1206 00:28:02.302810  6164 layer_factory.hpp:77] Creating layer inception_5b/relu_1x1
I1206 00:28:02.302816  6164 net.cpp:100] Creating Layer inception_5b/relu_1x1
I1206 00:28:02.302819  6164 net.cpp:434] inception_5b/relu_1x1 <- inception_5b/1x1
I1206 00:28:02.302824  6164 net.cpp:395] inception_5b/relu_1x1 -> inception_5b/1x1 (in-place)
I1206 00:28:02.302827  6164 net.cpp:150] Setting up inception_5b/relu_1x1
I1206 00:28:02.302830  6164 net.cpp:157] Top shape: 50 384 7 7 (940800)
I1206 00:28:02.302832  6164 net.cpp:165] Memory required for data: 2769986024
I1206 00:28:02.302834  6164 layer_factory.hpp:77] Creating layer inception_5b/3x3_reduce
I1206 00:28:02.302841  6164 net.cpp:100] Creating Layer inception_5b/3x3_reduce
I1206 00:28:02.302844  6164 net.cpp:434] inception_5b/3x3_reduce <- inception_5a/output_inception_5a/output_0_split_1
I1206 00:28:02.302848  6164 net.cpp:408] inception_5b/3x3_reduce -> inception_5b/3x3_reduce
I1206 00:28:02.304121  6164 net.cpp:150] Setting up inception_5b/3x3_reduce
I1206 00:28:02.304131  6164 net.cpp:157] Top shape: 50 192 7 7 (470400)
I1206 00:28:02.304132  6164 net.cpp:165] Memory required for data: 2771867624
I1206 00:28:02.304136  6164 layer_factory.hpp:77] Creating layer inception_5b/relu_3x3_reduce
I1206 00:28:02.304141  6164 net.cpp:100] Creating Layer inception_5b/relu_3x3_reduce
I1206 00:28:02.304144  6164 net.cpp:434] inception_5b/relu_3x3_reduce <- inception_5b/3x3_reduce
I1206 00:28:02.304149  6164 net.cpp:395] inception_5b/relu_3x3_reduce -> inception_5b/3x3_reduce (in-place)
I1206 00:28:02.304153  6164 net.cpp:150] Setting up inception_5b/relu_3x3_reduce
I1206 00:28:02.304157  6164 net.cpp:157] Top shape: 50 192 7 7 (470400)
I1206 00:28:02.304159  6164 net.cpp:165] Memory required for data: 2773749224
I1206 00:28:02.304162  6164 layer_factory.hpp:77] Creating layer inception_5b/3x3
I1206 00:28:02.304168  6164 net.cpp:100] Creating Layer inception_5b/3x3
I1206 00:28:02.304170  6164 net.cpp:434] inception_5b/3x3 <- inception_5b/3x3_reduce
I1206 00:28:02.304174  6164 net.cpp:408] inception_5b/3x3 -> inception_5b/3x3
I1206 00:28:02.308015  6164 net.cpp:150] Setting up inception_5b/3x3
I1206 00:28:02.308027  6164 net.cpp:157] Top shape: 50 384 7 7 (940800)
I1206 00:28:02.308028  6164 net.cpp:165] Memory required for data: 2777512424
I1206 00:28:02.308033  6164 layer_factory.hpp:77] Creating layer inception_5b/relu_3x3
I1206 00:28:02.308038  6164 net.cpp:100] Creating Layer inception_5b/relu_3x3
I1206 00:28:02.308049  6164 net.cpp:434] inception_5b/relu_3x3 <- inception_5b/3x3
I1206 00:28:02.308056  6164 net.cpp:395] inception_5b/relu_3x3 -> inception_5b/3x3 (in-place)
I1206 00:28:02.308061  6164 net.cpp:150] Setting up inception_5b/relu_3x3
I1206 00:28:02.308063  6164 net.cpp:157] Top shape: 50 384 7 7 (940800)
I1206 00:28:02.308065  6164 net.cpp:165] Memory required for data: 2781275624
I1206 00:28:02.308068  6164 layer_factory.hpp:77] Creating layer inception_5b/5x5_reduce
I1206 00:28:02.308075  6164 net.cpp:100] Creating Layer inception_5b/5x5_reduce
I1206 00:28:02.308078  6164 net.cpp:434] inception_5b/5x5_reduce <- inception_5a/output_inception_5a/output_0_split_2
I1206 00:28:02.308081  6164 net.cpp:408] inception_5b/5x5_reduce -> inception_5b/5x5_reduce
I1206 00:28:02.308440  6164 net.cpp:150] Setting up inception_5b/5x5_reduce
I1206 00:28:02.308447  6164 net.cpp:157] Top shape: 50 48 7 7 (117600)
I1206 00:28:02.308449  6164 net.cpp:165] Memory required for data: 2781746024
I1206 00:28:02.308454  6164 layer_factory.hpp:77] Creating layer inception_5b/relu_5x5_reduce
I1206 00:28:02.308457  6164 net.cpp:100] Creating Layer inception_5b/relu_5x5_reduce
I1206 00:28:02.308460  6164 net.cpp:434] inception_5b/relu_5x5_reduce <- inception_5b/5x5_reduce
I1206 00:28:02.308465  6164 net.cpp:395] inception_5b/relu_5x5_reduce -> inception_5b/5x5_reduce (in-place)
I1206 00:28:02.308470  6164 net.cpp:150] Setting up inception_5b/relu_5x5_reduce
I1206 00:28:02.308471  6164 net.cpp:157] Top shape: 50 48 7 7 (117600)
I1206 00:28:02.308473  6164 net.cpp:165] Memory required for data: 2782216424
I1206 00:28:02.308475  6164 layer_factory.hpp:77] Creating layer inception_5b/5x5
I1206 00:28:02.308481  6164 net.cpp:100] Creating Layer inception_5b/5x5
I1206 00:28:02.308483  6164 net.cpp:434] inception_5b/5x5 <- inception_5b/5x5_reduce
I1206 00:28:02.308488  6164 net.cpp:408] inception_5b/5x5 -> inception_5b/5x5
I1206 00:28:02.309329  6164 net.cpp:150] Setting up inception_5b/5x5
I1206 00:28:02.309336  6164 net.cpp:157] Top shape: 50 128 7 7 (313600)
I1206 00:28:02.309339  6164 net.cpp:165] Memory required for data: 2783470824
I1206 00:28:02.309343  6164 layer_factory.hpp:77] Creating layer inception_5b/relu_5x5
I1206 00:28:02.309347  6164 net.cpp:100] Creating Layer inception_5b/relu_5x5
I1206 00:28:02.309350  6164 net.cpp:434] inception_5b/relu_5x5 <- inception_5b/5x5
I1206 00:28:02.309353  6164 net.cpp:395] inception_5b/relu_5x5 -> inception_5b/5x5 (in-place)
I1206 00:28:02.309358  6164 net.cpp:150] Setting up inception_5b/relu_5x5
I1206 00:28:02.309366  6164 net.cpp:157] Top shape: 50 128 7 7 (313600)
I1206 00:28:02.309368  6164 net.cpp:165] Memory required for data: 2784725224
I1206 00:28:02.309370  6164 layer_factory.hpp:77] Creating layer inception_5b/pool
I1206 00:28:02.309373  6164 net.cpp:100] Creating Layer inception_5b/pool
I1206 00:28:02.309376  6164 net.cpp:434] inception_5b/pool <- inception_5a/output_inception_5a/output_0_split_3
I1206 00:28:02.309381  6164 net.cpp:408] inception_5b/pool -> inception_5b/pool
I1206 00:28:02.309412  6164 net.cpp:150] Setting up inception_5b/pool
I1206 00:28:02.309417  6164 net.cpp:157] Top shape: 50 832 7 7 (2038400)
I1206 00:28:02.309417  6164 net.cpp:165] Memory required for data: 2792878824
I1206 00:28:02.309419  6164 layer_factory.hpp:77] Creating layer inception_5b/pool_proj
I1206 00:28:02.309427  6164 net.cpp:100] Creating Layer inception_5b/pool_proj
I1206 00:28:02.309430  6164 net.cpp:434] inception_5b/pool_proj <- inception_5b/pool
I1206 00:28:02.309434  6164 net.cpp:408] inception_5b/pool_proj -> inception_5b/pool_proj
I1206 00:28:02.310475  6164 net.cpp:150] Setting up inception_5b/pool_proj
I1206 00:28:02.310484  6164 net.cpp:157] Top shape: 50 128 7 7 (313600)
I1206 00:28:02.310487  6164 net.cpp:165] Memory required for data: 2794133224
I1206 00:28:02.310492  6164 layer_factory.hpp:77] Creating layer inception_5b/relu_pool_proj
I1206 00:28:02.310495  6164 net.cpp:100] Creating Layer inception_5b/relu_pool_proj
I1206 00:28:02.310498  6164 net.cpp:434] inception_5b/relu_pool_proj <- inception_5b/pool_proj
I1206 00:28:02.310511  6164 net.cpp:395] inception_5b/relu_pool_proj -> inception_5b/pool_proj (in-place)
I1206 00:28:02.310516  6164 net.cpp:150] Setting up inception_5b/relu_pool_proj
I1206 00:28:02.310519  6164 net.cpp:157] Top shape: 50 128 7 7 (313600)
I1206 00:28:02.310521  6164 net.cpp:165] Memory required for data: 2795387624
I1206 00:28:02.310523  6164 layer_factory.hpp:77] Creating layer inception_5b/output
I1206 00:28:02.310528  6164 net.cpp:100] Creating Layer inception_5b/output
I1206 00:28:02.310530  6164 net.cpp:434] inception_5b/output <- inception_5b/1x1
I1206 00:28:02.310534  6164 net.cpp:434] inception_5b/output <- inception_5b/3x3
I1206 00:28:02.310535  6164 net.cpp:434] inception_5b/output <- inception_5b/5x5
I1206 00:28:02.310539  6164 net.cpp:434] inception_5b/output <- inception_5b/pool_proj
I1206 00:28:02.310542  6164 net.cpp:408] inception_5b/output -> inception_5b/output
I1206 00:28:02.310564  6164 net.cpp:150] Setting up inception_5b/output
I1206 00:28:02.310566  6164 net.cpp:157] Top shape: 50 1024 7 7 (2508800)
I1206 00:28:02.310569  6164 net.cpp:165] Memory required for data: 2805422824
I1206 00:28:02.310571  6164 layer_factory.hpp:77] Creating layer pool5/7x7_s1
I1206 00:28:02.310577  6164 net.cpp:100] Creating Layer pool5/7x7_s1
I1206 00:28:02.310580  6164 net.cpp:434] pool5/7x7_s1 <- inception_5b/output
I1206 00:28:02.310583  6164 net.cpp:408] pool5/7x7_s1 -> pool5/7x7_s1
I1206 00:28:02.310601  6164 net.cpp:150] Setting up pool5/7x7_s1
I1206 00:28:02.310606  6164 net.cpp:157] Top shape: 50 1024 1 1 (51200)
I1206 00:28:02.310606  6164 net.cpp:165] Memory required for data: 2805627624
I1206 00:28:02.310608  6164 layer_factory.hpp:77] Creating layer pool5/drop_7x7_s1
I1206 00:28:02.310614  6164 net.cpp:100] Creating Layer pool5/drop_7x7_s1
I1206 00:28:02.310616  6164 net.cpp:434] pool5/drop_7x7_s1 <- pool5/7x7_s1
I1206 00:28:02.310621  6164 net.cpp:395] pool5/drop_7x7_s1 -> pool5/7x7_s1 (in-place)
I1206 00:28:02.310637  6164 net.cpp:150] Setting up pool5/drop_7x7_s1
I1206 00:28:02.310642  6164 net.cpp:157] Top shape: 50 1024 1 1 (51200)
I1206 00:28:02.310643  6164 net.cpp:165] Memory required for data: 2805832424
I1206 00:28:02.310645  6164 layer_factory.hpp:77] Creating layer loss3/classifier
I1206 00:28:02.310650  6164 net.cpp:100] Creating Layer loss3/classifier
I1206 00:28:02.310652  6164 net.cpp:434] loss3/classifier <- pool5/7x7_s1
I1206 00:28:02.310657  6164 net.cpp:408] loss3/classifier -> loss3/classifier
I1206 00:28:02.310799  6164 net.cpp:150] Setting up loss3/classifier
I1206 00:28:02.310806  6164 net.cpp:157] Top shape: 50 10 (500)
I1206 00:28:02.310807  6164 net.cpp:165] Memory required for data: 2805834424
I1206 00:28:02.310811  6164 layer_factory.hpp:77] Creating layer loss3/classifier_loss3/classifier_0_split
I1206 00:28:02.310816  6164 net.cpp:100] Creating Layer loss3/classifier_loss3/classifier_0_split
I1206 00:28:02.310819  6164 net.cpp:434] loss3/classifier_loss3/classifier_0_split <- loss3/classifier
I1206 00:28:02.310822  6164 net.cpp:408] loss3/classifier_loss3/classifier_0_split -> loss3/classifier_loss3/classifier_0_split_0
I1206 00:28:02.310827  6164 net.cpp:408] loss3/classifier_loss3/classifier_0_split -> loss3/classifier_loss3/classifier_0_split_1
I1206 00:28:02.310832  6164 net.cpp:408] loss3/classifier_loss3/classifier_0_split -> loss3/classifier_loss3/classifier_0_split_2
I1206 00:28:02.310869  6164 net.cpp:150] Setting up loss3/classifier_loss3/classifier_0_split
I1206 00:28:02.310874  6164 net.cpp:157] Top shape: 50 10 (500)
I1206 00:28:02.310876  6164 net.cpp:157] Top shape: 50 10 (500)
I1206 00:28:02.310878  6164 net.cpp:157] Top shape: 50 10 (500)
I1206 00:28:02.310880  6164 net.cpp:165] Memory required for data: 2805840424
I1206 00:28:02.310883  6164 layer_factory.hpp:77] Creating layer loss3/loss3
I1206 00:28:02.310886  6164 net.cpp:100] Creating Layer loss3/loss3
I1206 00:28:02.310889  6164 net.cpp:434] loss3/loss3 <- loss3/classifier_loss3/classifier_0_split_0
I1206 00:28:02.310899  6164 net.cpp:434] loss3/loss3 <- label_data_1_split_6
…
